best_models/best_model_nn_search_1_features_50.pt (torch, 361194 bytes, 19 tensors)

model.0.weight f4 [64, 50]
00000000: 73a2 d43d 2d7c fd3c 872e 0fbd ec90 c23c
00000010: 9186 a7bb 2767 77bd c5e8 93bd fec6 1a3e
00000020: a388 993d 91a8 f3bd ea2a 823d 3e72 e83d
00000030: bec3 f73d db10 513d 8385 8ebe ac55 c7bc
00000040: a3da 3bbe eae9 693d d0ad e33c f21b 023e
00000050: a3d4 76bd 72ba 273e c247 8a3c 94d2 95bd
00000060: 8996 9e3d 653a 2dbc fac3 703d 65f1 a43d
00000070: c33e e3bd c66e b03d d559 993b 6cdb 41bd
00000080: 7c85 0cbe 3fd8 25bd 2607 6f3d 546d 43be
00000090: 27dc 5f3e 743d 08be 3898 c83b 5503 a23d
000000a0: 1b4b f9bd b063 f53d 9cb7 c4bd 5dea 6d3d
000000b0: e522 3f3d b4aa 36be 4c89 563d 8b1a 4cbd
000000c0: bd08 b7bd 0d20 cd3d 342c 903e 885f 80be
000000d0: 412e c8bd c8ba 3c3b bcb7 dc3d 49b7 1d3e
000000e0: 5efc 263d eb6d 353e 57ee 973b c4b8 0bbe
000000f0: 8cdb a33c 01a4 0bbc a67c 3f3e 230a 813c
00000100: cb09 d3bb 383a b5bd a177 65be 52b4 56bd
00000110: cd74 643d 1de5 b53c 2c7e b4bd 74c8 dc3d
00000120: 1d63 ecbd d698 f13c 1163 39bd 62c4 dc3c
00000130: 119b 6c3d 68f4 32be 5a77 5abe 9ff4 94be
00000140: 29c2 423d 9f17 5ebd b3c1 243e 5fb9 163d
00000150: 21d8 d83b 45f8 b6bd 18e1 2a3e ee80 acbd
00000160: f0fa 2ebd d0fd 54bd b4b3 02be d3f4 4fbe
00000170: 3b14 39be 9879 ae3c 3070 b43c 6ecd 44bd
00000180: 95ee 96bd dfa7 86bd 9725 4bbb 6fb9 48bd
00000190: 679c 0b3c a2fd 33bd 3984 26be 681d e0bd
000001a0: fdca 81bd 4da0 12bd 6011 863d a270 5f3d
000001b0: 1a55 7ebd e0ad 48bd 912c 0bbd 8b9f 6bbd
000001c0: e1a4 ee3b 027d 933c 02ea 563e 226a 06bc
000001d0: 6031 e6bd a9a4 3ebd 1952 213e 2b71 74bd
000001e0: 07a2 193d 0baa 463d 101e c8bc aadd 343e
000001f0: 555c 26be b689 023d 9e61 0eba 073a dabd
00000200: f414 eabd 7dc5 14bd d6ce a0bd 2dcb 0cbe
00000210: d2a5 26bd 8553 bf3d 6284 45bc 9338 feba
00000220: 4cd7 2b3d 1a31 933d 109e 8f3d b8a2 db3d
00000230: e822 07be b0c4 f43d 0807 96bd 619b e13d
00000240: e4fc 423c 0144 d83d 2e6a e53d 248e 42be
00000250: c787 f43d 8eea 95bd 1f2b 813d 3050 c33d
00000260: 7a8b e8bd dbbd 8abb 7ed6 f63d df73 fc3d
00000270: ba2e 323e 714a 35bd 215d 04be bb7a 84bd
00000280: 2aea d83c 1e15 973d efee 253e 4868 25bc
00000290: 0139 84bd f0f1 75bb d937 12be 8ab0 63bd
000002a0: 7d17 5a3e 2adc b33c 7d5f 043d e252 8f3c
000002b0: 34d0 7e3e 5471 2d3e 0540 f0bd 0286 443e
000002c0: d6f8 9b3a b56e 49bd 6b57 2a3e b2b8 debd
000002d0: 930d f7bc d3c5 58be 33c6 a0bd 2fd4 6e3e
000002e0: 18af dbbd cf1a 9a3d 9180 0e3e 11c4 9e3d
000002f0: de51 9c39 8841 ef3d d698 8d3c 17b1 613c
00000300: e660 863c 4b3f 7cbc 1377 a83d 3b09 143e
00000310: f895 8ebd bab8 153b 8ffb b1bd 9457 e13d
00000320: 28b8 543e 2996 92be d736 36be 498f febd
00000330: 4c64 353e b3b7 1c3e 8619 053d e13e d83d
00000340: 88ed 5d3d e686 2dbe 32fe 83be c7e7 f03d
00000350: c0b0 d03c 210a f93d bb95 893c a55a 13bd
00000360: 0a6e 6dbd 3fcc ddbd 3c0d 5ebe 1d43 143e
00000370: e73f f0bc 5207 9fbd 9a87 aebc 35ad 6f3c
00000380: a0de 33be 0765 a43c bc33 08bd 0acf b8bd
00000390: 3c62 ddbd 4736 3cbe 62e6 32bd 3847 1e3d
000003a0: 3042 7d3b c74c afbc 2da1 de3d bd93 1c3e
000003b0: dd02 d13d bcc6 3cbd bf8d 2f3e 5173 1e3d
000003c0: aca5 15bd 94aa 31bc 5569 863b 08bf 27bc
000003d0: a2b3 7d3d 6fe5 7bbd bf2e 853d db69 663d
000003e0: 0a9e a2bd 780c b03c 2e38 f53d e1ed c33d
000003f0: bca9 76be 9a26 9f3c 70be 243e 7233 06bd
0.10382547 0.030943 -0.03495648 0.023750745 -0.005112477 -0.060401108 -0.07222132 0.15114972
0.074967645 -0.11897386 0.063558415 0.11349915 0.12097882 0.051041465 -0.27836236 -0.024332844
-0.18345122 0.057107843 0.027792841 0.12705973 -0.06026138 0.16379717 0.01687992 -0.07315555
0.07743556 -0.010573004 0.058780648 0.08053855 -0.11095955 0.08614878 0.0046798983 -0.047328398
-0.13722795 -0.04048943 0.058356427 -0.19084674 0.21861325 -0.13304693 0.0061216615 0.07910792
-0.12172528 0.119819045 -0.09605333 0.058084834 0.046664137 -0.17838556 0.05237703 -0.04983
-0.089372136 0.10015879 0.28158724 -0.25072885 -0.09774447 0.0028797854 0.10777232 0.15401949
0.04076802 0.17717712 0.0046365666 -0.13644701 0.020002149 -0.008522988 0.18699893 0.015751904
-0.0064403764 -0.08848995 -0.22408916 -0.05241806 0.055775452 0.022203976 -0.08813128 0.10780421
-0.11542342 0.029491823 -0.045260493 0.026949111 0.05776507 -0.17476046 -0.21334592 -0.2909288
0.047548447 -0.054221746 0.16089515 0.036797877 0.0066175614 -0.089340724 0.16687429 -0.08423029
-0.04271978 -0.051999867 -0.12763864 -0.20308237 -0.18074124 0.021298215 0.022026151 -0.048047476
-0.07369725 -0.065749876 -0.0030997747 -0.04900497 0.008521176 -0.043943055 -0.16261376 -0.10943109
-0.06337545 -0.035797406 0.06546283 0.054550774 -0.062092878 -0.048993945 -0.03397805 -0.0575252
0.0072828387 0.018003944 0.20987704 -0.008204015 -0.11239886 -0.04654375 0.15753974 -0.059678238
0.037508037 0.04850201 -0.024428397 0.17662683 -0.1624616 0.031869613 -0.0005431416 -0.10655599
-0.11429778 -0.036321152 -0.07851951 -0.1374938 -0.040685482 0.09342102 -0.012055488 -0.0019395523
0.04195337 0.071871 0.0701257 0.107243955 -0.1319691 0.11951578 -0.0732556 0.11015964
0.011901114 0.10559846 0.11201893 -0.18999535 0.1193996 -0.073201284 0.06307053 0.09536779
-0.11354728 -0.0042340583 0.1205263 0.12326788 0.17400637 -0.044260446 -0.12926151 -0.064687215
0.026478846 0.07377075 0.16204427 -0.010095663 -0.06456185 -0.003752824 -0.14279117 -0.055588283
0.21298023 0.021955568 0.032317627 0.017495576 0.2488411 0.16937762 -0.11730961 0.19191745
0.001189972 -0.049177844 0.1663491 -0.108750716 -0.03015784 -0.21169214 -0.078503035 0.23323129
-0.10726756 0.075246446 0.13916232 0.077522404 0.00029815634 0.11682421 0.017284792 0.013775132
0.016403627 -0.01539595 0.082258366 0.14456646 -0.06962198 0.0022845701 -0.08690559 0.11003032
0.20773375 -0.28630188 -0.17794357 -0.12429673 0.17714041 0.1530445 0.032495044 0.10558868
0.054181606 -0.16945991 -0.25779873 0.11762958 0.025474906 0.12160135 0.01679503 -0.035975117
-0.05796627 -0.108299725 -0.21684736 0.14478727 -0.029327346 -0.07765068 -0.021304894 0.014628698
-0.17565393 0.020067705 -0.033252463 -0.090238646 -0.10809752 -0.1838008 -0.04367674 0.03864214
0.0038644187 -0.021398915 0.108705856 0.15290733 0.10205624 -0.046087965 0.17143916 0.038684193
-0.03653495 -0.010843892 0.004101912 -0.0102384165 0.06193889 -0.0614981 0.06503057 0.056253295
-0.079403 0.02149032 0.11973606 0.09566856 -0.24088186 0.019427586 0.16088271 -0.032763906

model.0.bias f4 [64]
00000000: 8665 c33d cc9c bcbd 7837 c4bd bebb c1bd
00000010: 6a2d e5bd 041e 0e3e 7a4e fcbd 8e30 7c3d
00000020: 2900 92bd 4a53 d0bd a734 0fbe 0f85 82bd
00000030: eaee 07be a702 093e d920 95bd 3977 a93b
00000040: db14 a3bc 238b dfbd 7514 5bbd 0711 823d
00000050: 52cd 973d 5a40 213c 284d 0d3e 0352 093c
00000060: 0217 dabd 040c 1cbe 2cec 9f3c afbb 283e
00000070: adfd a2bc 04c3 ad3b 9b41 823d 0fc8 8c3c
00000080: 5e9f f9bd 73b9 643d 630c d0bd 94d8 c4bd
00000090: 0874 15bd 0f6d 33bd f3f6 ec3d 87bd 01bd
000000a0: 45a6 0abe e812 02be f540 0abe 2f18 fb3d
000000b0: f50e adbc 6e20 ad3d 32af 643b 7c9f 8abd
000000c0: 64d2 f53d 4ee8 af3d 8915 8e3d d706 f83d
000000d0: 3852 0bbe bd90 42bd 0f8f 0d3e b463 03be
000000e0: 43c7 203d b516 6c3c 8ff8 e7bd c9b5 44bd
000000f0: 9789 f93d 73cb 9bbc be22 4cbd 5bdc 02bb
0.095408484 -0.09209594 -0.09580892 -0.09459637 -0.11190303 0.13878638 -0.12319656 0.061569743
-0.07128937 -0.10172136 -0.13984929 -0.06373035 -0.13274732 0.13379918 -0.07281656 0.005171683
-0.019907406 -0.1091521 -0.053486306 0.06350904 0.074122086 0.009842003 0.13798964 0.0083813695
-0.1064892 -0.15238959 0.019521795 0.16477846 -0.019896353 0.0053027887 0.063601695 0.01718524
-0.121886 0.05584092 -0.101586126 -0.096116215 -0.03648761 -0.04380518 0.11570539 -0.031674888
-0.1353999 -0.12702525 -0.13501342 0.12260472 -0.021125296 0.08453451 0.0034894464 -0.067687005
0.120030195 0.085892305 0.06937701 0.121106796 -0.13605583 -0.047501314 0.13824104 -0.12831002
0.03925253 0.014409711 -0.11326706 -0.048024926 0.12184446 -0.01901791 -0.04983782 -0.0019967768

model.1.weight f4 [64]
00000000: 2d11 7c3f 22d1 893f 1b73 8c3f 3c5e 923f
00000010: 6349 653f 9e92 763f 42c6 853f f26a 7d3f
00000020: 4a31 873f 7bba 613f 98df 843f 6859 943f
00000030: 1c90 783f 946e 783f f8cc 7f3f a1b1 733f
00000040: 89e7 833f 1066 7f3f f130 913f ca14 903f
00000050: 7e02 903f e856 873f 7de9 6c3f ad92 793f
00000060: 2d0f 893f f582 8e3f e81b 8d3f 7970 803f
00000070: f33a 7a3f 9d75 6d3f 7d70 8b3f 9703 833f
00000080: 3c72 843f 3375 803f a532 8b3f 8ed4 833f
00000090: 04d7 6e3f 043b 7c3f 69c8 823f 53ed 733f
000000a0: f429 7a3f d3f1 723f 4e96 793f 4e1c 883f
000000b0: cba3 823f 3825 5f3f 3032 773f 3d16 723f
000000c0: a511 913f 576d 743f 0a47 943f 55fa 7c3f
000000d0: 437b 6e3f 8dc3 6e3f 5e19 793f f8cb 793f
000000e0: 8628 653f 9f8b 893f 0442 5b3f d156 873f
000000f0: d11e 623f dc8c 6d3f 3930 823f f775 8d3f
0.9846371 1.0766947 1.0972627 1.1435008 0.89565104 0.9631747 1.0451128 0.9899131
1.0561917 0.8817517 1.0380735 1.1589785 0.97094893 0.9704373 0.9992213 0.95192915
1.0305034 0.9976511 1.1343061 1.1256344 1.125076 1.0573397 0.92543775 0.97489434
1.0707756 1.1133715 1.1024141 1.0034324 0.977462 0.9275759 1.0893704 1.023547
1.0347362 1.0035766 1.087483 1.0299242 0.9329684 0.9852755 1.021741 0.95284003
0.97720265 0.94900244 0.9749497 1.0633638 1.0206236 0.87166166 0.96560955 0.9456518
1.133351 0.9547934 1.1584179 0.98819476 0.9315683 0.93267137 0.9730433 0.97576857
0.8951496 1.0745734 0.85647607 1.0573369 0.8832827 0.9279306 1.0170966 1.1051625

model.1.bias f4 [64]
00000000: a338 60bc 4205 d03d 4472 053d 185a 933d
00000010: 5197 97bd 3b8a 083d 7f0b 503d 5976 b2bc
00000020: 0fc3 b2bc 85e8 0bbe 4ee5 b43c 00ba 523d
00000030: 5c61 ae3c 7c5f fcbc 1a37 7bbd 7274 bbbd
00000040: 3911 073d e0b2 e13c 3c64 e93d 8f2e 073d
00000050: 0856 873d 54a6 de3c 7d05 8ebd 1984 56bd
00000060: d2a0 c43d db37 f83c bb78 0f3d b229 06bd
00000070: a7da 953d 3f41 dbbd df48 943d 282b e43b
00000080: 46eb b23d f8e3 a33d 417d 4c3c 88fa 10bd
00000090: 3918 60bd 6b1d 953c 7344 2abb 7a08 3fbd
000000a0: 89e0 eb38 e5dd 10bb 7cec 1dbd 4456 053d
000000b0: e3ef 48bd 96cd d3bd 6b0c 86bd 7a03 f7bd
000000c0: 5e4e a23d e866 9c3b 38cb dd3d 19dd b1bd
000000d0: 50e1 abbd 95e4 d5bd b34f a1bd 9f70 32bc
000000e0: b9a0 c2bd ed5c 413d 67e3 3bbe 027c bb3d
000000f0: 8a01 59bc 6e11 52bd f179 d4bc 4530 ae3d
-0.013685378 0.10157253 0.032579675 0.071949184 -0.07401908 0.03333495 0.050792214 -0.021784948
-0.021821527 -0.13662918 0.022081997 0.051446915 0.021286659 -0.03080725 -0.061331846 -0.091530696
0.03297541 0.027551115 0.11396071 0.033003386 0.06608206 0.02717892 -0.069346406 -0.052372072
0.096009865 0.030300071 0.035027247 -0.032754607 0.07317095 -0.10705804 0.072404616 0.0069631524
0.08736281 0.08002466 0.012481035 -0.035395175 -0.0547106 0.018202504 -0.002598074 -0.046638943
0.00011247496 -0.0022104916 -0.038555607 0.032552972 -0.0490569 -0.10341947 -0.06545337 -0.1206121
0.079251036 0.0047730096 0.108297765 -0.08684749 -0.08392584 -0.10443989 -0.078765295 -0.010891109
-0.09503312 0.04720776 -0.18348466 0.09154512 -0.013244996 -0.051286153 -0.025937052 0.085053004

model.1.running_mean f4 [64]
00000000: e5b6 5c3e 0c49 81be dd66 91be 0c0d 213d
00000010: e78d a1be c756 6b3e 205e 8dbd 316f be3d
00000020: 7477 59bd 1296 0f3d d823 a8be d4ed 11be
00000030: dae0 aabc 6dc0 af3b a3df 83bd 6590 393c
00000040: f348 94bd 770c 91be 3ce7 913d 6761 ff3b
00000050: 5e31 063d b2d0 6ebd 60d4 803e 2335 e4bd
00000060: a213 dbbc 69b8 10be 7947 fc3d 974c 613d
00000070: f1e8 71bd f9ca 6e3d fe93 d23c e25c e0bc
00000080: 0cb5 07be c5e9 1f3c 2ec2 e1bc cb02 25be
00000090: 196f 913d c6ed e2bd acbb 11bd 2c64 64bd
000000a0: 74a1 edbd 174e abbd 32ea a6be 2a0c 443e
000000b0: 31d2 9ebd 5d49 0b3c ff5e 9ebd 7081 6bbd
000000c0: d60b 003e 5934 463e fa48 f43d ac9b 033e
000000d0: ce59 0cbe 85ab 4fbc fc11 973e b478 72bc
000000e0: b663 b83c d254 8b3c 6451 acbd 902e 97bd
000000f0: cb75 923e 8398 e0bd 7989 493d 8982 e13d
0.21554144 -0.25251043 -0.2839879 0.039319083 -0.31553575 0.22982322 -0.069027185 0.09298552
-0.053092435 0.035055228 -0.32839847 -0.1425088 -0.02085917 0.005363515 -0.0643914 0.01132593
-0.072404765 -0.28329822 0.071241826 0.0077935937 0.032761924 -0.058304496 0.2516203 -0.111429475
-0.02674276 -0.14132847 0.1231832 0.055004682 -0.05906004 0.05829904 0.025705334 -0.02738804
-0.13252658 0.009760325 -0.027558412 -0.16114347 0.07101268 -0.11080508 -0.03557937 -0.055759594
-0.1160306 -0.08364504 -0.32600552 0.19145265 -0.077549346 0.008501378 -0.07732963 -0.057496488
0.12504515 0.19355907 0.11927982 0.12852353 -0.13706133 -0.012675171 0.29505908 -0.014799286
0.022508483 0.017008219 -0.084139615 -0.07381928 0.28605494 -0.10966589 0.04920337 0.11011226

model.1.running_var f4 [64]
00000000: 5a57 193e 3cb9 443e b2df d93d 4767 283e
00000010: 2cd6 833e 5bcd 413e 0d61 f13d c48c d73d
00000020: 5354 0e3e 8b2d f23d 58d8 2f3e 143f ae3e
00000030: 80e8 853e f69f df3d 9d76 9f3d 0352 943e
00000040: ed56 2a3e fb1d 453e 663f 2e3e a57a 413e
00000050: 5c83 fb3d 2fb2 2e3e dab7 583e 2d69 0c3e
00000060: 890d 1a3e 51e6 323e 4bd6 ed3d df04 0f3e
00000070: 79d9 c43d 6b8c c63d c670 ee3d 1d99 173e
00000080: ca60 553e ea00 c73d 000c 913d 8c82 043e
00000090: 5bbb 483e 6add 343e 6d0c 623e c805 b43d
000000a0: eb28 5e3e b834 de3d dabb ca3d aeea 523d
000000b0: f736 463e ecfa 6f3e ddd7 603e 4d80 773e
000000c0: 9146 4e3e ab15 873e 959d 3b3d fef4 393d
000000d0: c7ab 8c3e 13df cd3d 5186 0c3e 58e3 9d3d
000000e0: 2839 f73d 39a6 033e 3199 6f3e 8c6e 283e
000000f0: 7658 d73e e628 ec3d 47ac 233e 2868 163e
0.14974728 0.19211286 0.106383696 0.16445647 0.25749338 0.18925993 0.11786089 0.10524896
0.13899355 0.11825093 0.17172372 0.340325 0.26153946 0.10919182 0.077862956 0.2896882
0.16634722 0.19249718 0.17016372 0.18894441 0.12280914 0.17060159 0.21163884 0.13711996
0.15044226 0.17470671 0.11613139 0.13966702 0.09611792 0.09694751 0.116426036 0.14804502
0.20837703 0.09716971 0.07082367 0.12940425 0.1960272 0.17662588 0.22075053 0.08790165
0.21695296 0.10849899 0.09899111 0.05149334 0.19356905 0.23435563 0.21957345 0.24170037
0.20144106 0.2638372 0.04580458 0.04539966 0.27474806 0.10052314 0.13723113 0.07709378
0.120714486 0.12856378 0.23398282 0.1644842 0.42059678 0.11531238 0.15983687 0.1468817

model.4.weight f4 [256, 64]
00000000: 427c dabc 7ed0 60bb 468a e43d 6ac4 ffba
00000010: 7787 00be 15ee 30bd 4b19 60bd dc7b 8fbd
00000020: 2fc2 5a3d 4997 833d 3b65 1b3e 5c64 d9bd
00000030: eac9 50be 47d1 8ebd e16e 1b3d 4f69 033d
00000040: bf34 5dbe cae4 09bd b6df 4dbd b7f8 433c
00000050: 7301 9dbd b6ac ebbd 1d35 7fbd 66ea a8bd
00000060: 80f2 213e 74b8 e2bd b2d2 57bc 153f 163e
00000070: 694d 01be f7cc 21bd 14c7 f43c ab42 a6bd
00000080: 3e54 6abd c0da f6bb 0a7c bd3d 3333 5d3d
00000090: 236c a6bd d67c 693d ed5c e3bd 2e7f 2f3e
000000a0: 67d4 fe3b fba8 f1bd 8abb 203c 0eb5 44bd
000000b0: 9ba9 bfbc 93e0 19be ef2a 09be 25fe a3bd
000000c0: 6255 b63d 2fa8 41bd c124 ea3b 066c 3dbe
000000d0: 0fc3 dd3c 8630 5bbc 19b9 833d 177f 133e
000000e0: 8b7c 623e 89e7 65bd c03c 83bc a4de 2abc
000000f0: 9e48 d63c ce6f 03be 85d3 be3c e093 e63b
00000100: 330a 2f3e 5cfe ba3d 258e fcbd 2149 6cbd
00000110: 91e2 183e e41d 2f3e 8ccf 813c 867a 86bd
00000120: 8d73 d4bc 29c6 9a3d 5994 0d3e c8d8 3ebd
00000130: 0527 c4bc 452d ebbc 7975 72bd 3354 53be
00000140: 1d66 da3d 7996 babd 55d5 d13d 7fac 8bbc
00000150: 4777 c6bc 62b8 ca3d d577 12be f8ac ebbd
00000160: 8639 1d3c 2fef bebd 6674 193e 4f69 83bc
00000170: be92 f1bd b02b efbb 959a aebb 68bb 20be
00000180: e446 2f3e 0cd8 e63d 0abf eabd 1958 bdbb
00000190: dd24 1e3d 22bf 1d3e 17d0 363d 0a0a 6ebd
000001a0: 5b1a aabb d878 11be 4b33 26bd b8fa 2abd
000001b0: 5a5e bdbd 6d64 dd3b eb08 613d 405f f53d
000001c0: 2150 a9bd 9df1 b03c f89f 4cbd 6d3f c33d
000001d0: 8358 f5bd 7e63 ea3d 84d1 e13c cdb2 053d
000001e0: b7e2 bd3c b8e4 93bb 28cd d8bd d08c 023e
000001f0: 6013 cebd e793 b73d ed2f e33c 7511 573e
00000200: 1785 1ebc 85c4 2c3e 1e59 313e 33fb debd
00000210: 69d1 f1bd 040c 203e c3e4 42be d195 8e3d
00000220: 3186 8d3d 5865 96bd a8b9 a93c ce57 b3bd
00000230: a88b f53d 3a88 543e 76f0 0e3c 3184 fe3c
00000240: c196 d23d fa74 b8bd a6df e13d f52d 593e
00000250: dbca e33d bba8 3cbe 9d10 923d 4da2 9a3d
00000260: 201d 243c fc3a 913d 4a2d 86bd a8fc d2bd
00000270: 45fc 12be 12f8 703e 4235 703d fb5c 243e
00000280: 8ea8 a63d 5639 debd c3e3 0abe 21b0 31bd
00000290: 30c0 45bd 3aa7 6f3e 8427 a8bd 889d 943c
000002a0: c691 95bd 3064 53bc 0a61 893d 4c7b 9a3d
000002b0: 9e91 b7bc 63bd 69bd fd78 c8bd a7ab 4ebd
000002c0: 08e2 66be 0a21 f3bc e799 aebc db5d 153e
000002d0: 9747 17bd 1211 a53d 2d7a 69bd 9dab 5b3c
000002e0: f65f 853c 031c 183e 87e3 38bc c83c d63d
000002f0: ee7f f0bd 8e38 043d 7cc9 b03d 7299 04bd
00000300: e935 fcbc 42ba 26be d989 a93d 8ed1 e2bc
00000310: a6c3 a83d 4b1f 573c 227e f0bc a3ff 493d
00000320: 8ae4 e13d b10c 09be 8a2c 02be ba5f 6bbc
00000330: e199 ad3d 9471 f2bd 42a8 733c 9e0b 703d
00000340: 7848 3fbe e190 e53d 279c b63d 462b a13c
00000350: 6b46 063e dddd 31be 7ab8 08bd 2f59 3e3d
00000360: be64 983d e297 503d 415b 9bbd f1d9 c5bd
00000370: 585a 943d cee8 d0bc 030b 9d3d aab1 67bc
00000380: 0915 d1bd b3e1 ebbc ee11 ccbd d904 65bd
00000390: ec8a 0f3e 8e29 14be 5c0c eabd 0a0c af3d
000003a0: 5b48 bb3d 5043 3bbe dc71 07be f7c8 39bc
000003b0: 9bf0 473e 5519 ef3c dc73 f83d e4e3 4c3e
000003c0: ccc0 a9bc aace 083c b0b9 b63d 844b 33bb
000003d0: 215c 763a 3a3a da3d 99a2 69bd b456 44be
000003e0: 9a7a f43d 8403 e8bd 6a5d 953c 9fa7 3cbe
000003f0: 57a4 20bc 5618 0a3e 22e5 c9bd a1e9 833d
-0.026670579 -0.0034303959 0.11159186 -0.0019513492 -0.12551676 -0.043195803 -0.05471162 -0.07006046
0.053407844 0.0642534 0.15175335 -0.10614845 -0.20389524 -0.0697351 0.03794754 0.032082852
-0.21602152 -0.033665456 -0.050262176 0.011961154 -0.07666292 -0.11507551 -0.062306512 -0.08247833
0.15815163 -0.11070338 -0.013172792 0.14672501 -0.12627186 -0.03950211 0.029880084 -0.08118185
-0.057209246 -0.0075334013 0.09252174 0.054003906 -0.08126094 0.05700382 -0.111017086 0.17138359
0.007776785 -0.117998086 0.009810338 -0.04802423 -0.023396304 -0.15027075 -0.13395284 -0.080074586
0.08903004 -0.047279533 0.0071454947 -0.18498239 0.02707055 -0.013378268 0.06431789 0.1440395
0.22117822 -0.056129012 -0.016020179 -0.010429058 0.026157673 -0.12835619 0.02329422 0.007036671
0.17093734 0.091305465 -0.123317994 -0.05768693 0.14930178 0.17101246 0.015846036 -0.06566338
-0.025934005 0.07557327 0.13826121 -0.046593457 -0.023944387 -0.02870811 -0.059194062 -0.20637588
0.10664008 -0.09110732 0.10245768 -0.017050026 -0.024226798 0.098984495 -0.14303525 -0.115076005
0.009596234 -0.093229644 0.14985809 -0.016041426 -0.11795567 -0.007298909 -0.005328486 -0.1569649
0.17116886 0.112716764 -0.11462219 -0.0057783243 0.038609374 0.15404943 0.044632044 -0.058115043
-0.00519113 -0.14206254 -0.04057626 -0.04174301 -0.09246512 0.0067563565 0.054940145 0.11981058
-0.082672365 0.021599585 -0.049957246 0.09533582 -0.11979773 0.11444758 0.027565725 0.03264122
0.023179395 -0.0045133494 -0.105860054 0.12749028 -0.10062289 0.08963757 0.027732814 0.21002753
-0.009675286 0.16871841 0.17319152 -0.10887756 -0.1180752 0.15629584 -0.19032578 0.06962169
0.069103606 -0.073435485 0.02071841 -0.08756982 0.11989528 0.20755091 0.008724323 0.031068893
0.1028266 -0.090066865 0.11028986 0.21208937 0.11122676 -0.1842374 0.07132075 0.07550488
0.01001671 0.070913285 -0.06551607 -0.103020966 -0.14354046 0.23532131 0.05864454 0.16051094
0.08137618 -0.1085078 -0.13563447 -0.04338086 -0.048278987 0.23403636 -0.08210662 0.018141523
-0.07303195 -0.0129023045 0.06707962 0.07543048 -0.022408303 -0.05706538 -0.09788702 -0.05045667
-0.22547162 -0.02967884 -0.02131362 0.14586584 -0.036933508 0.080598965 -0.05700128 0.013407615
0.01628111 0.14854436 -0.0112847155 0.10460812 -0.11743151 0.032280497 0.0863218 -0.0323729
-0.030787425 -0.16281989 0.082782455 -0.027687814 0.08240442 0.013130019 -0.02935702 0.04931606
0.110299185 -0.13383748 -0.12712303 -0.014366085 0.08476616 -0.118380696 0.014871659 0.05860483
-0.18679988 0.11209274 0.089165024 0.019673955 0.131128 -0.1736979 -0.033379056 0.04647177
0.0744109 0.050926097 -0.07585765 -0.0966071 0.07243794 -0.025501635 0.07668116 -0.0141414795
-0.1020909 -0.028794145 -0.09964357 -0.055912826 0.14017838 -0.14468977 -0.114281386 0.08547218
0.0914466 -0.18287396 -0.13227028 -0.011339418 0.19525377 0.029186884 0.121314734 0.20008808
-0.020721816 0.008350054 0.08922136 -0.0027358243 0.00093978836 0.10655637 -0.05703983 -0.191737
0.11937447 -0.113287956 0.01823302 -0.18423317 -0.009804807 0.13485846 -0.09858157 0.064410456

model.4.bias f4 [256]
00000000: 949c 50bc f810 ca3d 34d7 c7bd 01fb b23c
00000010: ba5d ffbb 9436 b13d 8192 c13c 3080 e53d
00000020: b85d cabd af27 353d f745 8d3d 6179 433d
00000030: f7b6 00be 0863 15bd c6fa 54bd 0581 1cbd
00000040: 3ed2 56bd 957f eabd e19c 743d 3c7a 0cbd
00000050: 8c65 6738 73ef 603c a023 91bd 7741 bb3d
00000060: 9165 5dbd 5d97 8bbd 25b1 03be b798 dc3d
00000070: 7384 8dbd f775 b9bd 086d ba3d a2bb cb3d
00000080: 40a0 bfbd 4d78 b23d 132c d7bd cad1 c3bd
00000090: 8c33 79bd 80b7 1abb d6f7 c83d 43c6 81bd
000000a0: 4033 a03d 6c1f c63c 09f5 a33c 34e1 8fbd
000000b0: 7873 1fbd 7f8f 25bd 30a5 f7bd d629 f7bd
000000c0: 69fa 663d 6285 d63d f7fe b1bd 76b2 043d
000000d0: 7ad9 76bd c2fe 9a3c ea71 08bd 2319 bbbd
000000e0: 6a3c f4bd 97de 23bd f7b6 d3bd e965 a53d
000000f0: 4ca3 d73d 7b6a c53d f316 10bd 961b bd3d
00000100: 26c6 0e3d 07f3 cbbc e674 d5bd ca6c 40bd
00000110: b198 3cbb 0dff a13d 83f3 e63d 622f afbd
00000120: 220f e2bc 2b8c 86ba 83a6 b63c 6073 713d
00000130: 149f 5dbd 09b3 ffbd 93cd 353d 4101 9fbd
00000140: 6fec b3bd bcee 0d3d e7d3 62bd feb8 e4bd
00000150: e510 0cbd 1291 b8bd 0d4b 8b3d 8823 a1bd
00000160: 04f4 72bc 1e70 fcba f666 49bd bbb8 f2bd
00000170: 7edc 553c cae7 933d 245e 34bd 84bc 6d3c
00000180: 39b4 ac3d 068e 1c3d b2f2 c73d ecab b33d
00000190: 5645 003e ab0f acbd 5a09 debd a167 2a3d
000001a0: 8878 893d 2745 d73d 3718 9d3d 1be3 94bc
000001b0: cecb bf3d 32e4 85bd 05c1 1fbd 23b5 96bd
000001c0: 89dc ef3d e798 fa3d 91d3 a5bd ffa0 873d
000001d0: ee70 e5bb 3281 1f3d 958f d43d 3cea eabd
000001e0: c0a5 90bd a8ba cfbd 2338 223d 4f50 d1bd
000001f0: bae0 d43d 08e2 84bc 1f3a ddbd 6082 ae3d
00000200: 3b05 87bd 6a0a c93d 71be 7ebc 155a ac3c
00000210: e6b0 3ebc fa6a 353d a864 1d3d 9f21 ecbd
00000220: 1e85 dd3d 97c6 013e 8327 f0bd a5c0 453a
00000230: 393b c03d 0bca b73d 51ad a53c 9861 cf3d
00000240: 18eb 933d 2483 4d3d 7024 80bc 5a60 a4bc
00000250: cf5e 58bd f83b 303c 7322 cdbd d753 023e
00000260: e474 c0bd b199 ec3d fcc9 313d c32d bfbd
00000270: 7200 bebd 993a d13d e261 f73d 1a9a d4bd
00000280: d503 f63d 37fd a33d cb0c 9fbd 2d6c d23b
00000290: 8f3d efbc 5c80 413d 9241 b23b c614 c63c
000002a0: dd6a ebbd 6936 5abd 8304 d73d e06a 2eb9
000002b0: 3009 f5b7 28d4 a63b c136 a23d cc98 5c3d
000002c0: f852 55bd 254a b9bd 8260 a9bd 9539 71bc
000002d0: 2720 1ebc f1e4 24bd 7fd1 d53d 6c1a aa3d
000002e0: f41b d9bd 45e2 85bc 0550 9e3c 3a69 103c
000002f0: 3ea0 9b3d 03ca ca3d ce90 3f3d f9b4 4fbd
00000300: 1805 e83b beb7 03bd a4f1 e1bd e1a6 e93d
00000310: 8b50 c03d 116d c73d c6bc b43d 8cf8 cdbd
00000320: cae2 a8bd 4f44 15bb 8d54 913d a0a3 38bb
00000330: 5fb7 083d 8fab 923d 693d 003d 90a3 d5bd
00000340: 738c 7dbd 773e 2d3c a902 353d 00aa 033d
00000350: 09b8 a1ba 482b 5bbd d6ca 1c3d 6e9e 3dbd
00000360: b2a4 d13d 9e17 cebd 702f 523d cb3d f2bd
00000370: 013b ee3c 2e83 713c 3c4f 4b3c 2573 be3d
00000380: 256d f1bd 8b71 b9bd 5847 93bc f17e b43d
00000390: 6684 ffbd eb52 f5bc 96d1 b9bc 32d2 83bc
000003a0: df42 a33b 800b 4ebc 088e 9cbd e026 cebd
000003b0: d85a fabc 25bd 8b3d 113e c23d 78d0 b2bd
000003c0: 544c 14bc 0855 3ebd f366 d43d d5bb a8bd
000003d0: 4e30 66bd 09b7 a63b 7a8d 263d b2fd b5bd
000003e0: 3bbf c5bd 684f a4bd bae7 bdbd 7bf7 263c
000003f0: b22b bcbd d237 a5bd ac76 c6bd 1f38 bcbd
-0.012732644 0.09866518 -0.097578436 0.021848204 -0.0077931555 0.08652988 0.023629429 0.112060905
-0.09881157 0.0442273 0.0689811 0.047723178 -0.12569796 -0.036471397 -0.05199697 -0.03820898
-0.052446596 -0.114501156 0.059719924 -0.03429626 5.5169265e-05 0.013728964 -0.07086873 0.09143346
-0.05405194 -0.0681598 -0.12860544 0.107713155 -0.06910028 -0.09055703 0.09102827 0.099478975
-0.09356737 0.08714352 -0.10506453 -0.095614985 -0.060840175 -0.002360791 0.09812896 -0.063366435
0.07822275 0.024184905 0.020014303 -0.07025376 -0.03892848 -0.04042005 -0.12092054 -0.120685264
0.056391153 0.104746595 -0.08691209 0.032396756 -0.060265996 0.018920306 -0.033311762 -0.09135654
-0.119255856 -0.0400072 -0.10337632 0.080760784 0.10529193 0.0963945 -0.035178136 0.09233777
0.034856938 -0.024896158 -0.10422687 -0.04697875 -0.0028777535 0.07909975 0.11276915 -0.085539594
-0.027595107 -0.0010265162 0.022296196 0.05894792 -0.054106787 -0.1248532 0.044385504 -0.07763911
-0.087853305 0.034651503 -0.055377867 -0.11168097 -0.0341958 -0.09012045 0.06801424 -0.07868105
-0.014828686 -0.0019259488 -0.049170457 -0.11851641 0.013053058 0.07221945 -0.044035092 0.014510278
0.08432812 0.03822138 0.09763087 0.08773026 0.1252645 -0.08401426 -0.108416274 0.041602734
0.06712443 0.10511237 0.07670634 -0.018174699 0.093650445 -0.065376654 -0.039002437 -0.07358768
0.117119856 0.12236195 -0.08096994 0.066225044 -0.0070019877 0.03894157 0.103789486 -0.11470458
-0.07062864 -0.10143024 0.039604317 -0.10220396 0.10394426 -0.016221061 -0.10802101 0.08520961
-0.065927945 0.098164394 -0.015548334 0.021039048 -0.011638856 0.044291474 0.03842607 -0.1152985
0.10816406 0.12673412 -0.11726286 0.000754366 0.09386296 0.089740835 0.020224245 0.101260364
0.07222575 0.050173894 -0.015642375 -0.020065475 -0.05282479 0.010756485 -0.10016336 0.12727295
-0.09397295 0.11552752 0.043405518 -0.093349 -0.09277429 0.10216255 0.120792165 -0.10380955
0.1201245 0.08007281 -0.07766112 0.006421587 -0.029204158 0.047241554 0.0054399455 0.024179827
-0.11494992 -0.053274546 0.104989074 -0.00016633747 -2.9210554e-05 0.005091209 0.079206 0.053856656
-0.05208108 -0.09047345 -0.082703605 -0.014723201 -0.00965122 -0.040257398 0.10440349 0.08305821
-0.10601035 -0.016343245 0.019325266 0.0088141505 0.07598923 0.09901812 0.046768956 -0.0507097
0.0070806853 -0.032157652 -0.110324174 0.11408783 0.09390362 0.097376 0.08825068 -0.10057172
-0.082463816 -0.002277631 0.07096205 -0.00281737 0.033378 0.071616285 0.031308565 -0.10431588
-0.06190152 0.010573975 0.04419199 0.032144547 -0.0012338172 -0.053508073 0.038279377 -0.04629367
0.10236491 -0.10063098 0.05131477 -0.11828192 0.02908087 0.014740748 0.012409028 0.09299306
-0.11788396 -0.0905486 -0.017978355 0.08813275 -0.12476425 -0.029946765 -0.022682946 -0.01609144
0.004982337 -0.012575984 -0.07644278 -0.100660086 -0.030560896 0.06823186 0.094844945 -0.087311685
-0.009051401 -0.04646781 0.103711985 -0.08238951 -0.05619841 0.0050877375 0.040662266 -0.08886279
-0.09655615 -0.08022958 -0.09272714 0.01019084 -0.09188022 -0.080672875 -0.096906036 -0.09190392

model.5.weight f4 [256]
00000000: a8ed 6e3f 53be 873f 5ae5 863f dcf8 803f
00000010: 9e3e 863f bb72 7a3f ff1f 733f 3392 903f
00000020: 5f88 803f 573a 833f de92 833f 4602 7c3f
00000030: 676a 883f 61c0 673f 3aba 7a3f 1cac 873f
00000040: 2270 7a3f eded 713f 31de 8b3f a68e 8b3f
00000050: ed76 813f 1853 7a3f e438 6f3f a9f4 8a3f
00000060: 63dc 813f 751a 8a3f 8cd1 8d3f be2a 813f
00000070: 60c0 7b3f 0366 973f d0eb 6d3f ab98 7f3f
00000080: bac7 863f 0ff4 773f 461d 7c3f 455c 7e3f
00000090: ac4d 673f 2f49 803f 5be4 6a3f 465b 723f
000000a0: 5679 803f 7ee1 753f c497 8c3f 6faf 8c3f
000000b0: f068 6c3f 0fde 643f cc4a 7f3f bfee 7f3f
000000c0: 1a55 863f a2f1 883f e966 893f 8ba0 823f
000000d0: f2c7 733f c9a9 863f 94a3 8d3f a31a 803f
000000e0: 750f 683f 7348 7d3f 463b 763f 7566 8d3f
000000f0: 60f8 7e3f 5310 843f 78ac 813f e0f3 663f
00000100: e524 993f 6f46 613f 1737 673f 85dd 843f
00000110: b835 8e3f bf5f 8a3f 4787 873f ed93 6c3f
00000120: 1a84 743f e56c 813f 45df 853f 4c3f 7a3f
00000130: c082 7e3f 9d43 6d3f 2f94 863f adac 903f
00000140: e11b 783f d38c 813f 2173 6d3f c8dd 893f
00000150: df70 833f c94c 883f cbcf 813f d4d3 823f
00000160: 4c88 6c3f ad69 633f c468 7e3f b3a1 843f
00000170: 9d86 6d3f 6d95 873f 96c1 643f 4f3f 913f
00000180: 5b83 813f 8a16 823f 107d 763f 185d 833f
00000190: dd00 803f 08d1 7d3f 7708 843f a9c0 853f
000001a0: 450c 8d3f 6e4e 843f ca1e 7c3f bf07 723f
000001b0: 9a0f 7e3f 0686 8d3f 8699 653f 7d69 873f
000001c0: 9589 983f 7241 863f 527a 813f 994e 843f
000001d0: 9a5a 8e3f ae8d 893f e70d 8e3f 0261 6c3f
000001e0: 31b8 8a3f 8154 893f 417f 753f 337c 803f
000001f0: 3c70 773f 21c3 883f 165c 763f fae4 7a3f
00000200: 836f 893f 1289 833f 9714 723f 9160 8f3f
00000210: 719d 7d3f 738f 6f3f 4d30 693f 9c44 833f
00000220: 7eda 7e3f 7416 933f 1bcd 723f 54cd 843f
00000230: 27fa 843f 5d40 723f 462c 863f 5895 893f
00000240: 3011 6c3f c7fc 6e3f a32c 813f 39df 7c3f
00000250: e273 683f 8a5d 6b3f 516a 7b3f 6f72 813f
00000260: 3082 833f b036 723f e991 8b3f 3859 6a3f
00000270: 9999 803f 4361 7e3f 6aff 763f 01a3 663f
00000280: 262c 863f 19ed 783f 0e90 813f 3991 7c3f
00000290: c6bd 863f 632e 813f 83d3 863f afa3 7c3f
000002a0: cecb 813f 3692 8c3f e554 813f c862 703f
000002b0: 3ce3 8f3f 2ae9 823f 44a1 8a3f aba3 603f
000002c0: 94f1 713f 300f 563f 40ef 713f 0a3b 5a3f
000002d0: 8a8b 7b3f ecd9 8a3f 64d2 7e3f e9a9 6f3f
000002e0: 6750 763f a278 673f 1d17 803f 2792 923f
000002f0: 0e30 713f 3b1f 873f e397 923f cd92 833f
00000300: 49ea 833f 4043 6c3f e999 823f 91be 723f
00000310: d918 823f b617 813f 8c9a 823f fd7b 6e3f
00000320: fb6e 5e3f 9bb3 793f ee98 8e3f b01e 5d3f
00000330: 7bbf 6a3f 520d 833f f09a 883f 5822 843f
00000340: 7629 843f 712b 6f3f bd26 8f3f 4686 743f
00000350: 3fc1 803f 934c 673f 1946 813f 2a3a 893f
00000360: 57e3 933f 6694 843f 1924 853f 28b1 743f
00000370: e293 6e3f e328 883f d268 8e3f 1fde 743f
00000380: 094c 853f fece 883f c49c 803f 70ca 713f
00000390: 63c2 6d3f 6986 613f 0701 833f 6a17 8b3f
000003a0: d4b2 7d3f 4572 723f 180e 7f3f e458 7d3f
000003b0: 555b 933f d95f 6f3f 31dd 883f 4f8a 723f
000003c0: 1bd5 7d3f dcc0 823f 6b09 803f 4322 5a3f
000003d0: 5aaa 833f 58eb 8b3f 577e 873f 611f 743f
000003e0: b37a 8e3f 0bb0 7e3f 94ea 813f 0c21 813f
000003f0: e183 883f 3b57 7c3f 43eb 6f3f ceea 823f
0.93331385 1.0604957 1.0538743 1.0075946 1.0487859 0.97831315 0.949707 1.1294616
1.0041617 1.0252179 1.0279195 0.9844097 1.0657471 0.9052792 0.9794041 1.0599399
0.9782735 0.9450367 1.0927182 1.0902908 1.0114418 0.9778304 0.93446183 1.0855914
1.0145382 1.0789324 1.1079574 1.0091169 0.98340416 1.1828007 0.92937946 0.9984233
1.0529702 0.9685678 0.9848217 0.9935954 0.9035289 1.0022334 0.9175469 0.9467052
1.0037029 0.960472 1.0983815 1.0991038 0.9234762 0.89401335 0.99723506 0.9997367
1.0494721 1.069874 1.0734531 1.0205244 0.9522697 1.0520564 1.1065545 1.0008129
0.90648586 0.98938674 0.96184194 1.1046892 0.9959774 1.0317482 1.0130758 0.90215874
1.1964384 0.879981 0.90318435 1.0380102 1.1110144 1.0810469 1.0588158 0.92413217
0.9551407 1.0111357 1.0458761 0.97752833 0.9941826 0.92681295 1.0513972 1.1302696
0.9691754 1.0121101 0.927538 1.0770807 1.026882 1.0648433 1.0141538 1.0220895
0.9239547 0.88833123 0.9937861 1.0361847 0.9278353 1.0592476 0.8935789 1.1347445
1.0118212 1.0163128 0.9628458 1.0262785 1.0000263 0.9914708 1.0315083 1.044942
1.1019369 1.0336435 0.9848448 0.9454307 0.99242556 1.1056526 0.89687383 1.0579067
1.1916987 1.0488722 1.0115454 1.0336486 1.1121399 1.0746362 1.1097993 0.9233552
1.0837461 1.0728914 0.958973 1.0037903 0.9665563 1.0684549 0.9623426 0.9800564
1.0737156 1.0276206 0.9456267 1.1201345 0.9906836 0.9357826 0.91089326 1.0255313
0.9955214 1.1491227 0.94844216 1.0375161 1.038884 0.9462946 1.0482261 1.0748701
0.92213726 0.9335446 1.0091747 0.9877811 0.90801823 0.91939604 0.982091 1.0113047
1.0274105 0.94614697 1.0903903 0.91542387 1.0046874 0.9936716 0.9648348 0.90092474
1.0482223 0.9723678 1.0122087 0.9865909 1.0526664 1.0092281 1.0533298 0.9868726
1.0140321 1.098212 1.0104033 0.9390073 1.1241221 1.0227406 1.0830464 0.8774974
0.94509244 0.83616924 0.9450569 0.85246336 0.98259795 1.0847754 0.9953978 0.9361864
0.96216434 0.90418446 1.0007054 1.1450852 0.9421395 1.0556406 1.1452602 1.0279175
1.0305873 0.92290115 1.020322 0.9482203 1.0163833 1.0085361 1.0203414 0.9315794
0.8688809 0.9753968 1.114042 0.8637495 0.91698426 1.023844 1.0672283 1.0322981
1.0325153 0.9342566 1.1183697 0.95517385 1.0058974 0.9035122 1.0099517 1.0720875
1.1553754 1.0357788 1.0401641 0.9558282 0.931944 1.0637478 1.1125739 0.9565143
1.0413829 1.0688169 1.0047841 0.9444952 0.92874736 0.8809572 1.0234689 1.086652
0.99100995 0.9470561 0.9963088 0.9896376 1.1512247 0.93505627 1.0692502 0.9474229
0.991533 1.0215106 1.0002874 0.8520853 1.0286362 1.0931196 1.0585431 0.9536038
1.1131195 0.9948737 1.0149713 1.008821 1.0665246 0.98570603 0.93718356 1.0227907

model.5.bias f4 [256]
00000000: 87ac 14bd 048a 5b3d 1846 e6bc defa b23c
00000010: 6e24 ad3c a95a 5abc dfb5 ebbc 91ab 283e
00000020: 233e 7ebd 577d 613c a7ef d73c e31a 723c
00000030: 3214 7f3d c53f 3cbd bfde 80bc acf8 b43d
00000040: a240 9c3b 98e2 d4bd 8371 733d 27bb 373d
00000050: fb7b 843b 4ca1 333d 0cd6 47bd 1815 7738
00000060: 5635 99bc c342 043e f7d7 c13c 01db b4bd
00000070: 315b db3a a099 f13d 74cc 6ebd 8a60 bcba
00000080: e7d5 0a3e d914 ddbb 3369 433d 3775 63bc
00000090: 35e8 e1bc 7da9 4d3d 31f5 1fbe 1054 46bd
000000a0: d401 c93b 012e 86bd eebf e83d 507f c73d
000000b0: 15fe 8cbd 60d3 76bd ca4c 9fbd 3ef4 e2bc
000000c0: 3d2c bd3c bca4 4a3d 9d2c 9a3d fb49 293d
000000d0: f0b5 713d e4aa 833c 9521 043e 6fed 763c
000000e0: 6fd4 65bd 5646 39bd 231d 15bd 4c05 b93d
000000f0: 315e 6dbc db40 433c 3817 6fbd d0e9 9abd
00000100: b940 763d 6fdb 5ebd 1bec 1bbe c21a e63c
00000110: b710 063e cb1c a63d b2f1 e7bc fbad 09bd
00000120: d742 40bd 1543 a23c 4707 583d 7de2 85bd
00000130: 5a11 b3bc b848 4dbd 7820 b73d 66a1 5c3d
00000140: fe0a 1bbd c9e6 493c eae1 2ebd 262e 653d
00000150: f212 e9bb fbf5 a13d 9ca2 8f3c efb9 ae3c
00000160: 1cb2 e5bd 3275 cdbd 310b 3fbd 09f7 403d
00000170: 9e3f e1bc 2ff9 983c 376b 15bd 06bf c53d
00000180: a99a c8bd ae9f d03c a5c3 9abd a6fc 8e3c
00000190: 193a 2cbc 5c1c 05bd 53ae f53b 28e0 a03d
000001a0: ba1c 3c3e 28f1 fb3a 3da9 963c 6c8b d1bd
000001b0: e200 96bd 97d6 a8bc 503f c3bd 8418 273d
000001c0: d18a d83d 5f25 153c 407d cfbb 4ac0 373d
000001d0: 42b6 a13d 2073 0ebc e8bd ef3a e7ec 9fbd
000001e0: 1cb6 783d d01e d4bc 6ce1 16bd 10c4 1abd
000001f0: 0513 6abd 8b04 6d3c 61fb acbc 70a5 05be
00000200: d379 663d c4c3 f03c dc34 86bd 6b75 c13d
00000210: b67f 5a3d 55d9 94bc d555 32be bf76 ae3c
00000220: e7cf 443d 2bee 243e 0c44 e9bd 9dbd e23c
00000230: 43b0 d83c 27bd efbc 0a4a adbd 9417 dd3c
00000240: d966 2fbc a2d5 84bd 919a ee3c f47a 77bc
00000250: e440 04be 3c2f 13bd 1f8c d33c 3f5e 033d
00000260: aa2c 1c3c 08b1 a1bb aee3 d23d cd04 7fbd
00000270: 2c30 723c 449a 2abd 8e0c b6bc 765a 41bd
00000280: 8b88 333d c7be b03d d122 4d3d 11d9 57bb
00000290: 6fdd ea3d 64cd bc3d 871b a33d db9b 573c
000002a0: e0a5 953d c4bc 903d 6c7b a33b 4a8d 21bc
000002b0: f83d 013e d66b 6b3d 9f34 513d 4690 adbd
000002c0: c625 58bd 6e71 36be af3d 1ebd cf5c 6cbd
000002d0: cc3e 79bd 682d e3bc 03e4 2bbc 082a fabc
000002e0: 49fd 293d 8749 9bbc c08c 33bd f647 933d
000002f0: ace5 6fbd 7539 eebc be9e c03d b8f4 17bc
00000300: c4ac 0d3d db2a 8dbd bc45 93bb 02ad 20bd
00000310: 34c6 dabc 9985 cfbb 3e72 093e 8c64 34bd
00000320: b091 cabd 30f0 e93c ef54 9c3d 3ba3 1cbe
00000330: 8c19 aebc 699a 6f3d 9596 363c 1211 743d
00000340: 1ef6 c0bd adab 08bc 8f88 d4bb 7781 6dbd
00000350: 7351 8b3d 9f06 62bd ce30 1dbc efd3 593d
00000360: 31a9 2e3e a3d9 dcbc e44e cf3d df65 d3bc
00000370: 2d62 79bd 210e 233c ac15 8f3b 1287 60bc
00000380: d454 d73d e7b6 803d 4eca 1bbc 342e 153d
00000390: 526f 6f3d 7d12 d0bd 1e48 053c 638c a83c
000003a0: e70e 3e3d 6d7c 783c ed02 e73c 0974 2cbd
000003b0: 8ec2 b53d a80d 893b b87d b03c 3789 adbc
000003c0: bc06 83bd 9fed 993c aa5a 98bd ea19 cabd
000003d0: 4cd6 553d e775 863d 9665 8e3d bf5c a8bd
000003e0: dd25 923d 5e41 073d 18b2 15bd e30a 833d
000003f0: 4714 0e3d 34c5 d1bd 6ec4 88bd c1db 573d
-0.036297347 0.05359842 -0.028109595 0.021848138 0.021135535 -0.013327279 -0.028773246 0.16471697
-0.062070977 0.0137627935 0.026359392 0.014776918 0.06227512 -0.045959253 -0.015731214 0.08836493
0.004768447 -0.10394782 0.059434425 0.044856217 0.0040431 0.043854997 -0.048788115 5.8909034e-05
-0.01870219 0.12916093 0.02366255 -0.08830834 0.0016735551 0.1179688 -0.05830045 -0.0014372033
0.1355816 -0.00674687 0.047707748 -0.013882927 -0.027576545 0.050210465 -0.15620877 -0.048420012
0.006134251 -0.06551743 0.11364733 0.0974108 -0.068844 -0.060260177 -0.07778318 -0.027704354
0.023092384 0.04947351 0.075280406 0.04133032 0.0590114 0.016072698 0.12903436 0.015071257
-0.056110796 -0.045233093 -0.03640474 0.090342134 -0.014487789 0.011917318 -0.058371753 -0.075641274
0.060120318 -0.054408487 -0.15226786 0.028088931 0.13092314 0.081109606 -0.028313491 -0.033613186
-0.046938743 0.019807378 0.052741315 -0.0653734 -0.02185886 -0.050118178 0.0894174 0.05386486
-0.03785228 0.01232309 -0.042695917 0.055952214 -0.007112854 0.07908245 0.017533593 0.021328894
-0.11215612 -0.10032119 -0.046641532 0.04711059 -0.027496155 0.018673507 -0.0364792 0.096555755
-0.09795124 0.025466766 -0.075568475 0.017454457 -0.010511898 -0.03249775 0.0074975877 0.078552544
0.18370333 0.001922165 0.018391246 -0.10231671 -0.07324387 -0.020610137 -0.0953356 0.040794864
0.10573352 0.009103148 -0.0063320696 0.044861116 0.07896091 -0.00869444 0.0018290849 -0.078088574
0.060720548 -0.025893599 -0.036836073 -0.037784636 -0.057147045 0.014466415 -0.02111596 -0.1305139
0.056268524 0.029390223 -0.06553051 0.09446224 0.05334445 -0.018170038 -0.17415555 0.021296857
0.048049834 0.16106479 -0.11389932 0.027678305 0.026451236 -0.029265 -0.084613875 0.026988782
-0.010705673 -0.0648606 0.029126437 -0.015104998 -0.12915379 -0.035933718 0.02582365 0.032072302
0.009532133 -0.004934434 0.10297333 -0.062260438 0.014781993 -0.041651025 -0.022222783 -0.04720541
0.04383139 0.08630138 0.05008203 -0.0032935778 0.11468016 0.09218863 0.07964235 0.013159717
0.07307029 0.07067254 0.0049890783 -0.009860346 0.12621295 0.057475887 0.051075574 -0.084747836
-0.0527704 -0.17816707 -0.038633045 -0.057705697 -0.060850903 -0.027731612 -0.010491374 -0.03053762
0.041501317 -0.018955959 -0.0438354 0.0719146 -0.05856864 -0.029080132 0.09405278 -0.009274654
0.03458859 -0.0689294 -0.004494397 -0.039227493 -0.026705839 -0.0063330648 0.13422486 -0.0440412
-0.09891069 0.028556913 0.07633387 -0.15296642 -0.021252416 0.058496866 0.0111443 0.059586592
-0.09421943 -0.008341712 -0.0064860056 -0.057984795 0.068026446 -0.055182096 -0.0095941555 0.05318063
0.17056729 -0.026959246 0.10122469 -0.025805412 -0.060884643 0.009952099 0.004366597 -0.013704078
0.105142266 0.06284886 -0.009508682 0.036421016 0.058455773 -0.10159776 0.00813487 0.020574754
0.04640093 0.015166384 0.028199637 -0.042102847 0.08874999 0.004182536 0.021544322 -0.021183593
-0.06397769 0.018790064 -0.07439168 -0.09868224 0.052206323 0.06565457 0.0695297 -0.08220815
0.07136128 0.033021323 -0.036546797 0.06398561 0.034687307 -0.10242692 -0.06678091 0.052699808

model.5.running_mean f4 [256]
00000000: d0b2 f4be 3824 8b3e bc41 803e 7883 c8bd
00000010: 23ea d0bd 63a9 7b3e a504 b63e 6fd3 943d
00000020: 0f46 4e3d 5fef 1c3e 6ecf 703d 5b40 af3c
00000030: da85 86bf 0e72 3fbf 1e76 703e eee0 db3e
00000040: 3913 193e 470b 1bbd 3ebf ee3e bc67 9cbd
00000050: 882d 04bf f543 06be ec9f 983e 9782 7a3e
00000060: eba5 933e f225 e93d ddaf 5c3e b106 5e3e
00000070: 429e 05bf 8f41 253f 2708 e33e 158e da3e
00000080: 67eb cd3e 967f 8fbe e8e5 01bf 40da e4be
00000090: d59d 7bbf f44b 1a3e ebd8 733d ddb4 cb3e
000000a0: 16ec 40be c31c 9f3d 9520 0dbe 4f03 c6be
000000b0: 605e 4c3e d80d adbd 9caf 86bd 2228 33be
000000c0: ca70 703f 4e32 b4be c122 213e d4a6 88be
000000d0: 5712 c2be 6ff2 9abe 708a f03e 95fd 11bf
000000e0: 35e3 c0be c739 c13e 9fe9 f73e 12f9 a43e
000000f0: 37d6 dcbe e9fc a63e e940 c33e 3e45 bf3e
00000100: 590e c73e 8d8d c6be 2acd bc3e 91ac 1f3f
00000110: 768a 2ebe ab17 14be d435 e6be 30b4 a7be
00000120: e2a6 403d b09f 393e fe1e 8a3d b2bf 163f
00000130: e520 173e ee92 983e 411a 31be e0ba a4bd
00000140: 6ee0 92bd 13ef 873e 648c c83e 214e ac3d
00000150: 268d 52bf 023a 0f3e 7fc4 833f cc37 95be
00000160: 1501 233e 2d4a 58bf ccd8 da3e 6a35 4bbd
00000170: 3d55 8d3e 2442 0b3f f064 04bd 4735 cd3c
00000180: dcb6 733f d1c3 313e 7818 873e d92c 82be
00000190: 7cbe f1be 2e1b 023e c584 a3be d19d 6c3e
000001a0: d528 dc3e fda2 933e aa4d 30be eb33 613e
000001b0: 69da 263f 51ba 0e3e 9483 9e3e 72b8 063f
000001c0: 7faa a63d 751c 103f e7fc 6c3e 8ccb 07bf
000001d0: 0adb 523f 6b33 c63e 836e 893e 75ae 803e
000001e0: 81a5 233f d2a1 aabe 65b9 e7bd f830 543e
000001f0: 8442 c53e 1cc5 81bd e4b3 453f 43e0 bf3e
00000200: eb58 b0be d707 6d3f 7a49 993e 1441 8fbd
00000210: d971 1a3e f7c2 0ebe f325 913e c273 833e
00000220: c9d7 2fbe 60ab f9be 45c1 73be 8357 a3bd
00000230: 1eed fe3e cc20 c33e a22f c73d f6ab d73d
00000240: 741c 96be de6c f43e 185a ddbd 95e5 d0bb
00000250: 4a7c 143e bdbd fe3b 466f 32bf 5a6b d8bc
00000260: e6b8 203d c0d5 bdbe dd18 8d3e d150 36be
00000270: cfa1 49bf 7b8a 6b3e cc4c 85be 5a3f 28bd
00000280: d401 09bf abba 79be 7a36 81bd 191d 0b3d
00000290: 0ac9 01bd e078 56be 8f75 cb3e d54f 08bd
000002a0: 53d9 3abf a1cf 40be df8f a8be 76c0 0f3f
000002b0: 1415 d9be 8090 163e b88d f33d 6e9f 203e
000002c0: 3912 123e 39ba e23e ce78 b03e f48b 45bf
000002d0: c191 043f b160 c43e b672 bebe d2d6 a1be
000002e0: eb41 fb3e dad0 7c3d 5ee3 a2bd 1e3a 3fbe
000002f0: 766f 323c a96f ad3e c2a7 1e3f 77c4 993e
00000300: 0ead 423e 2370 a9be aa6f 3f3e a6ff ed3e
00000310: 7a50 82be 0448 27bc 306a ae3e eb72 3dbd
00000320: 3b7d 05bf a11c 0bbe 621b 443d 42e3 6d3f
00000330: 28b0 47bf 65d7 91be 5158 05be afa0 12be
00000340: 2b47 833e 4f64 a6bd 5443 693f e6c9 2f3f
00000350: 23e5 bdbb 0839 2a3d 1a15 393e bf4f a8be
00000360: c22f 963d 0058 223f b0e4 56bf 5eb4 3bbf
00000370: 81a5 eabd 8219 82be e654 203e 8715 653f
00000380: 1320 87be b69a 1a3f 24eb f4be af00 073f
00000390: 5a59 e5be 0c01 15bf 17c6 c23d 1815 b73d
000003a0: b0d5 84be 78dd 86bd 8018 153e 648c ea3d
000003b0: 9109 fb3c 20a5 4ebe 90ec 1b3f 4cf1 ca3d
000003c0: 44c7 f63d 4b46 e5bd 5e76 0a3f 7aa6 553f
000003d0: bbce 233e ecc1 c03d 22b4 043f ffdf 39be
000003e0: 5d53 373e 7258 863e a3c3 8fbe 8cae 88bc
000003f0: 9f9f be3c 71c0 683e 1abb c7be 739b a7be
-0.47792673 0.2717607 0.2505015 -0.09790701 -0.10200908 0.24576335 0.35550418 0.0726689
0.05035978 0.15325688 0.05879157 0.021392992 -1.0509598 -0.7478341 0.23482558 0.42945045
0.14948739 -0.03785255 0.4663028 -0.07636973 -0.51631975 -0.13111861 0.2980951 0.24463879
0.28837523 0.113841906 0.21551462 0.2168224 -0.5219461 0.6455316 0.44342157 0.42686525
0.4021866 -0.28027028 -0.50741434 -0.44697762 -0.9828771 0.15068036 0.05953304 0.39786425
-0.1884006 0.07769158 -0.1378196 -0.386744 0.19957876 -0.08449906 -0.065764636 -0.17495778
0.939221 -0.3519463 0.15735914 -0.2668978 -0.37904617 -0.30263087 0.4698062 -0.5702756
-0.37673345 0.37739393 0.48420426 0.32221276 -0.43132183 0.3261483 0.3813546 0.37357515
0.38878134 -0.3877987 0.36875278 0.6237269 -0.17045006 -0.14462154 -0.44962943 -0.3275466
0.04703415 0.18127322 0.067441925 0.58886254 0.14758642 0.29799598 -0.17295171 -0.08043456
-0.07171713 0.26549587 0.3916961 0.084133394 -0.82246625 0.13986972 1.0294341 -0.29144132
0.15918382 -0.84488183 0.42743528 -0.049611486 0.27604094 0.543978 -0.032322824 0.025049819
0.95200896 0.17359854 0.26385856 -0.2542484 -0.4721564 0.1270568 -0.31937233 0.23107077
0.42999902 0.28835288 -0.17217126 0.21992461 0.6517702 0.13938262 0.3095976 0.5262519
0.08137988 0.5629342 0.2314335 -0.5304496 0.8236548 0.38711104 0.26842126 0.251331
0.63924414 -0.33326584 -0.11314658 0.20721805 0.3852731 -0.06336424 0.77227616 0.37475786
-0.3444284 0.9259009 0.2993887 -0.069948345 0.15082492 -0.1394156 0.28349265 0.25674254
-0.17172159 -0.4876356 -0.23804195 -0.07975676 0.4979028 0.3811096 0.09725882 0.10530846
-0.29318583 0.4773931 -0.108082 -0.0063750246 0.14500538 0.0077740834 -0.6970104 -0.026418377
0.039238833 -0.3707714 0.27558032 -0.17804267 -0.78762525 0.23002045 -0.26035154 -0.04107604
-0.53518414 -0.24387614 -0.06309219 0.033963297 -0.031685866 -0.20944548 0.39738128 -0.03327926
-0.7298786 -0.18829204 -0.32922265 0.5615305 -0.42398894 0.1470356 0.11892265 0.15685818
0.14264764 0.44282702 0.34467167 -0.77166677 0.517849 0.3835502 -0.37196892 -0.31609207
0.4907373 0.061722614 -0.07953523 -0.18674514 0.010890832 0.33874252 0.6197473 0.30032703
0.19011328 -0.33093366 0.1869494 0.46484107 -0.25452024 -0.010210041 0.3406539 -0.046252172
-0.5214421 -0.1358514 0.047877677 0.9292489 -0.7800317 -0.28484645 -0.13021971 -0.14319108
0.25640234 -0.08124601 0.9111836 0.6866745 -0.0057951375 0.041558295 0.18074456 -0.3287334
0.07333328 0.6341553 -0.839427 -0.73322093 -0.114573486 -0.25410086 0.15657386 0.89485973
-0.26391658 0.6039232 -0.47835648 0.5273542 -0.44794732 -0.5820472 0.09510439 0.0893957
-0.2594428 -0.065852106 0.14560127 0.11452559 0.03064421 -0.20180178 0.6090784 0.09909305
0.12049726 -0.11195048 0.54086864 0.8345715 0.1599683 0.09411988 0.5183736 -0.18151854
0.17902894 0.26239353 -0.28078946 -0.016684793 0.023269473 0.2272966 -0.39009935 -0.32735786
