best_models/best_model_lstm_search_7_features_70.pt (torch, 26154 bytes, 5 tensors)

lstm.weight_ih_l0 f4 [128, 11]
0.21593824 0.18897906 0.100000285 0.106867805 0.36389896 0.18080911 -0.06285775 0.2989766
0.18202837 0.20313354 0.19105674 0.1327766 0.03316653 0.2140742 0.26871467 0.078544475
0.2761695 0.24858296 0.41049656 0.09772908 0.36603704 0.05947934 0.39183098 0.16167559
0.27599847 0.3658367 0.27334467 0.29261056 -0.046720378 0.4111139 0.46603495 0.36398077
0.2549628 0.4075439 0.14317241 0.0981422 0.4327288 0.08640894 0.23855709 0.14269571
0.25086805 0.1733592 0.07943486 0.16419622 -0.026934044 0.16215752 0.062479347 0.24375913
0.06444101 0.28038502 0.1523944 0.24097246 0.27999002 0.212628 0.04972799 0.087841675
0.07143011 0.2948409 0.28723153 0.31480995 0.19691573 -0.14181589 0.33605763 0.37786573
0.25884768 0.08882144 -0.008150874 0.0772581 0.15660919 -0.09523739 -0.0028031857 0.043597333
0.18154302 0.26328394 0.19956996 0.15958418 0.027078424 -0.21172503 -0.07749677 0.0543553
-0.0036069788 -0.20242769 -0.13342617 -0.22166044 -0.2318112 -0.078447536 0.08389297 -0.036685944
0.09796656 0.19059306 0.10180351 -0.0438161 0.23570086 0.3412136 0.14388594 0.32656363
0.38820562 0.2890413 0.11081523 0.111540675 0.13731828 0.11172181 0.1994827 0.3698699
0.070620246 -0.05041164 0.3474876 0.38510466 0.18408526 0.073648274 0.20954432 0.21986608
0.24119236 0.15519083 0.17215315 0.10853218 0.07306725 0.084366105 0.3084529 0.2625701
0.16660483 0.27790177 -0.004644722 0.15061173 0.21937747 0.34254643 0.37200537 0.070214376
0.5770704 0.3350772 0.5928848 0.23885462 0.18158005 -0.031199928 0.39885664 0.056724153
0.3646684 0.3108401 0.07558841 0.39298823 0.3623082 0.5120515 0.17309703 0.3637687
0.08562014 0.22446263 0.39221066 0.46610895 0.26609057 0.06034525 0.23003395 0.412088
0.35000417 0.24907559 0.0015114661 0.22786957 0.36754325 -0.019296229 0.20419493 0.19523345
0.11314642 0.3172783 0.37017685 0.29407316 0.20005538 0.48316613 0.36072752 0.23156632
0.3850055 0.40988603 0.30964714 0.07607386 0.3048202 0.44435194 0.57442784 0.24231535
0.11789036 -0.1222963 0.22765388 0.030061254 0.47662443 0.1826095 0.13639633 0.4936113
0.31973845 0.36316645 -0.03975614 0.29149073 0.011638598 0.11350419 0.09674849 0.07587437
0.14796133 0.14033915 0.105926886 0.015440568 0.242958 0.23622268 0.17195645 0.0063665044
0.37280443 0.05463612 0.178324 0.25897688 -0.045042966 0.31226254 0.36759895 0.21906304
0.07879828 -0.019619284 0.21994936 0.1333337 0.11597635 0.41881406 0.37590283 -0.06622251
0.29468843 0.13513392 0.4389707 0.25621784 0.11504792 0.051837932 0.10185874 0.23542036
0.10049791 0.23666523 0.21890497 0.07700114 0.038381454 0.27510867 0.032535095 0.16520284
-0.03259081 0.08515102 0.008617933 0.0039634095 0.1784393 0.20085756 0.21463852 0.23607372
0.29594052 0.051692013 -0.09685518 0.11238573 0.16336513 0.09393846 0.021493386 0.42518714
0.080516465 0.312382 0.18639056 0.46386614 0.097002275 0.07058518 -0.06416398 -0.08966703
00000000: ea1e 5d3e ba83 413e f3cc cc3d 82dd da3d
00000010: f750 ba3e 0626 393e 90bb 80bd 7613 993e
00000020: a565 3a3e 3d02 503e 61a4 433e 97f6 073e
00000030: a1d9 073d 4436 5b3e f894 893e eddb a03d
00000040: 1766 8d3e 888c 7e3e 9b2c d23e 2f26 c83d
00000050: 3569 bb3e 9ca0 733d 129e c83e 498e 253e
00000060: ac4f 8d3e f34e bb3e d5f3 8b3e 0dd1 953e
00000070: de5d 3fbd 857d d23e 229c ee3e b05b ba3e
00000080: 7c8a 823e 98a9 d03e ca9b 123e c7fe c83d
00000090: a18e dd3e 2cf7 b03d 4f48 743e d31e 123e
000000a0: c771 803e 1385 313e beae a23d 0e23 283e
000000b0: c9a4 dcbc 9f0c 263e 58ea 7f3d fe9b 793e
000000c0: a6f9 833d a08e 8f3e 470d 1c3e 7cc1 763e
000000d0: da5a 8f3e 28bb 593e 94af 4b3d 56e6 b33d
000000e0: f349 923d 63f5 963e 0310 933e c52e a13e
000000f0: 47a4 493e 2f38 11be bf0f ac3e 9e77 c13e
00000100: af87 843e 04e8 b53d 3e8b 05bc 7f39 9e3d
00000110: 295e 203e d20b c3bd a7b5 37bb 1e93 323d
00000120: 6ae6 393e 27cd 863e 115c 4c3e 096a 233e
00000130: 92d3 dd3c 72ce 58be a0b6 9ebd aaa3 5e3d
00000140: 1063 6cbb 3449 4fbe dfa0 08be f4fa 62be
00000150: ea5f 6dbe 1aa9 a0bd 14d0 ab3d 0044 16bd
00000160: b1a2 c83d d42a 433e 5c7e d03d 8378 33bd
00000170: 915b 713e 8db3 ae3e d656 133e 5933 a73e
00000180: e3c2 c63e 39fd 933e 18f3 e23d 706f e43d
00000190: 2a9d 0c3e 68ce e43d 3145 4c3e 965f bd3e
000001a0: 59a1 903d 707c 4ebd e5e9 b13e 702c c53e
000001b0: d980 3c3e e8d4 963d c992 563e 9324 613e
000001c0: 21fb 763e 58ea 1e3e ea48 303e 1f46 de3d
000001d0: 48a4 953d 23c8 ac3d 8aed 9d3e 976f 863e
000001e0: 759a 2a3e 2449 8e3e c132 98bb f639 1a3e
000001f0: 7da4 603e 3f62 af3e 7d77 be3e 8ecc 8f3d
00000200: e3ba 133f 3d8f ab3e 4cc7 173f 4e96 743e
00000210: 1ff0 393e fe96 ffbc f036 cc3e 9657 683d
00000220: d1b5 ba3e 6f26 9f3e 19ce 9a3d c135 c93e
00000230: 7680 b93e cf15 033f 5940 313e e43f ba3e
00000240: 9d59 af3d 88d9 653e d6cf c83e d5a5 ee3e
00000250: 063d 883e 952c 773d 058e 6b3e 33fd d23e
00000260: bf33 b33e ac0d 7f3e 631c c63a a456 693e
00000270: a12e bc3e 2013 9ebc 7a18 513e 47eb 473e
00000280: 4fb9 e73d 4d72 a23e d287 bd3e c290 963e
00000290: 51db 4c3e 8d61 f73e 47b1 b83e b91f 6d3e
000002a0: 711f c53e 95dc d13e 128a 9e3e 9dcc 9b3d
000002b0: 6511 9c3e 1982 e33e b40d 133f 8421 783e
000002c0: 8070 f13d 7c76 fabd 191e 693e 0543 f63c
000002d0: 1e08 f43e fcfd 3a3e 7bab 0b3e 9fba fc3e
000002e0: c2b4 a33e f4f0 b93e 56d7 22bd 463e 953e
000002f0: d1af 3e3c e374 e83d 1324 c63d 0664 9b3d
00000300: 2d83 173e 11b5 0f3e 32f0 d83d 70fa 7c3c
00000310: fbc9 783e 5ce4 713e 5a15 303e 1c9e d03b
00000320: 39e0 be3e 20ca 5f3d 919a 363e 9e98 843e
00000330: f97e 38bd e0e0 9f3e ee35 bc3e 1052 603e
00000340: fe60 a13d 9fb8 a0bc 683a 613e a188 083e
00000350: 0285 ed3d cc6e d63e 5676 c03e ab9f 87bd
00000360: 67e1 963e 8c60 0a3e c5c0 e03e fc2e 833e
00000370: 3e9e eb3d 0354 543d 519b d03d 0912 713e
00000380: d9d1 cd3d 5f58 723e a028 603e c6b2 9d3d
00000390: df35 1d3d 0bdb 8c3e 8543 053d ef2a 293e
000003a0: f17d 05bd a863 ae3d 3b32 0d3c 7ddf 813b
000003b0: cbb8 363e 9bad 4d3e 33ca 5b3e 4fbd 713e
000003c0: 8485 973e 01bb 533d 025c c6bd 7d2a e63d
000003d0: 3049 273e cf62 c03d e612 b03c 21b2 d93e
000003e0: d1e5 a43d 89f0 9f3e 2bdd 3e3e dd7f ed3e
000003f0: 21a9 c63d f68e 903d 6868 83bd 59a3 b7bd

lstm.weight_hh_l0 f4 [128, 32]
-0.07931413 0.17193018 0.091025636 -0.121637195 -0.10039828 0.13540284 0.08662312 0.13994713
0.008458659 -0.14654256 -0.16008303 0.15388115 0.14230381 -0.024707079 0.08519189 0.16172402
-0.15905742 0.14243539 0.11946528 -0.14125773 0.12632181 0.027302071 0.1384895 -0.0043368638
0.05797124 0.03964351 0.113251135 0.117181614 -0.05886709 -0.10913486 0.022325963 -0.0019402057
-0.062248766 -0.034272805 -0.111521 -0.046561316 0.015186921 -0.072138675 -0.081739515 0.053069904
-0.061625056 -0.057187818 -0.023096278 -0.03632438 0.074000135 -0.14609037 -0.17188844 0.13012777
-0.06096579 -0.12804271 -0.048653513 0.048269853 0.031403363 0.016177565 0.065691724 0.08003141
0.15164222 0.0036305487 -0.12563182 -0.17546085 0.050585598 0.17635848 0.17258392 -0.14165908
-0.030168742 0.06519021 -0.055281848 -0.017606258 -0.065065295 0.056371093 0.11364631 0.1486124
-0.09442407 0.12864842 0.0517482 0.015534565 -0.15776005 0.09206016 -0.16726033 -0.010195896
0.08136882 -0.03397596 -0.15877917 -0.1485006 0.092124775 0.03022486 0.065079376 -0.04761517
0.0756508 -0.036117613 0.008833766 0.1068757 0.015864626 0.008923143 -0.021285102 -0.017312706
0.12373404 -0.08998626 0.14097543 -0.034810618 -0.11805788 0.1472661 0.03003496 -0.034374446
0.015807956 0.086408004 0.15148367 0.15615036 0.13765003 -0.08708112 0.10953744 -0.104277685
0.08856936 0.14509045 -0.108500145 0.14697935 -0.11711117 0.056013137 0.10515444 0.040633425
-0.08530288 -0.06989509 0.1748374 0.13714288 -0.10040658 0.03126605 -0.15594883 -0.11110419
-0.009856924 0.055224285 0.08774425 -0.06780368 -0.13244721 -0.17318381 -0.10132252 -0.07131538
-0.111994624 0.10423471 0.15940978 -0.16623461 0.10356857 0.12913863 -0.11220081 0.009134278
-0.043147877 0.043979734 -0.11608976 -0.17041305 0.16116183 -0.03262058 -0.06979929 0.0034438819
0.15303998 -0.14492293 -0.17067459 0.10532941 -0.09523877 -0.1283977 -0.10442916 0.09285928
0.05824873 -0.17549919 -0.1442875 0.15048493 0.0077122897 -0.16701919 -0.06650939 0.03485684
0.16828959 0.07460602 0.12192081 0.16363792 0.008905053 -0.04884571 -0.04147385 0.026675627
-0.11954298 0.07578887 -0.14112568 -0.15128596 -0.1747555 -0.16127105 -0.10187311 0.0016118884
0.036714733 -0.14754711 0.119967505 -0.015890345 -0.08099758 0.09797372 -0.06448082 0.14558338
0.01467973 0.015340611 -0.04492861 -0.05865328 0.014953285 0.11417569 -0.01273711 -0.055679232
0.11220573 0.15497102 -0.06268307 -0.05027567 -0.16792645 -0.14354503 -0.0064561665 0.07182379
0.049593568 -0.008147135 0.12770776 0.10389711 -0.07504969 0.084164545 0.10906075 -0.13698274
0.0189275 0.16276772 -0.036796153 0.15794213 -0.0042259544 -0.08549684 -0.12062676 -0.109762974
0.13837056 0.16870697 0.0040515363 0.13541318 -0.06127452 0.15576531 0.17486723 0.12785979
-0.10731717 0.16408814 -0.16012408 -0.14267993 0.10800035 0.15101345 0.14129509 0.046993777
-0.11667895 0.10625948 -0.15961695 0.008273527 -0.12227087 -0.12081019 -0.0752669 -0.12873727
0.021581024 0.063415706 0.10776092 -0.04387778 0.034252346 -0.088450536 0.101025954 0.09114955
00000000: 726f a2bd 770e 303e a66b ba3d ec1c f9bd
00000010: 9d9d cdbd 0ba7 0a3e 7667 b13d 4d4e 0f3e
00000020: 3096 0a3c 410f 16be ceec 23be 0593 1d3e
00000030: 17b8 113e 8066 cabc 1679 ae3d fb9a 253e
00000040: f3df 22be 95da 113e 36aa f43d dea5 10be
00000050: 815a 013e 98a8 df3c 31d0 0d3e 401c 8ebb
00000060: 4073 6d3d 3c61 223d 36f0 e73d eafc ef3d
00000070: 9e1e 71bd 1982 dfbd f0e4 b63c 804e feba
00000080: 90f8 7ebd a461 0cbd 1f65 e4bd 14b7 3ebd
00000090: 90d2 783c 71bd 93bd 0c67 a7bd d45f 593d
000000a0: 8e6a 7cbd c63d 6abd 6834 bdbc e0c8 14bd
000000b0: 628d 973d b798 15be 8603 30be 3740 053e
000000c0: 44b7 79bd a11d 03be e848 47bd 9cb6 453d
000000d0: d0a0 003d d086 843c 6289 863d 82e7 a33d
000000e0: 1948 1b3e 80ee 6d3b a1a5 00be 02ac 33be
000000f0: d832 4f3d 5197 343e d7b9 303e 140f 11be
00000100: 7024 f7bc 7282 853d 386f 62bd 003b 90bc
00000110: f440 85bd 60e5 663d 66bf e83d d92d 183e
00000120: 6861 c1bd 69bc 033e ecf5 533d b084 7e3c
00000130: da8b 21be 0a8a bc3d 4b46 2bbe b00c 27bc
00000140: b2a4 a63d 602a 0bbd 0297 22be 8b10 18be
00000150: eaab bc3d 209a f73c 5648 853d 2008 43bd
00000160: ceee 9a3d 10f0 13bd 80bb 103c a6e1 da3d
00000170: 88f6 813c 6032 123c 185e aebc 60d3 8dbc
00000180: 4668 fd3d b74a b8bd dd5b 103e 9495 0ebd
00000190: 54c8 f1bd edcc 163e e00b f63c 38cc 0cbd
000001a0: b07f 813c aef6 b03d 891e 1b3e e1e5 1f3e
000001b0: 21f4 0c3e 9657 b2bd 2a55 e03d 8a8f d5bd
000001c0: da63 b53d 9792 143e 5335 debd c181 163e
000001d0: fbd7 efbd 086e 653d 365b d73d 3c6f 263d
000001e0: 47b3 aebd 2825 8fbd 9308 333e 2f6f 0c3e
000001f0: f7a1 cdbd d410 003d 0db1 1fbe 988a e3bd
00000200: f07e 21bc dc32 623d 42b3 b33d a8dc 8abd
00000210: 3ea0 07be 1957 31be 2e82 cfbd cc0d 92bd
00000220: 705d e5bd 0279 d53d 513c 233e 6839 2abe
00000230: c21b d43d eb3c 043e 8ac9 e5bd f0a7 153c
00000240: d4bb 30bd 1824 343d 78c0 edbd c280 2ebe
00000250: 9b07 253e 289d 05bd eef2 8ebd c0b2 613b
00000260: 83b6 1c3e ad66 14be 52c5 2ebe f2b6 d73d
00000270: 8b0c c3bd b07a 03be f5de d5bd 022d be3d
00000280: 3896 6e3d 0fb6 33be 1ac0 13be b918 1a3e
00000290: 60b7 fc3b 1407 2bbe 1336 88bd 0cc6 0e3d
000002a0: 1b54 2c3e 0acb 983d 9eb1 f93d b390 273e
000002b0: 80e6 113c 7012 48bd 7ce0 29bd d886 da3c
000002c0: f3d2 f4bd 3237 9b3d 4083 10be b5ea 1abe
000002d0: 1bf3 32be 3d24 25be d9a2 d0bd 0046 d33a
000002e0: 3062 163d 9716 17be 86b1 f53d 782c 82bc
000002f0: 0fe2 a5bd 72a6 c83d 850e 84bd cf13 153e
00000300: 4083 703c 3057 7b3c 1007 38bd 6c3e 70bd
00000310: a0fe 743c f2d4 e93d 50af 50bc e80f 64bd
00000320: 1ecc e53d b9b0 1e3e fb5f 80bd dced 4dbd
00000330: e9f4 2bbe 78fd 12be 408e d3bb 5a18 933d
00000340: a022 4b3d 907b 05bc d3c5 023e 02c8 d43d
00000350: a7b3 99bd 765e ac3d 3e5b df3d 3445 0cbe
00000360: d80d 9b3c 95ac 263e 90b7 16bd 95bb 213e
00000370: e079 8abb f818 afbd 2a0b f7bd 69cb e0bd
00000380: 03b1 0d3e 85c1 2c3e c0c2 843b c1a9 0a3e
00000390: fefa 7abd f180 1f3e 6510 333e aded 023e
000003a0: 1bc9 dbbd b906 283e 91f7 23be b01a 12be
000003b0: 4a2f dd3d 45a3 1a3e a9af 103e 8c7c 403d
000003c0: 60f5 eebd 929e d93d a072 23be b08d 073c
000003d0: 2669 fabd 556b f7bd 8825 9abd b4d3 03be
000003e0: b0ca b03c 18e0 813d c2b1 dc3d 30b9 33bd
000003f0: 304c 0c3d 8e25 b5bd b2e6 ce3d 9eac ba3d

lstm.bias_ih_l0 f4 [128]
0.2531701 0.36909455 0.11334341 0.27279085 0.47486538 0.15413523 0.1286667 -0.011208147
0.25534534 0.31048355 0.42438385 0.5698792 0.4031195 0.30283913 0.22884542 0.4269043
0.37053102 0.43167862 0.40007952 0.20810778 0.12953922 0.39455947 0.47022066 -0.06489323
0.14300579 0.26456177 0.2860749 0.15364498 0.08166341 0.14174531 0.3525353 0.28343087
0.16867195 0.14888607 0.07874875 -0.16586864 0.05447316 -0.02937916 0.17455651 0.1210881
-0.08541764 0.013726234 -0.10635407 0.12766479 0.13594024 0.07955225 0.05508256 -0.09661707
-0.0029013753 -0.15192313 0.110480264 -0.17386943 0.016133666 0.16272469 0.029506266 -0.109656006
-0.11152926 0.090211734 -0.12715173 -0.12075542 0.12680642 0.07802741 0.11937152 0.16638388
-0.35192043 0.22020021 -0.2785312 0.20947963 0.24890994 0.19775878 -0.16776635 0.09090451
0.28789675 0.39903328 0.07685503 0.24060908 0.37424627 0.46776903 -0.2185325 -0.34810367
-0.37246 -0.26515692 0.16180265 0.21092999 0.22830601 0.3004741 -0.3145187 -0.12387105
0.24130228 -0.11435934 -0.26187772 0.21912749 0.08677433 0.258149 0.28300703 0.11626647
0.34008226 0.3392661 0.20342296 0.20562324 0.20181443 0.18175474 0.20983054 -0.2703733
-0.010944212 0.35677096 0.33136737 0.15913767 0.15891396 0.28387666 0.22727764 0.3396543
0.25372186 0.22229291 0.5489278 0.145137 0.15370287 0.11633768 0.46951163 -0.03996013
0.30233052 0.24272162 0.49257472 0.43125802 0.14004812 0.43660954 0.26169246 0.430944
00000000: 839f 813e f6f9 bc3e 9720 e83d 3eab 8b3e
00000010: 8e21 f33e a0d5 1d3e 34c1 033e 60a2 37bc
00000020: a0bc 823e b3f7 9e3e d748 d93e 9ae3 113f
00000030: ae65 ce3e bb0d 9b3e 7456 6a3e 3393 da3e
00000040: 3eb6 bd3e fb04 dd3e 39d7 cc3e 351a 553e
00000050: eea5 043e b303 ca3e c3c0 f03e bee6 84bd
00000060: 1c70 123e a474 873e 6978 923e 1c55 1d3e
00000070: 253f a73d af25 113e 827f b43e da1d 913e
00000080: 57b8 2c3e 9775 183e 0647 a13d 78d9 29be
00000090: 401f 5f3d 90ac f0bc f1be 323e 0afd f73d
000000a0: 72ef aebd 00e4 603c 2ad0 d9bd 8fba 023e
000000b0: eb33 0b3e 4aec a23d 409e 613d 2cdf c5bd
000000c0: 0025 3ebb bd91 1bbe 7a43 e23d d40a 32be
000000d0: c02a 843c 4da1 263e 20b7 f13c 5493 e0bd
000000e0: 7469 e4bd eec0 b83d 1034 02be 9e4e f7bd
000000f0: 8bd9 013e d6cc 9f3d 0e79 f43d 8960 2a3e
00000100: ea2e b4be 2a7c 613e a49b 8ebe d481 563e
00000110: 3fe2 7e3e 4781 4a3e f1ca 2bbe 252c ba3d
00000120: 3467 933e 174e cc3e 2c66 9d3d 3a62 763e
00000130: 359d bf3e 6c7f ef3e fcc6 5fbe a53a b2be
00000140: 14b3 bebe a6c2 87be 98af 253e 08fe 573e
00000150: 0dc9 693e bed7 993e 9808 a1be 1bb0 fdbd
00000160: f217 773e 3b35 eabd d614 86be f562 603e
00000170: bdb6 b13d 1b2c 843e 4ce6 903e 1d1d ee3d
00000180: 431f ae3e 49b4 ad3e 1c4e 503e e68e 523e
00000190: 71a8 4e3e ea1d 3a3e d1dd 563e 5f6e 8abe
000001a0: 5a4f 33bc afaa b63e fca8 a93e fcf4 223e
000001b0: 57ba 223e 4858 913e 78bb 683e 2be7 ad3e
000001c0: d5e7 813e c1a0 633e 8886 0c3f cb9e 143e
000001d0: 4964 1d3e 7342 ee3d d463 f03e 3cad 23bd
000001e0: 11cb 9a3e 048c 783e c132 fc3e dacd dc3e
000001f0: c668 0f3e 498b df3e 8efc 853e b1a4 dc3e

lstm.bias_hh_l0 f4 [128]
0.2823365 0.243957 0.30231273 0.11975622 0.20280463 0.258551 0.092034206 0.07055679
0.3279896 0.106703185 0.3578391 0.35509515 0.25565323 0.41339555 0.19957882 0.50326264
0.48551705 0.08471509 0.2454575 0.4322027 0.08491378 0.31692538 0.39191246 -0.22694522
0.31587434 0.2842155 0.18641199 0.13177039 0.33258677 0.14545326 0.25906911 0.3471672
-0.17123236 -0.03579271 0.031924576 -0.1253381 -0.12852737 0.1265829 -0.010372907 -0.13534628
-0.039445102 0.13112254 0.060512185 -0.04626122 -0.111253895 0.029337496 -0.06671365 0.06772101
0.13988061 0.0781904 -0.02906838 -0.13987382 -0.024404898 0.04431452 -0.13314754 0.009005025
-0.1748475 0.10538252 -0.10228579 0.06804602 0.17311697 0.07562275 -0.039781317 -0.119322196
-0.42754167 0.102913775 -0.25555205 0.2774308 0.07400529 0.049386203 -0.13449547 -0.22548406
0.13711426 0.43359667 0.2591603 0.414319 0.2156445 0.38658568 -0.3599171 -0.26140556
-0.2439574 -0.38107267 0.21486732 0.22128487 0.13841589 0.2342931 -0.13649143 -0.16509023
0.07058091 -0.11435314 -0.15862997 0.33401194 0.101512946 0.13470577 0.3087473 0.030147796
0.23230886 0.45268995 0.41397873 0.4452321 0.22591591 0.2884227 0.29586193 -0.052577954
-0.14058217 0.25112486 0.29725006 0.35781413 0.17247956 0.28438368 0.3516007 0.3681086
0.47471505 0.4305993 0.41666272 0.17835331 0.36314812 0.12029963 0.22557494 0.046437245
0.37839043 0.37832293 0.3324675 0.5480741 0.46865934 0.29192418 0.17141528 0.26814717
00000000: 698e 903e ddcf 793e bcc8 9a3e c042 f53d
00000010: 04ac 4f3e cc60 843e 6e7c bc3d 1480 903d
00000020: 41ee a73e 3387 da3d b036 b73e 08cf b53e
00000030: fbe4 823e 95a8 d33e 645e 4c3e d2d5 003f
00000040: b195 f83e 1b7f ad3d 3659 7b3e ac49 dd3e
00000050: 47e7 ad3d 0b44 a23e c0a8 c83e 5464 68be
00000060: 48ba a13e b284 913e c9e2 3e3e d1ee 063e
00000070: d048 aa3e b3f1 143e b5a4 843e e6bf b13e
00000080: 8957 2fbe 609b 12bd 58c3 023d a258 00be
00000090: ae9c 03be f39e 013e 20f3 29bc 3798 0abe
000000a0: 3091 21bd fd44 063e a0db 773d 687c 3dbd
000000b0: 15d9 e3bd 3055 f03c 2ba1 88bd 50b1 8a3d
000000c0: dd3c 0f3e 4a22 a03d d020 eebc 153b 0fbe
000000d0: c8ec c7bc 2483 353d d457 08be d089 133c
000000e0: 390b 33be cad2 d73d 367b d1bd b65b 8b3d
000000f0: 9345 313e 1ae0 9a3d bcf1 22bd 325f f4bd
00000100: bee6 dabe 75c4 d23d b8d7 82be 690b 8e3e
00000110: 1690 973d 3049 4a3d 2eb9 09be 4be5 66be
00000120: ae67 0c3e 6200 de3e a9b0 843e 9f21 d43e
00000130: e9d1 5c3e 8fee c53e 0e47 b8be f3d6 85be
00000140: f8cf 79be f51b c3be 2e06 5c3e 8098 623e
00000150: e5bc 0d3e 88ea 6f3e 69c4 0bbe 6a0d 29be
00000160: b98c 903d fb31 eabd e56f 22be 9d03 ab3e
00000170: 05e6 cf3d 4ff0 093e 2014 9e3e 83f8 f63c
00000180: 60e2 6d3e fac6 e73e 05f5 d33e 76f5 e33e
00000190: 8056 673e 24ac 933e 377b 973e fb5b 57bd
000001a0: c6f4 0fbe 7093 803e 2931 983e 6a33 b73e
000001b0: 7b9e 303e bd9a 913e 0205 b43e bb78 bc3e
000001c0: da0d f33e 8377 dc3e d154 d53e 40a2 363e
000001d0: 8dee b93e a75f f63d 1efd 663e fb34 3e3d
000001e0: 64bc c13e 8bb3 c13e 2e39 aa3e 964e 0c3f
000001f0: 1ef4 ef3e 1677 953e 7d87 2f3e 964a 893e

fc.weight f4 [1, 32]
-4.12056 4.1714873 -4.284337 4.149697 3.4976003 3.434796 -3.45781 0.027304713
0.10740447 4.131553 3.5507774 4.804668 4.32657 4.2690973 -3.8945224 -4.656484
-4.4255 -3.6584027 3.6057618 3.5090246 3.878033 3.6403 -3.4794297 -0.053029187
3.5430524 -3.708888 -3.7147121 3.8254197 3.5888717 3.72428 3.560534 4.622048
00000000: a1db 83c0 d37c 8540 4a19 89c0 51ca 8440
00000010: afd8 5f40 b3d3 5b40 c24c 5dc0 22ae df3c
00000020: e0f6 db3d af35 8440 f03f 6340 d7bf 9940
00000030: 4373 8a40 729c 8840 db3f 79c0 eb01 95c0
00000040: b29d 8dc0 4523 6ac0 cdc4 6640 dc93 6040
00000050: b131 7840 adfa 6840 faae 5ec0 2235 59bd
00000060: 5fc1 6240 6c5e 6dc0 d8bd 6dc0 add3 7440
00000070: 13b0 6540 9b5a 6e40 cadf 6340 d1e7 9340
