best_models/best_model_rnn_search_6_features_all.pt (torch, 22954 bytes, 5 tensors)

rnn.weight_ih_l0 f4 [64, 11]
000000 58 40 38 be d1 3d e3 bd 42 2a 1b be d3 3a 18 bd
       -0.17993295 -0.11095775 -0.15152839 -0.037165474
000010 c4 2d 91 3b b2 9a 71 bd 4c fc 1d 3d 95 a0 5c 3d
       0.0044305045 -0.05898542 0.038570687 0.05386408
000020 7c 01 d5 bd 82 c9 5c bd 2f 3c 71 3d 93 8e 39 3d
       -0.10400674 -0.05390311 0.058895286 0.045301985
000030 7f 71 52 3d 5d b8 58 3d d8 61 40 3d e2 77 25 3e
       0.05137777 0.052910198 0.04696831 0.16159013
000040 ad b4 00 3e 7d 5f b8 3d bf 7f 48 3e da a5 32 3e
       0.12568922 0.09002588 0.19579981 0.1744608
000050 92 06 93 3d c5 95 ab 3d 2a 1e 24 3e 9c 17 3d 3e
       0.071789876 0.08378176 0.16027132 0.18466038
000060 69 25 18 3e d4 e3 73 3d 5b 6e 86 3a 3c 86 7c 3d
       0.14858021 0.059543446 0.0010256277 0.061651453
000070 59 ce fc 3d 29 d3 15 3e 09 45 9f 3d 0b 23 41 3e
       0.12344045 0.14631332 0.07776839 0.18861024
000080 2f ae 1b ba 9d 85 0e 3d 34 1d 94 3d af 9d d8 3d
       -0.0005938736 0.034795392 0.072321326 0.10576951
000090 34 5a db 3d e1 f9 f8 3d 99 cd c7 3d e5 f5 5e 3d
       0.10710564 0.121570356 0.097560115 0.054433722
0000a0 22 a6 b6 3d 8a f9 eb 3d 1b ab e7 3d 5e f0 4d 3d
       0.08918406 0.11522205 0.11311933 0.05027806
0000b0 25 a2 9c bd 50 01 f8 bd 3b c9 b8 3c d4 92 ac bd
       -0.07648114 -0.12109625 0.022556892 -0.08426443
0000c0 5f a8 8f bd 95 15 03 be ed bd 09 bd d3 30 5d 3d
       -0.07014536 -0.12801202 -0.033628393 0.05400164
0000d0 58 fd 74 3c aa fe 96 bd f0 e7 07 be 01 ba 0a 3e
       0.01495298 -0.07372792 -0.13272071 0.13547517
0000e0 64 60 56 3d f5 4a 02 3e 12 f7 ba 3d 62 df a8 3c
       0.05233802 0.12723906 0.09129156 0.02061433
0000f0 77 f1 11 3e 76 80 e8 3d 78 5c 1b 3d da ee 7b 3d
       0.14252268 0.11352627 0.037929982 0.061507083
000100 a5 12 d3 bb c0 5f 1a bb dc 76 0a 3e b2 82 a6 3d
       -0.0064414316 -0.0023555607 0.13521904 0.08130397
000110 db 6b c9 3d 52 bd dd bc 71 41 aa 3d 62 06 90 3d
       0.09835025 -0.027067814 0.08313263 0.070324674
000120 45 18 ec 3c 8f eb a7 3b db 35 17 3c 81 76 2c 3e
       0.028820166 0.0051245163 0.009229149 0.1684208
000130 61 b7 15 3e dd 75 52 3d 85 27 26 3e f7 e6 c3 3d
       0.14620735 0.051381934 0.16226013 0.095655374
000140 17 cc f0 ba 6c 5f 49 3e bd 14 53 3d 8d 18 22 3e
       -0.001837137 0.19665307 0.05153345 0.15829678
000150 ad 24 60 3c 46 89 00 3e e6 ee 09 3e b0 be 85 3b
       0.013680619 0.12552366 0.13470039 0.0040815696
000160 1e a9 96 3d f4 1c 96 3d 8b d1 69 3d d1 59 52 3e
       0.07356475 0.07329741 0.0570846 0.20542075
000170 2c 04 41 3e 33 e0 d6 3d b6 c1 68 3d da 24 9e 3d
       0.18849248 0.10491981 0.056825362 0.07721873
000180 bd b5 1d 3e eb cf 3d bd 45 39 a5 3d 64 8a f6 3d
       0.15401359 -0.046340864 0.08067564 0.12038115
000190 eb c0 34 3e 18 e6 ed 3c 11 87 e0 3d ec 89 e3 3c
       0.17651717 0.029040381 0.10963262 0.027775727
0001a0 0d 38 51 3e b1 8a ab 3c f7 51 a8 b6 be 00 e8 3d
       0.20431538 0.020940157 -5.016332e-06 0.113282666
0001b0 70 46 05 3e 00 d5 a8 bb 4b 50 7e be 99 c5 84 be
       0.13015151 -0.0051523447 -0.24835317 -0.25932005
0001c0 5a 5a cb bd 5e 93 c1 bd 1c bc 75 be 39 14 0d bd
       -0.099293426 -0.09451936 -0.2399754 -0.034443114
0001d0 3a f0 1e bd 34 0d 5f be 7d d6 72 be 3f af 85 be
       -0.038803317 -0.2178238 -0.23714633 -0.26110265
0001e0 59 0e b7 bd 5d b0 2b 3e cd f6 d5 bc 5d 03 cc 3d
       -0.089382835 0.16766496 -0.02611866 0.09961579
0001f0 40 30 2c 3d 19 84 90 3d a6 e1 36 3e a4 c6 43 3d
       0.042038202 0.07056446 0.17859516 0.04779686
000200 38 f7 79 3c 96 04 9f 3d 3f d6 61 ba aa 0d a5 3d
       0.015256695 0.077645466 -0.0008614994 0.08059247
000210 3f f7 9c 3d b9 a4 1c 3d a5 c1 97 3d c2 24 11 3e
       0.07664346 0.03824303 0.07409982 0.14174178
000220 b9 a2 89 3d 8d b9 15 3e 5d 03 d1 3c 2d 71 a2 3d
       0.0672049 0.14621563 0.025514299 0.07931743
000230 22 48 0a 3e cd 3f 1c 3e 0c 68 d0 bd 85 2e 16 be
       0.13504079 0.15258713 -0.10176095 -0.14666183
000240 af 5a 88 bd 39 2d 1f be 7d 05 07 be 6c a9 49 be
       -0.066579215 -0.15544595 -0.13185687 -0.19693536
000250 c8 95 7f bd 64 bb 21 bd 98 ca cd bc d5 4b 18 be
       -0.062398702 -0.03948535 -0.025121018 -0.14872678
000260 29 20 4f be 6a dd 17 be dc ee 21 be 7c 33 d1 bd
       -0.20227112 -0.14830557 -0.15813774 -0.10214898
000270 54 3c 17 be ec dd 8c 3d de d3 68 3d f2 2d 06 be
       -0.14769107 0.06878266 0.056842677 -0.13103464
000280 37 fa 56 bd e8 51 f2 3c 56 ce 09 be bc 91 10 3d
       -0.052484717 0.029580072 -0.13457617 0.035295233
000290 c0 77 df bb 78 6e b0 bd e4 6a 01 be cd d6 aa 3c
       -0.0068196952 -0.0861482 -0.12638432 0.020854378
0002a0 cd 7f 32 be 94 43 fd 3c be b1 79 bd 99 c9 f4 3c
       -0.17431565 0.030916013 -0.060960524 0.029881286
0002b0 7f e0 2e be 1a 1f 31 be 43 05 9c 3c 30 7f 0d be
       -0.17077826 -0.1729702 0.019045478 -0.1381805
0002c0 ba 88 f0 bd 1b ee fb 3c 2d 9d 3f be c4 bd 83 bd
       -0.117448285 0.030753186 -0.18712302 -0.06432679
0002d0 9e eb d2 3a ac 5b 9a bd 6a 9c 43 be 69 00 9e bc
       0.0016091948 -0.07537016 -0.19102636 -0.019287305
0002e0 13 99 2f be 93 bf 6c 3c 18 80 0b bd 78 b3 4b be
       -0.17148237 0.014449972 -0.034057707 -0.1989268
0002f0 89 70 13 be 62 31 f7 bd 61 d3 4a bd e9 86 52 3c
       -0.14398398 -0.12069966 -0.049517993 0.012849548
000300 5b 1f 31 be 22 01 5f bc 00 0a 0b be cb 07 2a be
       -0.17297117 -0.01361111 -0.13578033 -0.16604535
000310 f3 70 a9 bd 92 0d fb 3d 34 9f 24 3e 60 87 59 3e
       -0.082734965 0.12258448 0.16076356 0.21243048
000320 c3 e2 40 3d 94 e1 4b 3e 58 de 04 bc c2 2c 24 3e
       0.047091257 0.1991027 -0.0081096515 0.16032699
000330 21 8a 88 3b 51 d3 b9 bc 6d 90 22 3e 81 c0 c1 3d
       0.004166857 -0.022683771 0.15875407 0.09460545
000340 66 48 73 bd bf 0c 0a 3e 92 94 ed bc ce 8a 06 3e
       -0.059395216 0.13481425 -0.029001508 0.13138887
000350 f7 21 30 3e 59 d9 2d 3e 00 40 2f 3e bb b0 10 bd
       0.17200457 0.16977443 0.17114258 -0.035324793
000360 dc d3 18 3e 29 bd 46 3d ba ea 81 3d 88 49 e4 3c
       0.14924568 0.04852024 0.06343599 0.027867094
000370 76 bd 23 bd e2 c6 13 be cd 99 8a bc 61 79 36 be
       -0.039975606 -0.14431337 -0.016919041 -0.1781974
000380 4b 44 3f bd f1 55 cf bd 01 38 91 bd 5b eb b5 bc
       -0.04669599 -0.10123814 -0.0709076 -0.022206953
000390 72 48 9e bd 6d b8 bb 39 5a f0 80 3d b2 92 76 3c
       -0.077286616 0.00035804827 0.062958434 0.015049623
0003a0 cd fa 16 be b7 f5 4c bd 3b 35 cc 3c b9 b3 cb bd
       -0.1474411 -0.05003902 0.024927726 -0.09946389
0003b0 54 a1 44 be 84 e6 ee bc 7b e4 07 be f7 5e 43 bd
       -0.19202167 -0.029162653 -0.13270752 -0.047697987
0003c0 78 78 34 be 24 d5 45 be 86 91 21 3d 52 fd 7a 3d
       -0.1762408 -0.19319588 0.039445423 0.06127674
0003d0 db f9 16 ba 37 c3 42 3c a2 dc 3b 3e 0c d5 d7 3d
       -0.0005759277 0.011887363 0.18345883 0.10538682
0003e0 96 51 8d 3d 97 ab 4b 3c 10 2a 27 3d f4 36 6c 3e
       0.06900327 0.012431047 0.0408116 0.23067838
0003f0 bb f9 0a 3e d1 f1 2b 3e 32 97 12 3e 59 79 ef 3d
       0.13571827 0.16791464 0.14315489 0.11693067

rnn.weight_hh_l0 f4 [64, 64]
000000 b8 6f b7 bd 20 54 b7 bc d2 44 c2 bd 04 b5 0a bd
       -0.089568555 -0.022378981 -0.09485783 -0.033864036
000010 d2 c2 97 3d 80 ab 13 bc 9a e5 fd 3d a0 48 aa 3c
       0.07410206 -0.009013057 0.12397309 0.020786583
000020 66 71 a3 3d 0c 46 10 bd 4e 24 9f bd 88 ca f7 bc
       0.079806134 -0.035223052 -0.077705964 -0.030247942
000030 08 2e d4 bc e4 f8 bb 3d 02 19 cb bd 10 b3 f4 bc
       -0.025900856 0.091783315 -0.09916879 -0.02987054
000040 40 4f 45 bd da 52 93 bd bc 9c 49 bd 04 2d 29 3d
       -0.04817128 -0.07193537 -0.04922174 0.041302696
000050 56 fb 8e 3d ac 51 4b bd fc 69 2f bd 60 f4 a3 3d
       0.06981532 -0.049638435 -0.042825684 0.08005595
000060 9c 05 a4 bd b6 05 9f bd 80 fc c0 3d c8 e9 e2 3c
       -0.080088824 -0.07764761 0.094231606 0.027699366
000070 bc 4a ed 3d a8 44 1c bd 92 67 d3 bd 00 d3 fd bd
       0.1158652 -0.038151413 -0.10322489 -0.12393761
000080 80 16 49 3b a4 ae 9c bd e2 83 e5 bd 54 bc 60 bd
       0.0030683577 -0.076504976 -0.11206795 -0.054867104
000090 18 c8 e6 3d 9c a0 91 bd 28 00 26 3d a8 0f fe bc
       0.112686336 -0.07110712 0.040527493 -0.031013325
0000a0 92 aa 91 bd 0c e3 87 bd 78 b6 d5 bd 00 ae e4 bb
       -0.07112612 -0.06635103 -0.10435194 -0.00697875
0000b0 90 f3 ca bd e0 cc 9e 3c 30 41 bf 3d 3c f5 c6 bd
       -0.09909737 0.019384801 0.093386054 -0.097147435
0000c0 16 80 b3 3d 94 c8 bd bd ba 3a 9f bd 9a cb df 3d
       0.08764665 -0.09266773 -0.07774873 0.10927506
0000d0 7e 55 f4 bd 26 af 8b 3d 00 02 ae b9 dc 51 d0 bd
       -0.11930369 0.06820516 -0.00033189356 -0.101718634
0000e0 98 1a 4b 3d fe ac 9f bd 58 2c b4 3c 6e 13 90 3d
       0.04958591 -0.077966675 0.021993801 0.07034956
0000f0 12 69 a8 bd 38 82 9e 3d ee b4 98 bd 88 c4 9a 3d
       -0.082231656 0.07739681 -0.074563846 0.075570166
000100 b0 b4 e7 3d b4 d0 07 3d 68 66 6f bd 98 26 d3 bc
       0.1131376 0.03315802 -0.05844727 -0.025775239
000110 c4 60 6d bd 40 96 83 bd 94 3c 9e 3d c4 80 b4 bd
       -0.05795361 -0.06425142 0.07726398 -0.088136226
000120 34 22 1e bd d2 e1 ac bd 8e 7e cf 3d 20 24 17 3d
       -0.038606837 -0.08441509 0.1013156 0.036899686
000130 f2 eb 8c 3d f0 af bd 3c 00 7e d7 ba 40 7f c2 bd
       0.068809405 0.023155183 -0.0016440749 -0.09496927
000140 e0 11 3a bc 42 f1 92 3d d0 34 a6 bd d2 9d ce bd
       -0.011356801 0.071749225 -0.08115542 -0.100886956
000150 00 16 fa ba a6 66 c2 bd ba 48 bf 3d 52 35 d2 bd
       -0.0019080043 -0.09492235 0.09340043 -0.10264076
000160 68 da de 3c e6 5c 92 3d 30 55 03 3d 96 5a b1 3d
       0.027203754 0.07146625 0.032063663 0.08659856
000170 4a cc f3 3d 40 c3 71 3b a8 73 98 bd 10 df 50 bd
       0.119041994 0.003689006 -0.07443935 -0.05099398
000180 1c d5 38 3d 80 63 31 3d 14 8f 24 bd d4 e5 90 3d
       0.045125112 0.04330778 -0.040175512 0.07075086
000190 98 35 f8 bc 82 bf dd 3d c8 96 83 3c 34 e3 cb bd
       -0.030298993 0.10827543 0.016063109 -0.09955445
0001a0 38 52 29 3d 68 39 86 bc 50 df bf bc e8 b6 61 3d
       0.041338176 -0.016384795 -0.023421913 0.055106074
0001b0 76 7d 8f bd 80 b3 a4 bc 30 66 70 3d e8 a2 5c bd
       -0.07006352 -0.020105124 0.058691204 -0.053866297
0001c0 40 1b cc bd a0 87 f3 bc 28 ef 3d 3d c4 a6 91 3d
       -0.09966135 -0.029727757 0.046370655 0.07111886
0001d0 40 25 b6 3d 4c 97 f7 bd 70 2e 4f bc 40 94 5a 3b
       0.088938236 -0.120894045 -0.012645349 0.0033352524
0001e0 20 df cd bc 3c bf 4e bd 0a 13 a8 bd 8c 67 15 3d
       -0.025130808 -0.050475344 -0.082067564 0.036475703
0001f0 0e 94 dc 3d bc 9e c5 3d dc 46 2e bd a8 d6 1c 3d
       0.10770427 0.09649417 -0.042548046 0.03829065
000200 ba 5b bc bd d4 a9 ad bd 1a 63 93 bd bc 92 9d 3d
       -0.09197183 -0.08479658 -0.071966365 0.07694003
000210 00 3b ae 3a 10 b8 83 bd d6 19 d8 bd 42 d0 de 3d
       0.001329273 -0.064315915 -0.10551803 0.10879566
000220 7c 73 d8 bd d8 bd 0a bd fa 33 cc 3d 10 fb 63 3d
       -0.10568902 -0.033872455 0.09970851 0.055659354
000230 98 cc 82 bd 8e e7 eb 3d 20 1f 38 bd c2 aa c9 3d
       -0.063866794 0.11518775 -0.044951558 0.098470226
000240 d2 be f8 3d 96 74 a6 bd 00 92 33 bd e8 aa 64 bd
       0.12145771 -0.08127706 -0.04384041 -0.05582705
000250 62 e7 ac bd 64 25 58 3d 26 b5 a7 3d fc e5 c1 3d
       -0.0844257 0.052770033 0.08188848 0.09467694
000260 12 b9 f2 bd 2c 07 60 bd ce fe e5 3d 60 09 52 bc
       -0.118517056 -0.05469434 0.11230241 -0.012819618
000270 7c 5f 37 3d 90 e0 bd 3d 44 91 2f bd 38 e0 e5 3c
       0.044768795 0.092713475 -0.042863145 0.028061017
000280 6a e0 d4 3d 14 72 0a 3d 98 39 bb bc 3c f9 a9 bd
       0.10394366 0.0338002 -0.022854611 -0.08299491
000290 7c 02 af 3d 68 1c 1c bd 08 bb c5 3c 90 55 59 3d
       0.08545396 -0.038113028 0.024137035 0.053060114
0002a0 84 a1 5e bd 1e 26 a9 bd 94 a5 b5 bd 00 e3 f9 3a
       -0.054353252 -0.082592234 -0.08869472 0.0019064844
0002b0 f4 b0 9f 3d 00 4c f7 3c 24 9e cf 3d e0 d7 c7 bb
       0.07797423 0.030187607 0.10137585 -0.0060987324
0002c0 da 73 bc 3d e8 cc cd 3d 64 90 b3 bd a8 81 ae bc
       0.092017844 0.100488484 -0.08767775 -0.02130206
0002d0 80 e1 52 3b 44 fd 14 3d 92 b9 d5 3d 60 97 63 3d
       0.0032177866 0.036374345 0.10435785 0.055564284
0002e0 40 e5 3c bd 08 ff da bc 80 dc 13 bb e2 6b fd 3d
       -0.046117067 -0.026732937 -0.0022561848 0.12374093
0002f0 5c 89 42 3d 7c 5d 26 3d 50 80 c9 bd 9c bb d5 bd
       0.047494277 0.040616497 -0.09838927 -0.10436174
000300 dc 42 d8 3d 92 a1 9d bd d8 09 6c bd fc f2 3b 3d
       0.105596274 -0.07696833 -0.057626575 0.045886025
000310 ca b2 dc 3d 44 0b 16 3d e4 82 ae bd b0 da 1b 3d
       0.10776289 0.036631837 -0.08521059 0.038050354
000320 00 f8 90 bc 5a 11 e1 bd 18 46 08 3d 56 a4 80 3d
       -0.01769638 -0.10989638 0.03326997 0.062813446
000330 94 03 18 bd 42 4e 91 bd f6 45 f0 3d 0c 21 06 3d
       -0.037112787 -0.070950046 0.11732094 0.03274636
000340 4e 56 8f bd 4a 99 84 3d 28 02 6a 3d e0 9f f0 bb
       -0.06998883 0.0647455 0.057130963 -0.0073432773
000350 c6 b1 8f bd 76 0a 9b bd a8 3e 2c bd b2 b8 b9 bd
       -0.070163295 -0.07570355 -0.04205194 -0.09068431
000360 90 fd cd 3d 52 aa f9 bd 9a 1e a3 bd 26 f1 cb 3d
       0.10058129 -0.12190689 -0.07964821 0.09958105
000370 ba f7 cf 3d 48 e7 ea bc e8 57 58 3d 80 87 c1 bc
       0.10154672 -0.028674737 0.05281821 -0.023624182
000380 08 14 6e 3d 24 b4 ca bd 0c a5 03 bd e0 7a b7 3c
       0.058124572 -0.0989764 -0.032139823 0.022397459
000390 e4 49 66 bd 50 03 57 bd 38 c7 bd 3d 28 90 e2 bd
       -0.05622281 -0.052493393 0.092665136 -0.11062652
0003a0 80 19 b5 bd 28 90 9d 3c 00 45 2c 3c a0 d9 d4 3c
       -0.08842754 0.019233778 0.010514498 0.025982678
0003b0 f8 91 6c 3d 4e 91 c9 bd bc 11 cf 3d dc 89 50 bd
       0.057756394 -0.09842168 0.101108044 -0.050912723
0003c0 ac f1 df bd 84 e2 be 3d 30 54 75 3d 72 42 b4 3d
       -0.10934767 0.09320548 0.05989474 0.08801736
0003d0 fa ff 8f 3d ee 67 cb bd 92 20 da 3d 6c b3 8c bd
       0.070312455 -0.099319324 0.106507435 -0.068701595
0003e0 e0 28 ba 3c 0a 98 a1 bd ce 36 91 3d c8 6d 5c bd
       0.022724569 -0.07890327 0.07090531 -0.053815633
0003f0 c4 ab e9 bd 90 31 30 bc 40 8e 22 bc 60 43 0f bc
       -0.11409715 -0.010754004 -0.00992161 -0.008744091

rnn.bias_ih_l0 f4 [64]
000000 d7 bf 28 be 24 0f 69 3e 4a b2 ba 3b 17 15 cf 3b
       -0.16479431 0.22759682 0.0056975232 0.006319653
000010 39 66 7b bd 9a a5 7a 3d 78 70 94 bc 92 b1 17 3d
       -0.061376784 0.061193086 -0.018120036 0.03703458
000020 cb 50 ed 3d 4d 9c 09 3e 9f ae 7b bd 61 b9 1c 3e
       0.11587676 0.1343853 -0.06144583 0.15305091
000030 6a 62 12 bd f6 52 0e be 25 6c 9c 3d 36 3a 10 be
       -0.035738386 -0.13898835 0.076378144 -0.14084706
000040 9a c3 3d be fa b0 25 be b9 01 d4 3d 0a f0 dc 3d
       -0.18531647 -0.16180792 0.10351891 0.10787971
000050 ce 84 9e 3c 67 2c 40 be 62 4a 03 3e 10 d9 11 3e
       0.019350436 -0.18766938 0.12821344 0.14242959
000060 f0 b3 7f bd 2e 70 16 3e 35 18 ed 3b 9f f9 12 be
       -0.06242746 0.1469123 0.0072355517 -0.14353035
000070 2d b1 58 be 08 f9 aa bb dd 01 00 3e 78 de a3 39
       -0.21161337 -0.005217675 0.12500711 0.00031255535
000080 06 c3 29 be f1 c6 47 be ea ec 25 3e 96 7f 56 be
       -0.16578302 -0.19509484 0.16203657 -0.20947108
000090 ed c0 cd bc cc 3b 1b 3d 3a fb 04 be c7 52 59 be
       -0.025116408 0.037898824 -0.1298646 -0.21222983
0000a0 09 7e 51 3e 83 a6 2e 3d 8a de 00 be c8 b7 28 bd
       0.20458235 0.042639267 -0.12584892 -0.041190892
0000b0 dd 6a 71 bd 93 6d 38 be 15 38 f3 bc e3 0a e7 bc
       -0.058939803 -0.18010549 -0.029689828 -0.028203433
0000c0 eb ac 8c bc 91 2e 7c bd d0 34 1c be 06 a0 28 3b
       -0.017172297 -0.061567847 -0.15254521 0.0025730147
0000d0 7d 64 9d 3c d0 37 b0 3d e0 87 3b 3e 28 58 cd 3d
       0.019212956 0.086043954 0.18313551 0.1002658
0000e0 77 ae 43 3c 2f 2f 37 3e cf 4c 1d be c6 bb 8d 3d
       0.011943451 0.17889093 -0.15361331 0.069205806
0000f0 eb 8e ee bd 5a 16 26 be 3a 9f 02 be ac 0a 9a bd
       -0.11648353 -0.16219464 -0.12756053 -0.07521567

rnn.bias_hh_l0 f4 [64]
000000 d3 8c 12 3d 07 3c 1c 3e 27 07 20 3e 9f c5 1c bd
       0.03577883 0.15257274 0.15627728 -0.038274404
000010 94 d5 b5 bd 02 a9 b6 3b d0 27 c7 bc 3a 87 16 3d
       -0.088786274 0.0055743465 -0.024310976 0.036750056
000020 c2 64 57 3d 17 cd 04 3d a8 f6 d1 bd 21 ab 35 bd
       0.052586325 0.03242215 -0.10252124 -0.044352654
000030 1d 8f ae 3d 54 a9 84 be 13 26 0a be 96 88 7a 3b
       0.085233904 -0.25910437 -0.13491087 0.0038228384
000040 08 dd b3 bc 01 53 0d be fe ea 7f bc d8 d2 c8 3d
       -0.021955982 -0.13801195 -0.015619991 0.0980584
000050 5b 45 45 be 21 32 5b be 7d e9 02 3d 72 c5 26 bc
       -0.19264738 -0.21405841 0.031960953 -0.010178911
000060 74 a3 11 be ec 95 94 3d 2c f9 03 bd f8 6b c7 bd
       -0.14222509 0.07255158 -0.03222005 -0.0973739
000070 4b 9b 6f bd 89 65 fd bd 9a 37 b8 3d 19 f0 31 3e
       -0.05849771 -0.12372882 0.0899498 0.17376746
000080 35 5e 1b be ae d3 24 be 36 55 36 3e 2c d5 3a bd
       -0.15172656 -0.16096374 0.17805943 -0.045613453
000090 c7 f0 c6 bd 54 90 29 3d 83 25 fa bd 5a 34 06 be
       -0.097138934 0.041397408 -0.12214186 -0.13105908
0000a0 e4 50 8d 3d 06 14 24 3e 4c aa 2c bd 58 42 3c 3d
       0.06900194 0.16023263 -0.042154595 0.045961708
0000b0 8d 0a e7 bb d3 bc 00 bd 61 5e 8e 3d 52 d3 5c bd
       -0.0070508183 -0.031430077 0.06951595 -0.05391247
0000c0 51 56 f6 bd dc 61 e1 bd d2 ed 29 be 73 1d 8d bc
       -0.12028182 -0.11004993 -0.16594627 -0.017225957
0000d0 cf 91 eb bd 33 87 f8 3d 0d 95 0a 3e 58 b2 eb bc
       -0.1150242 0.12135162 0.13533421 -0.028771564
0000e0 41 36 e4 bb c8 eb 88 3d 48 c2 06 3d 88 36 17 3e
       -0.0069644754 0.06685597 0.032900125 0.14766896
0000f0 30 ce 73 be 81 28 cb bd c8 60 ce bd 54 0c 0a be
       -0.23809123 -0.09919835 -0.10077053 -0.13481265

fc.weight f4 [1, 64]
000000 03 f7 b2 bf ba 7b b4 3f 7e ad a8 3f 58 17 bd 3f
       -1.3981632 1.4100258 1.3177946 1.4772749
000010 5c 65 ac bf b3 a3 bd 3f cd 58 ba 3f 8d 91 a5 3f
       -1.3468432 1.4815582 1.455835 1.2935044
000020 1d f8 b4 3f 1a e7 b1 3f ac b8 ad bf 39 f7 ba 3f
       1.4138218 1.3898652 -1.3571982 1.4606696
000030 18 a4 ba 3f 67 c9 a8 bf 35 5c a6 bf ba af ab bf
       1.4581327 -1.3186463 -1.2996889 -1.3413002
000040 94 7c b1 bf 81 a2 b7 bf eb ba ba 3f 8e bf b0 3f
       -1.3866143 -1.4346467 1.4588293 1.3808458
000050 f6 e9 be bf 33 e8 b1 bf 20 79 ac 3f c6 1f bf 3f
       -1.4915149 -1.3898987 1.3474464 1.4931571
000060 7c 3d b5 bf 52 df be 3f cd dd a9 bf 2a 48 b3 bf
       -1.4159389 1.4911902 -1.3270813 -1.4006398
000070 ab fa b8 bf 92 b3 b4 bf d3 5f b0 3f 31 16 ae 3f
       -1.4451498 -1.41173 1.3779243 1.3600522
000080 78 51 b4 bf 5b 7f ba bf c6 90 b1 3f a7 44 b6 bf
       -1.4087362 -1.4570116 1.3872306 -1.4239701
000090 f6 ee b2 bf df e0 b6 bf 01 ec b9 bf 71 c7 b1 bf
       -1.3979175 -1.4287375 -1.4525148 -1.388899
0000a0 01 37 b5 3f 7c b8 ba 3f d0 49 b8 bf 90 61 b7 bf
       1.4157411 1.458755 -1.4397526 -1.4326649
0000b0 67 dc b2 bf 51 37 b3 bf 05 d0 b9 3f ce 51 bb bf
       -1.3973511 -1.4001256 1.4516608 -1.463434
0000c0 20 38 b6 bf 1f 46 b5 bf 58 2a b7 bf 96 d6 af bf
       -1.4235878 -1.4162024 -1.4309797 -1.3737361
0000d0 43 ec a8 bf e2 73 b4 3f 5b 0a 9b 3f d6 91 b2 3f
       -1.3197101 1.4097865 1.2112535 1.3950756
0000e0 b6 9e ba bf d4 4a bd 3f df 68 a4 bf 1f 82 ba 3f
       -1.4579685 1.4788461 -1.2844504 1.457096
0000f0 43 d4 97 bf 09 60 b9 bf db 39 ad bf 90 6c a0 bf
       -1.1861652 -1.4482433 -1.3533281 -1.2533131
