best_models/best_model_rnn_search_1_features_all.pt (torch, 22954 bytes, 5 tensors)

rnn.weight_ih_l0 f4 [64, 11]
000000 4f e7 b0 bd ee 7b fe bd ad 03 5a bd a7 31 1d bd
       -0.086378686 -0.124259815 -0.05322616 -0.03837743
000010 b2 da 07 be 2e 81 28 be ca 84 8b bd 09 6f ae 3d
       -0.1326702 -0.16455528 -0.06812437 0.08517272
000020 ec d0 4e 3d fd 32 53 bd 4a f4 ba bd 70 8b 62 3c
       0.050492212 -0.051562298 -0.09128626 0.01382719
000030 98 30 1d be 53 12 07 be 18 e8 ad bd bc 0f d1 bc
       -0.15350568 -0.13190584 -0.08491534 -0.025520198
000040 0e 51 23 bd e1 fd 4f 3b 65 e2 c7 3d 4b 76 bc bd
       -0.03987222 0.0031737017 0.09759978 -0.0920225
000050 42 bd f2 bd d2 0b 3b bd 13 10 2b be fe 09 63 bc
       -0.11852504 -0.04566557 -0.1670535 -0.013857363
000060 4c 05 89 3b 47 b0 27 be e8 98 09 be 98 34 59 be
       0.0041815396 -0.16375838 -0.13437235 -0.21211469
000070 31 00 b6 bd d2 05 3a bc 9d 98 40 3d dc 55 14 be
       -0.08886755 -0.011353927 0.047020543 -0.14485878
000080 22 17 dd 3d dc e2 d0 3d a9 1d 42 3d 6f 1f 46 bd
       0.10795428 0.1019952 0.047391567 -0.04836982
000090 70 5c 59 3e 44 9d 4a bc 5d d3 f3 3b 1a d2 0e bd
       0.21226668 -0.012366597 0.007440968 -0.034868337
0000a0 ce 04 2c 3e d9 32 cf 3d 68 c5 0b 3e d1 bb ca 3d
       0.16798708 0.1011712 0.13649523 0.098991044
0000b0 62 ab 2f bc 16 f6 29 3e 4a a1 a0 3b 27 07 17 3e
       -0.010722013 0.1659778 0.0049020397 0.14748822
0000c0 eb f2 47 3e 2c 87 1a 3e 5d b3 c5 3c aa f2 e0 3d
       0.1952626 0.15090626 0.024133379 0.109837845
0000d0 37 ac 84 3d 76 a9 e4 3d 8c 36 ca 3d f8 28 e5 bb
       0.0647816 0.111651346 0.09873685 -0.0069934092
0000e0 37 1c 4b 3d e9 70 e0 3d fb c3 15 3e fe 9c ce 3d
       0.049587455 0.10959036 0.14625542 0.10088538
0000f0 ca 4f 27 3e be 00 99 bd ba 8d ca 3d 89 f7 a5 bc
       0.16339031 -0.07470845 0.098903134 -0.020259636
000100 ac bb 86 bd a0 0c 14 3d 81 6c 0d be 23 13 4a be
       -0.06578764 0.036144853 -0.13810922 -0.19733863
000110 df 78 3e be dd 4c 35 be bd f7 0b be 0f cc 32 be
       -0.18600796 -0.17705102 -0.13668723 -0.17460655
000120 77 65 3c bc ad ce cc 3c 3b e9 94 bd ef 48 b6 3c
       -0.0114988005 0.025000894 -0.07271048 0.022251574
000130 d1 ae f3 bc 5f 76 ed 3d 4f c5 11 3e 5b 2f bc 3d
       -0.029746445 0.11594843 0.14235424 0.0918872
000140 33 83 bf 3d 5f a4 a5 3c 5c 0a 08 3e 54 82 5f bb
       0.09351196 0.02021998 0.13285202 -0.0034104781
000150 86 4e 04 3d 45 5b 16 3d 66 27 07 3e f4 b2 6c 3d
       0.03230145 0.036708135 0.13198623 0.05778785
000160 03 14 ed 3d 38 fb 50 3e 2c 70 1d bd c7 fc 20 3c
       0.115760826 0.20408332 -0.038437054 0.009825892
000170 e0 08 a5 3d d4 58 fd 3d f2 c8 4c 3d c9 b7 8c 3d
       0.080583334 0.12370458 0.049996324 0.06870992
000180 73 7a 94 bd 46 09 a5 3d 79 7a b3 3c c1 2d 80 bd
       -0.07249918 0.080584094 0.021908985 -0.06258727
000190 b1 02 ad bc 37 53 56 bd 87 88 a9 bd 04 71 13 bd
       -0.021119447 -0.052325454 -0.08277994 -0.035996452
0001a0 ae 43 2e be a7 b0 72 3d 40 c7 2e bd d2 fc 70 3d
       -0.17018005 0.0592505 -0.04267049 0.05883486
0001b0 d3 ae 8d 3d 05 74 0e be 6f 36 a5 bd 39 6d 80 bd
       0.06918111 -0.13911445 -0.08067023 -0.062708326
0001c0 6b 18 b1 bd ac 98 f3 bc 5f d5 f0 bd 97 3c ab bc
       -0.086472355 -0.029735886 -0.11759447 -0.020902915
0001d0 e8 af 2b 3d 2f 3d 26 be 01 86 95 bd 86 ad d4 3c
       0.041915804 -0.16234277 -0.0730095 0.025961649
0001e0 5d 93 30 3b 6e 83 5b bc 1e ee 8a 3d 77 f7 1c 3e
       0.0026943304 -0.0133980345 0.067836985 0.15328775
0001f0 98 85 0f 3d ea 41 00 3e 87 09 ed 3d ef 0c 8a 3d
       0.035039514 0.12525144 0.11574083 0.06740748
000200 17 37 03 3e 1d 41 ec 3d 0a 1a 57 bd 90 02 2e 3c
       0.12813984 0.11535857 -0.052515067 0.010620728
000210 43 67 80 3d ce d4 28 3e 1a bd 2a 3e 1f 0c c6 3d
       0.062696956 0.16487429 0.16673699 0.09670281
000220 2f a9 ca 3c 66 05 04 3e 9c a8 78 3d 4d 4b b8 ba
       0.024738876 0.12892684 0.060707673 -0.0014060527
000230 99 95 de 3d 3c bb eb 3d 02 14 5d 3d d9 2d 3f 3c
       0.10868377 0.115103215 0.05397416 0.011668646
000240 fa 1e 4a be eb 4d ed bd 8d 76 f4 bd a4 42 d2 bd
       -0.19738379 -0.11587127 -0.11936674 -0.10266617
000250 51 49 cd bd ba 3e 26 bc 89 c2 46 3d 84 20 db bd
       -0.100237496 -0.010146791 0.048525367 -0.10699561
000260 1a 5e c4 3a 18 ca 6e 3c c0 94 26 be fd 04 3a be
       0.0014981658 0.01457455 -0.16267681 -0.18165965
000270 8a 6d bd 3c 7f 46 38 be ed fa 6c 3c a4 64 63 3b
       0.023123521 -0.17995642 0.014464122 0.0034697438
000280 bd 6f 08 be 72 d2 13 be 73 a9 3b be 13 18 ed bd
       -0.13323875 -0.14435747 -0.18326358 -0.115768574
000290 13 da 25 be 8b f6 9a bd c1 0f 4a be b8 79 3a bd
       -0.1619647 -0.075665556 -0.19732572 -0.045526236
0002a0 8d 0a 3f bd 4c 83 8a bd e2 37 20 be 36 b9 99 bd
       -0.04664092 -0.06763324 -0.15646318 -0.07506029
0002b0 e3 77 31 bd f2 79 b0 bc a2 05 06 be 1f 47 04 be
       -0.043327224 -0.021542523 -0.13088086 -0.12917756
0002c0 f4 e1 bd bd 2e 1c b1 3c b8 20 1d be 30 8b 50 39
       -0.09271613 0.021619882 -0.15344512 0.00019888277
0002d0 c1 c8 2d be 8b 09 1a be d5 ad f7 bd c4 57 fb 3b
       -0.16971113 -0.15042703 -0.12093703 0.0076703746
0002e0 4c ae e9 bd 00 28 d7 3c 0e 6d 97 bc 87 63 01 3e
       -0.114101976 0.02626419 -0.018484619 0.12635623
0002f0 54 06 69 bd 57 c9 f8 3d f4 f2 0a 3e 47 bd b6 3d
       -0.0568908 0.121477775 0.13569242 0.089228205
000300 c9 da 3b 3c 9a 5b 1d 3d a3 07 1c 3e be 70 d1 3d
       0.011465737 0.038417436 0.15237288 0.10226582
000310 ac 28 2d bd fe 11 44 3d 93 fb 84 bd 15 5f f5 bd
       -0.042275116 0.04786872 -0.064932965 -0.11981026
000320 e4 a8 b4 bd c0 43 de bd c0 2f 09 be 2f ff 07 be
       -0.08821276 -0.10852766 -0.13397121 -0.13280939
000330 be 53 83 bd 70 27 97 3d 22 2d be bd 0e 19 b5 3d
       -0.06412457 0.07380569 -0.09285952 0.088426694
000340 fe 89 56 bd c8 d7 80 3c 60 65 56 3d 4d 4f 70 3c
       -0.052377693 0.015727893 0.052342772 0.014667344
000350 25 95 57 3d 07 88 40 3e 8f 39 01 3e cb fb 01 3e
       0.05263247 0.1880189 0.12619613 0.12693708
000360 08 68 c9 3d 69 5b ea 3d ed ea 25 3e 3a e8 7e 3d
       0.098342955 0.11443216 0.16202898 0.062233187
000370 b2 e0 01 3e ad 6b 99 3d 1c 39 c8 3c b2 3f 18 3e
       0.1268337 0.07491241 0.024441294 0.14868048
000380 f0 50 e2 3c 84 8e ac 3c 4b d8 94 bd ba ba 00 3e
       0.027626485 0.02106405 -0.07267817 0.1257123
000390 04 40 05 3d 84 d4 9a bd 6d ad 81 3d af c7 b9 bc
       0.032531753 -0.075600654 0.063319065 -0.022678224
0003a0 dd 9f dc 3a 49 c5 c9 bd 09 c7 de bd ee 85 bf bd
       0.0016832311 -0.09852082 -0.10877807 -0.09351717
0003b0 49 ca 34 be be 87 8e bd 63 c3 2b 3d c1 9a 05 bd
       -0.1765529 -0.069594845 0.041934382 -0.032618288
0003c0 cb 5a 81 3d ba dd ae bd dc d3 d6 3d cf 04 6d 3d
       0.063161455 -0.08538385 0.10489628 0.057865914
0003d0 5a a1 1f 3e 46 88 25 3d dd e8 15 3e fa 5e 16 3e
       0.15588894 0.040413164 0.14639612 0.14684668
0003e0 2b 9b 96 3d 40 d9 a3 bd fe f4 f6 3d 08 9b 14 bd
       0.07353815 -0.080004215 0.12058447 -0.03628066
0003f0 33 e4 42 3d e3 ed 00 3e b9 1d 34 3d 85 ee 24 3e
       0.04758091 0.12590747 0.04397366 0.16106613

rnn.weight_hh_l0 f4 [64, 64]
000000 c8 ca 2d bd 66 e3 8e 3d 6a 9a eb 3d 3c bd 3b 3d
       -0.042429715 0.069769666 0.115040615 0.045834765
000010 50 b1 07 3c 30 60 4e 3d 72 e2 c7 3d 04 58 ec bd
       0.008282021 0.0503847 0.09759988 -0.11540225
000020 ac 54 61 3d 06 a5 d3 3d 80 44 10 3d ba bd f2 3d
       0.05501239 0.1033421 0.035221577 0.11852594
000030 50 97 c1 3d 4c c7 ed 3d a2 1a db bd 84 1a f7 3d
       0.09452689 0.116102785 -0.10698439 0.12065604
000040 a6 37 94 bd 98 15 5c 3d b0 9d b8 bd e0 50 03 bd
       -0.072371766 0.05373153 -0.090144515 -0.03205955
000050 24 0f 41 bd 60 f9 6c bd f8 27 c7 3d e8 46 ff bc
       -0.04713358 -0.05785501 0.0972442 -0.03116174
000060 60 e7 6b bc 60 54 59 3c b8 4a 05 3d 30 45 c5 3c
       -0.014398426 0.0132647455 0.03254196 0.024080843
000070 88 a7 7b 3d 88 97 4e bd ae bc d6 bd 78 9e 90 bd
       0.061439067 -0.05043748 -0.104852065 -0.070614755
000080 80 ec b6 3a b0 22 e3 bc 38 08 b8 bd 00 24 ee ba
       0.001395598 -0.027726501 -0.089859426 -0.0018168688
000090 f0 d5 32 bd 90 45 76 3c 40 08 1f bd 88 7b a5 3d
       -0.043661058 0.015031233 -0.038826227 0.08080202
0000a0 b0 83 9f 3c 20 b4 dc 3c c0 55 f3 3d d8 00 d2 bd
       0.019471973 0.026941359 0.1188159 -0.10254067
0000b0 a8 92 6f 3d 14 9c 58 3d 92 08 f9 bd 16 e6 e1 bd
       0.05848947 0.052883223 -0.12159838 -0.110302135
0000c0 48 3e 3f bd b4 a4 e8 3d 5e e6 fd bd 14 f6 66 3d
       -0.046690255 0.1135954 -0.12397455 0.056387022
0000d0 ac 71 7f 3d fc 1f 06 3d 4a 2a ec bd 0c e9 bd bd
       0.062364265 0.032745346 -0.115315035 -0.09272966
0000e0 70 40 4a bd a0 33 23 3c 7c b9 99 3d 2e 64 b5 3d
       -0.04937786 0.009961039 0.075060815 0.088569984
0000f0 64 37 2b bd 48 fb 10 3d 66 fd f1 3d e8 d9 c7 bc
       -0.04180087 0.03539589 0.1181591 -0.024395898
000100 08 86 92 bd 7a d1 f4 bd d8 e3 ac bd 96 fb f3 bd
       -0.07154471 -0.11954017 -0.08441895 -0.119132206
000110 e0 f9 9f bd 10 be 30 3d 58 fb bc 3d f0 14 32 3d
       -0.07811332 0.043150008 0.092276275 0.043477
000120 98 fa 81 3d b4 f7 d9 bd 20 7f 10 3c 64 65 ca 3d
       0.06346625 -0.10642949 0.008819371 0.0988262
000130 50 19 53 bc 28 07 a4 3c 80 6d ed bd 96 43 c1 3d
       -0.012884453 0.020022944 -0.11593151 0.09436719
000140 40 f8 17 3c 40 b4 ec 3d 8c 36 37 3d d4 c9 9d bd
       0.009275496 0.115578175 0.044729754 -0.07704511
000150 b0 c4 99 3d 80 bb 33 3d 40 86 00 3c ac 1a 56 bd
       0.07508218 0.043879986 0.007844508 -0.05227153
000160 50 5f e3 3c e8 75 e1 bd c2 69 c2 3d 16 a9 ea bd
       0.02775541 -0.11008817 0.09492828 -0.11458032
000170 04 d0 73 3d 18 9f 95 bc 20 0e 35 bc 06 64 cd 3d
       0.05952455 -0.018264338 -0.011050731 0.100288436
000180 9a fe ac 3d 94 1e bc bd 56 82 e7 3d f0 aa 67 3c
       0.08446999 -0.0918552 0.113041565 0.014139876
000190 38 a0 65 3d 20 9a 7e bd 38 27 7d bd 90 b6 aa 3c
       0.056061 -0.062158704 -0.06180498 0.020839006
0001a0 bc 30 46 bd d8 d0 e8 3c 80 5a 5f 3d 56 b5 c4 3d
       -0.04838632 0.028419897 0.054529667 0.096048996
0001b0 18 0b e8 bc 24 ce ee bd e6 9e c4 3d 90 0d b6 3c
       -0.028325602 -0.11660412 0.0960062 0.022223264
0001c0 b8 06 c7 bc a0 25 86 bd b0 a7 5a 3d 8c a9 0f 3d
       -0.024295196 -0.06550145 0.053382576 0.035073802
0001d0 3e d0 ac bd ba ee a7 3d 82 44 d5 bd 2e df 9d bd
       -0.084381565 0.0819983 -0.104134575 -0.07708584
0001e0 b8 0e 78 3d 4e a9 aa bd 14 bc 57 bd a4 ab 37 bd
       0.060560912 -0.083330736 -0.0526696 -0.044841424
0001f0 48 10 83 3d d8 c5 cf 3c c8 83 86 3c e8 95 fe bc
       0.0639959 0.025362894 0.01642026 -0.03107734
000200 ba 41 f1 bd 78 eb c3 3d c8 19 d4 3d 4c 2c e5 bd
       -0.117801145 0.095663965 0.1035648 -0.111900896
000210 92 ae ec 3d f4 4b 58 3d bc 60 f3 bd 00 d1 e9 bc
       0.11556734 0.05280681 -0.11883685 -0.028542042
000220 14 f9 95 bd 1a 06 d8 bd 20 be a3 bd e6 75 d7 3d
       -0.073228985 -0.10548039 -0.07995248 0.10520534
000230 28 fd db 3c 20 45 68 bd cc 09 3d bd 3e 88 f2 bd
       0.026854113 -0.056706548 -0.04615192 -0.118423924
000240 fc 97 4d 3d 80 03 ee bc 32 a1 9d bd da 98 c9 bd
       0.05019377 -0.029054403 -0.07696761 -0.09843607
000250 76 14 fc 3d 0a b6 96 bd 8c 08 f8 3d 58 50 d6 3d
       0.1230859 -0.0735894 0.12111005 0.10464543
000260 18 16 e9 3c 58 00 4a bd 18 2d 7e bd 10 d3 39 bd
       0.028452918 -0.049316734 -0.062054724 -0.0453673
000270 6e 8f fb 3d 68 7f d6 3d b8 aa 30 3d f6 e9 87 bd
       0.122832164 0.104735196 0.04313156 -0.066364214
000280 a0 9c 23 bc 50 f4 36 3c 30 0c a7 3d f0 45 03 3c
       -0.009986073 0.011166647 0.081566215 0.00801228
000290 60 49 f6 3d e6 f6 c1 bd ee f3 f8 bd b8 5d 0f 3d
       0.12025714 -0.0947092 -0.12155901 0.035001487
0002a0 a8 64 92 3d 80 ed 49 3c 0c 0b 52 3d c6 c3 9b 3d
       0.07148105 0.012324691 0.051280066 0.076057
0002b0 14 c9 36 bd a8 89 fc bd ba 05 86 bd 98 55 37 bd
       -0.044625357 -0.12330943 -0.06544061 -0.044759363
0002c0 20 4e 5a bd f0 3b 46 bc d6 9e de 3d 5c 74 f9 bd
       -0.053297162 -0.012099251 0.10870139 -0.12180397
0002d0 f0 7f 5b bc 90 69 07 bd d8 97 f4 3d d8 e2 a3 3d
       -0.013397202 -0.033059657 0.119430244 0.080022514
0002e0 54 2c ee 3d 30 a4 44 bc ee 88 ee bd f6 6c a0 3d
       0.11629549 -0.012002036 -0.11647211 0.07833283
0002f0 18 34 88 bd 8e 35 f7 3d 48 a4 96 3d 70 d3 ca bd
       -0.06650561 0.120707616 0.07355553 -0.0990361
000300 cc 15 7b bd 54 04 eb bd 98 75 de bc 82 e2 a9 3d
       -0.061300084 -0.11475435 -0.027155682 0.08295156
000310 f0 a6 76 3c a0 b3 54 bd c0 1a f4 bb f8 f6 87 bc
       0.015054449 -0.051929116 -0.007449478 -0.016597256
000320 64 cb f6 3d 88 de f0 bc a0 59 7d bc 08 6c a3 bd
       0.120505124 -0.029402986 -0.015463263 -0.0797959
000330 f0 b3 bb bc ba 2f b1 bd 4a 98 c4 3d 70 5c 07 3c
       -0.02291295 -0.08651681 0.09599359 0.008261785
000340 76 f9 c6 bd 48 b3 21 bd 20 67 41 3d c0 db 2f 3c
       -0.0971555 -0.039477617 0.04721749 0.010733545
000350 d0 35 a6 bc a0 4c b3 3d d0 d0 8d bd f4 24 5d bd
       -0.020289332 0.087548494 -0.069245934 -0.05399032
000360 e0 79 9e bd d0 c4 03 bd 8a 4b c5 bd 68 4c b8 3c
       -0.077380896 -0.032170117 -0.096335486 0.02249737
000370 68 1e aa bc 38 b9 89 bc 98 0b 8e bc b4 bc c6 3d
       -0.020766452 -0.016811952 -0.017339513 0.09703961
000380 0e 67 eb 3d dc 0d ec bd 10 25 23 3d 4a fa f9 3d
       0.114942655 -0.11526081 0.039830267 0.12205942
000390 26 15 a8 3d 12 01 9f bd 6e f7 b9 3d b6 7b d4 bd
       0.08207159 -0.07763876 0.090803966 -0.103751585
0003a0 d4 00 5a bd c0 d3 68 3c 4c 73 a5 bd 90 b7 35 3d
       -0.053223446 0.014210641 -0.08078632 0.044364512
0003b0 54 83 fb bd f8 64 dd 3c a0 ee f3 3c b4 40 4d bd
       -0.12280908 0.027025685 0.029776871 -0.050110534
0003c0 32 63 83 bd fa 52 85 bd de 4f bb 3d 98 14 9a bd
       -0.064154044 -0.06509967 0.09146093 -0.07523459
0003d0 1a 5f d0 3d e4 50 cc 3d 6c 0a 42 bd 1e e9 8d 3d
       0.10174389 0.09976366 -0.04737322 0.06929229
0003e0 ce ff af 3d 40 c8 55 bd d0 ff 5f 3c e0 4b 27 bd
       0.08593713 -0.052192926 0.01367183 -0.040843844
0003f0 cc 24 76 bd ee 7c db bd e8 d8 d0 3c 90 d2 af bd
       -0.060093686 -0.10717188 0.025494054 -0.085850835

rnn.bias_ih_l0 f4 [64]
000000 38 57 fa 3a b4 6d 9b bd fa 22 27 be c4 d2 7e 3e
       0.001909948 -0.075892836 -0.16321936 0.24885088
000010 3d d1 dd 3d 98 b6 c5 3d dc ce 2e be 27 8c 9f 3c
       0.10830925 0.096539676 -0.17071098 0.01947601
000020 32 e4 d4 3d 7c 1e 92 bd 94 54 9a bd 6f e9 0d 3e
       0.10395087 -0.07134721 -0.07535663 0.13858579
000030 87 e0 82 bc 8b bf 7b bd 41 97 6a 3b d8 63 43 be
       -0.015976204 -0.061461966 0.003579572 -0.19081056
000040 d6 4f 03 be 94 bd 59 bc 7b b8 eb bd 76 be 58 3e
       -0.12823424 -0.013289828 -0.11509796 0.21166405
000050 33 28 a7 3d f4 22 33 be fe bf 50 3e ce 55 0b 3e
       0.08161964 -0.17493802 0.20385739 0.1360695
000060 c5 70 a1 bd f0 05 17 bc 1a 91 0a be 69 d0 a0 bd
       -0.07882837 -0.009217724 -0.13531914 -0.07852251
000070 ab 42 b9 3d c0 c3 1f 3e 84 c9 40 3e 5d 5a 5a 3e
       0.09045919 0.15602016 0.18826872 0.21323533
000080 36 13 73 bb ae 07 37 3c ee ba b1 bc 62 e8 98 bd
       -0.0037090308 0.011171265 -0.02169558 -0.074661985
000090 f4 6e 06 be 71 0c 73 be 2d e5 6e bc f8 4d 05 bd
       -0.13128263 -0.23735215 -0.014581007 -0.03254506
0000a0 f6 e6 16 be fe 72 ac 3d 68 69 eb bd c4 32 08 3d
       -0.14736542 0.084203705 -0.11494714 0.03325154
0000b0 56 d6 96 3d 41 4b 7b be db 86 95 3e 42 e7 08 3e
       0.073651 -0.24540426 0.2920445 0.13369468
0000c0 ff a5 c9 bc c6 82 81 3c a4 e4 54 3d 88 e9 93 bd
       -0.024615286 0.015809428 0.05197586 -0.07222277
0000d0 5f 5b 12 bd 7a d3 e1 bd f6 11 02 3e 93 4d b6 bd
       -0.03573167 -0.11026664 0.12702164 -0.08901515
0000e0 77 2d 07 be 6b 4b 80 3d bb 4e 1f bd 32 86 69 be
       -0.13200937 0.06264385 -0.038893443 -0.22805098
0000f0 2a a8 c9 bd 42 d7 60 3e 56 67 b2 3b 47 1d 50 be
       -0.09846528 0.21957114 0.0054444475 -0.20323668

rnn.bias_hh_l0 f4 [64]
000000 a0 29 9c bd 66 5b 2b be c9 ab 36 be c7 61 ef 3d
       -0.07625127 -0.16734084 -0.17838968 0.116885714
000010 2b 1e 65 3e e2 da 05 3e 00 87 5a bd 94 de 27 3e
       0.2237479 0.13071778 -0.053351402 0.163935
000020 78 52 2d 3e ef ca d3 bd 78 86 03 be 2f ab 45 3e
       0.1692599 -0.10341441 -0.12844265 0.19303583
000030 b9 e6 31 3e f3 34 8b bd 3e 18 09 bd 21 67 04 be
       0.1737317 -0.06797209 -0.033470385 -0.12929966
000040 63 7c f3 bc be ac bb 3d 2b 49 4a be b3 f2 62 3e
       -0.029722398 0.09163807 -0.19754474 0.22162895
000050 81 a8 27 3d 62 56 45 be 29 25 7e 3c 2e 5c 18 3d
       0.040932182 -0.19271234 0.015511789 0.037197284
000060 14 1c b0 bd 98 cd 14 3e fd bd 46 be 9d 76 02 be
       -0.085991055 0.14531553 -0.19408412 -0.1274056
000070 9a 0c 4e 3d 5e e2 11 3e 10 97 3f 3e 8d e3 0d bb
       0.050304987 0.14246508 0.1870997 -0.0021650523
000080 3c 58 84 bc 82 bd c0 3c 33 7b 17 be 2b 79 2c 3b
       -0.016155355 0.023527864 -0.1479309 0.002631734
000090 dc 89 fa bc 4d ca 51 bb d0 ea 3b be f5 d4 ec bc
       -0.030583315 -0.003201145 -0.18351293 -0.02891014
0000a0 9d 2d f5 bd 02 c3 dc bc 22 be 26 be 90 18 5e 3e
       -0.11971591 -0.026948456 -0.16283467 0.21689057
0000b0 0e 01 13 3e 91 46 91 bd 8c 24 9a 3d d0 0a 81 3d
       0.14355871 -0.070935376 0.07526502 0.063008904
0000c0 01 ef 97 3d 4d b8 eb 3c f1 54 0e 3e 00 5e 83 bc
       0.07418633 0.028774405 0.1389959 -0.016036034
0000d0 78 a8 56 3c 4a 3b 1a 3d cb 12 17 3e fc f4 bb bd
       0.0131016895 0.0376542 0.14753263 -0.091775864
0000e0 48 bc 14 be 44 e6 4e 3d cf 95 83 bd 6c 24 bd bd
       -0.14524949 0.050512567 -0.06425058 -0.092354625
0000f0 2b 0f 40 be b8 d9 18 3e 32 28 a6 3d dc 05 99 bd
       -0.18755786 0.14926803 0.081131354 -0.07471821

fc.weight f4 [1, 64]
000000 ce 6f b4 bf 93 00 b6 bf ba b4 a6 bf cf 39 a5 3f
       -1.409662 -1.4218925 -1.3023903 1.2908267
000010 e5 68 aa 3f 91 00 a8 3f 48 92 aa bf 3f ee b1 3f
       1.3313261 1.3125173 -1.3325891 1.3900832
000020 6c ca a9 3f c7 ba b3 bf 51 a9 a6 bf 2a 85 b0 3f
       1.3264899 -1.4041375 -1.3020421 1.3790638
000030 ee 54 ad 3f e5 6f 9c bf f2 a8 a9 bf 7b d2 a8 bf
       1.3541543 -1.2221648 -1.3254683 -1.3189234
000040 ed 66 ae bf 26 85 ab 3f 74 8e b3 bf ea be b5 3f
       -1.362516 1.3400009 -1.4027848 1.4198887
000050 9b 9e b9 3f c0 b1 b3 bf 88 b0 a6 3f fa 18 b0 3f
       1.4501528 -1.403862 1.3022623 1.3757622
000060 30 ce b3 bf 4b 18 aa 3f e3 30 b1 bf a5 db a3 bf
       -1.4047298 1.3288664 -1.3843044 -1.2801405
000070 dd 23 b2 3f 70 8b a6 3f 16 d0 b0 3f eb 86 b6 3f
       1.3917195 1.3011303 1.3813503 1.4259924
000080 03 56 b3 3f 2d 9c a9 3f 7f 61 a3 bf af 59 9f bf
       1.4010624 1.3250786 -1.2764128 -1.2449244
000090 67 a3 b0 bf 64 32 ab bf a6 55 b6 bf aa 42 aa bf
       -1.3799866 -1.3374753 -1.4244888 -1.3301594
0000a0 7e 01 b1 bf ea f5 a3 3f 8d 63 ba bf d2 a5 ae 3f
       -1.382858 1.2809422 -1.456163 1.3644354
0000b0 7c f9 a7 3f 59 77 b6 bf af 19 b4 3f d6 68 ae 3f
       1.3123012 -1.4255172 1.4070338 1.3625743
0000c0 da bd ae 3f 20 05 a8 3f 51 c2 aa 3f fa c5 b1 bf
       1.3651688 1.3126564 1.3340551 -1.3888543
0000d0 43 9e 9c bf ff f4 a6 bf 65 e8 9e 3f f9 c1 b0 bf
       -1.2235798 -1.3043517 1.2414671 -1.3809196
0000e0 95 f2 b1 bf ea fd b9 3f 43 e9 ad bf 5d 30 a1 bf
       -1.3902155 1.4530613 -1.3586811 -1.2592884
0000f0 fe 87 ac bf 0e dc a3 3f fb c2 aa 3f 44 66 a8 bf
       -1.3479002 1.280153 1.3340753 -1.3156209
