best_models/best_model_rnn_search_2_features_50.pt (torch, 32928 bytes, 5 tensors)

rnn.weight_ih_l0 f4 [64, 50]
-0.117851004 -0.04679017 -0.07776801 0.055149853 0.07057429 0.016826523 0.07571605 -0.02193664
-0.049173113 -0.031371616 -0.05667739 -0.082998924 -0.016915483 0.006827393 -0.07899378 0.09346706
0.029474895 -0.1209624 -0.0070060203 -0.028933248 0.11651586 0.027815958 -0.05030836 0.12361632
-0.011744932 -0.0877413 0.065833405 -0.06455208 0.104818106 0.066998124 -0.09283532 0.0009611286
-0.0955842 0.12427006 0.05842707 0.02241654 -0.100779764 -0.022843711 -0.07510634 0.016065622
0.020821746 0.02572547 -0.09477814 0.016514445 -0.10104143 -0.076144174 0.045875438 -0.035807315
-0.034248944 0.01735836 0.08884103 0.045318995 -0.061202724 0.09078522 0.08439652 -0.026244847
-0.040953457 -0.08804989 0.019582875 0.010646289 -0.14020596 -0.06599204 -0.09261996 0.10327782
0.0390357 -0.036123253 -0.10963716 0.016573457 0.013744699 0.037961867 0.115908876 0.1063482
0.067689925 0.102664396 0.06419125 0.107874736 0.08925548 0.03164282 -0.030727813 -0.0628555
0.049389157 0.043593187 -0.063394964 0.008124027 -0.0064004916 -0.02581095 0.051271193 0.027868418
0.14509062 0.06982418 0.040762577 -0.045365855 -0.14582773 -0.056228656 0.09122543 0.075391576
0.08291821 0.058362134 -0.09710585 0.044745095 -0.025915438 0.055744838 0.019101363 -0.02274151
-0.06022503 -0.0013062912 -0.09730055 -0.08969981 0.0972725 0.08846762 -0.06290481 0.0729596
-0.027551284 0.024563845 -0.05130686 0.09101988 -0.085878804 0.033195622 0.025610594 0.11650531
0.06093185 0.08734154 0.015205901 -0.0535531 -0.045796566 0.07994094 -0.051974308 0.1007917
0.10124004 -0.10385497 -0.083300725 -0.044147376 0.030146463 -0.016988998 0.084120944 -0.03474675
0.08712866 -0.07314007 -0.05547664 0.060033213 0.01735751 -0.10977093 -0.01926578 0.09075575
0.07984606 0.0053672013 0.060470432 0.09871327 0.018579293 0.06451991 -0.082579404 -0.09432768
0.079221055 0.05478308 -0.09077447 0.1081574 -0.09347422 0.11706193 -0.029469168 0.12510364
0.058126234 0.038294937 0.007837711 -0.0133588705 0.057352424 0.116594024 -0.06061829 0.08205569
-0.005520562 0.056142535 -0.0037665549 0.0036671737 0.05471742 0.016643858 0.0008303535 0.10174483
-0.07538688 0.045256305 -0.09390288 -0.13243446 -0.058989372 -0.07993633 0.04176926 -0.022118026
0.04614041 -0.12044889 -0.008739753 0.019159656 0.0866479 -0.13240099 -0.0922798 0.099127434
0.05238086 -0.09281099 0.014186784 0.017116511 -0.06005548 -0.03628141 0.081490576 0.12767774
-0.07172987 -0.022623656 -0.108556055 0.0072222874 0.0055572833 0.090096764 -0.080849126 0.08396634
0.11710776 -0.023260891 0.1249975 -0.048810374 -0.04721359 -0.08802454 -0.10452702 0.035553582
0.034440506 -0.069772124 0.0809312 0.034703173 -0.12499714 -0.056810737 0.10413151 -0.05848907
0.030778049 0.05581531 0.057397112 0.013704228 -0.02447628 0.049109977 0.02272605 -0.09803938
0.03641639 0.023629934 -0.059872832 -0.052609213 -0.047641948 0.063406266 0.002721661 -0.073379375
0.1451054 -0.04338373 0.07119866 0.08743465 0.065181136 -0.10591469 0.104494594 -0.0634896
0.039361965 0.07049222 -0.048992667 -0.050186783 0.0541823 0.051701218 -0.062050514 -0.06941983
00000000: de5b f1bd 0da7 3fbd d644 9fbd d0e4 613d
00000010: 4189 903d c7d7 893c 0411 9b3d 78b4 b3bc
00000020: bf69 49bd 867f 00bd 8d26 68bd 57fb a9bd
00000030: 5792 8abc 53b8 df3b 7ec7 a1bd a86b bf3d
00000040: 5675 f13c 23bb f7bd c292 e5bb 6b05 edbc
00000050: de9f ee3d 4bde e33c 2410 4ebd 8e2a fd3d
00000060: d16d 40bc b6b1 b3bd aad3 863d e233 84bd
00000070: e0aa d63d 5036 893d 7220 bebd 40f4 7b3a
00000080: a6c1 c3bd 4d81 fe3d 3951 6f3d e4a2 b73c
00000090: 9f65 cebd bc22 bbbc 5ad1 99bd 0d9c 833c
000000a0: 5e92 aa3c 39be d23c 0b1b c2bd 4d49 873c
000000b0: cfee cebd 7af1 9bbd e2e7 3b3d b1aa 12bd
000000c0: 9f48 0cbd 1f33 8e3c 49f2 b53d 69a0 393d
000000d0: b5af 7abd 9aed b93d 15d8 ac3d 6fff d6bc
000000e0: d0be 27bd 8053 b4bd 446c a03c c66d 2e3c
000000f0: 2792 0fbe d626 87bd 89af bdbd 5283 d33d
00000100: e6e3 1f3d faf5 13bd 7389 e0bd 0fc5 873c
00000110: 7231 613c e77d 1b3d a261 ed3d 16cd d93d
00000120: 04a1 8a3d b641 d23d b476 833d 6eed dc3d
00000130: 94cb b63d e79b 013d e5b8 fbbc 62ba 80bd
00000140: 494c 4a3d c58e 323d 38d5 81bd a41a 053c
00000150: 37bb d1bb 7c71 d3bc be01 523d 4f4c e43c
00000160: a392 143e fbff 8e3d a9f6 263d 8cd1 39bd
00000170: dd53 15be 0550 66bd 66d4 ba3d e666 9a3d
00000180: 06d1 a93d 220d 6f3d 6fdf c6bd a246 373d
00000190: 9d4c d4bc b354 643d 767a 9c3c 674c babc
000001a0: 85ae 76bd dc37 abba 8345 c7bd 89b4 b7bd
000001b0: ce36 c73d 832e b53d 3dd4 80bd d86b 953d
000001c0: 3bb3 e1bc 1e3a c93c 2427 52bd a168 ba3d
000001d0: 3ae1 afbd 22f8 073d 4fcd d13c 569a ee3d
000001e0: ad93 793d 1fe0 b23d 2c22 793c 7f5a 5bbd
000001f0: 2e95 3bbd 13b8 a33d 03e3 54bd e16b ce3d
00000200: f056 cf3d eab1 d4bd 9299 aabd e1d3 34bd
00000210: b7f5 f63c 832c 8bbc 9a47 ac3d 9c52 0ebd
00000220: 8370 b23d 76ca 95bd 793b 63bd 63e5 753d
00000230: 5631 8e3c 95cf e0bd 45d3 9dbc 27de b93d
00000240: 5586 a33d 59df af3b d8af 773d 2f2a ca3d
00000250: 9a33 983c 0423 843d 641f a9bd df2e c1bd
00000260: a63e a23d 3964 603d f7e7 b9bd a081 dd3d
00000270: 696f bfbd 2abe ef3d 5369 f1bc 2b1b 003e
00000280: c615 6e3d 27db 1c3d be69 003c 2adf 5abc
00000290: 60ea 6a3d d9c8 ee3d e24a 78bd d00c a83d
000002a0: d5e5 b4bb b7f5 653d 4ed8 76bb f754 703b
000002b0: 601f 603d b358 883c 15ac 593a 985f d03d
000002c0: 7064 9abd ad5e 393d 2750 c0bd e69c 07be
000002d0: d79e 71bd a9b5 a3bd 3e16 2b3d dd30 b5bc
000002e0: bafd 3c3d e8ad f6bd 2e31 0fbc b6f4 9c3c
000002f0: 7474 b13d 2094 07be 31fd bcbd 5303 cb3d
00000300: 508d 563d b013 bebd af6f 683c ed37 8c3c
00000310: bcfc 75bd d19b 14bd 88e4 a63d f4bd 023e
00000320: 1ce7 92bd 3f55 b9bc a352 debd f0a8 ec3b
00000330: df19 b63b a784 b83d 3a94 a5bd 8bf6 ab3d
00000340: 31d6 ef3d a08d bebc b0fe ff3d 63ed 47bd
00000350: 0a63 41bd 3646 b4bd 4312 d6bd a2a0 113d
00000360: 7d11 0d3d b0e4 8ebd 42bf a53d ea24 0e3d
00000370: 80fe ffbd 60b2 68bd e742 d53d 3c92 6fbd
00000380: 3f22 fc3c 989e 643d 3c19 6b3d b387 603c
00000390: 7b82 c8bc 8b27 493d fb2b ba3c dfc8 c8bd
000003a0: 5a29 153d 9093 c13c 373d 75bd c27c 57bd
000003b0: 3424 43bd 25db 813d e55d 323b ed47 96bd
000003c0: 8396 143e 23b3 31bd 9ad0 913d f010 b33d
000003d0: b07d 853d cde9 d8bd 4301 d63d d606 82bd
000003e0: 033a 213d 3a5e 903d 89ac 48bd a890 4dbd
000003f0: 42ee 5d3d a8c4 533d ae28 7ebd fc2b 8ebd

rnn.weight_hh_l0 f4 [64, 64]
0.008346841 0.0797133 0.052773222 -0.0071201622 -0.09923601 0.11056799 0.0672192 0.07147953
0.061100543 -0.037228674 0.10448268 -0.009215236 -0.116886124 -0.099189475 -0.11386466 -0.05452907
-0.11469054 -0.081469566 -0.09716666 -0.06527002 0.04626894 -0.03871803 0.09542701 0.030828387
-0.092731 -0.06436716 0.054406136 -0.046016008 -0.118274644 -0.074792385 0.0025864393 0.12003271
0.0587288 0.052435204 0.008150801 -0.05585125 0.101402596 0.037640825 0.097651124 -0.07630122
-0.059745505 0.11225486 -0.022042155 -0.09349303 0.06885694 0.067274004 -0.11003542 0.07059865
-0.016289502 0.04751028 -0.07618788 -0.09748034 0.051374212 -0.10235882 -0.012387037 0.04563181
-0.108989716 -0.12404415 0.06910588 -0.0395042 -0.07457498 0.030412734 -0.06888941 0.10477187
0.06552453 -0.07668632 0.012849152 -0.0751622 -0.10010962 -0.093071 -0.03692031 -0.06771813
0.06605974 -0.08988106 0.11330372 -0.02733095 0.057068005 -0.058732465 0.020014495 -0.039391667
-0.073199704 -0.095604286 0.05716455 -0.00260368 0.047898874 0.06764586 -0.014959276 0.08879118
0.023794204 -0.042917043 -0.05096382 0.09503506 -0.013704747 -0.00041423738 0.032213986 -0.11653127
-0.09866421 0.024707213 -0.0068195313 0.08338484 0.05815208 -0.056720555 0.038104847 -0.024199396
0.0033655018 -0.09710239 -0.07345319 0.005099654 -0.059863076 0.104322195 0.022928566 -0.020261109
0.08069308 0.09393963 0.040133357 -0.100538746 0.013303593 -0.05466789 0.06780574 -0.003046587
-0.03492187 0.11374658 -0.04717177 -0.02543582 0.06651053 -0.11277521 0.008993581 0.032160193
-0.07542361 0.012401804 -0.03726019 0.10415071 -0.06805302 0.0560966 0.08747852 0.05855933
0.0060019046 -0.09757756 -0.089077026 0.10312873 -0.113861844 0.038296208 -0.06339668 0.08328195
0.10277945 -0.036486357 -0.10162552 -0.03700377 0.04325077 -0.004639536 -0.01934497 -0.06888899
-0.01261574 -0.05323787 -0.095853046 0.11366175 0.007200867 0.009413078 0.10294706 0.065548286
0.061824962 0.017693833 -0.020901173 0.031803146 -0.050028205 0.033974573 0.11709808 -0.052721247
-0.04098794 -0.03697774 -0.020568505 -0.003372565 0.012137622 0.07791977 -0.0024769008 -0.11986953
-0.093317315 0.03826511 0.08649661 0.028283536 0.08882594 0.09840672 -0.058952197 0.058644444
0.08491881 0.11643326 -0.100430176 -0.01630114 0.017527312 0.052192926 0.11625905 -0.07967405
0.0145626515 0.102339 0.021859214 0.11755416 -0.0792657 -0.1179785 -0.12466997 -0.016149044
0.052107856 -0.08292262 -0.027888104 -0.10745415 0.021033242 -0.062044695 0.0059738606 0.12047206
0.07129447 -0.005521685 -0.03848718 0.001479283 -0.046846867 -0.04384686 -0.124043286 0.06594047
-0.019232154 0.03432733 -0.08449851 -0.12317209 0.04275842 0.012530208 -0.09971301 0.10789454
-0.03423913 0.10608283 0.056997806 -0.11234301 0.09017728 0.10966392 -0.09884715 0.07431148
-0.053198695 -0.11503029 0.10915364 -0.035462826 0.028718337 -0.08623539 -0.115060255 -0.05720362
-0.030859858 -0.029594615 -0.09934096 -0.06393421 -0.01897481 -0.10700981 -0.10164142 -0.052775502
0.122667536 -0.04841578 0.10399948 0.07879268 -0.060747474 -0.069465786 0.091459945 -0.093955785
00000000: 30c1 083c ba40 a33d bc28 583d 4050 e9bb
00000010: 403c cbbd 7871 e23d 38aa 893d dc63 923d
00000020: 9044 7a3d 187d 18bd 04fb d53d 80fb 16bc
00000030: fe61 efbd da23 cbbd e031 e9bd e059 5fbd
00000040: e0e2 eabd 84d9 a6bd 50ff c6bd 4aac 85bd
00000050: 8084 3d3d cc96 1ebd 3c6f c33d d08b fc3c
00000060: c0e9 bdbd eed2 83bd f8d8 5e3d 487b 3cbd
00000070: fa39 f2bd c02c 99bd 4081 293b b6d3 f53d
00000080: 9c8d 703d 4cc6 563d f08a 053c 48c4 64bd
00000090: 2aac cf3d 442d 1a3d 50fd c73d d043 9cbd
000000a0: b4b7 74bd e0e5 e53d c091 b4bc 4679 bfbd
000000b0: de04 8d3d f4c6 893d 405a e1bd 0696 903d
000000c0: 9071 85bc 249a 423d 6408 9cbd c6a3 c7bd
000000d0: c46d 523d 80a1 d1bd 00f3 4abc 6ce8 3a3d
000000e0: 0036 dfbd dc0a febd 6287 8d3d 28cf 21bd
000000f0: c4ba 98bd 2024 f93c e415 8dbd a292 d63d
00000100: ba31 863d b80d 9dbd 4085 523c a4ee 99bd
00000110: 4606 cdbd 029c bebd c039 17bd ceaf 8abd
00000120: 544a 873d 9013 b8bd c80b e83d 28e5 dfbc
00000130: 24c0 693d 7491 70bd 70f5 a33c 2859 21bd
00000140: bae9 95bd 2ecc c3bd 6025 6a3d 80a2 2abb
00000150: 9c31 443d ea89 8a3d c017 75bc 26d8 b53d
00000160: 10ec c23c c8c9 2fbd 70bf 50bd bea1 c23d
00000170: e089 60bc 002e d9b9 d0f2 033d f2a7 eebd
00000180: 7610 cabd c866 ca3c 6076 dfbb acc5 aa3d
00000190: e030 6e3d d053 68bd d413 1c3d d03d c6bc
000001a0: c08f 5c3b 9edd c6bd a06e 96bd 001b a73b
000001b0: fc32 75bd e0a6 d53d b0d4 bb3c a0fa a5bc
000001c0: 6a42 a53d 6c63 c03d e062 243d 42e7 cdbd
000001d0: 50f7 593c 70eb 5fbd bcdd 8a3d 40a9 47bb
000001e0: 3c0a 0fbd f8f3 e83d 3037 41bd c85e d0bc
000001f0: ac36 883d b0f6 e6bd d059 133c 68ba 033d
00000200: b277 9abd f030 4b3c 249e 18bd f84c d53d
00000210: 625f 8bbd 8cc5 653d f027 b33d e8db 6f3d
00000220: a0ab c43b bed6 c7bd 046e b6bd 2835 d33d
00000230: 6630 e9bd 7cdc 1c3d 1ed6 81bd ba8f aa3d
00000240: 087e d23d b872 15bd 0a21 d0bd 4491 17bd
00000250: b827 313d 4007 98bb 5879 9ebc ac15 8dbd
00000260: 40b2 4ebc f40f 5abd 9a4e c4bd 7ec7 e83d
00000270: 40f5 eb3b 5039 1a3c e8d5 d23d 2e3e 863d
00000280: 2c3c 7d3d a8f2 903c f038 abbc 0444 023d
00000290: 60ea 4cbd ec28 0b3d 1ed1 ef3d 3cf2 57bd
000002a0: f8e2 27bd f875 17bd 487f a8bc 4006 5dbb
000002b0: e0dc 463c 6694 9f3d 8053 22bb 287e f5bd
000002c0: 261d bfbd e0bb 1c3d 2225 b13d e0b2 e73c
000002d0: 60ea b53d 7689 c93d dc77 71bd 2835 703d
000002e0: eae9 ad3d 9074 ee3d 56ae cdbd f889 85bc
000002f0: 7095 8f3c 40c8 553d 3a19 ee3d 262c a3bd
00000300: 3098 6e3c 1c97 d13d 1812 b33c 3cc0 f03d
00000310: 0e56 a2bd b69e f1bd f852 ffbd 004b 84bc
00000320: 0c6f 553d 56d3 a9bd 9875 e4bc ec10 dcbd
00000330: e84d ac3c 9422 7ebd 60c0 c33b 0eba f63d
00000340: d602 923d 40ef b4bb bca4 1dbd 80e4 c13a
00000350: 80e2 3fbd c498 33bd 680a febd cc0b 873d
00000360: c08c 9dbc d09a 0c3d 8e0d adbd a641 fcbd
00000370: 7423 2f3d 804b 4d3c 5636 ccbd d0f7 dc3d
00000380: 543e 0cbd f441 d93d 8876 693d 1814 e6bd
00000390: deae b83d 7a97 e03d 6070 cabd 9e30 983d
000003a0: e0e6 59bd 0095 ebbd f28b df3d 7841 11bd
000003b0: b842 eb3c 2e9c b0bd b6a4 ebbd 584e 6abd
000003c0: d0cd fcbc 6870 f2bc 4673 cbbd f0ef 82bd
000003d0: 1071 9bbc f627 dbbd 6029 d0bd 202b 58bd
000003e0: 1e39 fb3d a04f 46bd aefd d43d 0e5e a13d
000003f0: 58d2 78bd 1444 8ebd 5a4f bb3d e46b c0bd

rnn.bias_ih_l0 f4 [64]
-0.028504256 0.013380232 0.060327955 -0.115686 -0.06584538 0.10563116 0.11903363 -0.020328194
-0.09746745 -0.12306742 0.036532626 0.029741572 0.09090909 0.056363076 0.075746186 0.019139666
0.101668075 0.0010012338 0.04346691 0.017818186 -0.11231249 -0.045864526 0.04988559 0.04102256
-0.010358009 0.07191557 -0.0016779997 -0.08159025 -0.037909385 0.112760626 0.10330356 0.06790073
0.11240669 0.072386175 -0.01170215 -0.0050039287 0.10137414 -0.01678416 -0.03963766 -0.044739816
-0.08481377 0.005188351 -0.061245505 0.0056055705 0.05741006 0.061473038 0.111650355 0.10354706
-0.10248189 0.102395594 0.03037501 0.050919734 0.036587406 -0.110627785 0.007830015 -0.03129686
-0.0781585 0.058355678 -0.12044299 0.086717844 -0.086996324 0.013212083 -0.083291285 0.09213125
00000000: c281 e9bc c338 5b3c 721a 773d c8ec ecbd
00000010: f1d9 86bd 2655 d83d e7c7 f33d 5087 a6bc
00000020: 049d c7bd c60a fcbd 3ca3 153d 99a4 f33c
00000030: 8c2e ba3d f8dc 663d d120 9b3d caca 9c3c
00000040: 5a37 d03d d53b 833a 5c0a 323d 72f7 913c
00000050: 1704 e6bd 71dc 3bbd d554 4c3d 4607 283d
00000060: a3b4 29bc 7848 933d 54f0 dbba ca18 a7bd
00000070: df46 1bbd 0bef e63d d190 d33d 8a0f 8b3d
00000080: 7b35 e63d 343f 943d 60ba 3fbc fff7 a3bb
00000090: 3f9d cf3d ef7e 89bc 195b 22bd 1941 37bd
000000a0: d8b2 adbd 0b03 aa3b 91dc 7abd efae b73b
000000b0: d026 6b3d 27cb 7b3d f1a8 e43d 7b10 d43d
000000c0: 06e2 d1bd c8b4 d13d 03d5 f83c 3691 503d
000000d0: addc 153d d290 e2bd 7749 003c 2331 00bd
000000e0: 9011 a0bd 5d06 6f3d d0aa f6bd 2099 b13d
000000f0: 212b b2bd 7e77 583c 9f94 aabd 4faf bc3d

rnn.bias_hh_l0 f4 [64]
0.054017663 -0.005598609 0.012847441 0.106147125 0.02018425 -0.02552977 -0.101422854 -0.06697298
0.10219386 0.10228037 -0.028500812 -0.053737056 -0.03326323 -0.07566212 -0.08326363 -0.117098935
0.09356852 0.041957527 0.07150736 -0.027161863 -0.11351348 0.10751201 -0.049127143 0.07008268
0.110690154 0.02536723 -0.111422546 -0.05500546 -0.022102637 -0.04550001 -0.062281873 0.10063924
-0.014584237 0.026865292 -0.045523234 -0.105988875 0.0082243765 -0.05344154 -0.05500177 0.097796455
-0.05578718 0.07060212 -0.0929057 0.07266475 -0.037726283 0.08628694 0.018945688 0.06677262
0.061770774 -0.088897586 -0.08927029 0.057548035 0.012666287 0.024049021 0.06895758 0.0352586
0.094439626 -0.022331938 0.06407709 0.07720646 0.09552378 -0.04242204 0.033817876 0.05144594
00000000: a041 5d3d 8974 b7bb 137e 523c aa63 d93d
00000010: 7159 a53c cf23 d1bc c9b6 cfbd 2129 89bd
00000020: 044b d13d 5f78 d13d 897a e9bc 631b 5cbd
00000030: 063f 08bd bef4 9abd 1f86 aabd 91d1 efbd
00000040: daa0 bf3d a8db 2b3d 7372 923d 8e82 debc
00000050: c179 e8bd 422f dc3d 8b39 49bd 8287 8f3d
00000060: 85b1 e23d f0ce cf3c 8131 e4bd 684d 61bd
00000070: 9710 b5bc 385e 3abd 471b 7fbd f21b ce3d
00000080: b9f2 6ebc 9a14 dc3c 9276 3abd b210 d9bd
00000090: 89bf 063c 84e5 5abd 8949 61bd 8249 c83d
000000a0: 1981 64bd d897 903d 5845 bebd 42d1 943d
000000b0: e086 1abd 35b7 b03d fd33 9b3c 15c0 883d
000000c0: 5a03 7d3d f00f b6bd 58d3 b6bd 7db7 6b3d
000000d0: 4286 4f3c 7402 c53c a239 8d3d 526b 103d
000000e0: 9069 c13d 78f1 b6bc d93a 833d 6c1e 9e3d
000000f0: f9a1 c33d bcc2 2dbd 9d84 0a3d fab8 523d

fc.weight f4 [1, 64]
-0.0024537817 0.01879567 -0.06473952 0.015269878 -0.021394564 0.057366546 -0.0019023874 -0.052963536
-0.0049166074 0.018645987 -0.0038671263 0.04178895 -0.0020056372 -0.0030614133 -0.0012059484 0.006707572
-0.07076807 0.0004202077 -0.06541533 0.0063820034 0.078378156 0.0003791956 -0.0009695622 -0.0046385988
-0.06059935 0.00068930635 -0.010638749 -0.06810908 -0.059822034 -0.0005277143 0.028064838 0.045372996
-0.018402165 -0.049590107 0.025017021 -0.044876877 -0.00232522 -0.00071470864 -0.06755759 -0.037734713
0.07382365 -0.036052164 0.018377502 -0.00907734 0.020836852 0.022461532 0.031000376 0.039890192
-0.006676166 -0.014262469 0.0007171378 0.0038541579 0.00560464 0.004875501 0.028040724 -0.0155931525
0.015373678 0.06057188 -0.029074673 -0.014821989 -0.012288651 0.0014132721 -0.00017687939 0.01866153
00000000: a0cf 20bb 60f9 993c 2796 84bd 832e 7a3c
00000010: a743 afbc 2ff9 6a3d 8759 f9ba 4bf0 58bd
00000020: 7e1b a1bb 78bf 983c 9d6f 7dbb e42a 2b3d
00000030: 0271 03bb fea1 48bb ea10 9eba 31cb db3b
00000040: daee 90bd 534f dc39 79f8 85bd 2020 d13b
00000050: ba84 a03d c6ce c639 382a 7eba 63ff 97bb
00000060: 0637 78bd 91b2 343a 264e 2ebc c67c 8bbd
00000070: f307 75bd 4f56 0aba 3be8 e53c 09d9 393d
00000080: 23c0 96bc ff1e 4bbd 7ff0 cc3c d1d0 37bd
00000090: b862 18bb 495b 3bba a25b 8abd b78f 1abd
000000a0: db30 973d 6fab 13bd 6a8c 963c 20b9 14bc
000000b0: 0cb2 aa3c 3f01 b83c 80f4 fd3c e663 233d
000000c0: bdc3 dabb 21ad 69bc 4efe 3b3a 0a96 7c3b
000000d0: 21a7 b73b abc2 9f3b a9b5 e53c 6c7a 7fbc
000000e0: e1e1 7b3c 381a 783d 022e eebc eed7 72bc
000000f0: 5756 49bc 8b3d b93a b378 39b9 11e0 983c
