best_models/best_model_rnn_search_1_features_70.pt (torch, 72512 bytes, 9 tensors)

rnn.weight_ih_l0 f4 [64, 70]
0	0xbdd13d3d	-0.102167584
1	0x3d073cbb	0.0330169
2	0xbda36494	-0.07978168
3	0xbc6d24f0	-0.014474139
4	0x3c56768a	0.013089785
5	0xbdc85090	-0.09780991
6	0xbc7e8020	-0.015533477
7	0xbd800356	-0.06250636
8	0xbb9229a1	-0.004460529
9	0x3d848c0f	0.064720266
10	0x3c43fa07	0.011961467
11	0xbd55e0b6	-0.052216254
12	0xbc028ca6	-0.0079681035
13	0xbdb654ec	-0.08902916
14	0x3ca83fac	0.020538174
15	0xbd0eb88c	-0.034843966
16	0xbda74449	-0.08167321
17	0xbcad93c7	-0.02118863
18	0x3d8736d5	0.06602255
19	0x3c94f104	0.018181331
20	0x3c0e4e80	0.008685708
21	0x3da6d3e8	0.08145887
22	0x3ccc60e5	0.024948547
23	0xbd1841ee	-0.03717225
24	0xbd2cf004	-0.042221084
25	0x3d8f77e7	0.070052914
26	0x3d5ff581	0.05467749
27	0x3c7765aa	0.015099922
28	0x3dc0a244	0.0940595
29	0xbc5d4844	-0.013505999
30	0xbde0b48e	-0.10971938
31	0xbd0d8daa	-0.03455893
32	0xbc3c7b00	-0.011503935
33	0xbce30edf	-0.027717052
34	0x3dc54adb	0.09633418
35	0x3e0b57ab	0.13607661
36	0xbd1579e5	-0.0364932
37	0xbd80c745	-0.06288008
38	0xbd0bc768	-0.034125715
39	0x3ddb54cc	0.10709533
40	0xbc7b68a1	-0.01534477
41	0xbd2e02a6	-0.042482994
42	0xbd27dabd	-0.04098009
43	0x3d27dda6	0.040982865
44	0xbdefab41	-0.11702586
45	0xbd1f89df	-0.038949843
46	0x3d957199	0.07297058
47	0x3b15dba0	0.0022866502
48	0x3d3a9f11	0.045561854
49	0xbdbdcdc0	-0.09267759
50	0xbd8901db	-0.06689807
51	0x3dac8cde	0.08425306
52	0x3da4277b	0.08015343
53	0x3dae099a	0.08497925
54	0x3deb0cfd	0.11477087
55	0x3db52ae0	0.088460684
56	0xbdb47274	-0.08810893
57	0x3d04ad48	0.032391816
58	0x3d63706e	0.055527143
59	0xbdbf8d7a	-0.093531564
60	0xbcbb9764	-0.022899337
61	0xbcb12bd1	-0.021627339
62	0x3cd5919c	0.026070409
63	0xbca931ed	-0.02065369
64	0x3ddf1d6e	0.10894285
65	0x3aa5b60d	0.0012642756
66	0xbd41322d	-0.047166992
67	0xbd6c48ba	-0.057686545
68	0xbdae8984	-0.08522323
69	0x3b9afd5d	0.0047299103
70	0x3c34e613	0.011041182
71	0xbd2470a5	-0.04014649
72	0xbd2e4c0a	-0.042552985
73	0x3da83a75	0.08214275
74	0x3d410df1	0.047132436
75	0xbd1aeaab	-0.037821453
76	0xbacf75de	-0.0015827974
77	0x3d9f2e23	0.07772472
78	0xbd6ddc03	-0.058071148
79	0x3d3aa1b4	0.04556437
80	0xbdac8c28	-0.0842517
81	0x3d3f84ec	0.046757624
82	0x3d9ad83a	0.07560773
83	0x3dab095d	0.08351395
84	0x3dd2abfc	0.1028671
85	0xbcb8da81	-0.022565128
86	0x3d8b8103	0.068117164
87	0xbd4272ef	-0.04747289
88	0xbdcd418d	-0.100222684
89	0x3d81f336	0.06345217
90	0x3de2ee97	0.11080664
91	0xbdb71335	-0.0893921
92	0xbde5a6b5	-0.112134375
93	0xbcb0606b	-0.02153035
94	0xbe062527	-0.1310011
95	0x3b4fe77a	0.0031723664
96	0xbc7407b1	-0.014894412
97	0xbd181537	-0.037129607
98	0x3d2e3c82	0.042538173
99	0x3ca25891	0.019817622
100	0xbdab6e90	-0.083706975
101	0x3db8822c	0.09009203
102	0xbd9d619a	-0.07684632
103	0x3d99591f	0.074877016
104	0x3cdbcaae	0.026830044
105	0xbbcc0085	-0.006225648
106	0x3d2b5cd8	0.04183659
107	0x3d91845d	0.071053244
108	0xbdc2105f	-0.09475779
109	0x3d3f96ef	0.0467748
110	0x3de1c809	0.11024482
111	0x3daf7a3c	0.08568236
112	0xbc69b4db	-0.014264311
113	0x3dadc6fd	0.0848522
114	0xbdc21d1d	-0.09478209
115	0x3da14ea3	0.07876327
116	0xbd74d4b8	-0.059773177
117	0x3d229d59	0.03970084
118	0x3cd56b7a	0.026052225
119	0xbc98f3d9	-0.018670963
120	0xbdd6374f	-0.10459768
121	0x3cd61091	0.026130946
122	0xbd6ce39b	-0.05783425
123	0xba81c3d5	-0.0009900281
124	0x3db2f01a	0.08737202
125	0x3d94cea9	0.0726598
126	0x3ca26f8a	0.019828577
127	0xbdac5cb4	-0.08416119
128	0xbdb494d1	-0.08817447
129	0x3d86cf7e	0.06582545
130	0xbdef84a3	-0.1169522
131	0xbd1fd5d7	-0.039022293
132	0x3db1ff3b	0.086912595
133	0x3c79a590	0.015237227
134	0xbd9fded4	-0.07806173
135	0xbd913ea5	-0.070920266
136	0xbc9931b8	-0.018700466
137	0x3d85620f	0.06512844
138	0x3c77696a	0.015100816
139	0x3c6afcba	0.014342481
140	0xbc88b81d	-0.016689355
141	0xbcf5427c	-0.029938929
142	0xbd26a805	-0.04068758
143	0xbd563615	-0.05229767
144	0xbdce2049	-0.10064752
145	0x3dcde935	0.10054246
146	0x3d6257f1	0.05525965
147	0xbd923ab0	-0.071401
148	0x3d9b8c6b	0.07595142
149	0xbd6d562a	-0.0579435
150	0xbca3b559	-0.019983934
151	0x3d864caf	0.06557595
152	0xbda5be21	-0.08092905
153	0xbd19dbb4	-0.03756304
154	0x3bca8c5d	0.0061812834
155	0x3d929967	0.071581654
156	0xbdef21b1	-0.11676348
157	0xbdba79dc	-0.09105274
158	0x3c4108cf	0.011781885
159	0xbd022ab5	-0.03177901
160	0xbd2f02d3	-0.042727303
161	0xbd722bee	-0.059123926
162	0xbe01105a	-0.12603894
163	0xbd587852	-0.05284912
164	0x3cf87687	0.030329956
165	0x3d8faca8	0.070153534
166	0x3c3f74fd	0.011685607
167	0xbdd31e42	-0.103085056
168	0xbb03622c	-0.0020047529
169	0xbd62ff19	-0.05541906
170	0x39a64acd	0.00031717718
171	0xbc962641	-0.018328788
172	0xbda4e0c7	-0.080506854
173	0xbd6784c2	-0.056523092
174	0xbd0d73fe	-0.034534447
175	0xbb9fb9e9	-0.004874457
176	0x3baed07c	0.005334912
177	0x3d0200ff	0.03173923
178	0xbdb6e7b4	-0.089309126
179	0x3cd6d12f	0.026222793
180	0xbc2088b6	-0.009798219
181	0xbd69fbd5	-0.05712493
182	0xbd137759	-0.03600249
183	0xbd25f533	-0.040517043
184	0xbdd6013b	-0.104494534
185	0xbce9d0fc	-0.028542034
186	0x3dcf251f	0.10114502
187	0xbc3d7fd5	-0.011566122
188	0xbd883115	-0.06649987
189	0x3dcf57e8	0.10124189
190	0xbd5cb980	-0.053887844
191	0xbd0d9a95	-0.03457125
192	0x3c1c465e	0.009538261
193	0xbd2fdb69	-0.042933855
194	0x3d2dddf8	0.042448014
195	0x3d435a30	0.04769343
196	0xbd83f55f	-0.06443285
197	0xbdd0c3b8	-0.101935804
198	0x3d15e7f2	0.036598153
199	0xbdcb2aeb	-0.09920295
200	0xbbe4237a	-0.006962237
201	0xbd56c00b	-0.05242924
202	0xbdc735d9	-0.097270675
203	0xbb8dbb68	-0.004325319
204	0xbd44bbcd	-0.048030663
205	0xbd18a021	-0.037262086
206	0x3ce86ad0	0.028371245
207	0x3cd68b77	0.026189549
208	0x3d3f0f3c	0.046645388
209	0x3b4044b6	0.002933783
210	0x3d0ea1ae	0.03482216
211	0x3d91b625	0.071148194
212	0x3c4d0427	0.012513197
213	0xbd9eece0	-0.07760024
214	0xbd1fe256	-0.03903421
215	0x3d2b6217	0.041841593
216	0xbbd22f1e	-0.006414308
217	0x3d7a5db4	0.06112452
218	0xbdf83876	-0.12120144
219	0xbdb54ad5	-0.08852164
220	0xbc54c0fe	-0.012985466
221	0x3c90be04	0.017668732
222	0xbd9b8bf1	-0.07595051
223	0x3cc9b473	0.024622178
224	0x3ccefb32	0.025266264
225	0xbd4083c3	-0.047000658
226	0xbd254158	-0.04034552
227	0xbce561ca	-0.028000731
228	0xbd015c13	-0.03158195
229	0xbddaf6f9	-0.106916375
230	0x3df4be9d	0.11950419
231	0x3db5c721	0.088758714
232	0xbd352d62	-0.044232734
233	0xbd9a0654	-0.07520738
234	0x3d418ce2	0.047253497
235	0x3df53c0d	0.119743444
236	0x3ca1191b	0.019665292
237	0x3db35539	0.08756489
238	0x3e021ee1	0.12707092
239	0xbda4871b	-0.08033582
240	0x3ded9830	0.11601293
241	0x3c8711e3	0.016488021
242	0x3d27f21b	0.041002374
243	0x3d09816f	0.033570703
244	0x3da2ad0e	0.07943164
245	0x3c6193b4	0.013768125
246	0xbd9778d5	-0.07396094
247	0xbd24329e	-0.040087335
248	0x3cdbd6bc	0.026835792
249	0x3ce5dda6	0.028059792
250	0x3df5451f	0.119760744
251	0x3d5d1d94	0.053983286
252	0x3d98a663	0.07453611
253	0xbd12bc44	-0.035824075
254	0xbdb00b83	-0.08595946
255	0x3d98b953	0.07457223

rnn.weight_hh_l0 f4 [64, 64]
0	0xbde1dc38	-0.110283315
1	0xbc7123b0	-0.014717981
2	0x3d94e860	0.072708845
3	0xbd156f38	-0.03648302
4	0x3d38ae0c	0.04508786
5	0x3da80db0	0.08205736
6	0xbdaa20c2	-0.08307029
7	0xbc879808	-0.016551986
8	0x3dbd6192	0.09247126
9	0x3d3b7d80	0.045773983
10	0xbd3843fc	-0.04498671
11	0x3cef1280	0.029183626
12	0xbde3b24c	-0.11117992
13	0x3d26d740	0.040732622
14	0x3def9f68	0.11700326
15	0x3d144c44	0.036205545
16	0xbdf3f5ec	-0.1191214
17	0x3c8fb140	0.017540574
18	0xbde979a2	-0.11400153
19	0x3dc8d2fc	0.09805867
20	0xbde0cf2a	-0.109770134
21	0xbc8f4ab8	-0.017491683
22	0xbd37e878	-0.044899434
23	0xbdc9dc8e	-0.098565206
24	0x3da989ac	0.08278212
25	0xbd535278	-0.05159232
26	0xbdbd1e38	-0.092342794
27	0x3d0e5bd8	0.034755558
28	0x3d800794	0.062514454
29	0x3b88d640	0.004175931
30	0xbd1853e8	-0.037189394
31	0x3d603268	0.05473557
32	0xbdd139fe	-0.10216139
33	0xbcafa970	-0.021443099
34	0x3a047c00	0.0005053878
35	0x3d07a0a8	0.033112198
36	0x3ddb619e	0.107119784
37	0xbddfe45c	-0.10932228
38	0xbde5e9a2	-0.112262025
39	0x3d4f1a80	0.05056238
40	0xbde017ae	-0.109420165
41	0x3c99f7a8	0.01879485
42	0xbdcd3134	-0.100191504
43	0x3b2c17c0	0.0026259273
44	0xbdb46dde	-0.08810018
45	0x3c18efe0	0.009334534
46	0xbd842082	-0.06451513
47	0x3de61fd0	0.112365365
48	0x3c9ce438	0.019151792
49	0x3dabc6d0	0.0838753
50	0xbdb0de54	-0.08636156
51	0xbc8593c8	-0.01630582
52	0x3c328850	0.010896757
53	0xbd8b4e20	-0.068020105
54	0xbcf315a8	-0.029673412
55	0x3d28d6d0	0.041220486
56	0xbd34ca20	-0.044138074
57	0x3c5c7e90	0.013457909
58	0x3d4c537c	0.049884304
59	0x3d101dd4	0.035184696
60	0xbd2f1e50	-0.042753518
61	0x3ca1c4e0	0.019747198
62	0xbd9209ee	-0.071308
63	0xbd4994b4	-0.04921408
64	0x3d9b322a	0.075779274
65	0x3df21b38	0.11821598
66	0xbd1b6fa0	-0.03794825
67	0xbdfbba60	-0.122914076
68	0xbcdc3c28	-0.026884153
69	0x3de703e8	0.11280042
70	0x3df57648	0.11985451
71	0x3de607b6	0.112319395
72	0xbdfa967a	-0.122357324
73	0x3d5d04e4	0.053959742
74	0xbdce0354	-0.100592285
75	0x3d61ca00	0.055124283
76	0xbdd81d68	-0.10552484
77	0xbcc03180	-0.023461103
78	0x3dbacac6	0.09120707
79	0x3cbb3bb8	0.022855625
80	0x3d8bce86	0.068265006
81	0x3bb715e0	0.0055873245
82	0xbd9d49ea	-0.076801136
83	0x3ceeb6b8	0.029139861
84	0x3de96b6e	0.11397444
85	0x3d4e795c	0.050408706
86	0x3cee58d0	0.029095083
87	0xbd9586ba	-0.07301088
88	0xbdb60964	-0.0888851
89	0xbdf85d90	-0.12127221
90	0x3dedead6	0.11617057
91	0x3d8918ec	0.066942066
92	0x3dd35a9a	0.10320015
93	0xbda6f0aa	-0.08151372
94	0x3cc43f68	0.023956016
95	0xbcfc2e60	-0.030783832
96	0x3da1872e	0.078871116
97	0x3d790a84	0.060801044
98	0xbd03fb48	-0.032222062
99	0x3d74a30c	0.059725806
100	0x3dd798ec	0.105272144
101	0xba131b00	-0.00056116283
102	0x3c9734a0	0.01845771
103	0xbd841848	-0.06449944
104	0x3d411604	0.047140136
105	0xbb25dc80	-0.002530843
106	0xbd862628	-0.065502465
107	0xbb8e35c0	-0.0043399036
108	0xba88ef00	-0.0010447204
109	0xbb8f9540	-0.0043818057
110	0xbd19b36c	-0.037524626
111	0x3dc8e8a0	0.09809995
112	0x3cc02090	0.023453027
113	0xbdc27fb2	-0.09497012
114	0xbd63bfa0	-0.05560267
115	0x3d8d59c2	0.069018856
116	0x3d0208c0	0.031746626
117	0x3d22db74	0.039760068
118	0x3dc06114	0.09393516
119	0xbdd998ac	-0.10624823
120	0x3d0ebbcc	0.034847066
121	0x3cf19090	0.029487878
122	0x3d7e1e90	0.062040865
123	0xbcf98128	-0.030457094
124	0x3da7d112	0.08194174
125	0x3dc3feee	0.09570108
126	0xbd7ac5f8	-0.061223954
127	0x3dad917c	0.084750146
128	0x3da596b2	0.080853835
129	0xbcaca2d8	-0.021073744
130	0xbce59d80	-0.028029203
131	0xbd2949dc	-0.041330203
132	0xbde8230a	-0.11334808
133	0xbda55d0a	-0.080743864
134	0xbdfd1442	-0.123573795
135	0x3dfc298a	0.123126104
136	0x3dedc0be	0.11609028
137	0xbca9eb38	-0.020742044
138	0xbdb39e2e	-0.08770405
139	0x3dcb85d8	0.09937638
140	0xbc8bc230	-0.01706037
141	0xbd5eb040	-0.054367304
142	0xbd9d7824	-0.07688931
143	0xbd258f5c	-0.04041992
144	0xbdb331ac	-0.087497085
145	0xb8caa800	-9.663403e-05
146	0xbd85bcae	-0.065301284
147	0xbcae8068	-0.021301463
148	0xbdbb41e0	-0.09143424
149	0x3b088fc0	0.0020837635
150	0xbc8832a0	-0.016625702
151	0x3d19d6ac	0.037558243
152	0xbb9a8400	-0.0047154427
153	0x3d539a78	0.051660985
154	0x3df77f28	0.120848
155	0xbd829fc2	-0.06378128
156	0xbdcbb7a2	-0.099471346
157	0x3c6e1670	0.014531717
158	0x3ca0a188	0.019608274
159	0x3df3988c	0.118943304
160	0x3d6321cc	0.055452153
161	0x3d2b1f90	0.041778147
162	0xba8d1080	-0.0010762364
163	0xbcd15f30	-0.025558084
164	0xbdaab634	-0.08335534
165	0x3d9ec480	0.07752323
166	0x3dd9531c	0.10611555
167	0x3d42c460	0.04755056
168	0xbde4a942	-0.11165096
169	0xbd3a449c	-0.045475587
170	0x3dea40c2	0.11438133
171	0xbbe3aba0	-0.0069479495
172	0x3c9be2c8	0.019029036
173	0xbc816d08	-0.01579906
174	0xbdb7b840	-0.0897069
175	0xbc9ffdd0	-0.019530207
176	0x3dd568b8	0.10420364
177	0xbdea2e10	-0.11434567
178	0xbdf3e49a	-0.11908837
179	0xbc416260	-0.01180324
180	0x3b97cb60	0.0046323985
181	0xbd30806c	-0.043091223
182	0x3ae78100	0.0017662346
183	0x3d5d3280	0.05400324
184	0x3d36d4c4	0.044636503
185	0xbdb69046	-0.08914237
186	0xbd7983f8	-0.06091687
187	0xbd6798f0	-0.056542337
188	0xbd5cb928	-0.053887516
189	0xbddc602e	-0.10760532
190	0x3d84f3d2	0.064918175
191	0xbdb6ecf0	-0.08931911
192	0x3d1d9c80	0.03847933
193	0x3da8e258	0.08246297
194	0x3dd3da82	0.103444114
195	0xbde288a6	-0.1106122
196	0xbdd8a172	-0.10577668
197	0xbdcf793e	-0.10130547
198	0x3d35cc9c	0.044384584
199	0xbdf2f5dc	-0.118633
200	0x3db08530	0.086191535
201	0x3aece400	0.001807332
202	0xbc135f50	-0.008994892
203	0xbd880eb4	-0.066434294
204	0x3d0f8a80	0.035044193
205	0xbd96144a	-0.073280886
206	0xbd9ca8d6	-0.076493904
207	0x3cc0c498	0.023531243
208	0x3dc1240e	0.09430705
209	0x3d2d2c90	0.042278826
210	0x3c073150	0.008251503
211	0x3ce64200	0.028107643
212	0x3dbc2a14	0.09187713
213	0x3c58a720	0.013223439
214	0x3d82299c	0.063555926
215	0x3d292fec	0.041305467
216	0x3c88fb78	0.016721472
217	0xbdc64872	-0.096817866
218	0xbd6cc098	-0.05780086
219	0xbdda3736	-0.10655062
220	0x3dff9412	0.12479414
221	0xbc7529f0	-0.014963612
222	0xbc2ca780	-0.010537982
223	0xbc318a30	-0.010836169
224	0xbd142cac	-0.036175415
225	0x3cb08008	0.021545425
226	0xbde40ac4	-0.11134866
227	0xbde9f436	-0.11423533
228	0x3d84ecd6	0.06490485
229	0xbd4ba39c	-0.049716577
230	0x3dcfb412	0.101417676
231	0x3ccf87c8	0.0253333
232	0xbd9bf008	-0.07614142
233	0xbc6c7230	-0.014431521
234	0xbd9d2332	-0.076727286
235	0xbd5db964	-0.05413188
236	0x3de3e9fe	0.11128615
237	0xbce83508	-0.0283456
238	0x3d9bca5a	0.07606955
239	0xbd95d1fa	-0.073154405
240	0xbd661468	-0.056171805
241	0xbdb43440	-0.087990284
242	0xbc2cd150	-0.010547951
243	0xbdc14e32	-0.09438743
244	0xbbbd5360	-0.0057777613
245	0x3d5381b4	0.051637366
246	0x3b0e2180	0.0021687448
247	0x3d158538	0.036504
248	0xbdf3c0d6	-0.11902015
249	0x3ae6d600	0.0017611384
250	0x3cd75570	0.026285857
251	0x3bf89e40	0.0075872242
252	0x3b1994c0	0.002343461
253	0xbdee9682	-0.11649801
254	0x3db0bcee	0.086297855
255	0xbde8074a	-0.11329515

rnn.bias_ih_l0 f4 [64]
0	0x3e003c8e	0.125231
1	0xbdcef34c	-0.10104999
2	0x3db85354	0.090002686
3	0xbd991218	-0.07474154
4	0xbcfd5358	-0.03092353
5	0xbd956859	-0.07295293
6	0x3ddfadd6	0.109218284
7	0x3ce12b02	0.027486328
8	0x3beab82f	0.0071630697
9	0xbda4a25b	-0.08038779
10	0xbce87b8f	-0.02837923
11	0x3d7a675a	0.06113372
12	0x3c9aac3d	0.018880958
13	0xbde6a4d6	-0.11261909
14	0xbd593142	-0.05302549
15	0xbda710cc	-0.081575006
16	0xbd49a2eb	-0.049227636
17	0x3da983e3	0.082771085
18	0x3cab3c40	0.020902753
19	0x3dd2e000	0.10296631
20	0xbde2c8f8	-0.11073488
21	0x3d97b22f	0.07407033
22	0xbdb9bb82	-0.090689674
23	0xbdcca277	-0.09991925
24	0xbcebf20b	-0.028801939
25	0x3d622b26	0.05521693
26	0xbd5939a1	-0.053033475
27	0x3b8be71c	0.0042694937
28	0xbde2e6d9	-0.11079187
29	0x3df8dbe8	0.12151319
30	0xbd60d7a7	-0.054893162
31	0x3d4a1bff	0.049343105
32	0xbd152052	-0.036407776
33	0x3de3c60e	0.1112176
34	0x3ca186ce	0.0197176
35	0xbcf3a504	-0.029741772
36	0xbdd18231	-0.1022991
37	0x3da81a5c	0.08208153
38	0xbdc8a5ca	-0.09797247
39	0x3b899300	0.004198432
40	0x3dd47de2	0.10375573
41	0xbd42a904	-0.047524467
42	0xbdaeec40	-0.08541155
43	0x3d555b35	0.052088935
44	0x3c71490c	0.014726888
45	0xbd03980a	-0.032127418
46	0x3d8b270d	0.06794558
47	0xbd418b78	-0.04725215
48	0x3d149e95	0.036284048
49	0xbcd31341	-0.025766017
50	0xbd3c7b63	-0.04601611
51	0xbd77147b	-0.060322266
52	0xbde55faf	-0.11199891
53	0xbd92e6d0	-0.0717293
54	0x3cde1fac	0.027114712
55	0xbd36bda8	-0.044614464
56	0x3d66a318	0.056307882
57	0x3defc965	0.11708335
58	0xbc60a2b7	-0.013710669
59	0xbdc01a44	-0.0938001
60	0x3da89dfb	0.082332574
61	0x3d99bdfb	0.07506939
62	0x3d56d7d8	0.05245194
63	0x3dec01fb	0.11523815

rnn.bias_hh_l0 f4 [64]
0	0xbdd66734	-0.10468903
1	0x3d9e8056	0.07739322
2	0x3d39e1be	0.0453813
3	0x3dac175c	0.08402893
4	0x3db4105a	0.08792181
5	0x3c8996ed	0.0167956
6	0xbda99ec0	-0.08282232
7	0xbca46547	-0.020067824
8	0xbd601ee1	-0.05471695
9	0x3dcf05a1	0.101084955
10	0xbddbf2ef	-0.10739695
11	0x3d015651	0.03157646
12	0x3d628431	0.05530185
13	0x3dc06a70	0.09395301
14	0xbd1a89ae	-0.037728958
15	0x3d1a6d3a	0.037701823
16	0xbdb614bc	-0.088906735
17	0xbde8f36f	-0.11374556
18	0xbd837329	-0.064184494
19	0xbde91be2	-0.11382271
20	0xbd453544	-0.0481465
21	0x3d8c0f1d	0.0683882
22	0x3b953cb8	0.0045543574
23	0x3dae8245	0.08520941
24	0xbcfe2768	-0.03102465
25	0xbdf1ac74	-0.11800471
26	0x3c82e535	0.015978435
27	0x3dc0b4ec	0.09409508
28	0x3d949a1d	0.07255957
29	0xbd5148e8	-0.05109492
30	0x3d0d58a3	0.03450836
31	0x3ca6c622	0.020358149
32	0x3d5eb1d3	0.054368805
33	0xbb5a2ab1	-0.0033289606
34	0x3d936018	0.07196063
35	0x3dc7b2e0	0.097509146
36	0x3db8dc27	0.09026366
37	0x3dc78178	0.09741491
38	0x3df256ba	0.11832948
39	0x3db5c7d8	0.08876008
40	0xbde10ea1	-0.10989118
41	0x3d141850	0.036156
42	0x3d110360	0.03540361
43	0x3d9732c0	0.07382727
44	0xbc968400	-0.01837349
45	0xbd22248a	-0.039585628
46	0xbdbc2a5f	-0.09187769
47	0xbd832c5d	-0.06404946
48	0x3c40688c	0.011743676
49	0x3db4065b	0.08790275
50	0x3d484419	0.048893068
51	0x3d76766f	0.06017154
52	0x3daa0e9b	0.08303567
53	0xbcb78efb	-0.022407046
54	0xbca467a8	-0.020068958
55	0xbcd1da38	-0.02561675
56	0x3de630e6	0.112397954
57	0xbd8633e2	-0.065528646
58	0x3d78a467	0.06070366
59	0xbcfdcbfd	-0.030981058
60	0xbd3007eb	-0.0429763
61	0x3db14925	0.08656529
62	0xbb676a9b	-0.0035311345
63	0x3d626370	0.055270612

rnn.weight_ih_l1 f4 [64, 64]
0	0xbdab1514	-0.0835363
1	0xbd9c4c7f	-0.07631778
2	0xbddf68ad	-0.10908637
3	0x3da65e61	0.0812347
4	0x3d7ab856	0.061210953
5	0xbdf82584	-0.121165305
6	0xbdc05d5f	-0.09392809
7	0x3d8a8769	0.06764109
8	0xbdc7ba79	-0.09752364
9	0xbdaf5193	-0.08560481
10	0x3dbb11df	0.09134268
11	0x3da04c03	0.07826998
12	0x3d4b48c5	0.049629945
13	0xbd88a190	-0.066714406
14	0xbdffe222	-0.12494303
15	0x3dea1c84	0.1143122
16	0x3b906af6	0.004407282
17	0xbd43715e	-0.047715537
18	0x3d9e8d16	0.07741754
19	0xbd1ea8a4	-0.038735047
20	0xbd9ffb25	-0.07811574
21	0xbdc5140e	-0.09622966
22	0x3c5d94a3	0.013524207
23	0x3c95bf7f	0.018279789
24	0x3ccb7978	0.024838194
25	0xbcd42ffd	-0.025901789
26	0x3aa98aa4	0.0012934995
27	0x3d80d2b9	0.06290192
28	0xbcb99d4c	-0.022658013
29	0x3bb2f42a	0.0054612355
30	0xbd264f1c	-0.04060279
31	0xbcceaab7	-0.025227888
32	0xbdd45b8c	-0.10369024
33	0x3d07aa17	0.033121195
34	0x3d6e3d61	0.058164004
35	0x3d4c04c8	0.049809247
36	0xbe01efc6	-0.12689123
37	0x3d5e37f4	0.05425258
38	0xbd9a44bd	-0.07532642
39	0x3caa4b53	0.02078787
40	0x3ce1cb46	0.027562749
41	0x3c5b05f6	0.01336812
42	0x3d321a4a	0.043482102
43	0x3ced6310	0.0289779
44	0x3d66eb06	0.05637648
45	0xbda4efa1	-0.08053518
46	0x3d80a0cc	0.062806696
47	0xbde4f11a	-0.11178799
48	0xbdd6c02d	-0.10485873
49	0xbd628044	-0.055298105
50	0x3d219462	0.03944815
51	0x3cfd98ea	0.030956704
52	0x3dcd040c	0.100105375
53	0x3d8b6619	0.06806583
54	0xbd556b76	-0.052104436
55	0x3d1cc6fc	0.038275704
56	0xbd9d9746	-0.07694869
57	0xbd06f2e9	-0.0329465
58	0xbcb27cc6	-0.021788012
59	0xbd0c2178	-0.034211606
60	0x3d3214d4	0.043476894
61	0xbca8585e	-0.02054995
62	0xbd3751a4	-0.044755593
63	0x3cdcff8f	0.026977329
64	0xbd0655cf	-0.032796677
65	0xbc8e04e4	-0.017336316
66	0xbd5e6be3	-0.054302108
67	0x3dd1b6e0	0.10239959
68	0x3de78830	0.113052726
69	0x3c892ce6	0.016745042
70	0xbc9a236f	-0.018815724
71	0xbbb922f5	-0.005649919
72	0x3daaa1d1	0.08331645
73	0x3dd64a25	0.10463361
74	0x3d7bcd88	0.061475307
75	0x3cf34673	0.029696679
76	0x3be5fc7c	0.007018624
77	0xbc219e83	-0.009864452
78	0x3d42e67a	0.04758308
79	0x3cde86f1	0.027163954
80	0x3d21b418	0.03947839
81	0x3dcb76d8	0.09934777
82	0xbdade9da	-0.08491869
83	0xbc39eae3	-0.011347505
84	0xbda7904f	-0.081818216
85	0x3c8b7a76	0.017026167
86	0x3d23ea54	0.040018395
87	0x3d113c60	0.03545797
88	0xbd98dad5	-0.07463614
89	0x3d8588de	0.06520246
90	0xbd299bab	-0.041408222
91	0xbccf26cd	-0.025287056
92	0x3c975693	0.018473899
93	0x3dfe51e7	0.124179654
94	0x3d1bce21	0.038038377
95	0x3dd812e3	0.10550477
96	0xbb2aaf8e	-0.002604458
97	0x3cee2ee6	0.029075097
98	0x3dc39155	0.09549204
99	0xbda7779e	-0.08177112
100	0xbbbfdcc8	-0.0058551766
101	0xbc7c3477	-0.015393368
102	0x3d938757	0.072035484
103	0x3d6a5475	0.05720945
104	0xbcf5efa7	-0.030021502
105	0x3dbe7b4d	0.093008615
106	0x3da52113	0.08062949
107	0xbd4ce4c6	-0.050022863
108	0xbd8838e2	-0.066514745
109	0x3d391fec	0.04519646
110	0xbd8d588f	-0.06901657
111	0xbc9ee43d	-0.019395942
112	0xbd3cc27c	-0.046083912
113	0xbdaa262d	-0.08308063
114	0x3d24e994	0.04026182
115	0xbdccc9da	-0.09999438
116	0x3dcbedeb	0.099574886
117	0x3bb6d7ad	0.00557991
118	0x3dbf1670	0.093304515
119	0xbc066c1b	-0.008204485
120	0x3d2da2d5	0.042391617
121	0xbb47cc6e	-0.003048684
122	0xbd4bc36e	-0.049746923
123	0x3d67c407	0.05658343
124	0xbdb0d8e4	-0.086351186
125	0x3c27f37b	0.010250921
126	0xba33a606	-0.00068530475
127	0xbc847740	-0.016170144
128	0x3cb7c2fb	0.022431841
129	0x3d021e65	0.031767268
130	0x3cbda050	0.023147732
131	0x3d06dc34	0.032924846
132	0xbcd37ca9	-0.025816279
133	0xbddd33c2	-0.10800888
134	0xbd9102ad	-0.070805885
135	0x3d4bad69	0.049725924
136	0xbcfe66f6	-0.031054955
137	0x3cf59b75	0.029981354
138	0x3d876994	0.06611934
139	0x3d36eafb	0.04465769
140	0xbd2f104e	-0.04274016
141	0x3db62ecf	0.08895647
142	0xbe051807	-0.12997447
143	0xbd3c8787	-0.046027686
144	0x3db1b092	0.08676256
145	0x3d864be0	0.06557441
146	0x3d967a84	0.07347587
147	0xbddf60d7	-0.109071426
148	0x3d3aa5f6	0.04556843
149	0xbd1560c6	-0.036469243
150	0xbd468b25	-0.048472542
151	0xbd890c34	-0.06691781
152	0xbd8c640b	-0.06855019
153	0x3d728350	0.05920726
154	0xbd5c3308	-0.053759605
155	0x3c274134	0.010208417
156	0x3dc42d80	0.09578991
157	0xbd58bb80	-0.05291319
158	0xbd10146f	-0.035175737
159	0xbdb57a09	-0.08861167
160	0x3dd62a2a	0.10457261
161	0xbd125645	-0.035726804
162	0x3d23f1ca	0.04002551
163	0xbd3530f2	-0.04423613
164	0x3dd02a43	0.10164311
165	0x3ceeb002	0.029136661
166	0x3d8cc329	0.06873161
167	0x3da7bfd3	0.081908844
168	0xbca6c838	-0.020359144
169	0xbd588bc0	-0.05286765
170	0x3e013f9e	0.12621924
171	0xba0f6be1	-0.00054710923
172	0x3cc27dce	0.023741629
173	0xbc5feefe	-0.01366782
174	0xbd15af33	-0.036544036
175	0xbdd0ade6	-0.101894185
176	0xbc7f1e3e	-0.015571175
177	0x3b0c243c	0.0021383902
178	0x3d0c9ab2	0.034327216
179	0x3dd04a26	0.10170393
180	0x3dbb78c3	0.09153893
181	0x3d1df467	0.03856316
182	0x3d394fb3	0.045242023
183	0xbc8973de	-0.016778883
184	0xbd7942f0	-0.060854852
185	0xbd16d5fb	-0.03682516
186	0x3cd71d02	0.02625895
187	0xbd91f2f1	-0.071264155
188	0xbdbc72d0	-0.09201586
189	0x3d82a94b	0.06379946
190	0xbdcf55b0	-0.101237655
191	0x3dc3cd1f	0.09560608
192	0xbcf71099	-0.030159282
193	0xbd4ec8b1	-0.050484363
194	0x3db17c0e	0.0866624
195	0xbd70f6d9	-0.058829162
196	0xbc740e02	-0.014895918
197	0xbdd138d6	-0.10215919
198	0xbd0ce585	-0.034398574
199	0x3d8653a1	0.0655892
200	0x3dbc2e50	0.09188521
201	0x3d3bac12	0.045818396
202	0x3dfc28e6	0.12312488
203	0xbca26ae9	-0.01982637
204	0xbd614e71	-0.05500645
205	0xbd7f44a5	-0.062321324
206	0x3d03717b	0.032090645
207	0x3d49eb5b	0.049296718
208	0xbd189beb	-0.03725807
209	0xbca68a42	-0.020329598
210	0xbd0ea121	-0.034821633
211	0x3c619e3f	0.013770639
212	0x3e065f21	0.13122226
213	0x3cb76f37	0.022391899
214	0xbd005b89	-0.031337295
215	0x3dce4b78	0.10072988
216	0xbb9b91e0	-0.0047476143
217	0xbd08cc32	-0.03339786
218	0xbdb428a4	-0.08796814
219	0xbd453047	-0.048141744
220	0x3d96bdd2	0.07360424
221	0x3dba9eeb	0.091123424
222	0xbd9486c9	-0.07252271
223	0xbd645746	-0.055747293
224	0x3d963736	0.073347494
225	0xbd95188c	-0.072800726
226	0x3dd06c64	0.10176924
227	0xbcee7bb2	-0.029111717
228	0xbd73f11b	-0.059556108
229	0xbdf214b9	-0.11820359
230	0x3e037af5	0.12839873
231	0x3d44df71	0.048064653
232	0x3cb02e54	0.021506466
233	0x3d5136da	0.0510777
234	0x3dd4c429	0.10388977
235	0x3d481115	0.048844416
236	0x3d974a78	0.07387251
237	0xbc945577	-0.018107159
238	0x3cdf4657	0.02725522
239	0xbd99b7c2	-0.07505752
240	0x3d4f0353	0.05054028
241	0xbd72dc57	-0.059292164
242	0x3d498c00	0.04920578
243	0xbd906629	-0.070507355
244	0xbd1b5524	-0.037922993
245	0xbd5da40d	-0.05411153
246	0xbded2fe7	-0.11581402
247	0x3dcbd750	0.09953177
248	0x3cc3a4d9	0.023882316
249	0xbda576ac	-0.080792755
250	0xbd8ca72f	-0.06867825
251	0xbdc20697	-0.09473913
252	0x3d9c9ab8	0.07646698
253	0xbdb9adf3	-0.09066381
254	0x3dd2fb8c	0.10301885
255	0xbde2dbff	-0.11077117

rnn.weight_hh_l1 f4 [64, 64]
0	0xbdf8c9d0	-0.12147868
1	0xbb90ef00	-0.0044230223
2	0xbd950ab6	-0.072774336
3	0x3d0eaf84	0.034835353
4	0x3c767280	0.015041947
5	0xbce82e30	-0.028342336
6	0x3d308510	0.04309565
7	0x3dc473a8	0.09592372
8	0x3d63f8d0	0.055657208
9	0xbd683278	-0.056688756
10	0xbd3778fc	-0.044793114
11	0x3d58cd24	0.052930012
12	0xbd0108b4	-0.03150244
13	0xbdabd882	-0.08390905
14	0xbdc9b9ae	-0.09849869
15	0x3d861262	0.06546475
16	0xbdd6b458	-0.104836166
17	0xbd0f305c	-0.03495823
18	0xbdea1e0e	-0.11431514
19	0xbc9a6e00	-0.01885128
20	0x3dad5aae	0.084645614
21	0xbd9ceb3c	-0.07662055
22	0x3df3077a	0.118666604
23	0x3d38d8dc	0.04512869
24	0xbd201500	-0.039082527
25	0x3d3f3dac	0.046689674
26	0x3dae2c54	0.08504549
27	0xbddcb83a	-0.10777326
28	0x3b272cc0	0.002550885
29	0xbd03f5b4	-0.032216743
30	0x3ddd5104	0.10806468
31	0x3d1d92e0	0.03847015
32	0x3d8efca8	0.06981784
33	0x3d20c64c	0.03925161
34	0x3de5ab7c	0.11214349
35	0xbc2ea320	-0.010659009
36	0xbd121c0c	-0.03567128
37	0xbddd8608	-0.1081658
38	0x3cb59100	0.022163868
39	0x3d878996	0.06618039
40	0x3d2011c8	0.039079458
41	0xbba24120	-0.004951611
42	0xbd644f6c	-0.055739805
43	0xbdf5a9c2	-0.11995269
44	0xbdf2399a	-0.11827393
45	0x3d892bf2	0.06697835
46	0xbd4c5290	-0.049883425
47	0xbd317fec	-0.043334886
48	0xbc5c2ce0	-0.013438433
49	0xbddd6bbe	-0.10811566
50	0x3c26e690	0.010186806
51	0x3da371dc	0.07980701
52	0xbdde5a0a	-0.10857017
53	0xbd812a22	-0.06306864
54	0x3d8bdc9a	0.06829186
55	0xbd58d1d4	-0.052934483
56	0x3d922e20	0.07137704
57	0xbdb1014a	-0.08642824
58	0xbdaac526	-0.08338384
59	0xbd4005d4	-0.046880558
60	0x3dab9588	0.0837813
61	0x3d92367c	0.07139298
62	0xbde39544	-0.111124545
63	0x3d10c0a4	0.035339966
64	0xbdaea1c2	-0.085269466
65	0x3db803d4	0.08985105
66	0x3cb983c0	0.022645831
67	0x3dec9bd8	0.11553162
68	0xbdf7f8f4	-0.12108031
69	0xbd32fdc8	-0.043699056
70	0x3c691520	0.014226228
71	0x3dd34822	0.103164926
72	0xbd369398	-0.04457435
73	0xbd47cd1c	-0.048779592
74	0xbd6bec34	-0.057598308
75	0xbcdbe5c8	-0.026842967
76	0xbd22fd74	-0.039792493
77	0x3dbc977c	0.09208581
78	0x3d5f3a5c	0.054499015
79	0x3d7e62c0	0.062105894
80	0xbdcaafda	-0.09896822
81	0xbca354d8	-0.019937918
82	0x3c75ea90	0.015009537
83	0x3d1e00e8	0.038575083
84	0x3d3179bc	0.043328986
85	0xbda3824e	-0.07983838
86	0x3ce4cb40	0.027928948
87	0x3d8ad2fc	0.06778523
88	0xbdc5651e	-0.09638427
89	0x3dd91c64	0.10601118
90	0xbd662f58	-0.056197494
91	0xbdcda6dc	-0.100415915
92	0xbc820cd8	-0.015875265
93	0xbd10e200	-0.03537178
94	0x3db73054	0.08944765
95	0xbce63498	-0.02810125
96	0x3da94c06	0.082664534
97	0x3d68701c	0.05674754
98	0xbcd26c58	-0.025686428
99	0x3dc42d62	0.095789686
100	0x3da58a86	0.08083062
101	0x3db1c7a8	0.086806595
102	0x3d70259c	0.058629617
103	0x3d8ff940	0.070299625
104	0xbde6681a	-0.112503245
105	0xbda8277c	-0.08210656
106	0x3dfdaf7a	0.12386985
107	0xbdb8f382	-0.090308204
108	0x3df736ea	0.12071021
109	0x3d771cb0	0.060330093
110	0x3d7461f8	0.059663743
111	0x3dadf332	0.084936514
112	0xbce05bf0	-0.02738759
113	0x3dcf8f34	0.10134736
114	0x3c7617f0	0.015020356
115	0x3dd15d10	0.102228284
116	0xbcbc9b70	-0.023023337
117	0xbda79528	-0.08182746
118	0x3d21d970	0.039514005
119	0x3b6ffd00	0.0036619306
120	0x3de0768e	0.109601125
121	0x3c1a64c0	0.009423435
122	0xbda77f1a	-0.081785396
123	0x3d80d9b0	0.062915206
124	0xbd4bed98	-0.049787134
125	0x3dcc13f2	0.09964742
126	0x3d70c504	0.05878164
127	0x3daff888	0.085923254
128	0xbd609330	-0.05482787
129	0x3d64fb84	0.055903926
130	0x3d7dc4b4	0.06195517
131	0xbdaddece	-0.08489762
132	0xbd7b010c	-0.061280295
133	0x3c6b5100	0.014362574
134	0xbc6316e0	-0.013860434
135	0x3d0920ec	0.033478662
136	0x3de37f1a	0.11108227
137	0xbdb8f6a0	-0.09031415
138	0xbd586db4	-0.052838996
139	0xbd3a58b4	-0.04549475
140	0xbdd7f47e	-0.1054468
141	0x3d3d0ed0	0.046156704
142	0x3cb639a8	0.02224429
143	0xbda04bd8	-0.07826966
144	0xbb41e680	-0.0029586852
145	0xba029f00	-0.00049827993
146	0x3d8db8a8	0.06919986
147	0x3d9e470a	0.077283934
148	0xbcff84e0	-0.03119129
149	0x3de4a3e6	0.11164074
150	0xbb8838a0	-0.004157141
151	0x3da822c8	0.08209759
152	0xbdad8e4a	-0.08474405
153	0xbddf6db6	-0.109095976
154	0x3ce80ab8	0.028325424
155	0xbc4a8280	-0.012360215
156	0xbdbde396	-0.09271924
157	0x3d7271f8	0.05919072
158	0x3dec4972	0.11537446
159	0x3d136650	0.035986245
160	0xbd97c5c4	-0.07410768
161	0xbc78cbd0	-0.015185311
162	0x3c873020	0.01650244
163	0xbcaf5618	-0.021403357
164	0xbd69c774	-0.05707498
165	0xbd916a64	-0.071003705
166	0xbdd96e4e	-0.10616742
167	0xbdd42cb4	-0.10360089
168	0xbdb2fd18	-0.0873968
169	0xbd9e82c8	-0.07739788
170	0x3dfe2a4a	0.1241041
171	0x3d60d7dc	0.05489336
172	0xbd074158	-0.0330213
173	0x3df15ba8	0.1178506
174	0xbc24aa30	-0.0100503415
175	0xbdc1e61c	-0.09467718
176	0xbc80c138	-0.015717134
177	0x3c0f93a0	0.008763224
178	0x3dfa162e	0.12211262
179	0x3da14b92	0.07875742
180	0xbbdc3800	-0.006720543
181	0xbd9fa34e	-0.0779482
182	0x3dfc05de	0.123058066
183	0xbd42776c	-0.04747717
184	0x3dfe1634	0.12406579
185	0xbd108b94	-0.035289362
186	0x3d2b89c4	0.04187943
187	0xbdbc11fa	-0.09183116
188	0xbd90ab46	-0.07063918
189	0x3d97b118	0.07406825
190	0x3cbece28	0.023291662
191	0x3c612180	0.013740897
192	0x3da8b066	0.0823677
193	0xbdd69fa2	-0.10479666
194	0xbd162958	-0.036660522
195	0x3d95f846	0.07322745
196	0xbdfee068	-0.12445146
197	0xbd93cf04	-0.072172195
198	0x3d142828	0.03617111
199	0x3db4cd5a	0.0882823
200	0x3db7581a	0.08952351
201	0x3dff13b4	0.1245493
202	0x3d9395d6	0.07206313
203	0x3da5938a	0.080847815
204	0xbd5d4224	-0.054018155
205	0x3d311e34	0.043241695
206	0xba8f4700	-0.0010931194
207	0xbce7e388	-0.028306738
208	0xbdd48674	-0.103772074
209	0xbdf9a2b0	-0.12189233
210	0xbdb99484	-0.0906153
211	0x3d837854	0.06419435
212	0xbcbc55d8	-0.022990152
213	0xbda22814	-0.079178005
214	0xbd9adf54	-0.07562128
215	0x3d939452	0.07206024
216	0x3d6c998c	0.05776362
217	0xbd134b10	-0.035960257
218	0xbde805be	-0.1132922
219	0xbcf25c28	-0.02958496
220	0x3db731f8	0.08945078
221	0x3c8f93e0	0.017526567
222	0xbdeff57c	-0.11716744
223	0x3d2cd918	0.042199224
224	0xbc2d2cb0	-0.010569736
225	0x3de0aad0	0.1097008
226	0x3d2c1be4	0.042018786
227	0xbc481550	-0.012212113
228	0xbde1044c	-0.10987148
229	0x3c48c470	0.012253866
230	0x3c220360	0.0098885
231	0xbbc2c640	-0.0059440434
232	0xbdcb6310	-0.09931004
233	0x3cf92b18	0.030416057
234	0x3d6d4cf8	0.05793473
235	0xbdb4024a	-0.08789499
236	0x3de47630	0.11155355
237	0x3d9464fc	0.07245824
238	0xbd65f15c	-0.05613838
239	0xbd86a3ba	-0.06574197
240	0xbd992382	-0.07477476
241	0xbcfd3d58	-0.03091304
242	0xbbd6d680	-0.006556332
243	0x3dcd9a5a	0.10039206
244	0x3d31dee8	0.04342547
245	0xbd36d6d8	-0.044638485
246	0x3d60d140	0.054887056
247	0xbdde1994	-0.108447224
248	0xbd1e00dc	-0.03857504
249	0x3a8cb880	0.0010736138
250	0x3d5aa8dc	0.053383693
251	0xbc513ca0	-0.012770802
252	0x3dbcfefe	0.092283234
253	0x3db9d3cc	0.090736
254	0x3df77dee	0.12084566
255	0x3dfab788	0.12242037

rnn.bias_ih_l1 f4 [64]
0	0xbdbf2837	-0.09333842
1	0xbd1b34de	-0.037892215
2	0x3d35b375	0.044360597
3	0x3c589c12	0.013220804
4	0xbceafd94	-0.028685369
5	0x3d504663	0.050848376
6	0x3dd9cbbd	0.10634563
7	0x3dced056	0.10098331
8	0xbe01b9c3	-0.12668519
9	0xbde70ec0	-0.1128211
10	0xbd82a217	-0.063785724
11	0xbd5753b6	-0.052570067
12	0x3d47b856	0.04875978
13	0x3d172f1a	0.036910154
14	0xbc8a1023	-0.016853398
15	0x3d42a376	0.04751917
16	0xbdbc1b72	-0.09184922
17	0x3d971290	0.073765874
18	0xbdc73b37	-0.09728091
19	0x3caafe24	0.020873137
20	0xbd8ea7c7	-0.06965595
21	0xbd141121	-0.036149148
22	0x3d7dec00	0.061992645
23	0x3d832d99	0.064051814
24	0xbdaf2367	-0.08551674
25	0xbd3b1e56	-0.045683227
26	0xbda1fe5f	-0.079098456
27	0xbd81da4b	-0.06340464
28	0xbddba007	-0.10723882
29	0x3d91b8ca	0.07115324
30	0xbcc2ed7d	-0.023794884
31	0xbb48af81	-0.0030622187
32	0xbd60cd31	-0.054883186
33	0x3c071c09	0.00824643
34	0xbd282111	-0.04104716
35	0xbdd55235	-0.1041607
36	0xbd531f37	-0.05154344
37	0xbdcdf9d2	-0.10057415
38	0x3ddcb3c2	0.107764736
39	0x3c42b485	0.0118838595
40	0x3b8b31ee	0.0042478954
41	0x3d0202a0	0.031740785
42	0xbcf27272	-0.029595587
43	0xbd06c758	-0.032904953
44	0x3deaef8f	0.114714734
45	0x3d8329ca	0.06404455
46	0xbdda242f	-0.10651433
47	0xbd323929	-0.043511543
48	0xbdccae27	-0.099941544
49	0x3d9c16eb	0.07621559
50	0x3d3d2970	0.046182096
51	0x3deddfd9	0.11614961
52	0xbde82c8b	-0.11336621
53	0x3cbb8d55	0.02289454
54	0x3dcda138	0.10040516
55	0xbd00e30d	-0.031466532
56	0xbd12cd09	-0.035840068
57	0x3d451175	0.04811235
58	0x3d6bd1e2	0.057573207
59	0x3db92158	0.09039563
60	0x3d9b2b12	0.075765744
61	0xbc64b825	-0.013959919
62	0x3de6e5fd	0.112743355
63	0xbd873aec	-0.06603035

rnn.bias_hh_l1 f4 [64]
0	0x3dbbf3bf	0.0917735
1	0x3d5fd35e	0.054644935
2	0xbc73140e	-0.014836324
3	0x3da8aba7	0.08235865
4	0x3dea86b9	0.114514776
5	0x3dd7e56d	0.10541806
6	0xbd94b06f	-0.072602145
7	0xbd8ff5a2	-0.070292726
8	0xbd8c4e6d	-0.06850896
9	0x3dd4781c	0.103744715
10	0xbdb5513d	-0.088533856
11	0x3a18e95a	0.0005833112
12	0x3d0be23e	0.03415131
13	0x3d8117ff	0.06303405
14	0xbc29fed0	-0.010375693
15	0xbcd8802a	-0.0264283
16	0xbd237d53	-0.03991444
17	0xbdb6e302	-0.08930017
18	0x3d764fc6	0.06013467
19	0xbdc6aa8e	-0.097004995
20	0xbd0b2519	-0.033970926
21	0xbdbe64ec	-0.09296593
22	0x3d3b15b4	0.045674995
23	0xbda0736f	-0.07834517
24	0x3e05cf38	0.13067329
25	0x3dddef18	0.10836619
26	0x3d7a3085	0.061081428
27	0x3d631b2b	0.05544583
28	0x3cffcdcc	0.031226061
29	0xbdaaf614	-0.08347717
30	0xbce46bae	-0.027883377
31	0x3dfeea70	0.12447059
32	0xbd43771b	-0.04772101
33	0xbdb3441f	-0.087532274
34	0x3db589de	0.08864187
35	0xbd017bcb	-0.0316122
36	0xbd4d3559	-0.050099704
37	0xbcd8e88d	-0.026478076
38	0x3d917286	0.07101922
39	0xbd7890e0	-0.06068504
40	0xbd9c753f	-0.076395504
41	0xbd82ae34	-0.06380883
42	0xbc4911f9	-0.012272351
43	0xbe053cfc	-0.13011545
44	0xbdcf861d	-0.10133002
45	0x3da89e7c	0.082333535
46	0x3bbc5dd0	0.005748488
47	0xbcb19f4c	-0.021682404
48	0x3e0d746c	0.13813943
49	0xbd21dbfa	-0.039516427
50	0x3c5d02cb	0.013489435
51	0xbce0c103	-0.027435785
52	0x3d88d475	0.06681148
53	0xbd3dce5a	-0.04633937
54	0x3c8bf663	0.01708526
55	0x3c4c7842	0.012479844
56	0x3cd24fe5	0.025672862
57	0x3ddcf994	0.10789791
58	0xbddb28c5	-0.107011355
59	0xbcf177cd	-0.02947607
60	0x3d9288d3	0.071550034
61	0xbd905093	-0.07046618
62	0xbdd13e34	-0.102169424
63	0x3d68c2c1	0.056826357

fc.weight f4 [1, 64]
0	0xbd1c360a	-0.038137473
1	0x3c72d757	0.014821849
2	0x3bbc4d19	0.0057464954
3	0x3d105e7e	0.035246365
4	0x3cf1a18a	0.029495973
5	0x3c9b2d6d	0.01894256
6	0x3d2ffc26	0.042965077
7	0xbc364803	-0.011125567
8	0xbd54ff39	-0.05200121
9	0xbcb30021	-0.021850647
10	0xbcd7d0b3	-0.026344633
11	0x3c7b8b8d	0.015353096
12	0x3d15a8b2	0.036537834
13	0x3c83e0cd	0.016098404
14	0xbc6cd081	-0.014454008
15	0x3b6f957d	0.0036557608
16	0xbc831093	-0.015999114
17	0xbd077c8e	-0.03307777
18	0x3ca9cba9	0.020726996
19	0x3ad0a723	0.0015918951
20	0xbd3aa955	-0.045571644
21	0xbcc1fbed	-0.023679698
22	0xbcc3058a	-0.023806352
23	0xbc883e4d	-0.01663127
24	0x3c8acc7a	0.016943205
25	0x3d60ca6d	0.05488055
26	0x3c78377b	0.015149946
27	0x3c895dbf	0.016768334
28	0xbd627713	-0.05528934
29	0xbcfeb95c	-0.031094246
30	0xbd10c02c	-0.03533952
31	0x3d2de917	0.04245862
32	0xbb067eae	-0.0020522284
33	0x3cf72afe	0.030171867
34	0x3d1bf4f7	0.038075414
35	0xbd869907	-0.065721564
36	0xbbffd46b	-0.0078073046
37	0xbc1ca10d	-0.009559882
38	0x3c918f83	0.017768627
39	0xbca8f4a1	-0.02062446
40	0xbd8215b5	-0.063517965
41	0x3d00bdb0	0.0314309
42	0x3c378cd2	0.011203008
43	0xbd2840b6	-0.04107734
44	0x3c90fc2c	0.01769837
45	0x3ba7cbb3	0.0051207184
46	0xbcfa74c6	-0.03057326
47	0xbd017361	-0.031604175
48	0x3b8c07fd	0.004273413
49	0x3d040c8d	0.03223853
50	0x3b928c7e	0.0044723144
51	0x3cd13160	0.02553624
52	0xbca9053f	-0.020632384
53	0x3cec3cbd	0.028837556
54	0x3c9742c4	0.018464454
55	0xbb992fc6	-0.0046748845
56	0xbb277d5c	-0.0025556898
57	0x3da6b7ba	0.08140512
58	0xbcbec072	-0.023285124
59	0x3cf2fe44	0.029662259
60	0x3cbf2982	0.023335222
61	0xbc11a5ef	-0.008889659
62	0x3a064a8d	0.0005122803
63	0x3c7087b5	0.014680793
