best_models/best_model_nn_search_7_features_70.pt (torch, 149380 bytes, 7 tensors)

model.0.weight f4 [256, 11]
0.23542087 -0.21885155 -0.022095893 0.10392973 -0.086376235 0.40537655 -0.16121817 0.07181968
-0.30950397 -0.039983477 -0.33705416 0.23792121 0.2226091 -0.2970651 0.27246892 0.082393385
0.11089505 -0.15614103 -0.041933637 0.22564404 0.25627154 -0.33123255 0.010642899 0.08329311
-0.015661348 0.012696516 0.033055346 -0.082237445 0.42368436 -0.020936005 -0.1912536 0.39030653
-0.0033767433 0.2646098 0.061840862 -0.06437825 -0.19905302 -0.1556171 -0.13969035 0.14349258
-0.02526936 -0.28237754 0.14634287 -0.23966478 -0.17750654 0.21048234 0.05316412 -0.34877738
0.059923258 -0.037653193 -0.12773976 -0.19223456 -0.042360093 -0.17879862 -0.33749622 -0.18028359
-0.02042241 0.0539182 -0.22939554 0.022417616 -0.119191036 -0.3754222 -0.14242777 -0.27961317
-0.07371006 -0.34178302 -0.021730125 0.019265682 -0.18973032 0.23550159 -0.14830473 -0.03924343
-0.23072098 -0.21325289 0.100093156 0.14197144 0.06422025 0.28471947 0.057460636 -0.28932416
0.007963598 -0.25341287 0.18013906 -0.073265105 -0.00046676397 0.024087071 -0.16474895 0.063093394
0.23343098 0.11169345 -0.035922196 -0.29302132 0.2043097 -0.2832157 -0.07882501 -0.28685886
-0.28583348 0.19712994 -0.25321722 -0.10579498 -0.057828277 0.027841713 -0.24058183 -0.38124236
-0.36489645 -0.06375191 -0.05192218 0.04558696 0.24827617 -0.08320835 -0.14716852 0.16255496
0.007191899 0.07255637 0.064054966 -0.2140226 0.24945122 0.09188782 -0.035274338 -0.18914554
-0.24792989 -0.3707384 -0.29530084 0.026738707 -0.18529168 0.1161285 -0.33987993 0.23296273
0.13024049 0.11449269 0.090167716 -0.24302192 -0.27533907 0.17664498 -0.13692589 -0.26788002
0.1414358 0.0075064027 0.30092713 0.15416679 0.057163443 0.45608073 0.17304215 -0.25802264
-0.032173783 -0.032157958 -0.24719875 -0.22783777 0.0039512515 0.0012156963 0.09530792 0.05332598
-0.14046398 0.09258816 0.21194984 -0.23690194 -0.010724247 0.020944254 -0.14008047 -0.27679384
0.17595161 0.23629673 0.05057761 -0.037494715 -0.30046993 0.2702453 -0.2375403 -0.24475163
0.009262383 -0.23211402 -0.107668445 0.1263097 -0.19775891 0.06522992 -0.20277461 0.28171474
-0.26612568 0.13311593 -0.017939473 -0.2203593 0.06375906 -0.2633367 -0.094025224 0.1901972
-0.18918753 0.41899765 0.09123039 -0.18247782 -0.17801058 -0.008530358 -0.16491683 -0.050095133
-0.020073751 0.2777499 -0.19932754 0.0099138655 0.48109505 -0.03132216 -0.111769125 0.01873553
0.005372105 -0.12988304 -0.114775404 -0.09542176 0.27371886 0.08648414 0.14638686 0.3851954
-0.15978111 -0.33888188 -0.107830636 -0.0140212495 0.10062079 -0.043215018 -0.124180585 0.005291888
0.16324076 0.20218351 -0.22968784 0.122555405 -0.33804864 0.0877702 0.010820887 -0.005562491
0.012007004 0.11140091 0.003687617 0.11531758 -0.34521145 0.31351346 -0.04233689 -0.23238924
0.11896773 -0.08353359 -0.16584745 0.025864664 -0.23673314 -0.2040623 -0.24919027 0.19621047
-0.23410162 -0.053116884 -0.19750594 -0.19092178 -0.184709 -0.24192132 0.14004393 -0.31473702
0.21539532 0.073716946 -0.16166437 -0.114069134 -0.27592626 -0.04040334 0.07665505 -0.3181907
00000000: 2b12 713e 9f1a 60be 7202 b5bc 1cd9 d43d
00000010: 06e6 b0bd 848d cf3e 6016 25be 3216 933d
00000020: 4e77 9ebe b7c5 23bd 5d92 acbe 9ea1 733e
00000030: a4f3 633e eb18 98be 0c81 8b3e ddbd a83d
00000040: f21c e33d 6fe3 1fbe 9bc2 2bbd 3b0f 673e
00000050: 0636 833e 5097 a9be 8e5f 2e3c 9495 aa3d
00000060: 3a4c 80bc 0c05 503c 0b65 073d 1b6c a8bd
00000070: 28ed d83e fc81 abbc fcd7 43be 42d6 c73e
00000080: 5a4c 5dbb f07a 873e d84c 7d3d bed8 83bd
00000090: 8ed4 4bbe 175a 1fbe fd0a 0fbe b8ef 123e
000000a0: b001 cfbc ca93 90be e8da 153e af6a 75be
000000b0: 46c4 35be af88 573e 9fc2 593d f392 b2be
000000c0: 1772 753d 3c3a 1abd 36ce 02be 23d9 44be
000000d0: c781 2dbd fc16 37be 4ecc acbe 439c 38be
000000e0: e64c a7bc 55d9 5c3d aae6 6abe 26a5 b73c
000000f0: 6e1a f4bd 5737 c0be 96d8 11be 7529 8fbe
00000100: 4df5 96bd 2ffe aebe 6003 b2bc 10d3 9d3c
00000110: aa48 42be 5427 713e 32dd 17be b8bd 20bd
00000120: 1f42 6cbe f75e 5abe a4fd cc3d f660 113e
00000130: e885 833d c0c6 913e d85b 6b3d 4c22 94be
00000140: c079 023c 55bf 81be 6076 383e 040c 96bd
00000150: 00b8 f4b9 4052 c53c f3b3 28be 1c37 813d
00000160: 8808 6f3e 89bf e43d 2723 13bd e406 96be
00000170: 9036 513e a601 91be 026f a1bd 2adf 92be
00000180: c458 92be 6edc 493e b0a5 81be 0aab d8bd
00000190: 58dd 6cbd 4e14 e43c 155b 76be 3332 c3be
000001a0: b5d3 babe 5d90 82bd 5aac 54bd 64b9 3a3d
000001b0: 1c3c 7e3e 2469 aabd 58b3 16be cf74 263e
000001c0: 06aa eb3b 6f98 943d 402f 833d be28 5bbe
000001d0: 2470 7f3e ae2f bc3d d37b 10bd 5eaf 41be
000001e0: 55e1 7dbe 6cd1 bdbe ac31 97be 220b db3c
000001f0: 1abd 3dbe c7d4 ed3d be04 aebe c88d 6e3e
00000200: c35d 053e 257b ea3d daa9 b83d bdda 78be
00000210: 3ef9 8cbe 6ce2 343e 4d36 0cbe 9227 89be
00000220: 8cd4 103e 45f8 f53b 1f13 9a3e e6dd 1d3e
00000230: 3724 6a3d 6a83 e93e f631 313e 8b1b 84be
00000240: a8c8 03bd 10b8 03bd ab21 7dbe 4e4e 69be
00000250: 8079 813b 0058 9f3a cc30 c33d 586c 5a3d
00000260: cad5 0fbe dc9e bd3d 6109 593e 6c96 72be
00000270: c1b4 2fbc 4993 ab3c 4171 0fbe ecb7 8dbe
00000280: a92c 343e c5f7 713e 782a 4f3d 0f94 19bd
00000290: 32d7 99be 985d 8a3e c43d 73be 2ca0 7abe
000002a0: 40c1 173c 4caf 6dbe 4681 dcbd 5457 013e
000002b0: 5081 4abe 4497 853d 26a4 4fbe ea3c 903e
000002c0: a041 88be 8b4f 083e cdf5 92bc dea5 61be
000002d0: 1c94 823d 11d4 86be 4c90 c0bd 0ec3 423e
000002e0: 60ba 41be dc86 d63e 00d7 ba3d 77db 3abe
000002f0: 6848 36be eac2 0bbc f5df 28be 8e30 4dbd
00000300: b571 a4bc 3c35 8e3e 851c 4cbe c46d 223c
00000310: 1752 f63e aa4b 00bd 36e7 e4bd 417b 993c
00000320: 7c08 b03b 0f00 05be 5e0f ebbd 7c6c c3bd
00000330: e124 8c3e 991e b13d 70e6 153e 5538 c53e
00000340: a99d 23be ed81 adbe 4fd6 dcbd 62b9 65bc
00000350: 4612 ce3d 3b02 31bd 6452 febd 9367 ad3b
00000360: 9628 273e 3209 4f3e 4a33 6bbe 54fe fa3d
00000370: b614 adbe ddc0 b33d 174a 313c 8e45 b6bb
00000380: 06b9 443c 2926 e43d f2ab 713b a02b ec3d
00000390: 8ebf b0be d684 a03e 7269 2dbd 72f7 6dbe
000003a0: 5aa5 f33d a913 abbd ead3 29be 22e2 d33c
000003b0: 2c6a 72be b5f5 50be bc2b 7fbe 66eb 483e
000003c0: 56b8 6fbe 1791 59bd ff3e 4abe 0081 43be
000003d0: 5b24 3dbe 39ba 77be ad67 0f3e 3625 a1be
000003e0: 9790 5c3e e9f8 963d 588b 25be 149d e9bd
000003f0: 3546 8dbe f97d 25bd 53fd 9c3d e4e9 a2be

model.0.bias f4 [256]
1.0488142 -0.061196674 2.3923192 -0.08898628 1.5838468 0.69801646 -0.005882412 0.12741575
0.7955168 0.5927668 1.7603343 1.1886752 0.8705283 0.053176224 -0.008016284 -0.0501602
1.9769422 2.1703632 2.1116235 0.99571204 1.9045657 0.01411168 -0.4430534 0.036211446
-0.45291603 -0.18903129 -0.14916736 0.56392616 0.30931747 0.66839916 0.27294406 -0.28470358
-0.53472656 -1.1562071 1.0757275 1.8869466 0.15535495 1.7817522 -0.014412522 1.6261039
-0.17469573 -1.0551051 -0.55639464 1.2579929 -1.41372 1.6086116 0.31745464 1.1197913
-0.24427477 0.072267264 2.4857607 0.22356492 1.2313155 2.0377536 2.602793 1.0241402
1.885112 -1.6204919 0.027610444 1.1599717 0.5432566 0.7180098 2.0446913 0.031381495
0.16677684 0.43814236 2.4623737 2.5269358 -0.48889348 -0.033233523 1.2204878 -0.25915563
1.3657417 0.8631808 1.9157212 1.3736418 0.14142333 -0.5094212 1.2015678 1.7943746
-0.06768695 0.043361247 0.31359202 0.78481835 1.7345921 -0.29464364 2.542498 -1.3794751
0.27982756 -0.719308 0.7944579 -0.0048125247 1.6194705 -0.17779562 1.9038552 1.4154935
1.3567736 -0.48888317 0.18550435 0.13117878 -0.1602875 0.3621048 0.3121456 1.1656853
2.2050533 -0.23719633 -0.73689735 1.1648986 -0.20900834 0.004876882 -0.29994854 -0.02276094
0.05841577 1.7037343 1.198993 1.254627 0.1343614 2.219123 0.5032504 0.33670047
0.16968973 1.4926902 1.8138719 2.04156 -0.028752696 0.18699868 1.6252122 1.6929617
1.8169326 -0.009237528 2.434702 -1.0430136 1.4864523 0.7095949 -1.5272756 -0.09273668
1.1499501 1.3895613 0.12923385 0.03895834 1.4889395 0.6797022 0.041396942 1.9450889
0.6492182 2.5383017 0.29313177 -0.0028370945 -0.31650907 -0.24605219 1.7185233 1.6810615
0.7491023 0.24744523 0.089048356 -0.17212412 0.54641026 0.13524032 -0.4936496 0.76177156
-1.1985931 0.25235355 -0.23952422 0.040852964 -0.2166826 1.4362352 1.9822929 -0.2524209
0.07719235 0.06249644 1.5656645 0.7708019 0.17807534 1.4601489 -0.010851115 1.5071558
-1.2220579 2.3243635 -0.35181847 -0.68663305 0.15701047 0.43689764 0.90199375 -1.5125872
1.309748 0.7228305 1.0157074 1.322226 0.28751707 0.83829623 0.701796 -0.18010953
1.4177258 1.1184353 0.52269405 0.32145694 0.7402659 0.2922588 -0.60952425 1.6311107
-0.25636804 -0.8082177 -0.011145055 0.52725315 1.8014452 0.10164698 0.13590515 1.016405
1.889172 -0.25545737 2.3872435 2.4188178 -1.703749 1.0305036 1.2703584 -0.15074424
-0.27731654 2.0584128 1.4854187 1.4542056 -0.65500766 -0.062592074 1.9270868 0.9547513
1.602312 0.825714 0.1128577 -0.23764391 -2.2447567 -0.08585529 0.18981543 0.39542878
1.5713427 -1.2453479 -0.17335236 2.1744485 0.94331354 1.841036 2.2221346 1.5429223
-0.4430228 1.6230787 -0.15886597 1.6267626 -0.37923032 0.18113025 0.11971876 -1.2053206
1.3259605 0.08152377 -0.15224838 1.401596 -0.14687018 0.11596182 2.0417933 0.3690873
00000000: 8b3f 863f 5da9 7abd c21b 1940 703e b6bd
00000010: 7ebb ca3f 35b1 323f 40c1 c0bb 4679 023e
00000020: fda6 4b3f 91bf 173f a252 e13f 8226 983f
00000030: f1da 5e3f 50cf 593d bb56 03bc c874 4dbd
00000040: 710c fd3f 3be7 0a40 d724 0740 fce6 7e3f
00000050: cfc8 f33f ad34 673c e5d7 e2be 7452 143d
00000060: 9ce4 e7be 6b91 41be 54bf 18be 775d 103f
00000070: dc5e 9e3e 351c 2b3f 53bf 8b3e abc4 91be
00000080: d7e3 08bf 98fe 93bf 70b1 893f 7787 f13f
00000090: 5e15 1f3e 7510 e43f 8022 6cbc 2c24 d03f
000000a0: 70e3 32be af0d 87bf e16f 0ebf e905 a13f
000000b0: c7f4 b4bf fce6 cd3f 6a89 a23e 5255 8f3f
000000c0: 2a23 7abe dc00 943d b416 1f40 34ee 643e
000000d0: bf9b 9d3f 8e6a 0240 2994 2640 0717 833f
000000e0: 5a4b f13f 476c cfbf 4c2f e23c f479 943f
000000f0: dd12 0b3f 7ecf 373f 39dc 0240 e289 003d
00000100: 8cc7 2a3e 3254 e03e 8897 1d40 51b9 2140
00000110: 3f50 fabe e01f 08bd f238 9c3f 0cb0 84be
00000120: a0d0 ae3f 6bf9 5c3f 5a36 f53f 7fd3 af3f
00000130: 47d1 103e 6e69 02bf f9cc 993f 11ae e53f
00000140: 759f 8abd 909b 313d 228f a03e dbe9 483f
00000150: 1d07 de3f 88db 96be 4ab8 2240 a492 b0bf
00000160: 8f45 8f3e 9224 38bf 9861 4b3f 62b2 9dbb
00000170: cf4a cf3f 0e10 36be 87b1 f33f e42e b53f
00000180: c2aa ad3f e54e fabe daf4 3d3e bb53 063e
00000190: 6822 24be cd65 b93e 8cd1 9f3e 2d35 953f
000001a0: 981f 0d40 98e3 72be 4ea5 3cbf 661b 953f
000001b0: 4806 56be 40ce 9f3b db92 99be 2775 babc
000001c0: 6045 6f3d f713 da3f 9a78 993f 9e97 a03f
000001d0: 0996 093e 1c06 0e40 05d5 003f 0164 ac3e
000001e0: 25c3 2d3e 7910 bf3f f42c e83f eba8 0240
000001f0: c68a ebbc 957c 3f3e f406 d03f f8b2 d83f
00000200: 3f91 e83f 0059 17bc 28d2 1b40 7881 85bf
00000210: 1244 be3f 03a8 353f c47d c3bf baec bdbd
00000220: 9131 933f 25dd b13f e155 043e c892 1f3d
00000230: 9295 be3f f700 2e3f d78f 293d acf8 f83f
00000240: 2a33 263f 8973 2240 5e15 963e 8cee 39bb
00000250: 7a0d a2be 1bf5 7bbe 92f8 db3f 062d d73f
00000260: 2bc5 3f3f 4862 7d3e fc5e b63d 4e41 30be
00000270: 8be1 0b3f 707c 0a3e a4bf fcbe 7603 433f
00000280: 806b 99bf 7c34 813e d645 75be 7055 273d
00000290: 0be2 5dbe 8ed6 b73f c6bb fd3f 503d 81be
000002a0: 0617 9e3d 44fc 7f3d b267 c83f 4653 453f
000002b0: 6259 363e 29e6 ba3f e0c8 31bc 7bea c03f
000002c0: 656c 9cbf 5fc2 1440 8d21 b4be 2fc7 2fbf
000002d0: 5ac7 203e 0cb1 df3e 10e9 663f 759c c1bf
000002e0: d3a5 a73f 6b0b 393f b302 823f b43e a93f
000002f0: 7035 933e 959a 563f e7a8 333f a26e 38be
00000300: 0a78 b53f e328 8f3f 47cf 053f 0196 a43e
00000310: 1182 3d3f f2a2 953e c809 1cbf 3cc8 d03f
00000320: ac42 83be 5be7 4ebf c099 36bc 10fa 063f
00000330: c295 e63f 4b2c d03d b82a 0b3e 8f19 823f
00000340: 63d0 f13f 4fcb 82be 99c8 1840 e9cd 1a40
00000350: 7214 dabf 8be7 833f 1b9b a23f b35c 1abe
00000360: 6ffc 8dbe 09bd 0340 3322 be3f 6923 ba3f
00000370: 95ae 27bf 4630 80bd c8aa f63f 956a 743f
00000380: 8f18 cd3f fe61 533f f021 e73d ed58 73be
00000390: 18aa 0fc0 e6d4 afbd fa5e 423e a475 ca3e
000003a0: c221 c93f 8f67 9fbf 4883 31be 2a2a 0b40
000003b0: ff7c 713f 11a7 eb3f 7437 0e40 7a7e c53f
000003c0: e2d3 e2be 0bc1 cf3f c3ad 22be c239 d03f
000003d0: 7a2a c2be 357a 393e 1c2f f53d f247 9abf
000003e0: 13b9 a93f eff5 a63d 00e7 1bbe 7f67 b33f
000003f0: 2365 16be 647d ed3d beac 0240 03f9 bc3e

model.3.weight f4 [64, 256]
-0.05560769 -0.06483321 -0.06526799 0.04559771 -0.019713476 -0.036070626 -0.0219431 -0.049153894
0.03878206 -0.061113894 -0.016755555 -0.050970405 0.03605358 -0.011825986 -0.014493816 -0.01809135
-0.11363237 -0.07550082 0.013475638 -0.0075693536 -0.083423816 -0.04711622 -0.0289906 0.03631737
-0.012571581 0.011364087 -0.0075178966 -0.047399543 -0.0069820797 -0.032693334 -0.08648622 0.018284485
-0.02808033 0.018862873 0.028271928 -0.0067319945 -0.05871316 0.0162087 0.013401307 -0.017554197
0.019855864 -0.079741865 -0.05577609 -0.058068246 0.029468495 -0.043831773 0.009658703 -0.058920737
-0.062356643 0.041537605 -0.10299131 -0.049642958 -0.052971702 -0.11408707 0.0039483462 -0.014509278
0.014698006 0.014040286 -0.0076298486 -0.04711084 0.0525273 -0.06651787 0.027174914 0.0075509027
-0.060373686 0.02295103 -0.060123254 -0.051295992 -0.052139938 -0.049194135 0.030615145 -0.013790556
0.006134607 0.029070096 -0.031298835 -0.0855141 -0.07868805 -0.06719774 -0.065079816 -0.027543284
0.045051597 0.0042928234 -0.051451236 -0.067909114 -0.07963385 0.015365824 0.054825872 -0.06691764
-0.00368841 -0.016999003 0.017482843 0.0045452937 -0.061832108 0.037161544 -0.07028434 -0.03365013
-0.08739168 -0.027359508 0.045175843 0.01745899 -0.058813855 -0.074532524 0.0032681376 -0.018355316
-0.012858301 -0.0073939785 -0.014018737 -0.0742691 -0.04741606 0.030664168 0.04489358 -0.009899668
-0.05100537 -0.03740446 -0.033205207 -0.039842933 0.008007318 -0.022227515 0.036869578 -0.024645083
-0.05459971 -0.038806617 -0.02432285 0.004677841 0.027101025 0.03323528 -0.017322574 0.00028489722
-0.12018764 -0.035473965 -0.08064331 -0.033543207 -0.08716301 -0.07092266 -0.06326799 0.03442205
-0.035104983 -0.07196078 -0.00759425 0.04200001 0.022601714 -0.01579476 0.0015654415 0.038599335
-0.009787087 -0.069455124 -0.08678381 -0.052147213 0.058698714 -0.038848728 -0.047797 -0.028497498
-0.009711782 0.020477697 -0.0078099445 -0.037166044 0.046340812 -0.020617664 0.016594604 -0.08038764
-0.03501266 -0.060521595 -0.0036534742 0.03259857 0.061879493 -0.028365279 -0.03940965 -0.013956271
-0.0660686 0.01492265 -0.0088400245 -0.025681175 0.02931545 0.006978702 0.008057207 -0.06645047
-0.058817796 -0.019884383 0.010665888 -0.06468631 -0.051193 0.032453466 -0.010862171 0.009434694
0.032714304 0.011229063 0.03131017 0.032042194 -0.01701136 0.019307746 -0.08493294 0.047230273
0.0139699895 -0.0004164967 -0.028452491 -0.017840616 -0.009098753 -0.047046214 -0.020558089 -0.02341941
-0.051837508 -0.056863748 0.044782646 -0.061196223 -0.044528443 -0.028309584 0.046672493 -0.02622456
-0.03856614 -0.017899811 -0.015110539 0.047897704 0.04751573 0.025242051 0.00084053166 -0.025178494
0.01175192 -0.07056657 -0.061509907 -0.044776086 -0.02568601 -0.05300782 0.006169361 -0.028515687
-0.028326843 -0.027475215 -0.01109758 -0.086255044 -0.027940813 0.025693208 -0.050559677 0.018467395
-0.03706547 0.016853983 -0.049069565 -0.003814289 -0.03152144 -0.11339441 -0.09206078 0.014212513
0.00026496674 -0.016342882 -0.016200427 -0.03052314 -0.03844904 -0.037607253 0.0442158 -0.07384368
-0.005135391 0.044814073 0.009533405 0.032328196 -0.042231604 0.020667009 0.03443727 -0.019925699
00000000: e4c4 63bd 46c7 84bd 39ab 85bd aac4 3a3d
00000010: 287e a1bc cbbe 13bd 04c2 b3bc 9855 49bd
00000020: f0d9 1e3d 9052 7abd f242 89bc 58c6 50bd
00000030: ebac 133d c8c1 41bc 7877 6dbc 5034 94bc
00000040: 17b8 e8bd 2da0 9abd ecc8 5c3c 5708 f8bb
00000050: 1bda aabd f0fc 40bd b27d edbc 86c1 143d
00000060: 08f9 4dbc 7030 3a3c b058 f6bb 0626 42bd
00000070: eec9 e4bb 72e9 05bd b01f b1bd 58c9 953c
00000080: b808 e6bc 5086 9a3c 889a e73c 1098 dcbb
00000090: 367d 70bd 1cc8 843c 2891 5b3c d2cd 8fbc
000000a0: c4a8 a23c b44f a3bd 7875 64bd f8d8 6dbd
000000b0: ea67 f13c f288 33bd 893f 1e3c df56 71bd
000000c0: ae69 7fbd 5623 2a3d 1ced d2bd 6a56 4bbd
000000d0: dbf8 58bd 7ba6 e9bd 2161 813b 53b8 6dbc
000000e0: e8cf 703c 3a09 663c cf03 fabb 4cf7 40bd
000000f0: de26 573d 853a 88bd ed9d de3c 906d f73b
00000100: 664a 77bd cc03 bc3c cd43 76bd bf1b 52bd
00000110: b090 55bd ca7f 49bd 9dcc fa3c c9f1 61bc
00000120: d004 c93b 6924 ee3c 3533 00bd 0422 afbd
00000130: 3327 a1bd f89e 89bd 9148 85bd 74a2 e1bc
00000140: 0688 383d d0aa 8c3b 88be 52bd ef13 8bbd
00000150: 1217 a3bd f0c0 7b3c 1891 603d 1e0c 89bd
00000160: 40b9 71bb 7e41 8bbc 2e38 8f3c b0f0 943b
00000170: aa43 7dbd b436 183d 3cf1 8fbd b8d4 09bd
00000180: 69fa b2bd 0c21 e0bc 4e0a 393d 2806 8f3c
00000190: cce6 70bd 82a4 98bd 402e 563b e35d 96bc
000001a0: a0ab 52bc 3049 f2bb d8ae 65bc 661a 98bd
000001b0: 5837 42bd 6c33 fb3c 55e2 373d 3832 22bc
000001c0: 02eb 50bd 6b35 19bd 2f02 08bd 5832 23bd
000001d0: 2031 033c 7a16 b6bc 8e04 173d 7ce4 c9bc
000001e0: f2a3 5fbd b0f3 1ebd b740 c7bc 9348 993b
000001f0: f802 de3c b821 083d 12e8 8dbc 425e 9539
00000200: f024 f6bd 264d 11bd 5228 a5bd 9a64 09bd
00000210: 8582 b2bd e63f 91bd a692 81bd 23fe 0c3d
00000220: 3eca 0fbd 2c60 93bd 30d9 f8bb 3408 2c3d
00000230: 3b27 b93c 0364 81bc 802f cd3a 561a 1e3d
00000240: 055a 20bc 7d3e 8ebd b6bb b1bd 5198 55bd
00000250: 106e 703d d81f 1fbd c9c6 43bd 9673 e9bc
00000260: 2b1e 1fbc d8c0 a73c 90ea ffbb 6c3b 18bd
00000270: ddcf 3d3d 60e6 a8bc 68f1 873c 46a2 a4bd
00000280: 6f69 0fbd 7ee5 77bd 206f 6fbb 1486 053d
00000290: 5a75 7d3d 4d5e e8bc 036c 21bd d8a8 64bc
000002a0: f94e 87bd 217e 743c c0d5 10bc 5461 d2bc
000002b0: f426 f03c 98ad e43b 6002 043c 2f17 88bd
000002c0: eeea 70bd 93e4 a2bc fabf 2e3c 427a 84bd
000002d0: c0af 51bd eded 043d 3ff7 31bc fa93 1a3c
000002e0: 6fff 053d 1bfa 373c 183f 003d ad3e 033d
000002f0: 685b 8bbc 472b 9e3c 52f1 adbd 8874 413d
00000300: 62e2 643c 3e5d dab9 3315 e9bc 7c26 92bc
00000310: f012 15bc 88b3 40bd 7069 a8bc 10da bfbc
00000320: 9153 54bd f6e9 68bd 026e 373d e4a8 7abd
00000330: 7563 36bd 80e9 e7bc a82b 3f3d e3d4 d6bc
00000340: 87f7 1dbd a0a2 92bc 3292 77bc 6230 443d
00000350: db9f 423d 6bc8 ce3c 2057 5c3a 2143 cebc
00000360: 208b 403c 3585 90bd d0f1 7bbd 2167 37bd
00000370: 786b d2bc ba1e 59bd 5a28 ca3b bb99 e9bc
00000380: b20d e8bc b413 e1bc a0d2 35bc 7ca6 b0bd
00000390: 22e4 e4bc 907a d23c aa17 4fbd ef48 973c
000003a0: f6d1 17bd 5d11 8a3c 2bfd 48bd 27f9 79bb
000003b0: a01c 01bd 543b e8bd 5d8a bcbd 9adb 683c
000003c0: 3ceb 8a39 82e1 85bc c2b6 84bc aa0b fabc
000003d0: be7c 1dbd 100a 1abd a01b 353d 5b3b 97bd
000003e0: c846 a8bb f68e 373d 0032 1c3c 926a 043d
000003f0: 0cfb 2cbd dc4d a93c 180e 0d3d 383b a3bc

model.3.bias f4 [64]
0.013569916 2.0407178 -0.10768238 1.9546201 0.028396623 2.040434 0.08553736 -0.11595545
0.37990806 -0.12139804 0.17702116 0.008207708 1.7706494 0.037259787 -0.13001205 1.9299634
0.8832115 -0.0566976 -0.25744867 1.6636162 -0.05647697 -0.0338233 2.155125 -0.013087527
0.61310667 0.0076802117 1.9727136 0.041895323 -0.028889125 0.19191867 1.9457124 -0.046794504
0.02753482 0.049036957 -0.07274539 0.04683314 1.6782697 2.0259104 -0.102861226 0.0068449713
-0.33437148 0.16767076 1.8888873 2.0737507 1.7832527 -0.09075085 1.7479682 1.984284
1.8031443 2.131067 1.9981815 2.0193017 0.033722993 0.15530351 -0.15384926 -0.08680606
-0.11783999 -0.09600157 -0.021259712 1.6547908 0.44772214 1.9290115 -0.110591404 0.0793113
00000000: 5a54 5e3c 1f9b 0240 9488 dcbd fe30 fa3f
00000010: 09a0 e83c 7896 0240 362e af3d 0d7a edbd
00000020: 4f83 c23e 899f f8bd 0945 353e 9f79 063c
00000030: a4a4 e23f b89d 183d e121 05be 0a09 f73f
00000040: 261a 623f be3b 68bd 50d0 83be 60f1 d43f
00000050: 6554 67bd 4d8a 0abd 91ed 0940 116d 56bc
00000060: 8ff4 1c3f 49aa fb3b e181 fc3f 6e9a 2b3d
00000070: e3a8 ecbc 5486 443e 1b0d f93f 98ab 3fbd
00000080: b490 e13c fada 483d 89fb 94bd 1bd4 3f3d
00000090: 8bd1 d63f 84a8 0140 e8a8 d2bd c84b e03b
000000a0: bd32 abbe e2b1 2b3e 0fc7 f13f 55b8 0440
000000b0: a041 e43f 95db b9bd 6cbd df3f 05fd fd3f
000000c0: 6fcd e63f 6763 0840 69c4 ff3f 3d3c 0140
000000d0: 1f21 0a3d e207 1f3e a98a 1dbe 60c7 b1bd
000000e0: 1856 f1bd 799c c4bd d928 aebc 2fd0 d33f
000000f0: d63b e53e d9e9 f63f bf7d e2bd f66d a23d

model.6.weight f4 [256, 64]
0.103504926 0.0637101 -0.05312695 -0.031165225 -0.119661234 0.0016664265 0.080501914 0.046527028
-0.15658419 0.022696406 0.08723917 0.073337495 -0.13774224 0.087919086 -0.011871735 -0.036524262
-0.006309972 -0.05457638 -0.07975565 0.060015634 -0.07601919 0.009165899 -0.02398949 -0.0088344775
-0.04294345 -0.10024925 -0.13799788 -0.08338082 0.10887994 -0.009386347 -0.14792277 0.09847518
-0.06377572 0.050871707 0.081485406 0.074366376 -0.13427287 -0.014596658 0.06438548 0.026748952
-0.07584514 0.015299919 -0.02667332 0.0028606807 -0.063233465 0.025171041 -0.042919453 -0.04935729
0.0032846325 -0.106632546 0.05017276 -0.13625783 -0.011318741 -0.06726651 0.06610319 -0.01763981
-0.04502257 0.10155572 -0.0060389102 0.09247348 0.08918313 -0.04629349 0.009676055 -0.006736479
-0.07060536 -0.03419265 -0.015043267 0.055692565 0.066437095 0.12884267 0.012512607 -0.0099665
0.06658175 -0.08799166 -0.114401355 -0.061655026 -0.06482637 -0.072207764 0.061875395 0.092809916
-0.067161806 -0.014627417 -0.06962173 0.12519418 0.07812304 0.07544132 -0.07451056 0.03490745
-0.004570517 0.054801665 -0.067114785 -0.038495 -0.0037461692 0.018953247 0.096441224 0.019455178
-0.07938652 0.009568081 -0.024070764 -0.010983034 0.06890104 0.06173715 0.1391089 0.029059399
0.061507147 -0.018142287 -0.0124443965 -0.004080111 -0.019412333 -0.094815284 -0.00220084 -0.06531036
0.015058432 0.03517655 -0.00058080966 -0.034151588 0.018977588 -0.097066104 0.119158074 -0.11816248
-0.11366162 -0.06605905 -0.059278883 -0.06266102 -0.09755291 -0.081139185 0.039348856 -0.10392448
0.006238963 -0.047038037 0.055713292 0.013291284 0.014111754 0.035919793 0.08440529 0.04392528
-0.010228695 0.046644486 -0.03426403 -0.0035028781 -0.0778868 0.030242724 0.013094284 0.045239672
-0.04919114 -0.11700476 0.093524456 -0.02664098 0.04076563 0.054307494 0.056175448 -0.15167563
-0.11833307 -0.11898407 0.051660426 0.083652526 -0.008520499 0.093025774 0.065339945 -0.05550845
-0.020054212 0.02602159 -0.20553909 -0.06313416 -0.04331786 -0.18386075 -0.012222615 0.058240253
-0.028325181 -0.0005409147 -0.020008454 0.08449354 -0.060071085 0.080062754 0.0006202665 -0.06684239
-0.11083335 -0.027738964 0.10620251 0.04195487 -0.0044947057 0.06969368 0.046277985 0.09921268
-0.079791605 0.098528326 -0.029275328 0.11333191 -0.06996538 -0.03234045 -0.004886153 -0.026015906
0.027333513 -0.029285766 0.099561825 -0.12732014 -0.009302536 -0.013269122 0.056401495 -0.043446675
-0.011234059 -0.0663795 -0.01391184 -0.11026238 -0.041744597 -0.106403 -0.08609948 -0.07769628
-0.04040342 -0.071786344 -0.1255695 -0.16105469 -0.116294116 -0.075167306 0.015492027 -0.013909593
0.010439051 0.09543157 -0.01480114 -0.015061715 0.031513806 0.02389654 0.030871132 0.07428317
-0.012603059 0.02861774 0.079225264 -0.054144286 -0.10167377 -0.05114619 0.05060561 0.03281304
-0.011001073 -0.04109134 -0.03027356 -0.09785166 -0.020519799 0.11193994 0.022943635 0.0051499093
-0.08458027 0.02473635 -0.0968762 -0.058910992 0.05467947 0.07375761 0.09415598 -0.05679995
-0.066492856 -0.06519528 -0.018094622 -0.101514764 0.06561308 -0.024326632 0.046797737 -0.09902144
00000000: 64fa d33d 717a 823d a59b 59bd 374e ffbc
00000010: f310 f5bd ff6b da3a 30de a43d 2093 3e3d
00000020: 9b57 20be d0ed b93c 73aa b23d f831 963d
00000030: 4d0c 0dbe ec0e b43d aa81 42bc 779a 15bd
00000040: e2c3 cebb 7b8b 5fbd ee56 a3bd f4d2 753d
00000050: f3af 9bbd 912c 163c 9b85 c4bc 7cbe 10bc
00000060: 79e5 2fbd 7b4f cdbd 514f 0dbe 90c3 aabd
00000070: 72fc de3d 31c9 19bc 1179 17be 5bad c93d
00000080: d89c 82bd da5e 503d d2e1 a63d 664d 983d
00000090: d47e 09be d226 6fbc 89dc 833d 9e20 db3c
000000a0: b254 9bbd 83ac 7a3c 0282 dabc 427a 3b3b
000000b0: 8c80 81bd 8033 ce3c 4fcc 2fbd df2a 4abd
000000c0: fd42 573b 2a62 dabd f481 4d3d 2c87 0bbe
000000d0: 3e72 39bc 06c3 89bd 1c61 873d 5d81 90bc
000000e0: 9669 38bd 72fc cf3d 0de2 c5bb bc62 bd3d
000000f0: a5a5 b63d 3e9e 3dbd 5188 1e3c aebd dcbb
00000100: 8b99 90bd 980d 0cbd 0978 76bc e31d 643d
00000110: 2c10 883d 55ef 033e ad01 4d3c 884a 23bc
00000120: 035c 883d f934 b4bd 424b eabd fb89 7cbd
00000130: b0c3 84bd aae1 93bd 0e71 7d3d 2013 be3d
00000140: 218c 89bd d5a7 6fbc d695 8ebd e732 003e
00000150: f9fe 9f3d fb80 9a3d fe98 98bd 1dfb 0e3d
00000160: 47c4 95bb b677 603d 7a73 89bd efac 1dbd
00000170: 4a82 75bb d743 9b3c fa82 c53d 7760 9f3c
00000180: 6695 a2bd 71c3 1c3c 0d30 c5bc 2ff2 33bc
00000190: fd1b 8d3d 18e0 7c3d 9072 0e3e fa0d ee3c
000001a0: ebee 7b3d 229f 94bc 95e3 4bbc 74b2 85bb
000001b0: 9d06 9fbc 842e c2bd f83b 10bb 70c1 85bd
000001c0: a4b7 763c 4915 103d 7a41 18ba 89e2 0bbd
000001d0: e376 9b3c 98ca c6bd 2609 f43d 2cff f1bd
000001e0: 6cc7 e8bd f849 87bd 6ace 72bd 6c54 80bd
000001f0: d2c9 c7bd 4d2c a6bd 442c 213d 5cd6 d4bd
00000200: 3770 cc3b f5aa 40bd 9f33 643d b0c3 593c
00000210: fc34 673c a220 133d aedc ac3d ffea 333d
00000220: 4296 27bc 4a0e 3f3d 7158 0cbd 8b90 65bb
00000230: 1d83 9fbd 97bf f73c 6889 563c 3c4d 393d
00000240: a67c 49bd 31a0 efbd c089 bf3d 2f3e dabc
00000250: dcf9 263d 8971 5e3d 3a18 663d db50 1bbe
00000260: 9c58 f2bd ecad f3bd e299 533d 0452 ab3d
00000270: 9099 0bbc 4c84 be3d f3d0 853d d45c 63bd
00000280: bb48 a4bc 3b2b d53c d778 52be 7c4c 81bd
00000290: 126e 31bd fe45 3cbe 5d41 48bc 558d 6e3d
000002a0: 360a e8bc 2ccc 0dba c5e8 a3bc f30a ad3d
000002b0: 190d 76bd f1f7 a33d 6199 223a aae4 88bd
000002c0: 98fc e2bd d33c e3bc b480 d93d dfd8 2b3d
000002d0: 5348 93bb 8fbb 8e3d fc8d 3d3d 0430 cb3d
000002e0: c869 a3bd 38c9 c93d d0d2 efbc 8f1a e83d
000002f0: 024a 8fbd 6b77 04bd 061c a0bb 4f1f d5bc
00000300: 88ea df3c b4e8 efbc 12e7 cb3d 3660 02be
00000310: aa69 18bc bb66 59bc 4105 673d 24f5 31bd
00000320: 0f0f 38bc faf1 87bd 7cee 63bc 3ed1 e1bd
00000330: 62fc 2abd d1e9 d9bd ed54 b0bd 3a1f 9fbd
00000340: 0e7e 25bd b804 93bd 4a95 00be 85eb 24be
00000350: 9c2b eebd 51f1 99bd 45d2 7d3c 10e5 63bc
00000360: 8e08 2b3c a171 c33d 7b80 72bc 69c5 76bc
00000370: 9f14 013d adc2 c33c 75e5 fc3c c621 983d
00000380: 107d 4ebc c06f ea3c db40 a23d 66c6 5dbd
00000390: 563a d0bd ab7e 51bd d447 4f3d f766 063d
000003a0: d83d 34bc 654f 28bd 4200 f8bc 7366 c8bd
000003b0: 2319 a8bc c440 e53d 4af4 bb3c 92c0 a83b
000003c0: 6c38 adbd e3a3 ca3c 0767 c6bd a74c 71bd
000003d0: 94f7 5f3d 3b0e 973d dad4 c03d 10a7 68bd
000003e0: 682d 88bd 1a85 85bd 2c3b 94bc f9e6 cfbd
000003f0: 2760 863d a548 c7bc fcae 3f3d c1cb cabd

model.6.bias f4 [256]
-0.035995755 2.3418972 2.571977 -0.18851207 2.3164709 2.8365617 2.6303253 -0.14017567
2.0649207 2.8866801 2.7418387 2.3063269 -0.009097792 2.1532657 2.6487484 1.8574096
3.024464 1.3838413 0.003757253 2.4532292 0.9352697 2.2765117 2.0139885 0.045726568
2.317423 2.520755 0.042659454 0.08944201 1.0917464 2.301107 2.5145996 -0.14889663
2.2006269 2.774717 2.2019641 1.533309 0.7006414 2.5426788 0.69912344 1.7358295
2.3209999 2.487577 2.7637444 2.9616208 0.017579135 2.3359342 2.3410773 2.4350374
1.4372381 2.3380368 2.6285245 1.7531677 1.8640599 2.1278706 2.3715851 2.4760323
2.0503967 2.2726586 0.057932537 2.457352 2.598854 0.25357 2.120956 0.013901529
2.5238254 2.1981268 2.1489904 2.5453658 2.3160865 1.4833239 2.5517445 2.6176026
2.0935764 2.3234067 1.7936348 1.0147861 2.3212159 2.3143992 2.2515213 0.005574555
2.3608122 2.3762457 2.182767 2.7646 -0.10534944 1.1977727 2.5399363 0.040874872
2.3358738 2.5995564 1.9045297 1.9271945 1.8996027 3.1197953 -0.10823158 0.82301205
2.0687387 3.0507255 2.58747 2.0722497 2.520159 -0.17758541 2.4890716 2.0234237
1.7491335 2.6059816 2.323546 2.3656776 2.084126 2.1181006 0.089009 2.6243823
2.7395449 0.003240613 0.041559115 1.9710085 -0.1585536 2.684144 2.8283129 0.7167939
2.2490687 2.4035919 2.6156487 2.788578 2.1517987 2.470488 -0.14116596 2.179521
2.8460934 2.294094 -0.084508084 2.6809409 -0.17053278 2.1423965 2.6636288 0.038896374
0.7947881 2.0536532 2.7720475 2.5589569 2.2899573 2.3891792 1.8299941 2.26384
2.820391 2.278822 2.6073406 -0.01597417 2.7270224 1.5007378 2.578488 0.7636325
1.329804 0.82365537 2.8484519 -0.056349248 2.6541846 2.1822402 2.6535666 2.3520577
2.368032 2.1116228 2.5305903 2.5378168 2.3531883 1.4094977 2.657849 2.1791754
1.5336481 1.4799031 2.6503205 2.6306252 2.1581368 1.5726339 1.9971063 2.1517844
0.1324554 0.078551665 2.2877586 -0.06673327 1.5144403 2.1452365 2.4312615 1.9569049
2.7262018 2.3005388 2.2139568 3.0815392 2.2796357 2.3916397 1.9937187 2.427988
2.3695614 2.8124657 2.0174336 3.1042726 2.944835 2.6149013 -0.14026012 2.4342482
2.6440876 2.2583516 2.363963 1.8001552 -0.0361351 1.914138 2.0948703 2.472696
1.9850072 2.178562 -0.011585788 2.1844053 2.0404403 2.5476093 2.4117146 1.7212782
0.8944092 1.3618097 2.0236557 2.0242436 2.5517268 0.040440407 2.1241899 1.8641266
1.9751401 1.7977743 2.4128306 2.8009033 2.6948302 1.1010175 2.4992 2.2615135
-0.05302341 2.3339179 2.7904358 2.2950244 2.291691 1.7665579 2.0391033 1.9460535
2.471806 2.011594 2.738744 -0.11170192 0.033307612 2.1142948 2.4671934 2.4604223
-0.061302163 -0.118603565 2.4840574 -0.31549814 2.1398113 1.1860873 2.6225939 2.158221
00000000: 4970 13bd a5e1 1540 459b 2440 4f09 41be
00000010: 0f41 1440 3a8a 3540 4057 2840 368a 0fbe
00000020: a927 0440 5ebf 3840 497a 2f40 dc9a 1340
00000030: e80e 15bc 1bcf 0940 1885 2940 99bf ed3f
00000040: d190 4140 b621 b13f 3f3c 763b b501 1d40
00000050: d66d 6f3f 5eb2 1140 30e5 0040 c84b 3b3d
00000060: a950 1440 0d54 2140 aebb 2e3d 5f2d b73d
00000070: 59be 8b3f 5645 1340 33ef 2040 5c78 18be
00000080: 12d7 0c40 f794 3140 fbec 0c40 7843 c43f
00000090: 3c5d 333f 40bb 2240 c1f9 323f a92f de3f
000000a0: 438b 1440 7634 1f40 30e1 3040 328b 3d40
000000b0: 1e02 903c f27f 1540 36d4 1540 a7d7 1b40
000000c0: 6bf7 b73f 65a2 1540 bf39 2840 cd67 e03f
000000d0: 8499 ee3f 082f 0840 0dc8 1740 5077 1e40
000000e0: b339 0340 3d73 1140 ab4a 6d3d 4145 1d40
000000f0: a053 2640 edd3 813e bebd 0740 3dc3 633c
00000100: 5b86 2140 1cae 0c40 0f89 0940 46e7 2240
00000110: c33a 1440 8fdd bd3f c84f 2340 cd86 2740
00000120: 28fd 0540 b2b2 1440 d395 e53f 83e4 813f
00000130: cd8e 1440 1e1f 1440 ed18 1040 c2aa b63b
00000140: 8c17 1740 6914 1840 74b2 0b40 35ef 3040
00000150: 72c1 d7bd 9e50 993f 518e 2240 696c 273d
00000160: f57e 1540 225f 2640 a1c7 f33f 4fae f63f
00000170: 2e26 f33f baaa 4740 85a8 ddbd ebb0 523f
00000180: 3766 0440 163f 4340 1c99 2540 bd9f 0440
00000190: 494a 2140 f3d8 35be f34c 1f40 c67f 0140
000001a0: 9be3 df3f 67c8 2640 fab4 1440 4367 1740
000001b0: 5262 0540 f68e 0740 5a4a b63d e1f5 2740
000001c0: b454 2f40 7760 543b e439 2a3d 024a fc3f
000001d0: e05b 22be 04c9 2b40 1403 3540 ce7f 373f
000001e0: bef0 0f40 73d4 1940 ca66 2740 1078 3240
000001f0: 12b7 0940 7a1c 1e40 cf8d 10be 467d 0b40
00000200: 6526 3640 70d2 1240 9312 adbd 8994 2b40
00000210: 25a0 2ebe 061d 0940 e578 2a40 ce51 1f3d
00000220: 3c77 4b3f 0e6f 0340 3a69 3140 f3c5 2340
00000230: a98e 1240 50e8 1840 3f3d ea3f c1e2 1040
00000240: 4981 3440 38d8 1140 abde 2640 43dc 82bc
00000250: 8987 2e40 2d18 c03f f305 2540 6b7d 433f
00000260: 0437 aa3f 14db 523f 094d 3640 78ce 66bd
00000270: 29de 2940 d3a9 0b40 09d4 2940 1d88 1640
00000280: d68d 1740 d424 0740 31f5 2140 976b 2240
00000290: a39a 1640 6c6a b43f 331a 2a40 9c77 0b40
000002a0: 954e c43f 776d bd3f da9e 2940 2a5c 2840
000002b0: ea1e 0a40 114c c93f 2ea1 ff3f d6b6 0940
000002c0: 63a2 073e b2df a03d a36a 1240 74ab 88bd
000002d0: 2ed9 c13f 8e4b 0940 ca99 1b40 dc7b fa3f
000002e0: 177a 2e40 073c 1340 78b1 0d40 f037 4540
000002f0: 8de5 1140 a010 1940 2d32 ff3f 2864 1b40
00000300: e5a6 1740 70ff 3340 a21d 0140 67ac 4640
00000310: 2d78 3c40 8b5a 2740 59a0 0fbe b9ca 1b40
00000320: bb38 2940 d588 1040 2b4b 1740 7c6b e63f
00000330: 6602 14bd 7902 f53f 5b12 0640 a740 1e40
00000340: b714 fe3f 8f6d 0b40 51d2 3dbc 4ccd 0b40
00000350: 9396 0240 080c 2340 8859 1a40 d852 dc3f
00000360: 00f8 643f c84f ae3f 9383 0140 358d 0140
00000370: 7e4f 2340 d7a4 253d baf2 0740 b39b ee3f
00000380: 64d1 fc3f 781d e63f d16b 1a40 0042 3340
00000390: 1978 2c40 24ee 8c3f e5f2 1f40 a3bc 1040
000003a0: 132f 59bd e95e 1540 8096 3240 aee1 1240
000003b0: 11ab 1240 921e e23f ab80 0240 4818 f93f
000003c0: 1232 1e40 f5bd 0040 9547 2f40 fac3 e4bd
000003d0: 906d 083d 9b50 0740 7fe6 1d40 8f77 1d40
000003e0: fa17 7bbd 6de6 f2bd ccfa 1e40 f988 a1be
000003f0: abf2 0840 b5d1 973f 94d8 2740 4b20 0a40

model.9.weight f4 [1, 256]
-0.012874426 0.19703747 0.17517191 -0.0023956967 0.22199586 0.1311062 0.13909017 -0.025164178
0.16700028 0.13803053 0.1468913 0.11993173 -0.0027076467 0.19403154 0.20645642 0.083671376
0.17325267 0.18915483 -0.035199746 0.18504499 0.24070631 0.16330309 0.12519105 -0.014512728
0.16224149 0.16676007 -0.016252216 0.017517937 0.18847708 0.21608144 0.17842878 -0.025750471
0.15583771 0.14970286 0.18498865 0.090498745 0.15240832 0.20292005 0.2310078 0.20498577
0.12884746 0.15559535 0.21391249 0.15008733 0.01613623 0.15794952 0.17773959 0.22133826
0.1822234 0.19921395 0.1573911 0.20281461 0.08316852 0.12830009 0.10315789 0.21821897
0.22411829 0.14674485 -0.036614664 0.12004044 0.12783547 0.042445038 0.16562116 -0.030374907
0.14754972 0.18300131 0.13798551 0.19111471 0.196391 0.21261948 0.07213285 0.12898232
0.13919532 0.21259792 0.23077157 0.17525153 0.17742696 0.10283896 0.17393327 0.0062997076
0.13466966 0.15521747 0.20002338 0.14937861 -0.0016228459 0.23871198 0.13926683 0.0018789333
0.24638589 0.18348357 0.2046095 0.14282031 0.26900658 0.19908668 -0.014618009 0.08980432
0.23725441 0.140777 0.17712227 0.15952799 0.14927956 -0.014577148 0.15597989 0.14437436
0.11210077 0.21890949 0.1841334 0.14744888 0.1416101 0.1886281 0.0068662264 0.10384243
0.19237576 -0.03823641 -0.015360201 0.09643982 -0.019306045 0.18847115 0.17100754 0.051803198
0.20731342 0.12427593 0.15580876 0.15527123 0.2238077 0.1610991 -0.022962097 0.20168984
0.14898296 0.16707511 -0.022424381 0.14600773 -0.014288926 0.09906863 0.17712113 -0.013985252
0.08446052 0.15458533 0.16676979 0.08422584 0.21949397 0.13935551 0.09266345 0.18208864
0.2124735 0.21296348 0.12878196 -0.033380374 0.15144259 0.08964418 0.14955132 0.086396545
0.10690135 0.14145602 0.16985945 -0.002673251 0.14967217 0.23168124 0.18758903 0.13733946
0.13112213 0.15303253 0.19103578 0.14241 0.21989498 0.1824516 0.13329253 0.07591224
0.21502231 0.05214223 0.18572268 0.21862979 0.18310402 0.17228504 0.11101796 0.17743433
0.025626171 -0.007551553 0.17326483 0.000511167 0.10287042 0.14913237 0.2007503 0.19950327
0.12234306 0.17396988 0.20651336 0.17000383 0.13033375 0.1656829 0.26635182 0.17921028
0.09252718 0.1507414 0.11950729 0.16244242 0.16683239 0.1788876 0.0012014972 0.13978247
0.098149635 0.15646268 0.20685638 0.17673478 -0.011026881 0.21501985 0.25143966 0.11293409
0.1681803 0.11027579 -0.00467962 0.23142813 0.16196054 0.24155875 0.234672 0.14794724
0.050616637 0.19464356 0.16018179 0.1764718 0.22003062 -0.030441955 0.15145047 0.18958007
0.14058657 0.2138706 0.106624395 0.15348136 0.17253858 0.21106108 0.20775542 0.16704088
-0.012613442 0.16314515 0.12945801 0.21922588 0.12384715 0.10113024 0.2096338 0.14974831
0.13404538 0.061941918 0.13803078 0.0003602917 -0.020005902 0.1287885 0.24729453 0.13705087
-0.0019589593 -0.04432836 0.13312085 0.004548826 0.10404832 0.10460984 0.1923283 0.17672656
00000000: 42ef 52bc 31c4 493e 4460 333e 1f01 1dbb
00000010: e252 633e b440 063e a76d 0e3e 1b25 cebc
00000020: 1f02 2b3e e057 0d3e ac6a 163e c49e f53d
00000030: c672 31bb 34b0 463e 5069 533e e65b ab3d
00000040: 2669 313e ceb1 413e 9c2d 10bd 6f7c 3d3e
00000050: b77b 763e ed38 273e 1532 003e cbc6 6dbc
00000060: a222 263e 27c3 2a3e 5e23 85bc c781 8f3c
00000070: 2300 413e 7444 5d3e 09b6 363e a7f2 d2bc
00000080: ec93 1f3e b54b 193e aa6d 3d3e 6857 b93d
00000090: ed10 1c3e 46ca 4f3e 4f8d 6c3e cae7 513e
000000a0: 97f0 033e 6354 1f3e e00b 5b3e 7eb0 193e
000000b0: 2130 843c 85bd 213e 5e01 363e 7fa6 623e
000000c0: c598 3a3e befe 4b3e 222b 213e a2ae 4f3e
000000d0: 4254 aa3d 1961 033e 7244 d33d cb74 5f3e
000000e0: 447f 653e 4844 163e 42f9 15bd c3d7 f53d
000000f0: 4de7 023e d9da 2d3d 9898 293e ccd4 f8bc
00000100: 4617 173e b264 3b3e 134c 0d3e 93b3 433e
00000110: b91a 493e ecb8 593e 63ba 933d f113 043e
00000120: 3889 0e3e 45b3 593e 624f 6c3e 2375 333e
00000130: 6aaf 353e 3c9d d23d 901b 323e c76d ce3b
00000140: d8e6 093e 54f1 1e3e eed2 4c3e b5f6 183e
00000150: acb5 d4ba ea70 743e f79b 0e3e 8a46 f63a
00000160: 954c 7c3e 1ee3 3b3e 2785 513e 7d3f 123e
00000170: 3bbb 893e 61dd 4b3e 6080 6fbc 54eb b73d
00000180: d2f2 723e d927 103e 8a5f 353e 4e5b 233e
00000190: bedc 183e fdd4 6ebc 31b9 1f3e dfd6 133e
000001a0: 1795 e53d cf29 603e 778d 3c3e d7fc 163e
000001b0: 3d02 113e ba27 413e 15fe e03b 57ab d43d
000001c0: 27fe 443e c89d 1cbd 5aa9 7bbc 3e82 c53d
000001d0: b627 9ebc 95fe 403e 9a1c 2f3e 972f 543d
000001e0: f849 543e 6184 fe3d 558c 1f3e 6cff 1e3e
000001f0: d92d 653e 2af7 243e 021b bcbc c887 4e3e
00000200: fd8e 183e bd15 2b3e 56b3 b7bc 0d83 153e
00000210: 191c 6abc 7ee4 ca3d 3e5f 353e 6622 65bc
00000220: a3f9 ac3d 9e4b 1e3e b3c5 2a3e 997e ac3d
00000230: 07c3 603e 36b3 0e3e 56c6 bd3d 7275 3a3e
00000240: a792 593e 1913 5a3e 6bdf 033e dcb9 08bd
00000250: c413 1b3e 5e97 b73d fb23 193e acf0 b03d
00000260: 18ef da3d d9d9 103e a3ef 2d3e b631 2fbb
00000270: a943 193e d93d 6d3e 5717 403e b7a2 0c3e
00000280: e144 063e 8fb4 1c3e e29e 433e edd3 113e
00000290: 262c 613e 98d4 3a3e d67d 083e e077 9b3d
000002a0: cf2e 5c3e 1793 553d 162e 3e3e 7de0 5f3e
000002b0: 9f7f 3b3e 7d6b 303e 625d e33d 58b1 353e
000002c0: faed d13c 0573 f7bb 566c 313e d6ff 053a
000002d0: baad d23d 28b6 183e 7d91 4d3e 964a 4c3e
000002e0: 008f fa3d 2925 323e 3d78 533e 7c15 2e3e
000002f0: 3676 053e c7a8 293e 445f 883e e682 373e
00000300: e47e bd3d f45b 1a3e 3dc0 f43d 4e57 263e
00000310: 1cd6 2a3e 502e 373e 8e7b 9d3a 2323 0f3e
00000320: ad02 c93d c137 203e 29d2 533e f6f9 343e
00000330: 17aa 34bc 2a2e 5c3e b3bc 803e fd49 e73d
00000340: 7537 2c3e 46d8 e13d 7f57 99bb 7ffb 6c3e
00000350: fcd8 253e 2d5b 773e db4d 703e 7b7f 173e
00000360: 6453 4f3d a450 473e b206 243e 06b5 343e
00000370: b54f 613e 6861 f9bc d515 1b3e 4721 423e
00000380: edf5 0f3e e500 5b3e e45d da3d 382a 1d3e
00000390: f4ad 303e 6520 583e d6bd 543e c40c 2b3e
000003a0: 9ca8 4ebc 860f 273e a490 043e c07c 603e
000003b0: 93a3 fd3d 5f1d cf3d 3eaa 563e 9f57 193e
000003c0: 3143 093e cfb6 7d3d f157 0d3e 89e5 bc39
000003d0: 6be3 a3bc 22e1 033e c73a 7d3e 1057 0c3e
000003e0: e261 00bb a891 35bd d550 083e 510e 953b
000003f0: 4917 d53d af3d d63d b6f1 443e cff7 343e
