best_models/best_model_rnn_search_3_features_50.pt (torch, 67392 bytes, 9 tensors)

rnn.weight_ih_l0 f4 [64, 50]
000000 1a fc 89 bd 83 21 3c bd 39 b7 85 3c 5a 7c b3 3d
       -0.06737538 -0.045930397 0.016322719 0.087639526
000010 d0 81 23 bc ea ab d4 3d de 46 b9 bc 10 49 96 3d
       -0.00997968 0.103843525 -0.0226168 0.07338154
000020 c9 12 49 bc 58 5a 12 3c 31 43 c1 3d 2b e5 7c bd
       -0.012272545 0.008932672 0.09436644 -0.06174199
000030 92 93 8c 3d 90 e8 58 3d 0c 6b 05 bd 90 f2 64 3d
       0.06864084 0.052956164 -0.03257279 0.055895388
000040 cc f5 19 bd c2 2b dd bc 1d a8 2a 3c 62 9f 4e 3d
       -0.037587926 -0.026998404 0.010416058 0.050444968
000050 9e bf 0a bb ae dc 2d bd 5d 48 44 3d 14 a9 0a 3a
       -0.0021171342 -0.042446785 0.047920574 0.0005289477
000060 b5 f7 6b bd 49 97 a3 bd 9a bc 84 bd 40 42 e9 bc
       -0.05760928 -0.0798784 -0.064812854 -0.028473973
000070 d1 a6 30 bd f9 3e 65 bd 31 d2 9d bc 09 bf 9b bd
       -0.04312784 -0.05596826 -0.019265266 -0.076047964
000080 ca 64 70 bd 61 74 ca bd 28 69 91 3d fb 69 7e bd
       -0.05868987 -0.09885479 0.07100135 -0.06211279
000090 0e 64 27 bd 6d 54 78 bc 8b db d7 ba 69 bd 19 3d
       -0.040866904 -0.015156847 -0.0016468627 0.03753415
0000a0 ea eb 85 3c 8b 88 33 bd 9a 96 f7 3d f5 d2 80 3d
       0.016347844 -0.04383139 0.12089272 0.06290237
0000b0 c6 41 c4 bd ed fd 4f 3d ab 45 95 39 ca 3a 10 3c
       -0.09582858 0.050779272 0.000284714 0.008803079
0000c0 2c f3 24 3b 0e 93 10 bd f4 34 2e bd 6b 4a 88 3d
       0.0025169356 -0.035296492 -0.04253097 0.06654819
0000d0 44 0c 49 bd 7c c2 5e bc d6 75 b6 bd 06 3c 50 bd
       -0.049083963 -0.013596173 -0.08909194 -0.050838493
0000e0 2a 5a 08 be 1d f8 dd bd 4c 9b b0 3c 27 dd 4c 3d
       -0.13315645 -0.108383395 0.021558426 0.050015595
0000f0 75 b0 b6 3d 39 17 44 3d bd 0b 0b bd f9 e0 e6 bd
       0.08920375 0.04787371 -0.03394674 -0.11273379
000100 c8 40 3f bb 97 01 1a be 2c c0 5f 3d c9 28 e2 bd
       -0.00291829 -0.15039669 0.05462663 -0.110429354
000110 09 e0 bf 3d a0 04 c4 bd 54 ae a0 3d 21 ed 8d 3d
       0.09368903 -0.09571195 0.078457505 0.069299944
000120 4d f1 81 bd 6f d7 2c 3d 8b 8e 9b 3d c9 95 92 3c
       -0.063448526 0.04219764 0.07595547 0.017893689
000130 a8 83 3b 3b 1a 8f 89 bc 11 bc 90 3d ad c6 c1 bd
       0.0028612409 -0.016791869 0.07067121 -0.094617225
000140 d6 3f 96 bd 05 79 ad bd e3 a8 33 3d 38 d7 1b 3d
       -0.073363945 -0.08470348 0.043862235 0.038047045
000150 3b 54 fd bc ba 7f e4 bc 61 fd b4 bd bc 55 6e 3b
       -0.030923953 -0.027892936 -0.08837391 0.003636702
000160 6c 93 cf bd a5 46 8e 3d 0e 19 e9 3d 48 2a 10 be
       -0.1013554 0.06947068 0.11381732 -0.14078629
000170 b2 60 8b 3c d8 92 ce bc f2 a8 21 bd 0d eb cd 3d
       0.017013881 -0.025216505 -0.03946776 0.10054598
000180 2b 48 95 3d 97 46 c0 bd 69 57 38 bd 8f e7 9e bd
       0.072891556 -0.09388464 -0.045005236 -0.0775901
000190 8f 7f bd 3d 01 29 93 3d 8a 23 1a bd f1 b4 09 3d
       0.092528455 0.07185555 -0.03763155 0.033619825
0001a0 7a 56 0c bd 67 97 7a bd 5f aa e1 3c b4 64 a4 3b
       -0.034262158 -0.061179545 0.02754706 0.0050168876
0001b0 49 df 9b 3c f7 70 d4 3c 73 d4 09 bd b0 30 28 bd
       0.01902737 0.025932772 -0.033649873 -0.041062057
0001c0 ce 12 0c 3d ca d4 97 3d 1b 75 32 bc ed 05 94 3d
       0.03419762 0.07413633 -0.010892178 0.07227693
0001d0 76 cd 88 3d 4c 7d 1c 3c ad d6 e6 bc ee 0c f7 bd
       0.066798136 0.0095513575 -0.028178537 -0.12063013
0001e0 3e b5 a7 bd 9a 1a bb 3d 23 6e 44 3d 4f 50 dd 3d
       -0.08188866 0.09135933 0.047956597 0.10806333
0001f0 9d aa 9e 3a 1a c0 10 3d 35 c7 56 3c df 59 03 3d
       0.001210529 0.035339452 0.013109018 0.03206813
000200 7a 22 00 be b3 a9 10 bc 0e c6 ae ba 29 93 5d bc
       -0.12513152 -0.008829522 -0.0013334171 -0.013523855
000210 c4 85 2c bd 83 1c 4f bd 0f 85 5e bc 7a 9b 5f bd
       -0.042119756 -0.0505643 -0.013581528 -0.054591633
000220 0e e3 d0 3d 55 c0 12 bd e4 fa 61 bc 2d 36 da bc
       0.10199557 -0.035827953 -0.013792727 -0.026637161
000230 15 26 09 bd 99 cd 38 bd 22 68 c7 3d ad 46 a2 3d
       -0.033483583 -0.04511795 0.09736659 0.079236366
000240 71 28 30 bd e8 8b 41 3d 04 64 ac 3d e7 41 24 bd
       -0.043007318 0.047252566 0.08417514 -0.040101912
000250 47 00 22 3d b2 ca 0c be d9 d8 48 3d 62 71 8b bd
       0.039551046 -0.13749197 0.049034927 -0.068087354
000260 88 91 27 bd 04 e3 96 3c 38 91 fc 3d d6 73 1f bc
       -0.040910274 0.018418796 0.12332386 -0.009732207
000270 69 68 83 3c a2 6e b1 3c e4 01 9f 3d 62 d2 bb 3c
       0.016040998 0.0216592 0.077640325 0.022927467
000280 cf a5 e8 3c 18 c3 43 3c 22 17 46 3d 3a a5 8b 3d
       0.028399376 0.011948369 0.048361905 0.06818624
000290 ab f6 5a bd f3 fe ba bd a9 c0 81 bd 7d 30 f9 3a
       -0.053457897 -0.09130659 -0.06335575 0.0019011643
0002a0 f0 5e bc 3b c2 ae 64 3d 8c 48 73 3c d7 dc c2 3b
       0.005748622 0.055830725 0.0148488395 0.0059467363
0002b0 c9 4f a7 3d 98 78 b9 bc ae 39 59 3b 21 46 a6 bd
       0.08169515 -0.022640511 0.0033145952 -0.08118845
0002c0 93 14 78 3c 44 2f c6 bd 58 64 d3 bc 8a 08 be bd
       0.015141624 -0.09676984 -0.025804684 -0.092789724
0002d0 77 72 94 3d 70 66 e5 3d 79 f7 ac 3d e2 8b df 3c
       0.07248395 0.11201179 0.08445639 0.027288381
0002e0 bc b3 51 bd fd 53 aa 3d ff d0 69 bd 5f 29 26 bd
       -0.0511968 0.08316801 -0.05708408 -0.0405668
0002f0 8d b7 4f bb 3c ae 75 bc ac 17 94 3d c0 ef 90 3b
       -0.0031695098 -0.014995154 0.072310776 0.0044231117
000300 5c c0 08 3e 03 05 37 bd 37 00 c8 3d 03 ab a3 3d
       0.1335463 -0.044682514 0.09765666 0.07991602
000310 d0 31 b1 bd dd c3 9f 3d 2b 6f 95 3d 60 53 37 3d
       -0.08652079 0.0780103 0.07296594 0.044757247
000320 3a 23 82 bd 45 3d bc bd 1c a2 24 bc a7 30 dd bd
       -0.06354375 -0.09191374 -0.0100484155 -0.10800295
000330 6e 88 4a bd 95 42 c9 bd 1c a1 ad 3d aa a8 af 3d
       -0.049446516 -0.09827153 0.08477995 0.08577092
000340 53 d8 56 3c e4 98 f5 3d ad 0b 84 bd d4 5f 4e 3d
       0.013113099 0.11992052 -0.064475395 0.050384358
000350 2c 0d 1a 3d 36 02 9c bc e5 4d 81 bd b4 de cb 3d
       0.037610218 -0.019044023 -0.06313685 0.099545866
000360 ed 94 86 3d bb 6e ab 3d b9 2a 6c 3d 7b f0 0a be
       0.06571374 0.083707295 0.05765793 -0.13568299
000370 ad 5e db 3d 67 57 1a 3d 57 be 1f bc 1b 46 be bd
       0.10711417 0.03768101 -0.00974997 -0.09290715
000380 73 97 9b bd ac 51 65 bd 92 0f 8a 3d 30 83 a8 3d
       -0.07597246 -0.05598609 0.06741251 0.08228147
000390 01 44 36 3d 8c 05 37 bc 37 7f a3 3d 80 85 89 bd
       0.044498447 -0.011170756 0.07983249 -0.06714916
0003a0 1e e3 20 bd f7 9d b7 3d 58 79 92 3d c9 e4 3c 3d
       -0.039279096 0.08965676 0.07152051 0.046116624
0003b0 9c 3c 12 3d c3 23 e9 3b 14 f6 30 3d ea 27 8f bd
       0.035702333 0.007114859 0.04320343 -0.06990035
0003c0 e3 aa b8 3d cf 9e 47 bd 79 f1 65 3d 9c 2d d8 bd
       0.09016969 -0.048735436 0.05613849 -0.10555574
0003d0 53 06 de 3c 9a d7 84 3d 49 b1 9d bd 62 55 f2 bd
       0.027102625 0.06486435 -0.0769983 -0.11832692
0003e0 a9 19 cb bd 94 b5 b8 3d 6e ca cc 3d e9 ae cf bd
       -0.09917004 0.09019008 0.09999548 -0.10140783
0003f0 f0 bb 6f 3d 50 5f ab bd 7a 3f 88 3b 5c 05 ce bd
       0.05852884 -0.08367789 0.0041579576 -0.10059616

rnn.weight_hh_l0 f4 [64, 64]
000000 30 c4 19 bc 12 c3 89 3d 2c be 08 3d 38 91 bb bd
       -0.009385154 0.0672666 0.033384487 -0.09158558
000010 b0 28 81 bc 86 df a6 3d d8 62 32 3d 48 9c 5f 3d
       -0.015766472 0.081481025 0.043551296 0.0545924
000020 0a ff f6 bd a2 0d ce bd 94 87 2a 3d 40 b8 8e 3d
       -0.120603636 -0.10061194 0.041633204 0.06968737
000030 ae ba 94 3d a6 c0 8d 3d a0 df 9e bb a8 e0 d8 3c
       0.07262169 0.069215104 -0.0048484355 0.026474312
000040 30 cc 2c bc b0 0c 6f bc 54 cd bc bd 54 84 1e 3d
       -0.010546729 -0.014590427 -0.09218851 0.038700417
000050 00 b0 73 bb f2 98 9d bd 00 b7 1b 3c 0e 25 f5 bd
       -0.0037183762 -0.07695188 0.00950408 -0.11969958
000060 d0 7e ce bd 50 0a f1 3d c0 f4 69 3d 74 b6 39 3d
       -0.10082781 0.11769545 0.057118177 0.045340016
000070 24 8b 5f 3d 28 11 cc 3c fe 80 b9 3d 00 b0 f0 bb
       0.054576054 0.024910524 0.090578064 -0.0073451996
000080 72 01 d9 3d b6 c3 c6 bd da 35 ea 3d d2 dd f2 bd
       0.10595979 -0.09705298 0.114360526 -0.11858715
000090 e6 92 89 bd a4 41 08 3d 40 72 7e 3b 00 8a cc b9
       -0.06717472 0.033265725 0.0038825423 -0.0003901273
0000a0 e4 56 13 3d 40 86 28 3c 06 02 8f 3d 80 e1 db 3b
       0.035971537 0.010285914 0.06982808 0.0067102313
0000b0 66 bf ee 3d f6 d9 b5 3d 6a 2c ab 3d 90 2f e4 3c
       0.116576 0.088794634 0.08358081 0.02785471
0000c0 8c e6 ba bd 80 1a 10 bc 30 cd 44 3d 18 65 8f 3c
       -0.091260046 -0.008795381 0.048047245 0.01750426
0000d0 c0 ef 3f 3d ac d8 4f 3d fc 7f e7 3d f0 ba 43 bd
       0.046859503 0.050743744 0.11303708 -0.0477857
0000e0 90 09 8a 3d 3a 12 ed 3d f0 42 db bd 80 38 87 3b
       0.06740105 0.11575742 -0.10706127 0.0041266084
0000f0 d6 22 d1 bd 5e ce eb bd 78 9c 63 bd 1c f4 62 bd
       -0.102117226 -0.11513971 -0.055569142 -0.055408582
000100 48 8f f0 3d 80 22 63 3c 08 ba ae bc 2e 03 f1 bd
       0.11746079 0.013863206 -0.021328941 -0.117681846
000110 02 fb a6 3d fe 57 a5 bd 62 d4 97 3d 7e 27 d6 bd
       0.08153345 -0.08073424 0.07413556 -0.10456751
000120 80 92 69 3b a0 55 73 3c 4c 75 7c bd 38 57 df 3d
       0.00356403 0.014851958 -0.0616353 0.109053075
000130 18 9f ae 3d 60 10 d6 bd 32 dd f8 3d 56 87 f2 3d
       0.085264385 -0.10452342 0.12151565 0.118422195
000140 f8 6c ac 3d 00 f4 cc 3d b0 01 fa 3c 4c 3b ef 3d
       0.08419222 0.10007477 0.030518383 0.11681232
000150 58 77 91 3c 6c 89 f2 bd 2a a9 a5 bd 18 ec 4d bd
       0.017757103 -0.118426174 -0.08088906 -0.050273985
000160 e6 5b f5 3d e0 21 da 3c 1e 44 ab bd 5e 70 91 3d
       0.11980419 0.026627481 -0.08362602 0.071015105
000170 48 ae 8d bc c0 8b 43 bd 20 11 e3 bd 74 a2 eb 3d
       -0.017295018 -0.047740698 -0.11087251 0.11505595
000180 0a 75 eb 3d e8 06 b1 3c ce bd a5 bd 80 42 db 3b
       0.11496933 0.021609738 -0.08092843 0.006691277
000190 ce 8e b7 bd cc b1 2e bd d0 69 5f 3c 36 c1 cd 3d
       -0.08962785 -0.04265003 0.0136360675 0.10046618
0001a0 1c f2 cf bd 1a f7 b6 3d a8 a6 d7 3c 20 80 93 3d
       -0.101536006 0.0893385 0.026324585 0.07202172
0001b0 b6 55 9e bd 72 17 c3 3d 86 c7 81 3d 90 21 45 bc
       -0.07731192 0.09525956 0.06336884 -0.012031928
0001c0 80 70 36 3b 80 25 80 3d c0 4d a7 bb 12 b2 9c 3d
       0.0027838051 0.062571526 -0.005105704 0.07651152
0001d0 94 a4 75 bd a8 b7 7f 3d f6 80 ea bd 3a b5 d6 bd
       -0.059971407 0.062431008 -0.114503786 -0.10483785
0001e0 18 aa 5b bd 80 06 ac ba 8c 88 76 bd 96 53 fd bd
       -0.05362901 -0.0013124496 -0.060188815 -0.123694584
0001f0 30 f9 57 3d a0 88 fe 3d 4c b2 1b 3d a8 66 9f bd
       0.052727878 0.12428403 0.038011834 -0.07783252
000200 e8 33 49 3d 58 7f f8 3c 88 10 37 bd 00 07 91 3b
       0.049121767 0.03033416 -0.0446935 0.0044258833
000210 30 1c 54 bc 74 ff 96 3d ba e6 ac 3d 42 b6 d7 bd
       -0.012946174 0.073729426 0.08442445 -0.1053281
000220 bc 6b 53 bd c0 a3 82 3c 96 76 96 bd f2 2a c6 3d
       -0.051616415 0.015947223 -0.07346837 0.0967616
000230 4c c8 3b 3d 46 bb 92 bd c0 d9 da 3d 94 59 a4 3d
       0.045845315 -0.07164626 0.10686064 0.08024898
000240 14 69 63 bd 92 65 e1 3d 30 39 d4 3c 68 5f fd 3c
       -0.055520132 0.11005701 0.025906175 0.030929282
000250 2e 6f d9 bd d0 14 87 bd 74 56 82 3d 88 68 4b bd
       -0.10616909 -0.065957665 0.06364146 -0.049660236
000260 ac 20 da 3d d8 40 d6 3d 16 e9 86 bd 3c 95 17 bd
       0.10650763 0.10461587 -0.06587426 -0.037007555
000270 a6 85 9b 3d 24 aa 45 bd 52 d9 8e bd 18 f4 7c 3d
       0.07593851 -0.048257962 -0.06975044 0.061756223
000280 08 ae 68 bd 1c cc 90 3d 9c 4e 89 3d e8 ea 34 bd
       -0.056806594 0.07070181 0.06704447 -0.044169337
000290 cc 95 50 bd 00 2b d2 3d 58 98 5c bd c0 b5 93 3d
       -0.050924107 0.10262108 -0.053856224 0.072124004
0002a0 68 85 c3 3d bc f8 1e 3d e8 a5 d0 bd 10 61 bd 3d
       0.095469296 0.03881143 -0.10187894 0.09247029
0002b0 48 23 a7 3c ce af a4 3d 5c 0e 42 3d dc 2d 8d bd
       0.020402566 0.080413446 0.047376975 -0.068935126
0002c0 e4 12 38 bd 18 51 54 bd 7c ec 42 bd 3c 91 aa 3d
       -0.04493989 -0.05183515 -0.04758881 0.083284825
0002d0 f8 f5 c1 bc 50 5a 47 3c ee 8b ad bd c8 08 dd bd
       -0.023676857 0.012167528 -0.08473955 -0.107926905
0002e0 a0 05 ef 3b c0 70 6b bc 50 36 28 bd 90 9f 38 3c
       0.0072943717 -0.014370143 -0.04106742 0.011268511
0002f0 50 43 ce 3d 88 5f aa 3d 30 06 7c 3d b6 35 aa 3d
       0.100714326 0.083190024 0.06152934 0.08311026
000300 c4 d9 6f bd 80 0a 24 bb 28 07 61 3d c0 d2 ac 3b
       -0.058557287 -0.0025030673 0.054938465 0.005274147
000310 3e 77 f5 3d ea c1 96 bd c0 72 73 bc 3e f0 ec bd
       0.11985634 -0.07361205 -0.0148589015 -0.1156926
000320 d0 b8 af bc 20 cb c9 3c ba 43 84 3d 04 78 98 bd
       -0.02145043 0.02463299 0.0645823 -0.07444766
000330 16 88 93 3d 00 6c a8 39 a4 d9 d3 bd 70 ca d5 bd
       0.07203691 0.00032123923 -0.10344246 -0.104390025
000340 18 c6 ac 3d 50 75 15 3c 44 5e 0e bd 4a fe a8 bd
       0.08436221 0.009122208 -0.034757867 -0.08251627
000350 90 84 94 3d 10 a5 87 3d cc 90 81 3d 48 2f 5b 3d
       0.07251847 0.0662328 0.06326446 0.053511888
000360 90 82 ce 3d de 7f c9 3d 70 7f b3 3d 02 c2 c2 3d
       0.100834966 0.09838842 0.08764541 0.0950966
000370 30 ba 40 3d fe 20 99 3d 08 b2 2c 3d 6a cb d0 bd
       0.047052562 0.07476996 0.04216197 -0.10195048
000380 bc 1e b4 bd 74 81 d4 bd 4c e5 13 bd 94 46 ab 3d
       -0.087949246 -0.10376254 -0.036107346 0.08363071
000390 06 11 a9 3d 6c 4e 11 bd 00 e2 37 bd be 90 d4 3d
       0.082552 -0.03547518 -0.044893265 0.1037917
0003a0 24 28 3f 3d 10 a2 3b 3d 58 e6 70 3d 18 c6 37 3d
       0.04666914 0.04580885 0.058813423 0.04486665
0003b0 8e 4e a4 bd de 8b d2 3d 94 07 d6 bd 80 39 2c bb
       -0.080227956 0.10280584 -0.10450664 -0.002627939
0003c0 60 e2 a9 3c 44 4b 91 3d 64 4b c8 bd 30 0c d6 3c
       0.020737827 0.07094434 -0.097800046 0.026128858
0003d0 d0 6e fd bd a0 ec f7 bc 00 e9 fb 3b c8 45 fd 3d
       -0.123746514 -0.030264199 0.007687688 0.12366825
0003e0 ae d0 e7 3d 34 fc e2 3d 62 24 f8 bd d8 10 98 bd
       0.11319099 0.1108326 -0.121163145 -0.07425088
0003f0 76 95 d8 bd 58 ea 96 3c 78 a7 f0 bd 10 75 b7 3c
       -0.105753824 0.01842229 -0.11750692 0.022394687

rnn.bias_ih_l0 f4 [64]
000000 e1 ce 8e bc a4 8b 08 3d bf 75 b2 bd 2d a6 68 bd
       -0.017432632 0.033336297 -0.087138645 -0.056799103
000010 93 5f 5a 3d 98 53 93 3d 0b e0 98 3d b7 a6 e2 3d
       0.053313803 0.071936786 0.07464608 0.110669546
000020 99 a8 84 39 50 80 67 3d e4 af a7 bd d1 ee 42 3d
       0.00025302617 0.056518853 -0.08187845 0.047591034
000030 04 0b ad 3d 6a c3 aa 3d b9 39 ec 3c 35 44 b7 3d
       0.08449367 0.083380535 0.028836118 0.08948556
000040 14 ff 28 3d 25 00 ef 3c b0 e5 78 3d fe 51 0d 3c
       0.041258886 0.029174874 0.060765922 0.0086255055
000050 b4 28 17 bc f6 80 91 3d 20 ce 98 3d f4 8b 9c bd
       -0.009226013 0.071046755 0.0746119 -0.076438814
000060 39 51 84 bc 82 ff fa 3c a1 3e 9b bd 2e bc f8 bd
       -0.016152011 0.030639414 -0.07580305 -0.121452674
000070 87 98 52 bd 44 bd db bd b4 05 67 3d cc 66 09 3b
       -0.051414993 -0.10729459 0.056401923 0.0020965813
000080 44 92 8f bd cb 51 91 3d c4 c6 c2 3d e8 a2 7b 3d
       -0.0701032 0.07095679 0.09510568 0.061434656
000090 09 f4 85 bd d8 e5 0d 3d f0 bf 62 3d fa 01 3c 3c
       -0.06540687 0.034643024 0.055358827 0.011475081
0000a0 2c 93 c0 3d 7c ab 88 bd 43 ab 22 3d fc ae 96 3a
       0.09403071 -0.06673333 0.03971411 0.0011496241
0000b0 87 ec d7 3d 05 3c ea 3c 12 c6 35 bd b6 3d 24 bd
       0.10543161 0.028593073 -0.044378348 -0.040097915
0000c0 ac 96 37 3c 2e 6c 12 3d 33 28 e4 bd 94 50 ac 3d
       0.011205357 0.0357477 -0.1114048 0.084138066
0000d0 e5 6c f3 bd 7f 02 89 bd b8 3b e9 3c 10 12 da bd
       -0.11886004 -0.06689929 0.028470859 -0.106479764
0000e0 5d 5b e1 bd fa ea 12 3e 05 c6 ba bd 51 1d cc bb
       -0.11003754 0.14347449 -0.091198005 -0.0062290807
0000f0 08 22 05 3c 13 f7 a5 bc 15 6c 3f 3d 0f 5a 8f bd
       0.008125789 -0.020259416 0.046733934 -0.06999599

rnn.bias_hh_l0 f4 [64]
000000 da 36 af 3d 42 6d a6 3d ff 67 af 3d 09 ab 27 3d
       0.08555384 0.08126308 0.085647576 0.040934596
000010 cd 36 a5 bc d3 8d 36 bd 58 62 fe bd b1 7d a3 bd
       -0.020167733 -0.044568848 -0.12421101 -0.07982958
000020 68 3a 75 bd 86 ae 46 bd 50 0c 73 bd a3 fa 58 bd
       -0.059870154 -0.048506282 -0.059337914 -0.0529734
000030 fe 3b d4 3d be 8d c0 bb d4 03 04 3d 4f 4f 93 bc
       0.10363005 -0.005876272 0.032230213 -0.017982153
000040 15 8c 8a 3d aa 17 70 3d 4c c4 fa bd 38 8c 3f 3d
       0.06765 0.058616318 -0.12244472 0.046764582
000050 9c 40 7a 3c 32 0a df bd 94 d1 c1 3d 3d 5a 30 3d
       0.015274193 -0.108906165 0.09463802 0.043054808
000060 99 37 d9 3c 3c 74 e0 bc 66 67 95 bd d5 b1 81 3d
       0.026515769 -0.027399175 -0.07295112 0.06332747
000070 65 0d ab 3d 46 5e de bd 89 3f 9c bd 64 42 6c 3d
       0.08352164 -0.10857825 -0.07629306 0.057680503
000080 f2 04 ad 3c 6b e0 bc bd 8f 96 5b bd 96 dd be bc
       0.021120522 -0.09222492 -0.05361038 -0.02329902
000090 2f fe e5 3c 08 61 09 bc 55 38 84 bd 67 ef 39 3d
       0.028075306 -0.00838495 -0.06456057 0.045394327
0000a0 2d 43 13 3d e7 b3 81 bd 71 07 63 3d bd 85 f5 3c
       0.035952736 -0.06333142 0.05542702 0.029970998
0000b0 b1 c3 95 bd 3b 66 7b 3d 26 ef 96 3d 5b 72 cd bd
       -0.07312716 0.06137679 0.07369833 -0.10031577
0000c0 21 e0 cd bc a2 a0 41 3d 2f 15 8d 3c c4 32 af bd
       -0.025131287 0.047272332 0.017222015 -0.08554605
0000d0 8e f0 28 3d 38 92 3b 3b 6e 61 94 3d 46 e0 54 3d
       0.041245036 0.0028621089 0.07245146 0.051971696
0000e0 f6 e1 78 bd cb 6a 98 bd 49 d6 ac 3d c0 6f 90 bc
       -0.06076237 -0.07442244 0.08439309 -0.017631412
0000f0 2a 50 a5 bd 42 94 c7 3a b1 01 91 bd 7a dd 4d bd
       -0.08071931 0.0015226679 -0.07080401 -0.050260045

rnn.weight_ih_l1 f4 [64, 64]
000000 5e 8a ce bc 45 21 20 bd ed c7 e4 bb 3f d8 ec bd
       -0.025212463 -0.03909423 -0.006981841 -0.11564683
000010 a7 eb bf 3c 01 8b bf 3d 78 26 96 bd 80 44 2d bd
       0.023427797 0.09352685 -0.07331556 -0.042301655
000020 55 91 4e 3d 81 50 9f bd 44 e6 4c bd a3 1d fb 3c
       0.05043157 -0.07779027 -0.050024286 0.03065378
000030 a0 dd ab 3d 79 08 3a 3d 75 16 35 bd 25 fd 24 bd
       0.08391881 0.045418236 -0.04421087 -0.04028048
000040 a4 3f d2 bd de 55 4a 3d 34 ee 1d bc e9 c9 08 3d
       -0.10266045 0.049398296 -0.009639312 0.03339568
000050 85 af 1a bc 89 0f d7 3d df 7a b9 bd 59 4c a1 bd
       -0.009441261 0.1050101 -0.09056639 -0.0787589
000060 e0 2d 8f 3d 87 28 81 3c ee 1e 33 3b a1 ba d3 bd
       0.06991172 0.015766395 0.0027331668 -0.10338331
000070 26 30 f1 bd 7c 9f ee 3d 8b 53 8e bc bd 5f 31 3b
       -0.11776762 0.11651513 -0.01737382 0.002706512
000080 56 b3 5d bd 84 83 d4 bc a4 8f c4 3d de b4 8f 3d
       -0.054126106 -0.025941618 0.0959771 0.070169196
000090 0e b9 ec bd 51 87 ce bd 87 0b 91 3d e1 e4 38 3d
       -0.11558734 -0.10084403 0.07082277 0.04514015
0000a0 82 d8 74 bd 0a fc f1 bd 46 da 65 bd 0a 15 75 bd
       -0.05977679 -0.11815651 -0.056116365 -0.059834518
0000b0 f7 af b1 bb d7 ce f7 bd 1c 5c 9e 3c 02 bd f0 bd
       -0.005422588 -0.120999984 0.01933103 -0.117548004
0000c0 79 55 94 bc cb 1d e2 bd f2 95 e6 bd b8 52 7e bd
       -0.018107163 -0.11040839 -0.112590685 -0.062090605
0000d0 73 37 03 bd 2c bf f7 3d 3a ad d2 bd 7b 52 ad ba
       -0.032035302 0.1209701 -0.102869466 -0.0013223434
0000e0 8e 98 11 3d 71 36 af bc 2d e6 97 3d 6c e8 eb 3c
       0.035545878 -0.021388264 0.074169494 0.02879735
0000f0 ac 9b 94 bd ef 76 a0 bd c7 d1 43 bb fc 1f fb 3c
       -0.072562546 -0.07835185 -0.0029879676 0.0306549
000100 20 58 77 3c a0 9c b4 bd fd b6 ba 3d 5c 9b 04 3d
       0.015096694 -0.08818936 0.091169335 0.032374725
000110 03 4b af bd ab 41 cb bd df 6d b0 3d ab ba 3b bd
       -0.08559229 -0.099246345 0.08614706 -0.045832317
000120 9a 01 89 bd 7e 02 b1 3d b4 3b 5d 3c 7a d4 30 3d
       -0.066897586 0.086430535 0.013503004 0.043171383
000130 3e 48 9d bc 3f 0b 5c bc ef 10 fe 3c 03 03 b9 bd
       -0.019199487 -0.013430416 0.031013934 -0.090337776
000140 0f da c2 bd 69 97 92 3d 71 33 c2 bd 6d 1f 6a bd
       -0.095142476 0.071577854 -0.09482468 -0.057158876
000150 65 3a e2 bd 01 8c 86 3d 7d 95 86 3c 95 b2 0e 3b
       -0.11046294 0.065696724 0.016428703 0.0021773924
000160 d8 ce e6 bd b9 5c da bd cf ce cb bc 0d 76 b7 3d
       -0.11269921 -0.10662217 -0.024878887 0.08958063
000170 b1 b3 4b 3c 80 bc cf bd 62 0e 87 bd cf 7c 98 bd
       0.0124329785 -0.101433754 -0.0659454 -0.0744568
000180 98 66 37 3d 2a 36 29 bd bf f5 9a 3d c4 7b 8b 3d
       0.044775575 -0.04131142 0.075664036 0.06810716
000190 08 b6 8b bc 13 70 58 bd 6e 61 b4 3d 52 7f 94 bd
       -0.017054573 -0.052841257 0.08807646 -0.07250847
0001a0 cf 6c 89 bd 0a ac fb 3d ee 68 95 bd b9 7e 30 bb
       -0.06710207 0.12288673 -0.072954044 -0.0026931001
0001b0 05 a4 00 3d fe 8c b6 bd 01 70 aa bd e6 6e cf bd
       0.03140642 -0.08913611 -0.08322144 -0.10128574
0001c0 a9 5d 86 3d 60 52 d0 bd f7 a5 06 3e 4f ed 96 3d
       0.06560833 -0.10171962 0.13149248 0.07369482
0001d0 6d 3d 79 bd 66 d8 91 bc c3 99 d2 3d 7c 4d 2f 3d
       -0.060849596 -0.017803382 0.10283234 0.042798504
0001e0 a3 2b 95 3d 39 4b f9 bd a3 0d a2 bd 11 db 9a 3d
       0.07283714 -0.12172551 -0.07912757 0.07561315
0001f0 f4 93 85 bd 13 46 b1 3d ca 65 fd 3c e1 ea d5 3d
       -0.065223604 0.08655944 0.030932326 0.1044519
000200 22 fe 3a bc cc 6d 3a bd ba 7c 6d 3d c8 17 ea 3d
       -0.011413129 -0.045514867 0.057980277 0.11430317
000210 ae 7e 76 bc e5 ba 13 bc 0f ac e0 bd 44 0d 9d bd
       -0.015044851 -0.009016727 -0.109703176 -0.07668546
000220 b0 1f 38 bc 9d 1f 41 bd 22 71 72 bd fc 92 ae 3c
       -0.011238024 -0.04714929 -0.059189923 0.021310322
000230 ad 5b 24 3d 00 ac bd bd ec 09 c6 3c 28 e6 a3 bd
       0.04012649 -0.09261322 0.024174653 -0.08002883
000240 7a a7 ab bc dd 4a a0 3d 58 aa 7c bd 3f ff 38 3d
       -0.020953882 0.07826779 -0.06168589 0.045165297
000250 13 5f a4 bb 5d 51 40 bd ae fe 81 bd 72 97 77 3d
       -0.0050162165 -0.046952594 -0.063474044 0.060447164
000260 ab db 0e bd 69 fc 3a 3c 98 3d 4c 3d d2 a7 c9 3d
       -0.03487746 0.011412718 0.049863428 0.09846462
000270 90 73 31 38 e5 1b 58 3c 64 bc f7 3c 0a 19 e8 3d
       4.2307714e-05 0.013190244 0.030241199 0.11332901
000280 09 51 36 bd 4d af c9 bc 08 68 81 bd be ea 91 bd
       -0.044510875 -0.024619723 -0.063186705 -0.07124852
000290 12 77 fa 3c a6 41 58 bd c1 38 21 3d 38 27 d6 bd
       0.030574355 -0.052796982 0.039360765 -0.10456699
0002a0 49 96 21 bd 6d b6 ad 3c e2 c2 42 3d b3 4e 4b bd
       -0.039449964 0.021205151 0.047549136 -0.0496356
0002b0 d3 7f b4 bd c6 21 b6 3d d6 ae 56 3d f8 3f 91 3d
       -0.08813443 0.088931605 0.05241283 0.07092279
0002c0 7c ca 94 3d bb 85 e3 bc ac 90 c8 bc 89 9d 7d bd
       0.07265183 -0.027773729 -0.024483047 -0.061917815
0002d0 f3 c7 f7 3d 9f 2b 75 bd 49 cf e0 bd ca 7c 78 bd
       0.12098684 -0.059856053 -0.109770365 -0.060665883
0002e0 e3 72 8f bc 57 bf e1 bc 85 c2 88 3d f1 ea 4e 3d
       -0.017510837 -0.027557058 0.06677727 0.050517026
0002f0 a3 f0 cd 3d 6c e8 96 bc 2e 30 fe 3c a0 60 91 3d
       0.100556634 -0.018421374 0.031028833 0.07098508
000300 a3 b2 02 bd 72 4f 2e bd 06 bf e4 3d f2 be 19 bc
       -0.031908643 -0.042556234 0.11169247 -0.009383904
000310 8b 89 28 bc c3 39 09 bd 0e 1d 97 bb 77 d1 8d bd
       -0.010286699 -0.03350235 -0.004611618 -0.06924718
000320 a6 27 60 bd 90 d5 cc bc 84 18 71 3d d6 dd 91 3d
       -0.05472531 -0.025004178 0.05886127 0.0712239
000330 69 1f 69 ba dd 5a 85 3d d7 eb a1 3c 1a 5a c9 3c
       -0.0008892925 0.065114714 0.019765778 0.024579097
000340 91 06 35 bc b2 df 5a 3d 2a 3d 56 3c 87 75 73 bc
       -0.011048929 0.05343599 0.013076106 -0.014859564
000350 23 02 d8 bc cd 45 67 bd 19 01 75 3d 63 49 2c 3d
       -0.026368206 -0.05646305 0.0598155 0.042062175
000360 32 f4 10 bd 69 3c 83 bd 7b 1c f5 bd f0 cc 3f bd
       -0.035389133 -0.06408007 -0.11968323 -0.046826303
000370 99 f9 6c bd 08 01 03 3e cc 46 02 3d 7e d2 65 bd
       -0.057855222 0.12793362 0.0318058 -0.056108944
000380 44 36 73 3d f4 72 a6 bd b2 2e 87 3d 54 ce a3 3d
       0.059377924 -0.08127394 0.06600703 0.07998338
000390 b8 b5 e5 3d 5d dc c0 3d a8 a7 e4 3c ec 1d bd 3d
       0.11216301 0.09417031 0.027911976 0.09234223
0003a0 ce e8 9d bd f0 55 b0 bd e3 3c 86 bc a0 65 a7 3c
       -0.077104196 -0.08610141 -0.016386455 0.0204342
0003b0 12 6c 11 3d 39 73 d2 3d e0 c2 ac bd 60 2b df bb
       0.035503455 0.10275883 -0.08435607 -0.0068105906
0003c0 99 01 de bd c2 54 ac bc f1 ee b4 bd c8 6a b4 3d
       -0.108401485 -0.02103651 -0.08834637 0.088094294
0003d0 09 7e f9 3b 75 10 23 3d 87 a2 a9 bd cf b9 8b 3d
       0.0076139015 0.039810617 -0.08282953 0.068225496
0003e0 aa a9 8e bd 43 30 38 bd 0e 5b b3 bc 83 9e ea bc
       -0.069659546 -0.0449679 -0.021894004 -0.028640037
0003f0 20 57 bf bd fc 04 b0 bd 10 f3 4d bd e7 cc 97 3d
       -0.0934279 -0.08594701 -0.05028063 0.07412129

rnn.weight_hh_l1 f4 [64, 64]
000000 9c 90 f7 3d 08 ab bd bc 44 47 43 bd 98 83 de 3c
       0.12088129 -0.023152843 -0.047675386 0.027162358
000010 0a 16 c7 3d 8a cd da bd 14 68 ee 3d a6 52 f5 bd
       0.097210005 -0.10683735 0.11640945 -0.119786546
000020 14 8c ab 3d 6c a4 fd 3d c8 e4 fe bc 80 6f f1 ba
       0.08376327 0.123848766 -0.03111495 -0.001842007
000030 ce ed ab 3d 90 7f bb bd da 57 e5 3d 5a 6a ae bd
       0.08394967 -0.0915519 0.11198397 -0.08516379
000040 da df 98 bd 18 aa 95 3c 64 cd eb bd 0c 39 2c bd
       -0.07464571 0.018269584 -0.115137845 -0.04204659
000050 6c 07 27 bd 80 dd 32 bc 9c d9 e0 bd 40 9f 26 bb
       -0.040778562 -0.0109170675 -0.10979006 -0.002542451
000060 a0 d8 f0 bd fc 20 9d 3d 66 06 93 bd 18 7b 5d bd
       -0.11760068 0.07672307 -0.07178955 -0.05407247
000070 b4 4b 75 bd 00 37 fb 3c 92 cd e7 3d e4 81 a2 3d
       -0.05988665 0.030665874 0.11318506 0.07934931
000080 10 8a 6e 3d 90 5a 52 bd c2 62 94 3d c0 34 a6 3c
       0.058237135 -0.0513559 0.07245399 0.020288825
000090 88 cc 0c 3d fa e6 e5 3d ec 1e 9b 3d 4c 09 98 bd
       0.034374744 0.11225696 0.07574257 -0.07423648
0000a0 4e fa 91 bd b0 0e 5c bc e0 b9 92 3b 5c d4 7c bd
       -0.0712782 -0.013431236 0.0044777244 -0.06172596
0000b0 7e 29 d0 bd fc 15 ec 3d 5e a3 c2 3d ce 1b 8f 3d
       -0.10164164 0.11527631 0.09503816 0.06987725
0000c0 d2 fa f6 bd c0 d0 b0 bc b8 12 c9 3d 40 2f 9b 3d
       -0.12059559 -0.021583915 0.098180234 0.075773716
0000d0 c0 1f dc 3b 60 3d a6 3d 60 88 53 bd 46 6d d2 bd
       0.006717652 0.08117175 -0.05164373 -0.102747485
0000e0 b6 26 d4 bd 00 ce c8 ba 50 63 fd bd d0 c0 b9 3d
       -0.10358946 -0.0015320182 -0.12372458 0.09069979
0000f0 e0 80 ea bd ca 7d af 3d 82 cd b7 bd 1c 12 64 3d
       -0.11450362 0.08568914 -0.089747444 0.055681333
000100 b4 96 99 3d f6 6b d9 bd 88 ef 3b bd 64 49 24 3d
       0.074994475 -0.10616295 -0.04588273 0.040109053
000110 fe 94 a1 3d 48 33 99 3d fc 28 f9 3d f6 c1 ea 3d
       0.07889746 0.07480484 0.1216602 0.11462776
000120 5c 3a a0 3d b8 b5 23 bd 96 d3 83 bd f8 1d d3 bd
       0.07823631 -0.039968222 -0.06436841 -0.103084505
000130 08 89 65 bd 90 2f d7 bd 80 14 5a 3b 00 a6 5a ba
       -0.056038886 -0.10507119 0.003327638 -0.0008340776
000140 94 85 38 3d 6e b5 8f bd fc df b2 3d b8 8e 42 3d
       0.045049265 -0.07017027 0.08734128 0.04749939
000150 d2 83 a2 3d d6 d7 bc 3d 88 d2 dd 3d 96 12 91 bd
       0.07935299 0.09220855 0.10831171 -0.07083623
000160 f0 11 57 bc 62 f7 f6 3d 20 44 fc 3c 52 5e a5 3d
       -0.013126835 0.12058903 0.030794203 0.08074631
000170 00 49 89 3c 40 74 d0 3c 40 f3 20 bc 30 91 21 3d
       0.016758442 0.025446057 -0.00982362 0.039445102
000180 40 8c 35 3d a0 fc b0 3c 70 e9 b0 3d 64 df c9 bd
       0.044323206 0.021604836 0.08638275 -0.098570615
000190 00 85 9f bd 8e f9 e9 bd 30 54 2e bd aa fd ab bd
       -0.077890396 -0.11424552 -0.042560756 -0.08397992
0001a0 e2 99 8d bd 2e dc ac bd dc 9c 36 bd 00 68 4a b9
       -0.069141164 -0.084404334 -0.044583187 -0.00019302964
0001b0 22 98 ae bd 54 73 71 3d 36 ae b4 bd 68 c5 f5 3d
       -0.08525111 0.058947876 -0.088222906 0.12000543
0001c0 c0 9f bd bc a0 33 5d 3c 20 bc 12 bc fe 66 c2 bd
       -0.023147464 0.013501078 -0.008955985 -0.094923005
0001d0 44 16 33 3d 00 1f f8 bb 60 3b 79 3c c8 a9 92 3d
       0.043722406 -0.007572055 0.01521191 0.071612895
0001e0 f2 e7 c5 bd 92 6b fe bd c6 2e e2 3d fc 7c bf 3d
       -0.09663381 -0.12422861 0.110440776 0.09350011
0001f0 74 02 5a bd e8 c3 89 3d 54 8d a5 bd 5e 56 a5 3d
       -0.053224996 0.06726819 -0.08083597 0.08073114
000200 c4 e5 6c 3d 10 35 9e bc ac 2f a7 3d 58 8a 30 bd
       0.05783631 -0.019312412 0.081633896 -0.043100685
000210 40 d3 98 3c 2c 73 f5 3d b4 47 bf 3d 56 b9 e7 bd
       0.01865542 0.11984858 0.09339848 -0.11314647
000220 92 20 af bd d4 e8 d4 3d e8 f8 7d bd f0 bc 4b 3c
       -0.08551134 0.10395971 -0.062004954 0.012435183
000230 2a 1b ac bd 48 a3 e9 bd b8 ea 8a 3c 5e 2a b3 bd
       -0.08403619 -0.114080966 0.016957626 -0.08748315
000240 7a 88 a4 bd 4a 0e 95 bd 40 1f fa bb 4c 5b 2e bd
       -0.08033843 -0.07278116 -0.00763312 -0.042567536
000250 18 84 ca 3c 98 3c 7c 3d c2 f3 d3 bd b0 11 a5 bd
       0.02472119 0.061581224 -0.103492275 -0.08060014
000260 e0 81 d2 3c d0 00 ca bc 7a 20 b6 3d 00 e5 fc 3d
       0.025696695 -0.02465859 0.08892913 0.12348366
000270 d0 15 23 3c 78 46 b7 3d 7a 79 98 3d c8 a8 d5 bc
       0.009953931 0.08948988 0.07445045 -0.026081458
000280 b0 4a de 3d 10 51 9c 3d a0 c6 d6 bb 0c 6d 71 bd
       0.10854089 0.07632649 -0.0065544397 -0.058941886
000290 20 0e 90 3c 92 b6 88 bd ce 04 fa bd 10 9a 71 3d
       0.01758486 -0.066754475 -0.12207948 0.058984816
0002a0 8a 44 fd bd ce 60 bd bd 88 46 b2 bd d0 cb cc bc
       -0.123665884 -0.0924698 -0.08704859 -0.02499953
0002b0 b8 de 56 3d 60 a6 7b bc 90 87 ea 3c e6 0c 91 bd
       0.052458495 -0.015359491 0.028629094 -0.07082538
0002c0 7e b3 f1 3d 2e b2 ae 3d 90 60 f0 bd f8 8f e8 bc
       0.118018135 0.08530079 -0.11737168 -0.028388962
0002d0 90 ab 60 3c 98 b2 8d bd 1c b7 a8 bd d8 e9 9d 3d
       0.013712779 -0.0691883 -0.0823805 0.07710618
0002e0 48 16 2f bd 14 60 da 3d 82 e2 e3 3d e0 80 e6 bb
       -0.04274586 0.10662857 0.11127187 -0.007034406
0002f0 40 7d 1f 3d 00 94 c7 bd 28 e4 af 3d 80 11 d3 bc
       0.038937807 -0.09745026 0.08588439 -0.02576518
000300 90 98 ba bc 64 0f 86 bd 60 66 0b bc 7a 9c f4 3d
       -0.022777826 -0.06545904 -0.008508295 0.11943908
000310 84 89 d2 bd 46 e4 b5 bd 1e 37 89 bd c0 57 cf bb
       -0.10280135 -0.0888143 -0.06699966 -0.0063275993
000320 90 de d4 3c 60 1b e4 bb 80 34 82 ba c6 7f e0 3d
       0.025985032 -0.006961271 -0.0009933859 0.10961871
000330 c4 18 cb 3d aa 2f ad 3d c8 0f f8 bd 44 7c 94 bd
       0.09916833 0.08456357 -0.12112385 -0.07250264
000340 b0 ef da 3d 40 c5 07 3b 00 e6 ee 3b 88 7e 3a 3d
       0.10690248 0.0020716935 0.0072906017 0.045530826
000350 aa c0 c3 bd 38 b1 60 3d a0 2a cb bb 28 53 97 3c
       -0.09558232 0.05485651 -0.0062001497 0.01847227
000360 a8 02 50 3d 20 86 8b 3c 02 71 82 3d d0 e1 33 3c
       0.050783783 0.01703173 0.06369211 0.010979131
000370 80 92 5d bc 50 55 56 bc 2a 90 b0 bd c8 7c d9 3c
       -0.013523698 -0.0130818635 -0.08621247 0.026548758
000380 6c 38 a8 bd 0c b3 5d 3d fa b0 b4 3d c2 93 fd bd
       -0.082138866 0.05412583 0.08822818 -0.12381698
000390 90 fd b7 3d ac 85 8a 3d cc 54 02 bd 56 03 aa bd
       0.0898391 0.06763777 -0.03181915 -0.083014175
0003a0 3e 41 80 bd 1e 63 da 3d 46 fe e3 3d 2c da bd 3d
       -0.06262444 0.10663436 0.11132483 0.092701286
0003b0 a4 91 12 3d 4c 1b 12 bd a0 4f f3 bc 94 d3 93 3d
       0.035783425 -0.035670564 -0.029701054 0.0721809
0003c0 70 58 16 3d dc af 0a bd de ad 88 3d f2 1d d8 3d
       0.036705434 -0.03385912 0.066737875 0.105525866
0003d0 44 7a 74 3d 14 c7 43 3d ec 77 1e 3d a0 a4 9c bb
       0.059686914 0.047797278 0.038688585 -0.004780367
0003e0 70 5a f1 3d 04 b4 26 3d 46 e8 85 3d 90 e5 8d 3d
       0.11784828 0.04069902 0.06538443 0.06928551
0003f0 ee 01 98 3d 64 1c 4c 3d c0 d3 3e 3c 28 8b 71 3d
       0.07422243 0.049831763 0.011647165 0.0589706

rnn.bias_ih_l1 f4 [64]
000000 6d a7 1b bd a7 d6 ce 3d af d1 4f 3b 05 9b 96 bd
       -0.038001467 0.100995354 0.0031710675 -0.073537864
000010 81 89 98 3d 84 9f 9c 3d 5b a8 d6 3d fe 90 09 bc
       0.07448102 0.07647613 0.1048133 -0.008396385
000020 97 bb 59 bd a4 18 49 bd c7 5b d8 bd 9e 01 70 3d
       -0.053157415 -0.049095765 -0.1056438 0.058595292
000030 fb 38 6c 3c e0 58 92 3d 46 2a c1 bc 71 34 69 3b
       0.014417882 0.07145858 -0.023579728 0.0035584236
000040 08 b4 a0 bc 9c 66 c0 3c ca 00 93 3d db fa f5 3a
       -0.019617096 0.023486428 0.07177885 0.0018766777
000050 5a f7 74 bd dc 82 41 bd 48 eb 0a bd dd d6 62 3d
       -0.059806205 -0.047243938 -0.033915788 0.05538069
000060 2f ae b9 bb 30 56 8e bd a0 4b 97 bd a0 ac a8 3c
       -0.0056665163 -0.06950033 -0.07387471 0.020590127
000070 56 5f df bc 93 36 94 3c c1 3f 2e bd e0 3f bc bc
       -0.02726714 0.01809243 -0.04254127 -0.022979677
000080 a1 f1 3c 3d 8b f1 98 3d 60 eb 53 3d 4e e1 6a 3c
       0.046128873 0.07467946 0.051738143 0.014335943
000090 3b d2 a4 bc b3 27 cd 3d c9 c7 00 bd a0 9a 63 bd
       -0.020119777 0.10017338 -0.03144053 -0.055567384
0000a0 fe de e5 bd aa 52 18 bd 35 bc dd 3d f5 a4 c2 bd
       -0.11224173 -0.03718821 0.10826913 -0.09504119
0000b0 38 63 55 3d a1 21 72 3d b5 08 ed bd fa 3f 15 bc
       0.052096575 0.059114102 -0.11573926 -0.0091094915
0000c0 9e 4a 70 3d 39 89 a8 bd b8 12 a8 3b 0c c4 56 3d
       0.05866491 -0.08229298 0.0051291846 0.05243306
0000d0 7c 8c 08 3d 17 62 56 3c 55 3d a7 bd 70 c0 46 3d
       0.0333371 0.01308491 -0.08165995 0.048523366
0000e0 39 d0 4b bd 23 2c c6 3d da 25 7e bd 2a 77 cb bb
       -0.049759123 0.09676387 -0.062047817 -0.006209274
0000f0 9c 3c 30 3d f0 da d1 3d c6 f5 ec bc ae 0f ac bd
       0.04302655 0.10246837 -0.028925788 -0.08401428

rnn.bias_hh_l1 f4 [64]
000000 9c e0 d2 3d 1f 44 62 bd 35 e6 19 bc bf eb d5 3d
       0.10296747 -0.055240747 -0.009393265 0.104453556
000010 02 c8 1b bd 24 7d af 3d 19 48 5e bd fe 4f aa 3d
       -0.03803254 0.085687906 -0.054267976 0.083160385
000020 31 09 b7 3d 0c 37 3f 3d 96 6d ba 3c 14 b8 eb bd
       0.089373 0.046683356 0.022757333 -0.115097195
000030 1d 76 53 bd fe 38 95 bd 31 9f b4 3d 17 8d d7 3d
       -0.051626313 -0.07286261 0.08819426 0.105249576
000040 41 5f 53 3b 08 55 90 3d 88 ac c7 3d 81 49 a2 bd
       0.003225282 0.070474684 0.097497046 -0.07924176
000050 47 1d bc bd bf 55 92 3d a0 9e b7 3c 17 04 70 bd
       -0.09185272 0.07145261 0.022414505 -0.05859765
000060 b5 ca 18 bd be d2 68 39 9c ee c7 bd 00 e4 3a bd
       -0.03730269 0.00022203752 -0.09762308 -0.045627594
000070 94 e9 80 3d 28 4d 7d 3d e1 12 d2 3c 6d 3b 90 bd
       0.062945515 0.06184116 0.025643768 -0.070425846
000080 7f 8b d4 bc 00 f6 31 3d 2b 4b 99 3d a8 1d bf 3d
       -0.025945423 0.043447495 0.0748504 0.09331828
000090 cb e4 12 3d 4b 45 99 3d aa 34 ca bd eb ad b3 bc
       0.035862725 0.0748392 -0.09873326 -0.021933516
0000a0 9a 97 f4 3d 9d e2 6b bc 7d 08 78 bd 49 4f c8 3d
       0.11942978 -0.014397291 -0.06055497 0.097807474
0000b0 f9 e7 8f 3c 03 88 41 bd d3 ce a3 3d da e0 d9 3b
       0.017566668 -0.04724885 0.07998433 0.006649119
0000c0 fd 8f 00 be 56 17 11 3d 67 f3 80 bc 50 9c a2 3d
       -0.12554927 0.035422646 -0.015741063 0.079399705
0000d0 17 75 dc bd 1b 1a bd 3d df 0f 73 bd df 0e a2 bd
       -0.107645206 0.09233495 -0.059341308 -0.07912993
0000e0 5c a0 87 3d 3f 46 58 3c 1e a1 1f bd d2 e7 f3 bc
       0.06622383 0.013200342 -0.038972013 -0.029773626
0000f0 d8 a9 6c bc 4a a6 70 bd b6 a2 a6 bd 18 93 b7 3b
       -0.014444791 -0.058752336 -0.081365034 0.0056022517

fc.weight f4 [1, 64]
000000 e6 2d 32 bb c9 b4 2f 3c 86 73 a2 3c 72 8c 8e bc
       -0.0027188002 0.010724255 0.019830476 -0.017400954
000010 c9 90 14 bb 48 c7 31 3d 1e 96 c1 3c e7 1b 67 3c
       -0.0022669306 0.04340294 0.023631152 0.0141057735
000020 77 aa 07 3d a3 5d 38 3d b3 28 93 3c 6d ab ac bc
       0.033121552 0.045011174 0.017963743 -0.021077836
000030 0e 19 ec bb 9c ca fd 3b 2a b5 5e 3c ce 83 46 3d
       -0.007205135 0.0077451 0.013592998 0.048465542
000040 0c 50 49 3d 46 7d 61 bd 7f 8d 31 bd 5a 36 e5 3b
       0.049148604 -0.05505111 -0.04334783 0.0069950046
000050 fa 68 6a 3d 93 cf 15 bd f8 78 10 3a 6e d6 f4 3c
       0.05722902 -0.03657491 0.000551119 0.029887404
000060 36 16 90 bb a3 cb 7f 3c 87 43 fa 3c 7a 66 6d bc
       -0.004397179 0.015612516 0.030549778 -0.014489764
000070 ce 6c a7 3b ce e4 13 bb 7b 3f e4 38 c5 9c 31 3b
       0.005109406 -0.0022566798 0.000108837114 0.0027101499
000080 b8 f0 6a 3a 60 41 b1 bc e1 54 ff bc b4 fc 8f bc
       0.00089622615 -0.021637619 -0.031168403 -0.017576553
000090 94 69 7c bc 01 bc 1d bc 6c 43 08 bd 93 04 c2 3c
       -0.015406031 -0.009627343 -0.033267424 0.023683822
0000a0 95 9f 5a 3d 62 bf a7 3c e6 5e 4d ba 50 b3 a0 bb
       0.053374846 0.020477 -0.00078342704 -0.004904188
0000b0 7a 4d ab 3c 1b b0 39 3d 2e ec 83 bc 95 1b a4 3b
       0.020910967 0.045333963 -0.01610383 0.005008171
0000c0 7e 56 b2 bb 10 d7 84 3c 73 ab 04 bb 5d 3b a3 bd
       -0.0054424396 0.016215831 -0.0020243793 -0.07970307
0000d0 52 9e 42 bc 5d 82 06 bd 03 80 27 bd 37 30 3a bc
       -0.011878567 -0.032839168 -0.040893566 -0.011364034
0000e0 ec 6d d6 ba ec 12 30 bd e5 ae 31 bc 5b 27 95 3c
       -0.0016359664 -0.042986795 -0.010844921 0.018207243
0000f0 99 d6 87 bc 30 4c 23 3d ea be 59 3d 83 5d 27 bd
       -0.01658182 0.03986758 0.053160585 -0.040860664
