best_models/best_model_lstm_search_3_features_all.pt (torch, 26164 bytes, 5 tensors)

lstm.weight_ih_l0 f4 [128, 11]
0	0x3e55af44	0.2086764
1	0x3e07d433	0.13264541
2	0x3dee4ed5	0.1163613
3	0x3dcf67a7	0.10127192
4	0x3e01d542	0.12679008
5	0x3d8e9cc3	0.06963494
6	0x3e3e6751	0.185941
7	0x3ce88cdc	0.02838748
8	0x3ca2e5a7	0.019884897
9	0x3deeda21	0.116626985
10	0x3e892361	0.26784804
11	0xbd65f222	-0.05613912
12	0xbd8f59ff	-0.06999587
13	0x3d500e64	0.050794974
14	0xbe5b58df	-0.2142062
15	0xbe7bb91d	-0.24582334
16	0xbe40656e	-0.18788692
17	0xbe4c0f8b	-0.19927804
18	0x3dba967a	0.091107324
19	0xbde81e23	-0.11333873
20	0x3bcfff2c	0.0063475575
21	0xbe3a634d	-0.18201943
22	0x3d3ee3fb	0.046604138
23	0x3e9b5410	0.30337572
24	0x3df40ac4	0.11916116
25	0x3b32a642	0.0027259742
26	0x3e81e2f3	0.2536846
27	0x3db4b471	0.08823479
28	0x3dcdc07d	0.1004648
29	0xbcea264a	-0.02858271
30	0x3e81265a	0.25224572
31	0x3e83f39d	0.257718
32	0x3dbd4dd1	0.09243358
33	0x3eaf9214	0.34291136
34	0x3e135145	0.1438647
35	0x3e54f66a	0.20797125
36	0x3eb117c4	0.34588444
37	0x3e9e950d	0.30973092
38	0x3dbfb351	0.09360374
39	0x3dd854be	0.10563038
40	0x3e686d46	0.22697935
41	0x3e8b8336	0.27248544
42	0x3dd90cff	0.10598182
43	0x3e9ab725	0.30217853
44	0x3eaf607d	0.34253302
45	0x3e8823e8	0.26589894
46	0x3d2e27af	0.042518314
47	0x3e8d7013	0.27624568
48	0x3e4e30e5	0.2013584
49	0x3e30a8ce	0.17251894
50	0x3d5cbfbe	0.053893797
51	0xbda24a03	-0.07924273
52	0x3d644455	0.05572923
53	0x3dae9e70	0.08526313
54	0x3e70cc37	0.23515402
55	0x3e732283	0.23743634
56	0x3ee24aa6	0.44197577
57	0x3e51be81	0.20482828
58	0x3ecfb6c4	0.40569127
59	0x3e37b278	0.17939174
60	0x3e9ff608	0.31242394
61	0xbce5e33c	-0.028062455
62	0x3e0b1a7c	0.13584322
63	0xbd8a469a	-0.067517474
64	0x3e7dca7e	0.24784276
65	0x3e4c80ce	0.1997101
66	0x3eb78c83	0.3584939
67	0x3ead0d38	0.33799148
68	0x3deb18d8	0.11479348
69	0x3edc0e7b	0.42979798
70	0x3eb4b114	0.3529135
71	0x3e921be2	0.28536898
72	0x3dfd2a59	0.12361593
73	0x3e60d979	0.21957959
74	0x3e500422	0.20314077
75	0x3d8f5807	0.06999212
76	0xbd3f7325	-0.04674067
77	0x3ea3215d	0.31861392
78	0x3da46699	0.080273814
79	0x3de359c7	0.11101108
80	0x3e70a1b2	0.23499182
81	0x3e85ced6	0.26134366
82	0x3e8a6949	0.2703345
83	0x3e466669	0.19375004
84	0x3cead809	0.028667467
85	0x3e244451	0.16041686
86	0x3e4f249e	0.20228812
87	0x3d33e17d	0.043916214
88	0x3d9dc1f2	0.07703008
89	0xbdd681a8	-0.10473949
90	0xbdb223b9	-0.0869822
91	0xbdd45ab3	-0.10368862
92	0x3ce90ff8	0.028449997
93	0xbe22ad74	-0.1588648
94	0xbe072c85	-0.13200577
95	0xbe3a065e	-0.18166491
96	0xbe19a30e	-0.15003607
97	0x3de7da22	0.113209024
98	0xbcf24979	-0.02957605
99	0x3d4501fe	0.048097603
100	0x3ec3993a	0.3820284
101	0x3e31def2	0.17370203
102	0x3e360d70	0.17778563
103	0x3ddbcb12	0.10732092
104	0x3e18a208	0.1490556
105	0x3eb70ae3	0.35750493
106	0x3e20ca5f	0.15702198
107	0x3ef1361e	0.471116
108	0x3ec9f55e	0.39445013
109	0x3edee068	0.43530583
110	0x3e03d9f1	0.12876107
111	0x3e485e1a	0.19567147
112	0xbcd27c46	-0.025694024
113	0x3ec7d0d9	0.39026526
114	0x3ec77871	0.38959077
115	0x3e0ff28c	0.14057368
116	0xbdebcf0a	-0.11514099
117	0xbe3b5703	-0.18294911
118	0x3e1ad87e	0.15121648
119	0x3da277de	0.07933019
120	0x3c2b4bab	0.010455052
121	0x3ea36097	0.3190963
122	0x3ea8e533	0.32987365
123	0xbbe038d9	-0.0068427143
124	0x3e997737	0.29973766
125	0x3e94980e	0.2902226
126	0x3d9163b4	0.07099095
127	0x3da31a01	0.07963944
128	0x3b784253	0.003788133
129	0x3c0337d6	0.008008918
130	0x3e8c0131	0.2734466
131	0x3e18e9ec	0.14932984
132	0x3d438475	0.047733743
133	0x3e8b81e1	0.27247527
134	0x3e7d58b2	0.24740866
135	0x3cc8557d	0.024454826
136	0x3b30e19b	0.002698994
137	0x3d97b6f0	0.074079394
138	0x3d850de2	0.064967886
139	0x3df1bb3d	0.11803291
140	0xbdafcac6	-0.08583598
141	0x3e78d466	0.24299774
142	0x3e15796e	0.14597103
143	0x3ead88bf	0.3389339
144	0x3d905162	0.070467725
145	0x3ec02cb6	0.37534112
146	0x3ec75d0f	0.38938186
147	0x3dbccdf8	0.09218973
148	0x3deb00b1	0.11474741
149	0x3e2f209c	0.17102283
150	0x3d341c42	0.04397226
151	0x3e388855	0.18020757
152	0x3db2d0a8	0.08731204
153	0x3dfbb7f8	0.12290949
154	0x3cefefe0	0.029289186
155	0x3e673fde	0.22582957
156	0x3e528fe8	0.20562708
157	0x3bafbf7b	0.0053634024
158	0x3e4e4ed5	0.2014726
159	0x3db1b44a	0.086769655
160	0x3e71e47f	0.2362232
161	0x3db20749	0.08692796
162	0x3d01c637	0.031683173
163	0x3bfc028d	0.0076907338
164	0x3e421ada	0.18955556
165	0x3eafde7b	0.34349427
166	0x3e406f83	0.18792538
167	0x3e55c1c2	0.20874694
168	0x3df4a6db	0.11945888
169	0x3e371bf7	0.17881761
170	0x3db0157e	0.08597849
171	0x3e51cf39	0.20489205
172	0x3e7d794a	0.247533
173	0xbb3d48f0	-0.0028882585
174	0x3d9f56dd	0.0778024
175	0x3e9cc7c2	0.30621153
176	0xbdc9fcc5	-0.09862665
177	0xbe48bcef	-0.19603322
178	0xbe848c25	-0.25888172
179	0xbdf86655	-0.12128893
180	0xbd1bfd56	-0.038083397
181	0xbe3f3055	-0.18670781
182	0xbe32b07b	-0.17450134
183	0x3de5a00c	0.11212167
184	0xbb15a576	-0.0022834218
185	0x3d6284c1	0.055302385
186	0x3df29960	0.1184566
187	0x3eb8eb2e	0.36116928
188	0x3e1324ea	0.1436955
189	0x3ec19912	0.37812096
190	0x3e86184b	0.2619041
191	0x3e21e1fc	0.15808862
192	0x3e707275	0.23481162
193	0x3dcca724	0.09992817
194	0x3e8cb42e	0.27481216
195	0x3e636dc5	0.22209843
196	0x3e6b2a28	0.229653
197	0x3e18e16d	0.14929743
198	0x3d94fe8f	0.07275116
199	0x3e95dc74	0.29269755
200	0x3d95de50	0.07317793
201	0x3e8d0372	0.2754169
202	0x3d13e6f3	0.036108922
203	0x3dbe148f	0.09281265
204	0x3df3765a	0.11887808
205	0x3b6f5c6d	0.0036523596
206	0x3dc94587	0.098277144
207	0x3d7c04c6	0.06152799
208	0x3e12663a	0.14296809
209	0x3e8c4bfe	0.27401727
210	0x3e6fb502	0.23408893
211	0x3ec65381	0.38735583
212	0x3ef73901	0.48285678
213	0x3e2854b4	0.16438562
214	0x3e5b906c	0.21441811
215	0xbd76c024	-0.060241833
216	0x3e60be9d	0.21947713
217	0x3ea2d390	0.31802034
218	0x3cf99323	0.030465668
219	0x3de8dc31	0.11370123
220	0x3e6430b7	0.22284208
221	0x3da4339e	0.08017658
222	0x3ec558f7	0.38544437
223	0x3e76c96d	0.24100275
224	0x3dfeaf6e	0.12435804
225	0x3e4ad25d	0.1980681
226	0xbc21ea44	-0.009882513
227	0x3e012082	0.12610057
228	0x3e1cfa2e	0.15329811
229	0xbd8fbc3d	-0.070183255
230	0x3e2b489c	0.16726917
231	0x3ec50e56	0.384875
232	0x3e686fd1	0.22698905
233	0x3e8b59e5	0.27217022
234	0x3ec8905e	0.39172643
235	0x3d9d9f9a	0.07696457
236	0x3def912f	0.116976134
237	0x3e001a64	0.12510067
238	0x3db78b40	0.08962107
239	0x3e1d9f62	0.15392831
240	0xbdaadbfb	-0.08342739
241	0x3da27819	0.07933063
242	0x3ed7f27e	0.42177194
243	0x3f002a45	0.500645
244	0x3f148296	0.5801176
245	0x3f19d0ea	0.600844
246	0x3f10bb37	0.5653567
247	0x3e1c932b	0.15290515
248	0x3e8353a9	0.25649765
249	0x3df7b13e	0.12094353
250	0x3f02a068	0.5102601
251	0x3ed6299f	0.4182863
252	0x3e964edb	0.29357037
253	0x3cf8d586	0.030375253
254	0x3eaa3990	0.33247042
255	0x3dcb0600	0.09913254

lstm.weight_hh_l0 f4 [128, 32]
0	0xbe13cd20	-0.14433718
1	0xbe30aa8e	-0.17252561
2	0xbdd17914	-0.10228172
3	0x3d0e6408	0.034763366
4	0xbe131bd8	-0.1436609
5	0xbe3163fd	-0.17323299
6	0x3d9b09d2	0.075702325
7	0xbe022457	-0.12709175
8	0xbe0384f2	-0.12843683
9	0x3ddbadfa	0.10726543
10	0x3d11bf7c	0.035583004
11	0xbddb311c	-0.10702726
12	0x3c95ee18	0.018302009
13	0x3df1df7a	0.11810203
14	0x3e263001	0.1622925
15	0x3e334445	0.17506512
16	0xbdeddd95	-0.11614529
17	0xbe1727c4	-0.14761263
18	0x3d0d4b40	0.034495592
19	0xbe0755c2	-0.13216308
20	0xbe0d7410	-0.13813806
21	0xbd5305c8	-0.051519185
22	0xbe2d1cae	-0.16905472
23	0xbc8c9460	-0.017160594
24	0x3db44dfe	0.08803938
25	0x3d93c8b8	0.072160184
26	0x3e19a51f	0.15004395
27	0xbe290499	-0.1650566
28	0xbd23145c	-0.039814338
29	0x3e33dad1	0.1756394
30	0xbe15cdb4	-0.14629251
31	0xbd85d22d	-0.065342285
32	0xbe063801	-0.13107301
33	0xbd8ce127	-0.06878882
34	0xbcbed3a0	-0.02329427
35	0x3e08f297	0.1337379
36	0xbe006038	-0.12536705
37	0xbde4c963	-0.11171224
38	0x3d16c3d4	0.03680785
39	0xbda5fb65	-0.0810459
40	0xbd12c00c	-0.03582768
41	0xbe276dbf	-0.16350459
42	0x3daf8d3a	0.08571859
43	0x3dcc3146	0.09970336
44	0x3dbfd0ce	0.09365998
45	0xba1e1c00	-0.0006031394
46	0x3d95f0b2	0.073212996
47	0xbe0cec13	-0.1376193
48	0x3db38bd2	0.08766903
49	0x3e1e156b	0.15437858
50	0xbdd65f8d	-0.104674436
51	0x3e299fb3	0.16564827
52	0x3e2ce727	0.16885053
53	0xbe2df4f4	-0.16987973
54	0x3e127b39	0.14304818
55	0xbce54710	-0.027987987
56	0xbca2f8f8	-0.019894108
57	0xbe2b5e23	-0.16735129
58	0xbe168142	-0.14697745
59	0x3e1b2457	0.15150581
60	0x3d331a28	0.043726116
61	0xbd8fbb62	-0.07018162
62	0xbdd43fe5	-0.103637494
63	0xbd2e3c78	-0.042538136
64	0x3e2f0797	0.17092739
65	0x3d4df07c	0.050278172
66	0xbd489c98	-0.048977464
67	0xbe287d42	-0.16454032
68	0xbdfcbc8e	-0.123406515
69	0xbdc4e1cf	-0.09613382
70	0x3c056d50	0.008143738
71	0x3c404eb0	0.011737511
72	0xbe058ac4	-0.13041216
73	0x3df05a4a	0.11735971
74	0x3e238e6b	0.15972297
75	0xbd78a7d4	-0.06070693
76	0x3dbdf742	0.09275676
77	0xbe0b0bcf	-0.13578723
78	0xbdb4befd	-0.088254906
79	0xbd845b6e	-0.06462751
80	0x3c91a910	0.01778081
81	0x3d81216c	0.06305203
82	0x3dc3ce76	0.09560864
83	0x3e1dc579	0.15407361
84	0xbd83fbc0	-0.06444502
85	0xbdb7e3a5	-0.089789666
86	0xbc319f90	-0.010841265
87	0x3c8508e0	0.016239583
88	0xbdb73947	-0.08946472
89	0x3d9f0526	0.07764654
90	0xbdaa6c66	-0.083214566
91	0xbcf45ac8	-0.029828444
92	0x3b4f4500	0.003162682
93	0x3d208c74	0.039196447
94	0xbe2f097c	-0.17093462
95	0x3df646ca	0.12025221
96	0xbe14de47	-0.14537917
97	0x3d15d53c	0.03658031
98	0xbd5d9744	-0.054099336
99	0x3d9d43f2	0.07678975
100	0x3cbc5e78	0.022994265
101	0xbce2a418	-0.027666137
102	0x3cd7c288	0.026337877
103	0xbe186c14	-0.14884979
104	0x3c14a890	0.009073392
105	0xbd19fedc	-0.03759657
106	0x3d897cd4	0.06713262
107	0xbdf9ad0a	-0.12191208
108	0x3e045b8d	0.12925549
109	0xbe2bcf0a	-0.16778198
110	0x3d84e866	0.06489639
111	0x3c3b84b0	0.011445209
112	0x3d8a54ec	0.06754479
113	0x3d86d86e	0.065842494
114	0xbe2e2616	-0.17006716
115	0x3ddcf00a	0.10787971
116	0x3da9ce56	0.082913086
117	0xbb795e40	-0.0038050562
118	0x3c8c6ac8	0.017140761
119	0xbd7dd48c	-0.06197028
120	0xbde1e3e0	-0.11029792
121	0xbe0b2d03	-0.1359139
122	0x3dfd7b6a	0.12377055
123	0xbe00c204	-0.12574011
124	0xbdd1b9cf	-0.10240518
125	0x3dd4359e	0.10361789
126	0xbe34c358	-0.17652643
127	0xbd97b401	-0.0740738
128	0x3cd116c0	0.025523543
129	0x3d8d3ec2	0.06896736
130	0x3ca25e88	0.019820467
131	0x3c975cc8	0.018476859
132	0x3d95af66	0.07308845
133	0xbe2960d2	-0.1654084
134	0x3e00fab5	0.12595637
135	0x3e13364f	0.14376186
136	0x3e2f108f	0.1709616
137	0xbe33398a	-0.17502418
138	0x3d599480	0.053120136
139	0xbd316244	-0.043306604
140	0x3c79e180	0.015251517
141	0xbcbdae00	-0.023154259
142	0xbd3a1044	-0.04542567
143	0x3c41a8e0	0.011820048
144	0x3d9f5986	0.07780747
145	0x3c5c1ab0	0.013434097
146	0xbdc2680d	-0.09492502
147	0xbe1e4a31	-0.1545799
148	0xbd95dd37	-0.07317584
149	0xbdb5b1b7	-0.08871787
150	0xbce7ef48	-0.02831234
151	0x3e1cd853	0.15316896
152	0xbdbd6ee8	-0.09249669
153	0xbdd71f69	-0.10504038
154	0x3da50f2e	0.08059536
155	0xbd352874	-0.044228032
156	0xbda1d0e1	-0.079011686
157	0x3d5ec11c	0.054383382
158	0x3dc73d9a	0.097285464
159	0x3d1f23fc	0.038852677
160	0x3d28fb0c	0.041255042
161	0x3e27252b	0.16322772
162	0xbca06f80	-0.019584417
163	0x3c912ab8	0.017720565
164	0xbd9d18eb	-0.07670768
165	0xbe181f3b	-0.14855663
166	0xbd85c2d7	-0.065313034
167	0xbd1fd078	-0.03901717
168	0x3de1f01e	0.11032127
169	0x3a9cef80	0.0011973232
170	0xbc492c30	-0.0122786015
171	0x39896e00	0.00026212633
172	0x3db93652	0.09043564
173	0xbdeeaba9	-0.11653835
174	0x3deac3e2	0.11463143
175	0x3d2acf10	0.041701376
176	0x3db4cb2e	0.08827816
177	0xbd2a4db4	-0.04157801
178	0x3dc36666	0.09541015
179	0xbd3a3240	-0.04545808
180	0x3daab722	0.08335711
181	0x3df59b62	0.119925275
182	0x3c1029e0	0.008799046
183	0xbd004a70	-0.03132099
184	0xbd1163ac	-0.035495445
185	0x3c046600	0.008080959
186	0xbd03dd24	-0.032193318
187	0xbdc343bb	-0.09534403
188	0x3d27b7a4	0.040946618
189	0x3de965fa	0.113964036
190	0x3d7580dc	0.059937343
191	0xbde93f41	-0.11389018
192	0xbd60915a	-0.054826118
193	0x3bd253c0	0.006418675
194	0x3c60bf30	0.013717458
195	0xbe2566da	-0.16152516
196	0x3b22ba40	0.0024830252
197	0x3e304a23	0.17215781
198	0xbe19e91e	-0.15030333
199	0x3d849f52	0.064757004
200	0x3dbd392e	0.09239422
201	0xbd3ed9e4	-0.046594515
202	0xbded05a9	-0.11573345
203	0xbe00b786	-0.12570009
204	0x3d692ccc	0.056927487
205	0xbdfa53b4	-0.12222996
206	0xbdd4b064	-0.10385206
207	0xbd5e12d0	-0.05421716
208	0x3e300941	0.1719103
209	0x3dfb6dae	0.12276779
210	0xbe110478	-0.14161861
211	0x3dbea7b6	0.09309332
212	0x3e19b6af	0.15011095
213	0x3e11ea65	0.1424957
214	0xbd10d744	-0.035361543
215	0xbe33847b	-0.17531006
216	0x3d4d0b14	0.050059393
217	0x3e067c8f	0.13133453
218	0x3e2f0029	0.17089905
219	0xbe10b094	-0.14129859
220	0xbca0d490	-0.019632608
221	0xbd09bd00	-0.03362751
222	0xbe209dc3	-0.15685181
223	0xbd52f568	-0.05150357
224	0xbce04220	-0.02737528
225	0x3e1eaf5b	0.1549658
226	0x3ddb5a3e	0.10710572
227	0x3db7e646	0.08979468
228	0x3d386d9c	0.045026407
229	0xbe1f0684	-0.1552983
230	0x3dc4b0ca	0.09604032
231	0x3e158d15	0.146046
232	0x3c371a60	0.011175722
233	0x3e09e0b5	0.13464625
234	0x3e2934d1	0.16524054
235	0x3e1abb13	0.15110426
236	0xbd147658	-0.036245674
237	0x3deb5fde	0.114928946
238	0x3e17e32f	0.14832757
239	0x3c3c3350	0.011486843
240	0xbda00394	-0.078131825
241	0x3df2b862	0.118515745
242	0x3d90722c	0.070530266
243	0x3dbd8f0e	0.09255801
244	0xbe288af0	-0.1645925
245	0x3e0b0e0b	0.13579576
246	0xbdf8e537	-0.12153094
247	0x3b9125c0	0.004429549
248	0xbe2fbbc0	-0.17161465
249	0xbdda827a	-0.10669418
250	0xbe143858	-0.14474618
251	0xbe0657c3	-0.13119416
252	0xbd77174c	-0.060324952
253	0xbbf75d20	-0.007548943
254	0x3c9cf7b0	0.019161075
255	0xbd4e79c8	-0.05040911

lstm.bias_ih_l0 f4 [128]
0	0x3e2960fd	0.16540904
1	0xbd53352d	-0.051564384
2	0x3eabef77	0.33581135
3	0x3dff8b3c	0.12477729
4	0x3e34b62c	0.17647618
5	0x3ed57ffb	0.41699204
6	0x3ed663b4	0.41872942
7	0x3ec32b8f	0.3811917
8	0x3b8f6428	0.004375953
9	0x3ed401ae	0.41407531
10	0x3ef30931	0.4746795
11	0x3c053757	0.00813087
12	0x3dab9046	0.08377127
13	0x3e9567c6	0.29180735
14	0x3ea2ec27	0.31820795
15	0x3e9a5cc8	0.3014891
16	0xbe3bae9c	-0.18328327
17	0x3e511394	0.20417625
18	0x3e8e0019	0.2773445
19	0x3f09dfbb	0.5385701
20	0x3e8481bd	0.25880232
21	0x3e6f8651	0.23391081
22	0x3f000c54	0.5001881
23	0x3ef52ee2	0.4788733
24	0x3e97341f	0.29531953
25	0x3edb457b	0.42826447
26	0x3ea6356a	0.32462627
27	0x3ed3c095	0.41357866
28	0x3f265203	0.6496889
29	0x3ea8ddd5	0.32981744
30	0x3c95d900	0.01829195
31	0x3ef5fab5	0.48042837
32	0x3e1cc0a3	0.1530786
33	0xbce98970	-0.028507918
34	0x3c2a2b40	0.010386288
35	0xbc78a8b0	-0.015176937
36	0xbd630b12	-0.05543048
37	0xbe242b21	-0.16032077
38	0xbe2d6b94	-0.16935569
39	0xbdc14169	-0.09436304
40	0xbe2a4889	-0.16629232
41	0x3dc2d826	0.09513883
42	0x3e33bd31	0.1755264
43	0xbdf17c8e	-0.11791335
44	0x3deee16e	0.11664091
45	0xbe1375bc	-0.14400381
46	0xbe15b15c	-0.14618438
47	0x3d3f5424	0.046711102
48	0x3d4487bc	0.04798101
49	0x3e1642f5	0.1467398
50	0xbc99e7c8	-0.01878728
51	0x3e0e857f	0.13918112
52	0xbb49aa40	-0.0030771643
53	0xbd865e80	-0.06560993
54	0x3e24d17d	0.16095538
55	0x3d43bd80	0.047788143
56	0xbd5edd98	-0.054410547
57	0x3d4cbbdc	0.049983844
58	0xbcd53f20	-0.026031077
59	0x3e14dd4b	0.14537542
60	0xbe1a495b	-0.15067045
61	0xbe314f2c	-0.17315358
62	0x3e20168f	0.15633605
63	0xbdb61fd9	-0.08892793
64	0x3dbc2021	0.091858156
65	0xbe83d895	-0.25751176
66	0x3e87e1e6	0.26539534
67	0xbe108e56	-0.14116797
68	0xbeafe7a8	-0.34356427
69	0x3da4edc3	0.08053162
70	0xbe360a29	-0.17777313
71	0xbe32a19d	-0.17444463
72	0x3df30538	0.1186623
73	0xbec729ce	-0.38899082
74	0xba92a794	-0.0011188858
75	0x3e53b518	0.2067455
76	0x3e46c638	0.19411552
77	0xbe9cc111	-0.30616048
78	0xbe8fe003	-0.28100595
79	0x3e37269f	0.17885827
80	0x3df6638e	0.12030707
81	0x3e6d3656	0.23165259
82	0xbd67882e	-0.056526355
83	0x3e3cf331	0.18452145
84	0xbe4714d1	-0.19441535
85	0x3e883463	0.26602468
86	0xbe17cfb4	-0.14825326
87	0x3ccca288	0.024979845
88	0xbe5def71	-0.21673371
89	0x3e8cc5f5	0.2749478
90	0xbe808dcb	-0.2510818
91	0xbe18ee24	-0.14934593
92	0xbeb8bc9f	-0.36081406
93	0x3e4d2901	0.20035173
94	0xbe8dfa54	-0.27730048
95	0x3e9b1e66	0.3029663
96	0x3e8680e6	0.26270217
97	0xbdfcd501	-0.12345315
98	0x3e1fb907	0.15597926
99	0x3e8cf5b2	0.275312
100	0x3e8f46d9	0.2798374
101	0x3ebd64af	0.36990878
102	0x3ed36c81	0.4129372
103	0x3e4da657	0.20082985
104	0xbdad1e6d	-0.08453069
105	0x3ed58b71	0.41707948
106	0x3ec9d02b	0.39416632
107	0x3eb20a0a	0.34773284
108	0x3e5368b1	0.20645405
109	0x3e9fe3d4	0.31228507
110	0x3e7fe6da	0.24990407
111	0x3e572679	0.2101077
112	0xbd093ff8	-0.03350827
113	0x3e792667	0.24331056
114	0x3e057644	0.13033396
115	0x3ecfb108	0.40564752
116	0x3ea8a45b	0.32937893
117	0x3e84e12a	0.25953037
118	0x3ec426b8	0.3831079
119	0x3ec2777c	0.37981784
120	0x3eacdb16	0.337609
121	0x3e325b43	0.17417626
122	0x3e127ad7	0.14304672
123	0x3ed56401	0.4167786
124	0x3e6429e7	0.2228161
125	0x3e733046	0.23748884
126	0x3e0b318e	0.13593122
127	0x3e8aba20	0.27095127

lstm.bias_hh_l0 f4 [128]
0	0x3e912987	0.28351995
1	0xbe234e85	-0.15947922
2	0x3de2b384	0.11069396
3	0x3e71e816	0.2362369
4	0x3e14c3d7	0.14527832
5	0x3da77b25	0.08177785
6	0x3ebf294c	0.37336195
7	0x3ed0d362	0.40786272
8	0xbe60c715	-0.21950944
9	0x3eaa482f	0.33258197
10	0x3eb9d0e3	0.3629218
11	0x3e88d78c	0.2672695
12	0x3e515040	0.20440769
13	0x3e8d97d9	0.27654913
14	0x3d559439	0.05214331
15	0x3dc5a594	0.09650722
16	0xbe81d7f8	-0.25360084
17	0x3ec05e29	0.37571838
18	0x3df2fd8b	0.11864766
19	0x3ed0f743	0.40813646
20	0x3e58aa6a	0.21158758
21	0x3ddc1d7b	0.107478105
22	0x3eb71903	0.3576127
23	0x3ef12e9c	0.47105873
24	0x3dfecbf8	0.12441248
25	0x3e4e21e3	0.20130114
26	0x3e2ba7fb	0.16763298
27	0x3e81a14a	0.25318366
28	0x3ed344a2	0.412633
29	0x3e821cff	0.25412747
30	0x3e3eba4d	0.18625756
31	0x3e463fd3	0.19360285
32	0x3d223858	0.039604515
33	0xbe12f46f	-0.14351057
34	0x3e316c33	0.17326431
35	0xbd104398	-0.035220712
36	0x3d2e7e34	0.042600825
37	0xbe29adc2	-0.1657019
38	0x3d7b0fd8	0.061294407
39	0xbe180a0c	-0.14847583
40	0x3dbcc5aa	0.09217389
41	0xbe2136e1	-0.15743591
42	0x3db3713e	0.087618336
43	0x3dd268f6	0.10273926
44	0xbcac4b78	-0.02103208
45	0xbde1e610	-0.11030209
46	0xbde6a6c9	-0.112622805
47	0xbe007330	-0.1254394
48	0xbe139ed2	-0.14416054
49	0xbd2fc694	-0.04291399
50	0xbda0bba9	-0.07848293
51	0x3e0245d3	0.12721948
52	0xbd37eaa8	-0.04490152
53	0x3df6bfe6	0.120483205
54	0x3d79fc40	0.06103158
55	0xbdd980ef	-0.10620295
56	0xbd23a204	-0.039949432
57	0x3e104fff	0.14093016
58	0x3e2061a5	0.15662248
59	0xbd39c778	-0.045356244
60	0x3dd52d5e	0.10409044
61	0x3da2eeda	0.079557136
62	0xbdcd810e	-0.10034381
63	0x3e23ed07	0.16008388
64	0x3e3edae8	0.18638194
65	0xbe8b5886	-0.27215976
66	0x3e8035b5	0.25040975
67	0xbe948c65	-0.29013363
68	0xbe08418f	-0.13306259
69	0x3e782466	0.24232635
70	0xbe483443	-0.19551186
71	0xbcc034c8	-0.023462668
72	0x3d78e656	0.06076654
73	0xbe161c22	-0.1465917
74	0x3dd74a5e	0.10512231
75	0x3e9d75d0	0.30753946
76	0x3eafd5b6	0.34342736
77	0xbe18145d	-0.14851518
78	0xbdbd2b3a	-0.092367604
79	0x3ea88496	0.32913655
80	0xbd8f8a96	-0.07008855
81	0x3e1f20c1	0.15539838
82	0xbe33a6b1	-0.17544056
83	0x3eb4f997	0.35346672
84	0xbe9b02af	-0.30275485
85	0x3df03341	0.11728526
86	0xbd829210	-0.063755155
87	0xbe47752f	-0.19478296
88	0xbe888082	-0.26660544
89	0x3e0ff913	0.14059858
90	0xbe9f17d3	-0.31072864
91	0xbda7cc7b	-0.081932984
92	0xbec8c0b1	-0.39209512
93	0x3e5245bf	0.20534419
94	0xbe012071	-0.12610032
95	0x3e8534da	0.26016885
96	0x3dfa51bb	0.1222262
97	0x3d8c7464	0.06858137
98	0x3e020abf	0.12699412
99	0x3e82d05e	0.25549597
100	0x3decc6cd	0.11561356
101	0x3ee0f3ef	0.43936107
102	0x3ea94390	0.3305936
103	0x3eac025b	0.33595547
104	0x3db62386	0.08893494
105	0x3e6cf730	0.2314117
106	0x3e91077f	0.28326032
107	0x3ec330f0	0.38123274
108	0x3e97b075	0.29626814
109	0x3e81971b	0.25310597
110	0x3e93c9f0	0.28865004
111	0x3e7d3f9b	0.24731295
112	0x3cddf667	0.027095033
113	0x3ead12bc	0.33803356
114	0x3ed9656e	0.42460197
115	0x3e812b64	0.25228417
116	0x3d90c28b	0.07068356
117	0x3dbe99f0	0.09306705
118	0x3f08d9c9	0.53457314
119	0x3eb8d5f9	0.36100748
120	0x3e3cb613	0.18428831
121	0x3e4a6149	0.19763674
122	0x3e6579f5	0.22409804
123	0x3eae0ced	0.33994237
124	0x3e3fea63	0.18741755
125	0x3e0fef6c	0.14056176
126	0x3e015372	0.12629488
127	0x3e4abf81	0.19799615

fc.weight f4 [1, 32]
0	0x406a1264	3.6573725
1	0xbd84fcbe	-0.06493519
2	0x406bf8d1	3.6870615
3	0xc07f1d48	-3.9861622
4	0xc086c99a	-4.2121096
5	0x4068a597	3.6351068
6	0xc0641f65	-3.5644162
7	0xc065c925	-3.590402
8	0x3d459c6f	0.04824489
9	0xc088a325	-4.269915
10	0x4088f008	4.2793007
11	0x4072e0fb	3.7949817
12	0x406f2c8f	3.7370946
13	0xc083c05b	-4.117231
14	0xc070f68c	-3.765048
15	0x4070a6b2	3.7601743
16	0xbc81d81a	-0.015850116
17	0x40689b2c	3.634471
18	0xc067c5e7	-3.621454
19	0x409b2373	4.8480773
20	0xc076ac4e	-3.8542666
21	0x406c0650	3.6878853
22	0xc097babb	-4.7415442
23	0xc06bdd91	-3.6853983
24	0xc06bfa4b	-3.6871517
25	0x4060232d	3.502147
26	0xc06413a4	-3.5636988
27	0xc06f5f6a	-3.7401986
28	0xc09d5e68	-4.917774
29	0x40801471	4.0024953
30	0xc05bae3f	-3.4325101
31	0x4068be17	3.6366022
