best_models/best_model_nn_search_4_features_50.pt (torch, 552644 bytes, 7 tensors)

model.0.weight f4 [256, 20]
0.18111014 -0.06272969 -0.018220035 -0.040200878 0.03699451 0.04821493 0.14788596 0.10091643
0.1661793 -0.13263257 0.12991923 0.12314566 -0.20419548 -0.14677426 -0.07187397 -0.059539694
0.041058764 -0.085418195 -0.081346616 0.14828691 -0.006843393 -0.08745607 -0.055737507 0.12244028
-0.112724416 -0.08568236 -0.21536969 -0.11355466 0.004451561 0.036808174 0.11415441 0.14267719
-0.06869071 0.11296456 0.1245111 -0.18858244 -0.13309267 -0.20100446 -0.15077965 0.0875892
-0.27842316 -0.15796965 0.029513463 0.086885646 0.1731811 0.008485105 0.099229805 -0.0280658
-0.037264515 -0.14716992 -0.11720737 0.069388315 0.14083628 -0.0327518 0.20155321 -0.019257776
0.030865934 -0.096754834 -0.076281816 -0.007139827 0.06702456 -0.07587928 0.10212677 0.00034742194
0.0978568 0.0126005765 -0.18034399 -0.09744607 -0.27004686 0.16368139 -0.12245592 -0.15455094
0.12552479 0.058481447 -0.16361819 -0.23355126 0.07092196 -0.123303816 0.021006223 -0.2170231
-0.13441668 0.079027824 -0.11868699 0.07564983 -0.2000465 -0.035318073 -0.17300649 -0.036296025
0.049115933 -0.07881406 0.065780476 -0.053934254 -0.08883861 -0.030179713 0.107755035 -0.21476854
-0.2098892 -0.13442162 0.20897794 -0.19395186 -0.114086114 0.06339564 -0.07850639 0.16155228
0.12946121 -0.14636877 -0.122549824 0.04294315 0.09164453 0.19346872 -0.1758494 -0.14681031
-0.11650217 0.10735803 0.1796113 0.14420079 -0.0520819 -0.020262904 0.04922053 0.11665656
0.19678605 0.020630538 -0.12075161 0.030709378 0.09598561 0.05260795 0.024514053 -0.028561091
-0.13488525 -0.016229037 0.1526433 0.18788838 -0.054361183 -0.25016713 0.14229351 0.06275463
-0.036633395 -0.23078203 0.1512552 0.055642877 -0.123850875 0.020798763 0.030790437 0.19503976
-0.12473284 -0.21140622 0.20458214 -0.21423776 -0.07809397 0.13642713 -0.09267914 0.05609858
0.06433507 0.058137942 -0.15073857 0.019741947 -0.26376167 0.06552499 -0.10061278 0.18167147
0.044756167 0.044303365 -0.111924626 0.13161594 -0.17755233 -0.20322748 0.093904264 0.06274567
-0.044110484 -0.18899943 -0.040712215 -0.19617254 -0.1304664 0.12996015 -0.030927353 0.12654619
-0.012176988 -0.15278567 -0.052939963 -0.18550114 0.12489191 -0.20022179 0.06779319 0.113474846
0.13892922 0.050461184 -0.0043633454 -0.030341031 0.007192853 -0.16967909 -0.23788267 -0.21980073
-0.20317355 0.15246885 0.008134423 -0.23997946 -0.21913554 0.17659588 0.09969752 -0.057219874
-0.028566672 -0.12608297 -0.090340905 0.07885408 -0.024020702 0.12874682 0.17691514 -0.13018219
-0.06977673 -0.14330152 0.19212165 -0.041519117 -0.03928624 -0.1244341 -0.006904058 0.0035578876
0.080511555 0.08750651 -0.20374542 -0.14379092 -0.22206908 -0.2747612 -0.07629327 -0.22985001
-0.15275225 0.026433961 -0.078651875 -0.20732853 0.11627705 -0.023899728 -0.2027474 0.11001815
-0.12076038 -0.11581856 -0.23385416 -0.12072637 0.0981017 0.016658096 -0.1784508 0.13946277
-0.19135404 -0.12936503 0.16962197 -0.14027658 0.1731325 -0.20891532 0.08774914 0.07102663
-0.16619758 0.07140663 0.12011 -0.08947492 0.036641005 -0.036459032 -0.11914774 -0.13213794
00000000: f074 393e 6c78 80bd 2f42 95bc ada9 24bd
00000010: 8e87 173d 057d 453d 6b6f 173e 46ad ce3d
00000020: e82a 2a3e d5d0 07be 8c09 053e cb33 fc3d
00000030: 9f18 51be fe4b 16be a932 93bd e5df 73bd
00000040: 3c2d 283d bcef aebd 0e99 a6bd 86d8 173e
00000050: 8b3e e0bb 2b1c b3bd 034d 64bd f8c1 fa3d
00000060: 0fdc e6bd 3c7a afbd df89 5cbe 588f e8bd
00000070: 66de 913b 2bc4 163d cac9 e93d f819 123e
00000080: b7ad 8cbd f759 e73d adff fe3d c11b 41be
00000090: 7249 08be 1dd4 4dbe fb65 1abe f761 b33d
000000a0: 7b8d 8ebe ccc2 21be 38c6 f13c 1af1 b13d
000000b0: 6356 313e 1c05 0b3c ff38 cb3d 40ea e5bc
000000c0: ada2 18bd b6b3 16be 6b0a f0bd 761b 8e3d
000000d0: 6337 103e c026 06bd f763 4e3e 7cc2 9dbc
000000e0: 8eda fc3c 6627 c6bd a439 9cbd 36f5 e9bb
000000f0: 2c44 893d 9966 9bbd d727 d13d 2f26 b639
00000100: 2569 c83d a672 4e3c 18ac 38be ce91 c7bd
00000110: 9543 8abe 189c 273e 2bca fabd 9a42 1ebe
00000120: 9289 003e 3e8a 6f3d 878b 27be 1028 6fbe
00000130: 883f 913d b686 fcbd 3e15 ac3c 4e3b 5ebe
00000140: 87a4 09be 57d9 a13d 2a12 f3bd 4cee 9a3d
00000150: fdd8 4cbe afa9 10bd 9d28 31be 24ab 14bd
00000160: ca2d 493d 4469 a1bd eab7 863d 2aea 5cbd
00000170: 04f1 b5bd 723b f7bc acae dc3d 49ec 5bbe
00000180: 32ed 56be d2a5 09be 50fe 553e 519b 46be
00000190: fba5 e9bd 93d5 813d f5c7 a0bd f66d 253e
000001a0: 7b91 043e b2e1 15be 67fb fabd 28e5 2f3d
000001b0: 21b0 bb3d aa1c 463e dd11 34be 7155 16be
000001c0: b198 eebd 87de db3d 06ec 373e 5fa9 133e
000001d0: d553 55bd 64fe a5bc 779b 493d a2e9 ee3d
000001e0: 4882 493e 6001 a93c 9f4c f7bd 3c92 fb3c
000001f0: 1a94 c43d 6f7b 573d b2d1 c83c f3f8 e9bc
00000200: 5c1f 0abe c2f2 84bc 864e 1c3e d065 403e
00000210: d5a9 5ebd e815 80be 64b5 113e 8085 803d
00000220: e60c 16bd 2052 6cbe a5e2 1a3e c9e9 633d
00000230: 87a5 fdbd 2b62 aa3c 3a3c fc3c 81b8 473e
00000240: ee73 ffbd df7a 58be fb7d 513e 2561 5bbe
00000250: bbef 9fbd 8eb3 0b3e 90ce bdbd a0c7 653d
00000260: 1bc2 833d 0d22 6e3d 365b 1abe ddb9 a13c
00000270: c50b 87be f731 863d 130e cebd 1608 3a3e
00000280: 3e52 373d 7277 353d bd38 e5bd 54c6 063e
00000290: 47d0 35be dd1a 50be e150 c03d cd80 803d
000002a0: 32ad 34bd 1189 41be dac1 26bd 74e1 48be
000002b0: fc98 05be 4614 053e 5c5b fdbc 5395 013e
000002c0: fd81 47bc d973 1cbe 93d7 58bd 03f4 3dbe
000002d0: 54c7 ff3d f106 4dbe 28d7 8a3d 8065 e83d
000002e0: 7643 0e3e 63b0 4e3d 65fa 8ebb c18d f8bc
000002f0: 06b2 eb3b 5bc0 2dbe 8497 73be 7113 61be
00000300: ba0c 50be cb20 1c3e 3e46 053c 2dbd 75be
00000310: 1165 60be 8dd5 343e 372e cc3d 635f 6abd
00000320: a704 eabc e51b 01be a704 b9bd 3f7e a13d
00000330: 10c7 c4bc 35d6 033e 3e29 353e 7b4e 05be
00000340: 1ae7 8ebd a2bd 12be 8abb 443e f30f 2abd
00000350: 9cea 20bd 4ed7 febd 703b e2bb 732b 693b
00000360: 3ee3 a43d 9d36 b33d a4a2 50be ed3d 13be
00000370: 1466 63be 80ad 8cbe a53f 9cbd cd5d 6bbe
00000380: 166b 1cbe 098c d83c 3c14 a1bd ee4d 54be
00000390: a922 ee3d 5dc9 c3bc 049d 4fbe 3251 e13d
000003a0: 3851 f7bd 4832 edbd 7777 6fbe 633f f7bd
000003b0: 8be9 c83d 8f76 883c cebb 36be 54cf 0e3e
000003c0: 50f2 43be 4478 04be 62b1 2d3e aaa4 0fbe
000003d0: a549 313e e6ed 55be d2b5 b33d 6976 913d
000003e0: b32f 2abe a43d 923d 3bfc f53d a03e b7bd
000003f0: e114 163d 1156 15bd bb03 f4bd 2b4f 07be

model.0.bias f4 [256]
-0.15460368 0.061536834 0.055724718 -0.19477819 0.1639364 -0.010270399 -0.23763876 -0.06730662
-0.19085322 -0.22786659 0.11867157 0.15496342 0.17992543 0.08281112 0.11696592 -0.1289445
-0.11044415 -0.24365495 0.015589463 0.051326018 -0.20202261 -0.1566297 0.150573 -0.009173563
-0.2451139 0.17007715 0.0988609 0.10414282 0.09536438 -0.006493329 0.16417958 -0.1868845
-0.14285034 0.11395264 0.0858045 -0.00870045 0.15358783 0.14659849 -0.20596243 -0.08479526
0.014274512 0.10524735 -0.080383345 0.09262635 0.10458031 -0.029084824 0.018417422 -0.2589025
0.16771361 -0.028248973 0.15154552 -0.23842788 0.141802 -0.07563231 -0.03489022 -0.112029344
0.1206212 0.08579518 -0.20949094 0.09114389 0.06797271 0.16801392 0.10458871 0.19614826
0.14562297 0.089630455 -0.03875334 0.053834893 0.015102529 -0.11604009 -0.13590257 -0.0126445955
0.049555916 -0.12419482 0.18958068 0.14763677 -0.040723763 0.15282874 -0.2458875 0.169043
-0.073085435 -0.08292894 0.1663503 -0.019734442 -0.2286419 0.155878 0.036346048 -0.13197298
0.056213595 -0.19554365 0.12176338 -0.19762403 -0.07609908 -0.1888525 -0.17870401 -0.25472015
-0.21320048 0.13428766 0.12021179 0.1712395 0.08143953 -0.17067684 -0.15529053 0.017531369
0.020167444 0.16511992 0.11910974 -0.147539 0.19128625 0.071805306 0.14909156 -0.21685512
-0.047007527 0.027510995 -0.11203142 0.12550515 0.120826125 -0.22006764 -0.04611564 0.10620144
-0.019955391 -0.012228215 0.033238325 -0.22311902 -0.1204395 0.07703393 -0.102471285 -0.09601684
0.079160154 0.15201712 0.107977346 -0.16482516 0.019921314 -0.16574132 0.11279129 0.16822362
0.010826838 0.10851929 -0.12894204 -0.08581129 -0.19867797 -0.12844586 0.059701853 0.06412683
-0.039432004 -0.22212707 -0.1789328 -0.14006092 -0.02717086 0.06822099 7.034399e-05 -0.057887573
-0.20103939 -0.11879826 0.13654965 -0.17469932 0.15415934 -0.070020914 -0.08928714 -0.09543079
-0.12520128 0.14055227 0.057406995 0.18841279 0.19944309 0.13860708 -0.12218838 0.10102832
-0.044994745 -0.0030491168 -0.00018683769 0.107442014 -0.040189758 0.15511273 0.08537977 0.014128624
-0.06740668 -0.08729888 0.16066395 -0.17862022 -0.031491175 0.10529852 0.1136572 0.04848309
-0.11108949 0.10989328 0.04672534 0.18284148 -0.026150735 -0.12330479 -0.09594965 0.031069914
-0.115861624 -0.24236839 0.02662115 -0.025211437 -0.20058522 -0.015479766 0.056620006 -0.084816664
0.1935705 0.08275351 -0.0915133 -0.12177644 -0.026506865 0.07959356 0.010780769 -0.122976
-0.11402363 -0.16240281 -0.1918244 -0.08180803 0.1787795 0.1488683 -0.13695297 0.038649026
-0.17536336 0.112062484 0.15226097 0.020723252 0.15968254 -0.14339487 0.11509989 0.11514197
-0.23931077 -0.08474729 -0.18087238 -0.096765354 0.15849885 0.06265114 0.05351451 0.039343875
-0.12377994 -0.1162151 0.1433583 -0.0060750274 -0.16001637 -0.15383132 -0.016110322 -0.18197754
0.18884963 0.1339096 0.121259496 0.13247406 -0.13615648 -0.22382036 -0.13852951 -0.17022042
-0.17120546 -0.017150857 0.087688625 0.05626238 0.064782575 -0.071613505 0.15958062 0.014977241
00000000: 6d50 1ebe 0c0e 7c3d 9a3f 643d ef73 47be
00000010: f2de 273e 2d45 28bc 9357 73be 0ed8 89bd
00000020: 076f 43be dc55 69be 150a f33d bbae 1e3e
00000030: 5f3e 383e e098 a93d d48b ef3d 070a 04be
00000040: 8b30 e2bd af80 79be f26a 7f3c 3b3b 523d
00000050: 04df 4ebe 8963 20be cf2f 1a3e b64c 16bc
00000060: 23ff 7abe b428 2e3e 9577 ca3d d548 d53d
00000070: 664e c33d fec5 d4bb b11e 283e a65e 3fbe
00000080: 5c47 12be 0060 e93d 45ba af3d 558c 0ebc
00000090: 2146 1d3e ea1d 163e d1e7 52be 23a9 adbd
000000a0: a5df 693c ec8b d73d 06a0 a4bd e2b2 bd3d
000000b0: 342e d63d 4c43 eebc 22e0 963c de8e 84be
000000c0: 1ebd 2b3e 646a e7bc c02e 1b3e 7026 74be
000000d0: 8b34 113e 1de5 9abd 0ce9 0ebd a46f e5bd
000000e0: 3f08 f73d 62b5 af3d cb84 56be a6a9 ba3d
000000f0: 4735 8b3d d70b 2c3e 9b32 d63d 17db 483e
00000100: 301e 153e 2c90 b73d d2bb 1ebd fa81 5c3d
00000110: 9970 773c 6da6 edbd 0b2a 0bbe 472b 4fbc
00000120: 25fb 4a3d db59 febd 7021 423e 182e 173e
00000130: f6cd 26bd 237f 1c3e efc9 7bbe 9c19 2d3e
00000140: d1ad 95bd a6d6 a9bd bc57 2a3e 20aa a1bc
00000150: 1a21 6abe 7c9e 1f3e 98df 143d ed23 07be
00000160: 3a40 663d 983c 48be 145f f93d f45d 4abe
00000170: d6d9 9bbd 8d62 41be 2ffe 36be ae6a 82be
00000180: 3a51 5abe b482 093e 9931 f63d 6859 2f3e
00000190: c5c9 a63d e9c5 2ebe 7b04 1fbe f29d 8f3c
000001a0: 3236 a53c 3215 293e cfef f33d 7714 17be
000001b0: 8be0 433e a90e 933d 75ab 183e 450f 5ebe
000001c0: f78a 40bd bd5e e13c bb70 e5bd 6c84 003e
000001d0: b073 f73d 6959 61be c1e3 3cbd 2480 d93d
000001e0: 7d79 a3bc da58 48bc e924 083d 5079 64be
000001f0: fca8 f6bd f7c3 9d3d 77dc d1bd 7aa4 c4bd
00000200: b81e a23d 60aa 1b3e 3a23 dd3d edc7 28be
00000210: 0632 a33c 18b8 29be 1fff e63d d042 2c3e
00000220: 0d63 313c 5d3f de3d 6209 04be d4bd afbd
00000230: 3d72 4bbe 5087 03be ee89 743d ed54 833d
00000240: 7483 21bd 4775 63be 293a 37be 216c 0fbe
00000250: 6c95 debc 72b7 8b3d a485 9338 851b 6dbd
00000260: 45dd 4dbe 814c f3bd acd3 0b3e 61e4 32be
00000270: f2db 1d3e 2067 8fbd 2ddc b6bd 3871 c3bd
00000280: c434 00be efec 0f3e 9923 6b3d 48ef 403e
00000290: cf3a 4c3e 04ef 0d3e e73d fabd f0e7 ce3d
000002a0: 694c 38bd b1d3 47bb dce9 43b9 8f0a dc3d
000002b0: 049e 24bd dfd5 1e3e 97db ae3d bf7b 673c
000002c0: 830c 8abd c1c9 b2bd 1785 243e 38e8 36be
000002d0: e4fc 00bd c0a6 d73d 1bc5 e83d 3496 463d
000002e0: e382 e3bd ba0f e13d 1263 3f3d cc3a 3b3e
000002f0: 113a d6bc 3987 fcbd 4081 c4bd 5586 fe3c
00000300: dc48 edbd 6b2f 78be 9914 da3c 3788 cebc
00000310: 3666 4dbe d89e 7dbc 61ea 673d 5cb4 adbd
00000320: 5837 463e ac7a a93d 536b bbbd ed65 f9bd
00000330: ed24 d9bc f301 a33d d3a1 303c d7da fbbd
00000340: 3985 e9bd ec4c 26be 9e6d 44be f88a a7bd
00000350: f911 373e ee70 183e 663d 0cbe 714e 1e3d
00000360: 7492 33be 0481 e53d 4dea 1b3e cfc3 a93c
00000370: d283 233e 1bd6 12be 7eb9 eb3d 8ecf eb3d
00000380: e20d 75be fd8f adbd 9c36 39be ea2c c6bd
00000390: 864d 223e 3e4f 803d 0832 5b3d 0b27 213d
000003a0: 5680 fdbd 2f02 eebd 85cc 123e 0611 c7bb
000003b0: 55db 23be f585 1dbe cbf9 83bc 5258 3abe
000003c0: cc61 413e 991f 093e e656 f83d 48a7 073e
000003d0: 9b6c 0bbe 2a31 65be aeda 0dbe 434e 2ebe
000003e0: 7c50 2fbe f47f 8cbc 1896 b33d 6273 663d
000003f0: baac 843d 1aaa 92bd 1a69 233e 1a63 753c

model.3.weight f4 [256, 256]
-0.008722054 -0.06583536 0.0055089844 0.062092707 -0.02088227 0.034642544 0.001893445 -0.0013262704
0.03949812 -0.037420504 -0.062995106 -0.07558017 -0.013937291 0.056849577 0.02685534 -0.037357308
-0.032383304 -0.022363909 0.048114244 0.02353356 -0.015673073 -0.0026202053 0.022339042 -0.05015437
0.009603746 -0.059586182 0.064516254 0.0062615876 0.018200522 -0.057866745 -0.07493625 -0.054776117
-0.049429603 -0.0055762716 -0.020591602 -0.011982415 0.043292604 -0.004151728 0.009507388 0.051245403
0.058291443 -0.006838008 0.0042852648 -0.0051766024 -0.025941294 0.002043156 0.0060067885 0.03132637
0.035541892 0.012390238 -0.0065204967 0.0025839277 -5.231903e-05 0.004867946 0.04048608 -0.024671009
-0.01142435 0.032828365 0.03528834 0.039351933 0.0369616 -0.06414986 -0.060867783 0.02546073
-0.00064709753 0.027797231 -0.042734303 0.026269874 -0.06304996 0.029773237 -0.015753595 -0.05994516
0.03619105 0.02625059 0.00814324 0.01970923 -0.041308906 0.040800817 0.027882934 -0.040682495
0.059686095 -0.050386414 -0.07104683 -0.07305518 -0.043096643 -0.032389298 0.0007870207 -0.011208917
0.0038156994 -0.02983642 -0.03681131 -0.03424859 0.0026542577 -0.028469812 -0.027032748 -0.011965
0.06209708 -0.03249161 0.02327129 -0.044453997 -0.0674196 -0.038036346 0.0115691265 0.0105054565
-0.0077022454 0.043383535 -0.03194101 -0.03693135 -0.057379276 -0.057591658 -0.0065489407 0.03545382
-0.04335848 -0.068239056 -0.03202324 -0.03421495 0.010744755 0.01402577 -0.04645249 0.0118734
-0.050432645 -0.053634007 0.032503 -0.012493814 0.0037526381 -0.05065135 -0.037647195 0.009243142
0.029916188 -0.010441365 0.04023687 0.03729377 0.01716678 0.029769318 0.007416421 -0.0037058552
-0.050691843 -0.03990537 -0.020077042 -0.056419693 0.02129957 -0.023410356 -0.0634791 -0.07718086
-0.057507418 -0.047990635 0.053796187 -0.04769194 0.042914636 -0.05158439 -0.008019746 0.032071162
-0.027165331 -0.03284338 0.058993023 0.002494297 0.0074385284 -0.039487235 0.019334393 -0.023718452
-0.03591498 -0.059773505 0.017905671 0.021285808 -0.04472913 -0.017869834 -0.018104367 -0.06482403
-0.05052247 -0.018860908 -0.030927287 -0.04614167 -0.0131457895 -0.019991314 -0.049446035 -0.0609385
-0.06260931 -0.067012355 -0.06233284 0.027834538 0.02345782 0.017274357 -0.04676641 -0.017786952
0.052528426 -0.03508763 -0.0068509253 -0.078840435 -0.05284282 0.03689615 0.045938004 -0.05504652
0.034671664 -0.009108498 0.006737997 0.009836585 0.055736907 0.062152855 -0.049015746 -0.044704914
0.004640967 0.0221186 0.0324454 0.03424433 0.03868118 -0.006847689 0.051135845 0.026271595
0.021001711 0.03210627 0.018985845 -0.04974806 -0.024778746 -0.027616791 0.01286736 -0.00020779006
-0.04826303 -0.05658811 0.021377144 -0.04538267 0.043363165 0.018599734 -0.021540048 0.022801118
-0.04498285 -0.014444215 -0.0017651609 0.01722713 0.051905457 -0.07262968 0.0020019312 -0.046277512
-0.0038361177 -0.04351481 0.03474672 -0.008880216 0.03739196 -0.035867266 -0.061607312 0.016699323
0.026339477 -0.057947785 -0.0043208506 0.029418645 -0.013219416 -0.051417865 0.053305794 0.018441696
0.05567187 -0.046154786 -0.025941812 -0.024721194 -0.025978697 -0.05080177 -0.049355928 0.007422293
00000000: f2e6 0ebc b0d4 86bd b684 b43b ec54 7e3d
00000010: 4b11 abbc 57e5 0d3d 792d f83a 40d6 adba
00000020: c8c8 213d 3e46 19bd 9403 81bd c7c9 9abd
00000030: 3c59 64bc 1adb 683d bbff db3c fa03 19bd
00000040: 5ba4 04bd 8434 b7bc 7113 453d 74c9 c03c
00000050: d164 80bc c0b7 2bbb 5e00 b73c ab6e 4dbd
00000060: 0859 1d3c a410 74bd 1921 843d 012e cd3b
00000070: 4319 953c ae05 6dbd 2d78 99bd ec5c 60bd
00000080: b276 4abd 28b9 b6bb b8af a8bc e451 44bc
00000090: 9653 313d 380b 88bb e0c4 1b3c b3e6 513d
000000a0: 02c3 6e3d 5e11 e0bb 686b 8c3b 7da0 a9bb
000000b0: d682 d4bc 78e6 053b 98d4 c43b 1450 003d
000000c0: 6094 113d 6d00 4b3c e4a9 d5bb 1d57 293b
000000d0: 2171 5bb8 4a83 9f3b bbd4 253d db1a cabc
000000e0: 322d 3bbc 0977 063d 828a 103d 7e2f 213d
000000f0: 0c65 173d 0061 83bd 7f50 79bd 0593 d03c
00000100: fba1 29ba 05b7 e33c 2a0a 2fbd eb33 d73c
00000110: 5620 81bd 01e7 f33c af0d 81bc 0e89 75bd
00000120: 113d 143d 7a0b d73c 396b 053c 4075 a13c
00000130: 8733 29bd c21e 273d c06a e43c b0a2 26bd
00000140: 6879 743d fc61 4ebd 0081 91bd f49d 95bd
00000150: 1b86 30bd a4aa 04bd 1150 4e3a 9ba5 37bc
00000160: d010 7a3b 826b f4bc 75c7 16bd 4048 0cbd
00000170: 0ef3 2d3b 8639 e9bc c873 ddbc d908 44bc
00000180: 8259 7e3d ec15 05bd 6fa3 be3c 6515 36bd
00000190: 4a13 8abd 00cc 1bbd 6f8c 3d3c 141f 2c3c
000001a0: 1e63 fcbb efb2 313d 94d4 02bd 5445 17bd
000001b0: 8806 6bbd 3be5 6bbd 7f98 d6bb 0638 113d
000001c0: a998 31bd ebc0 8bbd cd2a 03bd fa24 0cbd
000001d0: c50a 303c 58cc 653c f744 3ebd a688 423c
000001e0: 7692 4ebd 55af 5bbd de21 053d dbb2 4cbc
000001f0: d2ee 753b ca77 4fbd f233 1abd 8c70 173c
00000200: cb12 f53c 4212 2bbc 6bcf 243d 5ac1 183d
00000210: 59a1 8c3c c9de f33c 7305 f33b efdd 72bb
00000220: 40a2 4fbd d073 23bd 9c78 a4bc 5618 67bd
00000230: 707c ae3c 13c7 bfbc 5501 82bd 0011 9ebd
00000240: e68c 6bbd d491 44bd 6459 5c3d a058 43bd
00000250: 42c7 2f3d 274a 53bd 4165 03bc 0d5d 033d
00000260: d489 debc c886 06bd aba2 713d 5c77 233b
00000270: e6be f33b 5ebd 21bd 2963 9e3c 334d c2bc
00000280: 961b 13bd 10d5 74bd eaae 923c 935f ae3c
00000290: e435 37bd c263 92bc 9c4f 94bc 76c2 84bd
000002a0: a6f0 4ebd 3182 9abc 395b fdbc 0cff 3cbd
000002b0: 7061 57bc d3c4 a3bc ed87 4abd a69a 79bd
000002c0: 4f39 80bd c63d 89bd b850 7fbd 4205 e43c
000002d0: 9d2a c03c f482 8d3c 238e 3fbd f1b5 91bc
000002e0: 0c28 573d 0cb8 0fbd ba7d e0bb 1877 a1bd
000002f0: b671 58bd 6b20 173d 7d29 3c3d 7678 61bd
00000300: e003 0e3d cf3b 15bc 6aca dc3b a129 213c
00000310: 624c 643d fe93 7e3d bcc4 48bd 801c 37bd
00000320: 4113 983b 1132 b53c 78e5 043d c843 0c3d
00000330: 2870 1e3d 9462 e0bb d273 513d 8737 d73c
00000340: c80b ac3c dd81 033d 3488 9b3c 9fc4 4bbd
00000350: ccfc cabc 9c3c e2bc 9fd1 523c 38e2 59b9
00000360: 74af 45bd efc8 67bd 1f1f af3c 2ee3 39bd
00000370: 939d 313d 785e 983c c174 b0bc 69c9 ba3c
00000380: f03f 38bd 6ea7 6cbc f95c e7ba e91f 8d3c
00000390: d19a 543d dfbe 94bd d532 033b 7d8d 3dbd
000003a0: 6067 7bbb 963c 32bd 9452 0e3d 537e 11bc
000003b0: 5028 193d 8ee9 12bd f357 7cbd 05cd 883c
000003c0: e3c5 d73c a85a 6dbd ec95 8dbb 5fff f03c
000003d0: 4096 58bc 8a9b 52bd 2d57 5a3d 0a13 973c
000003e0: 3008 643d cd0c 3dbd ec83 d4bc 1a84 cabc
000003f0: 47d1 d4bc 8415 50bd 7129 4abd b536 f33b

model.3.bias f4 [256]
-0.06946733 -0.04401029 -0.0110267205 0.034595694 -0.022373857 -0.032479156 -0.06022816 -0.016636197
-0.0026471564 -0.06376658 0.035754062 0.016257165 0.02365706 0.024376422 -0.022951646 0.037129857
-0.0018418905 -0.019962832 0.036230594 0.04189278 0.03330019 -0.021252522 -0.006599736 -0.019909436
0.00022321467 -0.0056631607 0.022786982 0.012145784 -0.03969994 0.025273427 -0.05487286 -0.036512196
-0.00038689212 0.027045341 -0.003913321 0.03190576 -0.06396306 0.020861112 0.014130159 0.05896329
0.045066945 0.010187884 -0.03129598 -0.0779837 -0.07104647 -0.030571215 0.037871737 -0.0017044061
0.04587834 0.045766696 -0.06897403 -0.0233663 0.0031669599 0.0004872625 0.00051256345 0.048988663
0.0011406994 -0.03718244 -0.054216657 -0.06425128 -0.068043076 -0.025499485 0.013566793 -0.0011578063
-0.038495246 0.005852623 0.011495273 -0.036865886 0.036300257 -0.0035570527 0.046423346 -0.031908218
0.029159982 -0.008897229 -0.058126986 -0.0056103207 -0.020301023 -0.03903777 -0.0038869765 0.02074976
-0.05688865 -0.05466841 -0.018978752 -0.04441298 0.0059972093 -0.0036653387 0.0076010283 -0.06797235
-0.00019107769 0.022407718 -0.00455567 -0.04443595 0.013915481 0.019232914 0.0058953813 -0.047399193
-0.034433104 -0.02306846 -0.035696466 0.009263626 -0.0151867075 -0.0033907224 0.039159693 -0.0152548095
0.03884938 -0.025476404 -0.054779526 -0.03477673 0.023915835 0.0059162267 0.031263996 0.0172764
-0.060494203 -0.07103647 -0.02271622 -0.07435716 -0.04219012 0.034487873 0.013665154 -0.019054156
-0.002960377 0.034187555 -0.019471822 0.027858753 -0.006742028 -0.0007122986 -0.014212044 0.014903272
-0.048197344 0.014809372 0.012063769 0.01774633 0.04804777 -0.06020788 0.03066107 0.00968979
-0.011208377 0.027295887 -0.060872238 0.051900722 -0.01810957 -0.046997488 0.013258788 0.036164775
0.01329309 -0.06361033 -0.028755866 0.02432542 -0.04255414 0.051025406 0.0016151714 -0.060350057
0.006148987 0.050653823 0.061421737 -0.013909976 -0.06455735 -0.03614629 0.018933276 0.03638636
-0.028840587 -0.029433202 -0.06558154 -0.035229478 -0.046146695 -0.07336514 0.033724148 0.004388423
0.023114214 -0.042293277 -0.0626224 -0.008055786 -0.06516439 -0.0137835685 0.034318756 0.016548956
-0.06066813 -0.009061226 -0.06890337 -0.0127288 -0.016854731 -0.077428386 0.0037721312 -0.0101991575
0.037802897 -0.05835347 -0.008190348 -0.06448958 0.045417964 0.016647533 -0.041320726 0.0094923
0.0037661917 -0.028356617 -0.05975269 -0.042834584 -0.013800591 -0.05628156 -0.0052246307 -0.029241925
0.030723052 -0.028021498 0.020127326 -0.037922345 0.016266527 0.00038438884 -0.016975937 0.0499168
0.03622204 -0.013877529 -0.015099836 0.00030706706 0.052228507 0.054974187 -0.028487802 -0.043840427
0.022674687 0.026126385 -0.058196902 -0.040339284 -0.073692165 -0.0058804867 0.051027995 -0.07227754
-0.0004896979 -0.017476369 -0.041115303 0.00940996 -0.026756005 0.031172045 0.023679933 -0.01859374
-0.034619696 0.030678228 0.032147028 0.025653737 0.0333544 -0.013596419 0.022980599 0.025780441
0.051599324 0.013790652 0.025923332 -0.06683585 -0.043910637 0.051345132 -0.018455818 0.04534832
-0.00934336 -0.023356188 -0.006211936 0.03539313 -0.05333908 -0.07121844 0.017080737 -0.033393156
00000000: e344 8ebd 2244 34bd 6ba9 34bc 37b4 0d3d
00000010: 6149 b7bc dd08 05bd ceb1 76bd a248 88bc
00000020: ea7b 2dbb 0d98 82bd da72 123d bf2d 853c
00000030: 73cc c13c 10b1 c73c 1705 bcbc 7a15 183d
00000040: 976b f1ba 1889 a3bc 8866 143d c497 2b3d
00000050: c865 083d c519 aebc 9942 d8bb 1d19 a3bc
00000060: bb0e 6a39 0992 b9bb c4ab ba3c 1cff 463c
00000070: 679c 22bd 380a cf3c 5dc2 60bd d08d 15bd
00000080: c8d7 cab9 318e dd3c 513b 80bb 9daf 023d
00000090: 11ff 82bd ece4 aa3c 2f82 673c 7e83 713d
000000a0: 1e98 383d 15eb 263c 3730 00bd ebb5 9fbd
000000b0: d080 91bd 7c70 fabc 651f 1b3d 6166 dfba
000000c0: edea 3b3d dc75 3b3d 4242 8dbd af6a bfbc
000000d0: c58c 4f3b 4477 ff39 8d5d 063a 56a8 483d
000000e0: 8583 953a 9d4c 18bd 4912 5ebd 2d96 83bd
000000f0: 2b5a 8bbd 4ce4 d0bc 4147 5e3c 88c1 97ba
00000100: 31ad 1dbd 5cc7 bf3b ab56 3c3c af00 17bd
00000110: 94af 143d 711d 69bb 6826 3e3d 31b2 02bd
00000120: eae0 ee3c afc5 11bc 9016 6ebd c8d6 b7bb
00000130: 554e a6bc 12e6 1fbd a5bc 7ebb 67fb a93c
00000140: 1304 69bd fceb 5fbd 5479 9bbc 63ea 35bd
00000150: 3d84 c43b 2e36 70bb 0c12 f93b 1635 8bbd
00000160: 075c 48b9 6490 b73c bb47 95bb 7902 36bd
00000170: c2fd 633c 588e 9d3c 0b2e c13b a825 42bd
00000180: ba09 0dbd 11fa bcbc 7536 12bd 77c6 173c
00000190: abd1 78bc e236 5ebb ea65 203d 4fef 79bc
000001a0: 8720 1f3d e4b3 d0bc 7f60 60bd 0b72 0ebd
000001b0: 24eb c33c e8dc c13b ad0e 003d 3d87 8d3c
000001c0: c5c8 77bd 927b 91bd 5e17 babc 9148 98bd
000001d0: 8ccf 2cbd 2843 0d3d cfe3 5f3c 7617 9cbc
000001e0: e202 42bb 4008 0c3d 5f83 9fbc 0a38 e43c
000001f0: 3bec dcbb 8db9 3aba a2d9 68bc da2c 743c
00000200: 946a 45bd 02a3 723c 1da7 453c c060 913c
00000210: bdcd 443d 8a9c 76bd ed2c fb3c edc1 1e3c
00000220: 57a3 37bc a09b df3c 2b55 79bd da95 543d
00000230: 855a 94bc 7080 40bd 633b 593c 8421 143d
00000240: 43cb 593c 2246 82bd 6c91 ebbc 1a46 c73c
00000250: 404d 2ebd 0400 513d 29b4 d33a 9f31 77bd
00000260: 717d c93b 627a 4f3d 5c95 7b3d abe6 63bc
00000270: a536 84bd 220e 14bd f519 9b3c dd09 153d
00000280: 1843 ecbc e61d f1bc 9d4f 86bd c94c 10bd
00000290: 5104 3dbd 7640 96bd 5522 0a3d c3cc 8f3b
000002a0: 055a bd3c b73b 2dbd 2c40 80bd 6afc 03bc
000002b0: e874 85bd 7ad4 61bc d391 0c3d ad91 873c
000002c0: 257f 78bd 8975 14bc 361d 8dbd 758c 50bc
000002d0: ef12 8abc c692 9ebd dc35 773b 5e1a 27bc
000002e0: 36d7 1a3d 0c04 6fbd cf30 06bc 1d13 84bd
000002f0: 3008 3a3d 6860 883c ec3f 29bd 9885 1b3c
00000300: 36d2 763b 234c e8bc 3dbf 74bd 5173 2fbd
00000310: e01b 62bc 7e87 66bd 6133 abbb c38c efbc
00000320: e9ae fb3c 578d e5bc 10e2 a43c 7654 1bbd
00000330: 6141 853c cc87 c939 1f11 8bbc 8f75 4c3d
00000340: 905d 143d 935e 63bc 4d65 77bc d8fd a039
00000350: 8fed 553d 9d2c 613d 405f e9bc 0592 33bd
00000360: 44c0 b93c 0007 d63c e05f 6ebd ce3a 25bd
00000370: ebeb 96bd 19b1 c0bb bb02 513d 3f06 94bd
00000380: 125f 00ba 9a2a 8fbc 8568 28bd 3c2c 1a3c
00000390: 692f dbbc 845c ff3c 6bfc c13c e651 98bc
000003a0: 62cd 0dbd e850 fb3c 9aac 033d c927 d23c
000003b0: a09e 083d 84c3 5ebc cf41 bc3c 8131 d33c
000003c0: d059 533d 30f2 613c 2b5d d43c 3ce1 88bd
000003d0: a4db 33bd 464f 523d a830 97bc 29bf 393d
000003e0: e414 19bc 7a55 bfbc 7f8d cbbb 63f8 103d
000003f0: 147a 5abd f9da 91bd e7ec 8b3c 43c7 08bd

model.6.weight f4 [256, 256]
0.03842677 0.06119513 -0.030254286 -0.035153992 -0.06184188 0.057468127 -0.054391507 -0.012252741
-0.052790217 -0.04656387 -0.06256989 0.025710834 0.012472437 -0.053790066 0.0142280245 0.010655532
-0.019517446 0.02328988 -0.014042058 -0.029253889 0.01579075 0.029568199 -0.025004845 -0.048737288
-0.029755933 0.021473162 0.0015800706 0.020930221 0.059889436 0.014354903 0.041586448 0.034704607
0.013006874 0.01987858 -0.042539977 0.016499951 0.05902649 0.016322892 -0.007268738 0.04367909
0.039642304 0.06380285 -0.006266159 -0.039245408 0.032741435 0.008999295 0.020131301 0.039299347
0.009847729 0.015955847 -0.033408955 -0.04046277 0.008602207 0.0318738 -0.04402789 0.003865324
-0.005216618 -0.007982025 0.03032955 -0.054291107 0.006169698 -0.07109953 -0.030508 0.018954458
0.02721872 0.05990258 0.007497337 0.059150655 0.06620215 -0.051406767 -0.045619346 -0.11372928
0.07918843 -0.03538493 0.054288805 -0.08468918 -0.0021359404 0.008872374 0.02969222 0.012073466
0.037634194 0.013309346 0.025899827 0.043897662 -0.0016728626 -0.062007945 0.023907466 0.019237502
-0.0054820017 0.036699444 0.05095658 -0.055099245 -0.005601794 -0.05949532 -0.057618365 -0.0039081457
0.043328427 -0.007030616 -0.011627016 0.044840608 0.012483206 -0.05998338 0.03636615 -0.009973111
0.025284076 -0.0054625487 0.007822473 0.039795734 0.035782214 0.059405815 -0.032756828 0.02015616
0.058773834 -0.017943427 0.04832595 0.00715122 0.038259726 0.042404417 -0.03318849 0.052042134
-0.027631558 0.020335421 0.059406806 -0.051590305 -0.04110095 -0.053132948 0.07759667 0.0521107
-0.001065479 0.017863821 -0.021069804 0.0012071148 -0.006629427 -0.06763386 -0.007323684 0.0037209445
-0.05441327 0.03555347 0.01301491 0.025145717 -0.04981875 -0.0035833952 -0.0626938 -0.05315991
-0.043564484 -0.0047847545 0.011758935 -0.024305146 -0.00040896048 -0.03871004 -0.0721899 0.02357569
-0.043927923 -0.08138349 0.020399708 0.0064737718 -0.038345188 -0.017351765 -0.0039531444 0.019289216
0.064953096 0.016906349 0.015883353 0.04172054 0.034639467 -0.037173614 -0.015433177 -0.00557537
0.0073475395 -0.03869312 -0.04176436 -0.03563343 -0.0054028016 0.028073605 -0.043533012 0.019654447
0.014523997 0.011715405 0.050647125 0.014853951 -0.008970489 -0.019384997 -0.015808003 -0.029362492
-0.016447207 -0.01732954 -0.05221283 0.023754293 0.0063599343 -0.058330078 -0.020962497 -0.026811786
0.06304196 -0.0042099664 -0.07935354 -0.036510486 -0.016709557 -0.051274016 0.0524997 0.0116294045
0.038875733 0.037629537 -0.04319401 0.03849433 0.02784211 -0.017374795 -0.0459616 -0.0066837785
-0.00937131 0.04510981 0.022001073 0.060468294 0.02984993 -0.04569048 -0.07081009 -0.062464036
-0.062183276 0.044109277 -0.044774454 0.004679886 -0.04453097 -0.07964236 0.0027466042 0.02299938
0.059980907 -0.025982458 0.024352632 0.022305533 0.011112795 -0.023475312 -0.031540524 0.002965603
-0.0064646015 -0.013396327 -0.06114527 -0.021033611 0.014155822 -0.04837164 -0.031602766 -0.046844818
0.0071105263 -0.055307075 -0.04452153 0.038766325 0.028491754 -0.089138485 0.017600382 0.0057960018
-0.044447735 -0.041169234 0.011542675 0.002164813 -0.050541684 -0.03607117 0.036478978 0.055555772
00000000: 6465 1d3d bfa7 7a3d d6d7 f7bc a2fd 0fbd
00000010: e94d 7dbd b363 6b3d a1c9 5ebd b8bf 48bc
00000020: 8e3a 58bd c2b9 3ebd a424 80bd 879f d23c
00000030: 3159 4c3c f952 5cbd a91c 693c 8a94 2e3c
00000040: 0de3 9fbc 6bca be3c a910 66bc daa5 efbc
00000050: 9a5b 813c 0239 f23c f6d6 ccbc c0a0 47bd
00000060: b7c2 f3bc 7ce8 af3c 5f1a cf3a db75 ab3c
00000070: a04e 753d d430 6b3c 8d56 2a3d 6b26 0e3d
00000080: c91a 553c 67d8 a23c 663e 2ebd e82a 873c
00000090: c3c5 713d 96b7 853c 982e eebb d8e8 323d
000000a0: f85f 223d 12ab 823d 5a54 cdbb cbbf 20bd
000000b0: e21b 063d c771 133c 66ea a43c 5af8 203d
000000c0: 5e58 213c d6b5 823c d4d7 08bd 4abc 25bd
000000d0: 45f0 0c3c 1a8e 023d 9756 34bd 6051 7d3b
000000e0: 2af0 aabb 0ac7 02bc ad75 f83c 5a60 5ebd
000000f0: 2e2b ca3b a19c 91bd eaeb f9bc 6146 9b3c
00000100: cbf9 de3c 685c 753d 39ac f53b f547 723d
00000110: fe94 873d e78f 52bd 5adb 3abd e6ea e8bd
00000120: 8b2d a23d caef 10bd f05d 5e3d 8571 adbd
00000130: 22fb 0bbb 6f5d 113c 193d f33c c9cf 453c
00000140: 5026 1a3d 710f 5a3c e02b d43c 09ce 333d
00000150: f443 dbba 0bfc 7dbd 97d9 c33c f797 9d3c
00000160: 5da2 b3bb 2852 163d d9b7 503d bfaf 61bd
00000170: 418f b7bb 5db1 73bd 3c01 6cbd e70f 80bb
00000180: 2679 313d 1561 e6bb 3d7f 3ebc c9aa 373d
00000190: 5c86 4c3c 22b1 75bd acf4 143d 4266 23bc
000001a0: 8d20 cf3c 2eff b2bb d429 003c da00 233d
000001b0: 5f90 123d 8353 733d 062c 06bd 881e a53c
000001c0: d5bc 703d 18fe 92bc 6ef1 453d c854 ea3b
000001d0: 3bb6 1c3d 41b0 2d3d a7f0 07bd 222a 553d
000001e0: 945b e2bc 7896 a63c 8d54 733d 5b50 53bd
000001f0: 7859 28bd efa1 59bd 01eb 9e3d 0872 553d
00000200: 8ba7 8bba 2657 923c 959a acbc 0d38 9e3a
00000210: aa3b d9bb 9f83 8abd 84fb efbb 17db 733b
00000220: 73e0 5ebd 84a0 113d 7d3c 553c 64fe cd3c
00000230: bf0e 4cbd 65d7 6abb 9b65 80bd 35be 59bd
00000240: ac70 32bd 6ec9 9cbb 8ca8 403c 961b c7bc
00000250: bf69 d6b9 6b8e 1ebd 4cd8 93bd ce21 c13c
00000260: c4ed 33bd 63ac a6bd 4a1d a73c ef21 d43b
00000270: d80f 1dbd 4a25 8ebc 6189 81bb 6b04 9e3c
00000280: 2106 853d 2f7f 8a3c ce1d 823c 28e3 2a3d
00000290: 1de2 0d3d 5c43 18bd 70db 7cbc 98b1 b6bb
000002a0: a1c3 f03b ad7c 1ebd 1b11 2bbd 5cf4 11bd
000002b0: fc09 b1bb 9efa e53c ac4f 32bd 5d02 a13c
000002c0: 0ff6 6d3c f8f1 3f3c 5c73 4f3d fc5d 733c
000002d0: f5f8 12bc 49cd 9ebc c97f 81bc 9c89 f0bc
000002e0: 4bbc 86bc aef6 8dbc 1fdd 55bd 5d98 c23c
000002f0: ff66 d03b 85eb 6ebd 8bb9 abbc 64a4 dbbc
00000300: 251c 813d c2f3 89bb 1c84 a2bd 058c 15bd
00000310: 7be2 88bc b404 52bd ed09 573d 4289 3e3c
00000320: 293c 1f3d 6e21 1a3d 34ec 30bd 3bac 1d3d
00000330: 2315 e43c 9655 8ebc 3b42 3cbd 9903 dbbb
00000340: 1f8a 19bc 10c5 383d 983b b43c 9aad 773d
00000350: d787 f43c f125 3bbd e104 91bd 4ada 7fbd
00000360: e4b3 7ebd eeab 343d 6b65 37bd bb59 993b
00000370: 1b66 36bd 891b a3bd 5f00 343b 3269 bc3c
00000380: 8aae 753d 2ad9 d4bc 2c7f c73c 18ba b63c
00000390: 7112 363c 4c4f c0bc a330 01bd 905a 423b
000003a0: 02d5 d3bb 457c 5bbc 7673 7abd ae4e acbc
000003b0: d2ed 673c 5721 46bd e771 01bd 5ae0 3fbd
000003c0: 6bff e83b ac89 62bd 355c 36bd 70c9 1e3d
000003d0: 8a67 e93c 3d8e b6bd ad2e 903c 63ec bd3b
000003e0: d40e 36bd 12a1 28bd 7d1d 3d3c 89df 0d3b
000003f0: cc04 4fbd 5dbf 13bd fb6a 153d 738e 633d

model.6.bias f4 [256]
0.0039698584 0.05174508 -0.021831864 -0.0019121827 -0.0080689285 -0.005802124 -0.043087773 -0.079857364
-0.039389413 0.023715826 -0.014608785 0.03880088 -0.057251684 -0.07587392 -0.015781118 -0.01290956
-0.004888292 -0.06752328 -0.036473304 -0.031802587 -0.046449497 -0.042370066 0.018735943 -0.039332353
-0.040761173 -0.084054254 0.041307595 -0.028342666 -0.033004105 -0.0041326694 0.013819935 -0.012891687
0.017445343 -0.01061496 -0.07108847 0.007922947 0.013802709 0.028551333 -0.014859192 0.02964268
0.03641373 -0.039610267 0.0015639387 -0.09135666 0.014574163 0.048508562 -0.032223865 0.01031522
0.0055825524 0.035275266 -0.0725695 -0.05901036 -0.009117528 -0.00501752 0.0042990553 -0.015206694
-0.043840986 0.003853159 -0.042616468 -0.010227492 -0.063577875 -0.00081260316 -0.048278667 -0.045024622
-0.03957702 0.08011291 0.010296934 -0.009007503 -0.06728679 6.618706e-05 -0.034699854 -0.060922742
0.0251137 -0.012886981 -0.033960264 -0.042999282 -0.04037045 0.0190004 -0.0268595 0.057562776
0.0086317705 -0.052799586 0.02097115 -0.008330095 0.013010743 0.017881075 -0.05257268 -0.04694815
0.02291266 0.01024736 -0.081493944 -0.027778756 -0.016604336 -0.041668285 0.029569 0.03663132
0.032421798 0.023897337 0.0657657 -0.07543442 -0.035771646 -0.07045563 0.06274329 0.018867763
0.04107569 -0.008911116 0.0007653975 0.0009699996 0.02185192 0.021095019 0.041716617 -0.023105148
-0.03535926 0.01885785 -0.058029454 -0.0441305 0.015958168 0.021519424 0.049195275 -0.014438108
-0.04164259 -0.023388304 -0.0043409276 -0.02985277 -0.02566344 -0.045147877 -0.054506574 -0.07290305
0.018152827 0.0036333173 0.010444113 0.01623596 -0.009379777 -0.05365526 0.031086097 -0.0017616189
0.010199607 0.040234815 -0.0017057115 -0.025455745 -0.028562553 0.01101438 -0.07123558 -0.033136692
-0.048818763 0.008322566 -0.0059428075 -0.06024538 -0.056122616 0.005720629 -0.0006924701 -0.072589226
0.0019780947 -0.0076448484 -0.0010993936 -0.0009940503 0.011414593 0.016625192 -0.003927284 -0.051228404
-0.009291945 -0.058900572 -0.0055270162 0.0070097577 -0.070233285 -0.046821743 -0.05859552 -0.047769178
-0.0010068789 0.021458415 0.03382145 0.043497175 -0.020866336 -0.07268199 -0.0802346 -0.023115503
-0.0050258054 -0.01950373 0.021084264 0.02953254 -0.027990235 0.05731975 0.058727026 -0.008620741
-0.036534462 -0.03995431 -0.021965586 -0.06821 -0.017171519 0.012860929 0.0073902425 -0.014987771
-0.043595884 -0.039062362 -0.034350883 -0.021754388 -0.0022204039 -0.038440295 -0.064020246 -0.028210314
0.0063406983 0.01335881 -0.075008266 -0.06769579 -0.0179068 -0.019409453 0.013501983 -0.07172121
-0.0544092 -0.0136978235 -0.0153538 0.0034775948 0.04479371 -0.077790774 -0.050269086 -0.025667552
0.01059678 -0.008406873 0.06771249 0.016379703 -0.044880968 0.067309186 0.016326373 -0.043998122
0.0013804417 -0.006346988 0.027116196 -0.012888633 -0.021520786 0.04237528 -0.07089014 -0.02433404
0.06332053 -0.030067129 0.0059838006 -0.05139896 -0.018184526 -0.03377728 -0.035514332 -0.028058883
-0.067638956 -0.008254659 -0.014428614 0.013973369 -0.054268714 -0.010843193 -0.04749052 -0.008430758
0.02212283 -0.085829414 0.018041346 -0.010043292 -0.026339654 -0.061587 -0.03052385 -0.07643556
00000000: 9615 823b a6f2 533d bdd8 b2bc 34a2 faba
00000010: 8a33 04bc be1f bebb ce7c 30bd 428c a3bd
00000020: cb56 21bd b147 c23c af59 6fbc aced 1e3d
00000030: be80 6abd c963 9bbd 6747 81bc 9f82 53bc
00000040: f72d a0bb a549 8abd 0865 15bd 6e43 02bd
00000050: d441 3ebd 3c8c 2dbd 1f7c 993c f61a 21bd
00000060: 30f5 26bd a324 acbd 2732 293d e12e e8bc
00000070: 502f 07bd 586b 87bb 026d 623c a837 53bc
00000080: 89e9 8e3c 5fea 2dbc d596 91bd 40cf 013c
00000090: c224 623c 7ce4 e93c f873 73bc 35d5 f23c
000000a0: 9026 153d 603e 22bd 13fd cc3a 3319 bbbd
000000b0: 78c8 6e3c eab0 463d 2cfd 03bd 2b01 293c
000000c0: d8ed b63b cc7c 103d 519f 94bd d9b4 71bd
000000d0: af61 15bc 026a a4bb 17df 8c3b 7f25 79bc
000000e0: 9b92 33bd 4885 7c3b 9b8e 2ebd 3691 27bc
000000f0: 1e35 82bd e004 55ba dabf 45bd bd6b 38bd
00000100: 831b 22bd 3d12 a43d 79b4 283c 3594 13bc
00000110: a8cd 89bd e8cd 8a38 6f21 0ebd 208a 79bd
00000120: 3fbb cd3c ea23 53bc eb19 0bbd 0420 30bd
00000130: 7c5b 25bd baa6 9b3c 7408 dcbc f2c6 6b3d
00000140: 456c 0d3c 6144 58bd b0cb ab3c f37a 08bc
00000150: 032b 553c 557b 923c 7356 57bd b44c 40bd
00000160: 55b3 bb3c 8be4 273c 4ce6 a6bd 4690 e3bc
00000170: d105 88bc 5dac 2abd b03a f23c b90a 163d
00000180: b8cc 043d 59c4 c33c 2bb0 863d 5c7d 9abd
00000190: 4a85 12bd 0b4b 90bd 8e7f 803d 9190 9a3c
000001a0: fc3e 283d eeff 11bc f5a4 483a 9247 7e3a
000001b0: cc02 b33c 76cf ac3c 0bdf 2a3d 0247 bdbc
000001c0: dfd4 10bd c77b 9a3c 4bb0 6dbd 2fc2 34bd
000001d0: b4ba 823c 8149 b03c fc80 493d d08d 6cbc
000001e0: 6c91 2abd d498 bfbc 573e 8ebb cc8d f4bc
000001f0: 223c d2bc fbec 38bd 4942 5fbd 324e 95bd
00000200: 3db5 943c f31c 6e3b c91d 2b3c 4701 853c
00000210: a3ad 19bc 9ec5 5bbd 45a8 fe3c 1fe6 e6ba
00000220: 411c 273c 43cd 243d 2e92 dfba 9188 d0bc
00000230: 04fc e9bc a875 343c f6e3 91bd 57ba 07bd
00000240: 2ff6 47bd 5f5b 083c e2bb c2bb dcc3 76bd
00000250: d4e0 65bd 1d74 bb3b e286 35ba a9a9 94bd
00000260: eca2 013b a381 fabb 8719 90ba cb4a 82ba
00000270: 4604 3b3c 8e31 883c 72b0 80bb e0d4 51bd
00000280: 3e3d 18bc ba41 71bd f91b b5bb 1cb2 e53b
00000290: 78d6 8fbd 28c8 3fbd db01 70bd 9da9 43bd
000002a0: 40f9 83ba 8fc9 af3c 5c88 0a3d 182a 323d
000002b0: e1ef aabc 4cda 94bd 0a52 a4bd b95c bdbc
000002c0: 83af a4bb 49c6 9fbc e8b8 ac3c 3aee f13c
000002d0: c74b e5bc 1dc8 6a3d c08b 703d 023e 0dbc
000002e0: 29a5 15bd 21a7 23bd 2cf1 b3bc afb1 8bbd
000002f0: 49ab 8cbc a5b6 523c d929 f23b 458f 75bc
00000300: 9991 32bd dbff 1fbd 83b3 0cbd 4236 b2bc
00000310: 3284 11bb 9273 1dbd 0c1d 83bd 5119 e7bc
00000320: a2c5 cf3b e9de 5a3c ef9d 99bd 17a4 8abd
00000330: 48b1 92bc 9300 9fbc 6c37 5d3c 92e2 92bd
00000340: 2edc 5ebd d66c 60bc 818e 7bbc 5ce8 633b
00000350: 9c79 373d c550 9fbd f5e6 4dbd c244 d2bc
00000360: 1e9e 2d3c fbbc 09bc d9ac 8a3d ba2e 863c
00000370: 1bd5 37bd 66d9 893d e3be 853c 6037 34bd
00000380: f0ef b43a 65fa cfbb c922 de3c d82a 53bc
00000390: 5c4c b0bc b491 2d3d da2e 91bd 2e58 c7bc
000003a0: 32ae 813d 574f f6bc c213 c43b b787 52bd
000003b0: b7f7 94bc 0c5a 0abd 7a77 11bd bedb e5bc
000003c0: 4b86 8abd 8d3e 07bc fe65 6cbc 8ff0 643c
000003d0: df48 5ebd a6a7 31bc 6b85 42bd 2921 0abc
000003e0: f03a b53c 55c7 afbd 72cb 933c 9f8c 24bc
000003f0: 42c6 d7bc a642 7cbd 270d fabc 3f8a 9cbd

model.9.weight f4 [1, 256]
-0.0047850544 -0.022709569 -0.00516702 0.04956709 -2.381741e-06 -0.014440479 -0.002776563 0.00026757547
-0.0004800808 -0.0144377565 0.003250245 -0.010987245 -0.013561461 -0.021710726 0.039928775 0.024991876
0.02594336 0.022679066 0.028435927 -0.039835196 -0.01226418 0.032286257 0.010740939 -0.0026794926
0.02967976 0.030464688 -0.019209648 -0.024708152 0.0157977 -0.00031037023 -0.0019965058 -0.0041605392
0.010082054 0.025287708 0.0080372775 -0.031134361 0.0040452434 -5.810817e-05 0.04587027 -0.004981264
-0.0078949565 0.002666263 -0.011304558 0.01185464 0.0004395244 -0.033675645 0.030734405 -0.0138858715
-0.00039754296 -0.023702549 0.0017478355 0.04037094 0.00062109006 -0.022245776 -0.00087978813 0.03169052
0.005414032 0.004715258 -0.009307897 -0.01863555 0.0004484651 0.0143903745 -0.024332685 0.0090996865
0.051780704 -0.033039723 0.0008100407 0.010022112 0.0093402425 -0.011191927 0.01655297 -0.0024282464
-0.014275589 0.015806703 -0.016431512 0.012615896 0.014387124 0.0051803943 0.023745313 -0.015435776
0.009328315 -0.0016334174 -0.0040275226 -0.00092249794 -0.0072449814 0.004975756 0.04005555 0.0493737
0.005396867 0.0022848023 -0.010969791 0.019678572 0.004055588 -0.004138865 -0.0021308316 -0.00647838
-0.040243577 0.0033353888 -0.018892603 0.04356302 -0.06214856 -0.012560514 -0.017662175 -0.0036360545
-0.011003356 -0.03157403 -0.013134386 -0.019754734 -0.0081783915 0.015356184 -0.028123505 -0.0014821291
-0.03580306 -0.00060206786 -0.006884913 -0.015028919 -0.034740757 0.007329283 -0.03428439 0.0009227086
0.02464907 -0.0019541262 0.002842392 0.0013223012 0.026177512 0.016147893 0.008618358 0.03629233
0.0027966236 0.037141956 0.018545045 -0.0015166104 -0.0045051817 0.011526856 -0.023501836 -0.004550327
-0.0048720795 -0.0155682415 -0.013772296 -0.0058493232 0.036445927 -0.0040694205 -0.01780897 -0.0060755396
0.007038358 -0.0028041655 -0.004768421 0.005584795 0.006908539 -0.04619912 -0.0048336354 0.0074536395
0.027140828 0.0006799362 5.6238114e-05 0.0011139208 -0.0026353996 0.029923653 0.009476381 -0.0044734105
-0.013802053 -0.039101288 0.030457435 0.0009669219 0.012609074 -0.00355864 -0.007376138 -0.04716499
-0.0032968915 0.0051379963 -0.003517584 -0.0041720136 -0.0069032283 -0.0017849901 -0.033137042 -0.019875355
8.510336e-05 0.011075585 0.016891997 -0.000937808 -0.00049673574 -0.018053394 -0.020697605 0.00018243567
0.0010097317 -0.013366979 -0.036699142 0.019270765 0.0058352905 -0.024620172 -7.048194e-05 -0.012327958
0.01962535 0.012631616 -0.0072547984 0.034268722 0.0007641597 0.046334095 -0.0032390212 -0.0069598095
-0.022298053 0.00082305976 0.0031342926 -0.001889525 0.0032182154 0.015745759 -0.0016581592 0.003539528
-0.0023156116 0.0025358323 0.019157639 0.033633385 -0.012853497 0.0031422225 -0.0016488748 -0.00618797
0.0002682957 0.022676568 -0.034042586 -0.019634353 0.008832691 -0.022104442 0.016295811 0.010822681
-0.014152278 0.00288887 -0.0014224467 0.034250148 0.0018445811 -0.008420742 0.038555704 0.0021676843
-0.036892943 0.01915014 0.012921301 0.028844133 -0.01264592 0.008352428 0.00030561254 0.0110245105
-0.035750724 -0.031169116 -0.0016108237 0.00067980855 -0.010500868 0.0013660275 -0.024691084 -0.014139467
0.0011499143 -0.029622296 -0.001008163 -0.0009179061 0.001161857 0.0017969512 0.014722769 -0.057006642
00000000: f2cb 9cbb 6b09 babc 1b50 a9bb dc06 4b3d
00000010: 00d6 1fb6 c297 6cbc fff6 35bb 5f49 8c39
00000020: 5bb3 fbb9 578c 6cbc 1002 553b d803 34bc
00000030: e430 5ebc b1da b1bc 5b8c 233d c3bb cc3c
00000040: 2b87 d43c 73c9 b93c 76f2 e83c 3b2a 23bd
00000050: b3ef 48bc 983e 043d c3fa 2f3c 6d9a 2fbb
00000060: f822 f33c 1591 f93c 8d5d 9dbc c068 cabc
00000070: 2e6a 813c 30b9 a2b9 cfd7 02bb 2255 88bb
00000080: 332f 253c 2b28 cf3c c9ae 033c 7d0d ffbc
00000090: f68d 843b 2cb9 73b8 77e2 3b3d df39 a3bb
000000a0: d959 01bc 78bc 2e3b c136 39bc f739 423c
000000b0: f76f e639 79ef 09bd b8c6 fb3c 9181 63bc
000000c0: 506d d0b9 d92b c2bc a117 e53a 005c 253d
000000d0: a6d0 223a c63c b6bc 95a1 66ba ebcd 013d
000000e0: 3168 b13b 7382 9a3b 2680 18bc 95a9 98bc
000000f0: f81f eb39 9bc5 6b3c 5755 c7bc da16 153c
00000100: 0118 543d a954 07bd e958 543a c933 243c
00000110: d107 193c 585e 37bc 189a 873c 3723 1fbb
00000120: 29e4 69bc 0f7d 813c 619b 86bc e7b2 4e3c
00000130: f9b7 6b3c 4cc0 a93b 8885 c23c 56e6 7cbc
00000140: cad5 183c 6518 d6ba 4ff9 83bb cad3 71ba
00000150: 4f67 edbb ab0b a33b 4a11 243d 143c 4a3d
00000160: 34d8 b03b 9fbc 153b a3ba 33bc f534 a13c
00000170: bde4 843b 519f 87bb 6ca5 0bbb 9748 d4bb
00000180: 73d6 24bd 8a96 5a3b a9c4 9abc 236f 323d
00000190: 7d8f 7ebd 9dca 4dbc 44b0 90bc df4a 6ebb
000001a0: 6c47 34bc c553 01bd 9c31 57bc aed4 a1bc
000001b0: a9fe 05bc 8198 7b3c 4463 e6bc 0044 c2ba
000001c0: 3ba6 12bd 17d4 1dba d69a e1bb db3b 76bc
000001d0: 534c 0ebd 7b2a f03b ca6d 0cbd ede1 713a
000001e0: d9ec c93c cc10 00bb 6d47 3a3b 1151 ad3a
000001f0: 3972 d63c 9648 843c 0334 0d3c 44a7 143d
00000200: 8f47 373b 2a22 183d c7eb 973c 00c9 c6ba
00000210: 34a0 93bb 23db 3c3c ec86 c0bc e91a 95bb
00000220: f7a5 9fbb f011 7fbc 32a5 61bc aeab bfbb
00000230: 5348 153d c658 85bb 1ee4 91bc 5215 c7bb
00000240: 07a2 e63b 17c6 37bb 6a40 9cbb a800 b73b
00000250: 0761 e23b 4a3b 3dbd 7963 9ebb a93d f43b
00000260: 7156 de3c bf3d 323a 37e1 6b38 fb00 923a
00000270: abb6 2cbb 7322 f53c d342 1b3c b095 92bb
00000280: 0222 62bc ac28 20bd df81 f93c 0879 7d3a
00000290: 4a96 4e3c 1238 69bb 88b3 f1bb 1430 41bd
000002a0: a910 58bb a35c a83b 4487 66bb 63b5 88bb
000002b0: 7a34 e2bb 54f6 e9ba b5ba 07bd a4d1 a2bc
000002c0: 8579 b238 5f76 353c 1661 8a3c 3bd7 75ba
000002d0: 5f37 02ba b6e4 93bc 068e a9bc 344c 3f39
000002e0: f958 843a 2c01 5bbc d751 16bd b9dd 9d3c
000002f0: f735 bf3b 3eb0 c9bc b4cf 93b8 34fb 49bc
00000300: 58c5 a03c d6f4 4e3c a9b9 edbb 5c5d 0c3d
00000310: e451 483a d2c8 3d3d c245 54bb 1d0f e4bb
00000320: 68aa b6bc 9bc2 573a b468 4d3b f0a9 f7ba
00000330: b2e8 523b 40fd 803c 9756 d9ba 6df7 673b
00000340: 84c1 17bb 3530 263b 7bf0 9c3c 29c3 093d
00000350: 7997 52bc bfed 4d3b 0f1f d8ba 74c4 cabb
00000360: 0aaa 8c39 36c4 b93c 3d70 0bbd 39d8 a0bc
00000370: feb6 103c 6014 b5bc cb7e 853c 9d51 313c
00000380: f5de 67bc 3253 3d3b 6471 baba e249 0c3d
00000390: dfc5 f13a 27f7 09bc 96ec 1d3d b50f 0e3b
000003a0: 0e1d 17bd c1e0 9c3c ddb3 533c 884a ec3c
000003b0: d530 4fbc 9fd8 083c 9f3a a039 26a0 343c
000003c0: 5a6f 12bd 6056 ffbc 4622 d3ba 2e35 323a
000003d0: d50b 2cbc 470c b33a f544 cabc 39a9 67bc
000003e0: b9b8 963a 75aa f2bc 5624 84ba a39f 70ba
000003f0: 7449 983a ad87 eb3a c537 713c cc7f 69bd
