best_models/best_model_lstm_search_4_features_20.pt (torch, 30762 bytes, 5 tensors)

lstm.weight_ih_l0 f4 [128, 20]
000000 3b a0 66 bd 78 17 35 be bb 60 9a 3d c0 68 f3 3c
       -0.05630515 -0.17684734 0.07537981 0.029713035
000010 bc f6 28 be 3e a9 d1 bd 88 48 a8 3d 29 b4 fd bd
       -0.16500372 -0.102373585 0.08216959 -0.123878784
000020 9c ed d4 3c 90 78 dc bd 4a 1c ce 3c 31 bf c3 3b
       0.025992207 -0.10765183 0.025159974 0.0059737195
000030 92 7c e7 3d e2 3b d6 3d f7 ba ea bd c1 58 9c bd
       0.11303057 0.104606405 -0.11461442 -0.07634116
000040 06 d5 b7 3b ce d8 03 3e cd 63 a0 3d 86 74 76 be
       0.005610111 0.12875673 0.078315355 -0.24067888
000050 c1 fb ca 3d 19 19 58 bb 9a 24 45 bd 38 ad 2b 3c
       0.099112995 -0.0032973944 -0.04813061 0.01047831
000060 40 05 26 bd 9f 25 11 3e fa 1b a0 bd 45 a6 1c be
       -0.04053235 0.14174508 -0.07817836 -0.15297802
000070 b1 5a b9 3c 94 41 47 be 1d 84 a8 3d 89 1f 30 3d
       0.022626253 -0.1945861 0.082283236 0.042998824
000080 33 4d f0 bd 25 1d c3 3d b5 29 26 3e c7 7f 10 be
       -0.117334746 0.09527043 0.16226847 -0.14111243
000090 41 2a a3 3d d3 da 65 bd 18 09 16 be d6 8a eb 3d
       0.07967044 -0.05611689 -0.14651906 0.1150109
0000a0 d2 f8 2a 3d a2 6f d4 3d 78 09 9f 3d 9c 0b 14 3d
       0.0417412 0.10372855 0.07765478 0.036143884
0000b0 4e a8 4e be ab 47 12 3d 13 e6 0c 3e 37 fc 7e bd
       -0.2018139 0.03571288 0.13759641 -0.06225225
0000c0 5b b1 66 bd 5d 72 df 3d 97 ac 15 3c 1b 55 73 3d
       -0.056321483 0.10910485 0.009135387 0.059407335
0000d0 1a ce 05 be af 58 4a 3c 35 c9 3c 3d 9a c7 2a be
       -0.13066903 0.012350245 0.046090323 -0.16677704
0000e0 55 d6 01 be e9 83 33 3e 35 b3 88 3d a1 58 9c 3d
       -0.12679417 0.17530788 0.06674806 0.07634092
0000f0 3d 35 0b be 21 f7 00 be ad c0 0a 3d 29 3b 39 be
       -0.13594528 -0.12594272 0.033875156 -0.18088974
000100 4a 1a 58 be b1 13 10 be 1b ce e1 bd e9 a6 2d be
       -0.21103778 -0.14070012 -0.110256396 -0.16958202
000110 d0 79 8a bd 87 1d b5 3d e0 25 fb bd 65 90 47 be
       -0.06761515 0.088435225 -0.122630835 -0.19488676
000120 9e e7 6d bc e5 12 84 be be 27 6e be 78 34 42 bd
       -0.014520554 -0.25795665 -0.23257348 -0.04741332
000130 14 69 64 be 81 8a a9 bc aa ae 74 bc 76 dd b3 bd
       -0.22305709 -0.020695927 -0.014934221 -0.08782475
000140 7e df d5 bb af 87 da bb 47 e6 a2 bd 48 38 47 be
       -0.0065268865 -0.006669007 -0.07954078 -0.19455063
000150 64 f8 77 3c d0 27 10 bd b5 88 db 3d 2d 0a 93 3d
       0.0151349045 -0.03519422 0.10719434 0.07179675
000160 c0 bf a7 3d 92 68 0e bd cc 21 06 be a4 f2 26 3e
       0.0819087 -0.034767695 -0.1309883 0.16303498
000170 7d f0 5a bd 00 a6 51 bd c3 cf f9 3d fb 6c 2e 3e
       -0.053452004 -0.0511837 0.121978305 0.1703376
000180 09 67 f7 3c 55 50 d2 3d df e2 82 bb 42 e9 ae 3d
       0.030200498 0.10269228 -0.0039943303 0.08540584
000190 11 c8 ba 3d 38 95 af 3c 86 d9 4a 3e 65 b4 62 bc
       0.09120191 0.021433458 0.19809541 -0.013836955
0001a0 3c ae f1 3c 56 c0 d0 3d 97 ff 04 3e a1 2f cb 3d
       0.029502027 0.10192935 0.12988125 0.09921194
0001b0 9c 0c a1 38 b6 c0 13 3d c4 31 f7 3b 2c 52 19 bd
       7.679427e-05 0.036072455 0.0075437743 -0.03743188
0001c0 80 1b e5 bd a8 e0 35 ba ce 07 b7 3d 54 a0 d1 3c
       -0.11186886 -0.00069380784 0.089370355 0.025589146
0001d0 16 09 06 3c 9c 02 f6 bd 62 28 f0 bd a5 fb 11 be
       0.008180877 -0.120122164 -0.117264524 -0.14256151
0001e0 4c 48 3e 3b ef 16 05 3e aa 61 17 be 5d 68 54 be
       0.0029034792 0.1299703 -0.1478335 -0.20742936
0001f0 6e ed 9e 3d 73 8b 0b be 1e de 12 3d 7e 49 25 3e
       0.0776013 -0.13627414 0.03585636 0.16141316
000200 84 57 82 3d 9c 43 01 be 7e a2 13 be c2 b7 1b 3d
       0.063643485 -0.12623447 -0.14417455 0.038017042
000210 4a d6 49 be 0c 97 85 3d 50 2c c3 3d 19 df 0f bd
       -0.19710651 0.065229505 0.09529936 -0.035124872
000220 fb 92 6a bd c1 48 e5 3d d3 e6 62 ba 86 60 e1 3d
       -0.057269078 0.11195517 -0.00086556113 0.110047385
000230 02 66 a7 3c ab 03 06 3e 40 fc a2 bc 58 08 d2 bd
       0.020434383 0.13087337 -0.019895673 -0.10255498
000240 f1 66 4f 3d b4 df 02 be 02 32 29 3e b3 ae fb bc
       0.050635282 -0.12780648 0.16522983 -0.030722952
000250 b9 43 03 3e 08 b8 44 3d 8b ad 2a 3e d3 51 81 3d
       0.12818803 0.04802707 0.16667764 0.06314435
000260 ba aa 9a bd 64 3f 2e be 23 6f 30 3e 00 db 35 bd
       -0.07552095 -0.17016369 0.17229895 -0.044398308
000270 ae 6e 34 be 7e db 5f bd 97 8c d9 3d b5 fe 89 3d
       -0.17620346 -0.054652683 0.106225185 0.06738035
000280 09 df c0 bd 28 8f 85 3d ba 0f 05 be 92 34 46 3d
       -0.094175406 0.065214455 -0.1299428 0.04838998
000290 08 fc 51 3d 38 81 74 3d 89 aa 36 bd 21 43 1f bd
       0.051265746 0.059693545 -0.04459623 -0.03888238
0002a0 4f 62 93 3c ee 7c 3a bd 80 7f a8 bc 52 25 36 3e
       0.017991213 -0.0455293 -0.02056861 0.17787674
0002b0 0e d4 0a 3e 2e c3 27 3e aa 18 3a 3d fa 3a 27 be
       0.13557455 0.16383049 0.045433678 -0.16331092
0002c0 a4 84 f6 bd 24 d1 eb 3d f5 a5 8b 3d cc 66 5b bd
       -0.12037018 0.115145 0.06818763 -0.05356483
0002d0 97 86 0d bd dc 18 23 3d 90 26 ae bd c1 30 22 3e
       -0.034552183 0.03981863 -0.08503449 0.1583891
0002e0 19 91 d9 bd 6f 0b 17 be 05 cd 95 bd a3 7b 13 3e
       -0.10623378 -0.14750455 -0.07314495 0.14402632
0002f0 c9 9d 3f bd 0b c3 c8 3b 7a fc 08 3e 98 24 c5 bd
       -0.046781335 0.0061267666 0.13377562 -0.0962612
000300 c8 24 0c 3e 3b 4e 13 be 28 73 9a 3d e0 de 15 3e
       0.13685906 -0.14385311 0.075414956 0.14635801
000310 af c2 2a bd e1 d7 4e be b3 d7 2d be 59 bf fe 3d
       -0.04168957 -0.20199539 -0.16976814 0.124388404
000320 30 4c 5c bd 71 60 b9 3c 1e 4b db bc eb 77 72 bc
       -0.053783596 0.022628995 -0.026769217 -0.0147990985
000330 7c 4b aa bb 5f b7 0c be 4d 45 d9 3c d5 e0 bb bd
       -0.0051969867 -0.13741826 0.026522303 -0.09173743
000340 90 94 28 be d8 60 cc bd f1 1d 4c bd b8 80 80 3d
       -0.16462922 -0.09979409 -0.04983324 0.06274551
000350 68 6c 60 bd ed 15 d0 3d 16 f1 b9 bd 1f c4 05 bd
       -0.054790884 0.10160432 -0.090791866 -0.03265774
000360 25 c8 40 3d d6 91 a2 bc 3e 16 59 be 86 67 e8 bd
       0.047065873 -0.01984493 -0.21199891 -0.113478705
000370 14 9a e5 bc e3 73 00 be 70 1e ec 3d f3 b5 a3 bd
       -0.028027572 -0.12544207 0.11529243 -0.079936884
000380 b7 7b fc 3c 29 37 c7 3d 76 5b e7 3d ee 55 6f 3d
       0.03082071 0.09727318 0.11296742 0.05843156
000390 77 75 cf 3d 17 09 e5 3d fe 77 78 bd d6 b3 92 3d
       0.101298265 0.111833744 -0.06066131 0.07163207
0003a0 52 ab cf bc 0c ff b2 3d 30 0f 0d 3e 25 30 86 bd
       -0.025350247 0.087400526 0.13775325 -0.065521516
0003b0 41 f1 e9 bd 27 73 84 bd 4e ad fe bd fc bc f7 bd
       -0.11422969 -0.06467276 -0.12435399 -0.12096593
0003c0 76 9d 30 be 38 c6 20 be 96 c7 00 be a6 5d 3a bd
       -0.17247567 -0.15700614 -0.12576136 -0.045499466
0003d0 d1 a3 ed bd c9 e1 b3 bd 6e df fd bd 65 fd 0d 3e
       -0.11603511 -0.087832995 -0.123961315 0.13866194
0003e0 c7 9e 3c be 94 17 5b be bd 67 6c bb 0c 96 bf bc
       -0.18419944 -0.21395713 -0.0036072575 -0.023386978
0003f0 6e 28 12 be 4c e5 69 bd fa d9 12 3e 79 9a ae 3d
       -0.14273235 -0.05710344 0.14340964 0.08525557

lstm.weight_hh_l0 f4 [128, 32]
000000 f4 11 48 3d 3c ba 32 3d 8e d4 fc bd 64 29 3e 3d
       0.048845246 0.04363464 -0.12345229 0.046426192
000010 d6 51 ce 3d 5a fa ef 3d ea e1 ea 3d 34 0e e0 bd
       0.10074203 0.11717673 0.11468871 -0.10940209
000020 a4 39 5d 3d 62 73 8b 3d f8 fa bd 3c 82 48 e0 bd
       0.05401005 0.06809117 0.02319096 -0.1095133
000030 0e 45 a5 3d 51 a6 17 be e5 65 1f be f8 dc 75 bd
       0.08069812 -0.14809538 -0.15566213 -0.060025185
000040 bd 09 1f be c0 36 9a 3c 80 67 8b 3d 9a c8 b3 3d
       -0.15531059 0.018824935 0.068068504 0.08778496
000050 35 74 02 3e 60 f5 c6 3c 24 27 19 be 80 59 78 3b
       0.12739642 0.024286926 -0.14956337 0.0037895143
000060 e6 3a aa 3d 2f 76 2f be e0 66 59 bd 93 3f 12 be
       0.08312015 -0.17134927 -0.053076625 -0.14282064
000070 f2 1e c5 3d 31 32 11 3e d7 ec 2e be b2 3c ac 3d
       0.09625043 0.14179303 -0.17082535 0.08410014
000080 1a 0f 9f 3d 3e 68 ec bd a0 b1 44 bd 0e dc a4 3d
       0.07766552 -0.1154332 -0.04802096 0.080497846
000090 d8 1c ab bd 8b 72 06 be f5 83 ac bd af 9b 21 be
       -0.08355111 -0.13129632 -0.08423606 -0.15782045
0000a0 48 05 5e 3d 44 68 16 3d ec ef 21 bd 30 15 fb bc
       0.054204255 0.03672053 -0.039535448 -0.030649751
0000b0 7a 05 08 be 5a f9 29 be 76 d9 78 bd d7 71 09 3e
       -0.13283339 -0.16599026 -0.060754262 0.13422333
0000c0 88 3f 23 be 10 b1 0d 3c ff 54 9e bd 44 2d 06 bd
       -0.15942204 0.008648172 -0.077310555 -0.032758012
0000d0 de 84 aa 3d 88 f6 4a bd 14 3d 18 bd 45 9b 0e 3e
       0.08326124 -0.049551517 -0.037167624 0.13926418
0000e0 0e cc e9 3d 7a 14 b4 bd 70 27 09 be 66 ce ac bd
       0.114158735 -0.08792968 -0.1339395 -0.08437805
0000f0 51 7d c3 bd 7a 79 dd bd c0 4d 44 bc 10 6d 9b bc
       -0.095453866 -0.108141854 -0.011981428 -0.018972903
000100 b2 48 04 be 12 65 98 3d cc dd 9e bd 50 1a 57 3c
       -0.12918356 0.07441153 -0.07757148 0.013128832
000110 f6 1f c5 3d 9d a8 1d 3e 3d 02 ea bd 84 96 14 be
       0.09625237 0.15396352 -0.11426208 -0.14510542
000120 d0 96 bc bc 12 36 cf 3d f9 32 10 be 8f 3d 96 bd
       -0.023021132 0.10117735 -0.14081945 -0.0733596
000130 c6 51 30 be 17 37 fc bd 00 61 68 3d 3a d4 e9 3d
       -0.17218694 -0.12315195 0.05673313 0.11417432
000140 08 81 17 be 01 ab 23 be 30 8b 75 bd 1e 90 f4 3d
       -0.14795315 -0.15983202 -0.059947193 0.11941551
000150 58 3f 38 3d fc 6e 50 3d 53 ad a7 bd c2 5c 33 be
       0.044982284 0.050887093 -0.08187356 -0.17515853
000160 7a 32 a9 3d 51 87 0d 3e 48 94 e8 bc 4d d0 1a be
       0.08261581 0.1382115 -0.028391019 -0.15118523
000170 e0 7a 2f bd c0 66 c0 3c 8e 2a 9b 3d c2 5f 7a bd
       -0.042841792 0.023486495 0.07576476 -0.061126478
000180 48 36 37 3d 64 8e 89 3d 04 9a c8 bd 88 92 f3 bc
       0.0447295 0.06716612 -0.09795001 -0.029732957
000190 7b 59 b5 bd 90 83 17 bd 29 3a 12 3e b7 10 1d 3e
       -0.08854958 -0.036990702 0.14279999 0.15338407
0001a0 d8 3d 04 bd 58 9c 37 3d 3a fe c1 3d 3d ee 16 3e
       -0.03228554 0.044826835 0.09472318 0.14739318
0001b0 23 94 29 3e 7e 53 89 bd 12 14 cb bd dd ca 13 be
       0.16560416 -0.06705378 -0.099159375 -0.14432855
0001c0 f0 14 01 bd 32 2b f6 3d 8f f3 a1 bd 35 d3 09 3e
       -0.03151411 0.120199576 -0.07907783 0.13459475
0001d0 0c 84 ed bd c5 d9 11 3e 60 61 65 bd 79 93 a9 bd
       -0.115974516 0.14243229 -0.056001067 -0.08280081
0001e0 54 c1 f8 bd d5 2a 03 3e 36 e2 b0 3d 2f 28 17 3e
       -0.121462494 0.12809308 0.08636896 0.14761423
0001f0 26 04 cd bd 2e fc 8d 3d f8 15 73 3d 82 6e 78 bd
       -0.10010557 0.06932865 0.059347123 -0.060652263
000200 0e 99 e4 3d 60 aa ca bb 9b bb 33 3e 4b 1c 06 be
       0.11162005 -0.006184861 0.17552035 -0.1309673
000210 40 dc af 3b 6c 65 7d 3d 0f 1c 1b 3e 4a 29 b0 3d
       0.005366832 0.0618643 0.15147422 0.08601625
000220 65 d9 19 be 18 d3 d0 3c 9a 18 62 bd 64 3d 45 bd
       -0.15024336 0.025491282 -0.055199243 -0.04815425
000230 c8 33 26 bd 12 96 b2 3d a8 d4 5d 3d 90 af f0 3c
       -0.040576726 0.0872003 0.054157883 0.02938059
000240 60 1b 4c 3d 9b 6a 10 3e d0 36 eb bc ee 54 8f 3d
       0.049830794 0.14103167 -0.02871266 0.06998621
000250 db 13 b9 bd 95 65 99 bd 79 b4 30 3e 00 ac 3b 3c
       -0.0903699 -0.07490078 0.17256345 0.011454582
000260 b4 18 03 3d 3b 8b f9 bd a9 81 24 be 6a 2e 8f 3d
       0.03200598 -0.12184759 -0.16065086 0.06991275
000270 e8 c7 9c 3c ee 40 98 bd 77 90 0e be ad 15 06 3e
       0.019138291 -0.07434259 -0.13922296 0.13094206
000280 1d d1 1f 3e a0 52 53 3d 79 56 e0 bd f0 ba d3 bd
       0.15607114 0.05159247 -0.10953993 -0.1033839
000290 a0 24 80 3d 5c c3 82 3d c3 83 25 3e 70 50 2c 3d
       0.06256986 0.06384918 0.16163544 0.0420689
0002a0 a6 75 33 be 35 05 9d bd 44 ed 26 bd 3a 06 ac 3d
       -0.17525348 -0.07667009 -0.040753618 0.08399625
0002b0 05 9d 1b be 0f 41 2a 3e 9d e5 9d bd 00 dc 13 39
       -0.15196617 0.1662638 -0.07709811 0.00014100969
0002c0 76 8e e3 bd 12 8c bd 3d 4c d4 09 be 64 b6 17 bd
       -0.11111157 0.09255232 -0.13459891 -0.037039176
0002d0 46 8f 8c 3d 7e 8c af 3d e0 0e a6 3c d0 9a 0f 3c
       0.06863265 0.08571719 0.020270765 0.0087649375
0002e0 a0 95 b9 bc 74 c1 00 3d 03 c7 08 3e ac b3 13 be
       -0.022654355 0.03143449 0.13357167 -0.14424008
0002f0 ec e6 12 bd 71 8b 02 3e 27 91 0f 3e 68 c9 c5 bc
       -0.035864756 0.12748505 0.14020215 -0.02414389
000300 30 6f 2b be 4b ab fb bd b6 aa fb 3d e4 95 12 be
       -0.16741633 -0.12288531 0.1228842 -0.14314991
000310 a1 a5 bd bd 4e a9 f9 bd b0 41 72 bc 9a 46 23 be
       -0.09260107 -0.121904954 -0.014786169 -0.15944901
000320 fb ea 07 3e 68 a3 08 bd 98 95 9a 3c a0 71 87 3d
       0.13273232 -0.03335896 0.01887016 0.06613469
000330 1c 44 30 bd c8 c5 97 bc 28 17 9a 3c 20 55 79 bc
       -0.043033704 -0.018526927 0.01880987 -0.015218049
000340 ec 80 1b 3d bb 59 10 be 41 ae 23 3e 96 98 90 bd
       0.037964746 -0.1409673 0.15984441 -0.070603535
000350 c0 11 de 3b a2 e4 8c bd 7b 06 13 be 14 58 5b bd
       0.0067770183 -0.06879546 -0.14357941 -0.053550795
000360 f0 9a 58 bc 78 bf b7 3c 28 20 eb bc 35 31 0b 3e
       -0.013220534 0.022430167 -0.028701857 0.1359299
000370 f9 c9 cf bd ec 92 19 3d 10 b0 ee bc 00 e5 87 bb
       -0.10145945 0.03749363 -0.029136688 -0.004147172
000380 f9 c4 04 3e 4a 6c 98 3d 21 a9 d7 bd 91 25 1f 3e
       0.12965764 0.074425295 -0.10530306 0.15541674
000390 8a a3 90 3d 76 c4 be 3d 46 1c db bd 35 c2 1e 3e
       0.070624426 0.09314816 -0.10698752 0.15503772
0003a0 bd 4d 12 be 00 62 a0 ba 14 6e 5d 3d e3 33 bb bd
       -0.14287467 -0.0012236238 0.054060057 -0.09140756
0003b0 d3 0d 2a 3e 7b b2 80 bd 32 b4 d9 3d 50 27 d1 3c
       0.16606836 -0.062840424 0.10630073 0.025531441
0003c0 5c 91 62 3d d8 7e 4e bd 06 1b 9b 3d 4f d1 17 3e
       0.055314407 -0.050413936 0.07573514 0.14825939
0003d0 43 20 0b 3e 2a 61 8c bd 4e 50 fb 3d b8 3f 60 3d
       0.13586526 -0.0685447 0.12271176 0.054748267
0003e0 c8 ef 2b bd a0 aa 00 bc c0 7f 0e bd b0 25 1d bc
       -0.04197672 -0.00785318 -0.0347898 -0.009591505
0003f0 06 f5 bc 3d 84 9c 0a bd 7b 1f 1d be 10 77 7d bc
       0.09226422 -0.03384067 -0.1534404 -0.015470281

lstm.bias_ih_l0 f4 [128]
000000 d9 fc 97 3d d2 6e b6 bc 88 c8 02 3e 36 6a d0 bd
       0.07421274 -0.02226964 0.12771809 -0.10176508
000010 09 ef 2c 3e a7 87 64 3d 66 ee 70 3d 1f bf 12 be
       0.1688806 0.05579343 0.058821104 -0.1433072
000020 24 ad d6 bd 72 8f 89 bd d9 8d 86 3d ff 62 ec 3d
       -0.10482243 -0.06716813 0.06570024 0.115423195
000030 3a ab 97 3d 1a 80 23 3e 45 f7 11 be 33 08 0a 3e
       0.07405706 0.15966836 -0.14254482 0.1347969
000040 10 a6 b6 3c af 21 cb 3d b0 4b 44 be ca 74 06 3d
       0.022295982 0.09918534 -0.19169497 0.032826222
000050 c1 5a 48 3b e1 79 a4 bc 59 3d b2 3c f5 bd 0a bd
       0.0030571672 -0.020077648 0.021757768 -0.033872563
000060 56 08 8d 3c 22 7d 35 be 0b ae 60 be 7d 82 c2 3d
       0.017215889 -0.17723516 -0.21941392 0.09497545
000070 7f 67 bd bc 71 73 9d 3d cc d0 6b 3d 31 a8 bc 3c
       -0.02312064 0.07688034 0.05757217 0.023029419
000080 e2 08 0b be b8 81 fb bd 2e 86 cc 3d 0a 0a cc 3d
       -0.13577607 -0.12280601 0.0998653 0.09962852
000090 10 6e 06 3c 60 24 77 3c 54 25 24 3d 40 3d 22 3c
       0.008204952 0.015084356 0.04007466 0.009902298
0000a0 11 99 11 3e 64 63 2a bd e0 7b 19 be 9c 4a 4d 3d
       0.14218546 -0.041598693 -0.14988661 0.05011998
0000b0 db ba 9d bd 50 f3 7a 3c a4 79 88 3d c4 ae 3a bd
       -0.077016555 0.015316799 0.06663826 -0.045576826
0000c0 b6 23 ff 3d a4 73 e8 bd 43 c5 07 3e 28 24 84 3c
       0.12457983 -0.11350182 0.13258843 0.016130522
0000d0 29 ec 85 bd f7 9a af bd e6 fc a1 3d 19 9c e7 bd
       -0.065391846 -0.08574479 0.07909565 -0.1130907
0000e0 6f 9e 25 3e 20 ce 31 3d b2 36 b4 bd b8 91 7e 3d
       0.16173719 0.043409467 -0.08799495 0.062150687
0000f0 b3 19 1a 3e 45 39 9f bd 5b 6c 27 be b8 c6 a7 3c
       0.15048866 -0.07774595 -0.16349928 0.020480499
000100 63 d0 83 bd b3 bb 83 bd d6 36 ba 3c 2f 44 82 3d
       -0.06436231 -0.06432285 0.022731226 0.06360661
000110 2b 7b 21 3e 36 4b be bd b3 ec 9e bc 97 2e bc 3c
       0.15769641 -0.09291689 -0.019399976 0.022971435
000120 3b cc 40 be 67 17 83 bd 80 fd 86 3d f5 0f 3f 3c
       -0.18827908 -0.06400948 0.0659132 0.011661519
000130 75 91 75 bd b7 3f 65 bc ed 74 94 3d 63 4e 53 bd
       -0.05995317 -0.013992242 0.07248864 -0.051588427
000140 6a 58 b9 3d 72 5d 83 3c dd 9b f2 3d 1f d5 b0 bc
       0.09050067 0.01603577 0.11846135 -0.021585999
000150 1c 59 d6 3b b2 de 75 bd 58 a4 85 bd 1e 92 cb 3d
       0.0065413844 -0.060026832 -0.06525487 0.09939979
000160 d0 5b 00 bd f7 b4 24 be 81 ad c1 3d 03 5a 0e bd
       -0.03133756 -0.16084658 0.09456921 -0.03475381
000170 e2 26 ec bc c8 52 30 bd 0c 25 b8 bd 07 f7 2f bd
       -0.028827135 -0.043047696 -0.08991441 -0.042960193
000180 91 1c c4 bd bf 82 fc 3d db 17 8b bd e3 14 ab 3d
       -0.09575761 0.12329625 -0.067916594 0.08353593
000190 ba 02 c5 3c 59 4c 0a 3e 7c aa b8 bd 87 ff c6 bd
       0.024049152 0.13505687 -0.09016892 -0.09716707
0001a0 35 5a 30 3e be e3 8d 3c 5b ab a3 3c 30 45 09 be
       0.17221911 0.01732051 0.01997917 -0.13405299
0001b0 b8 af 8a ba 31 4b 0e be 1b 20 f3 3c c4 e2 19 be
       -0.0010580933 -0.13895871 0.029678395 -0.1502791
0001c0 02 34 61 3d b7 66 18 3e 65 f5 78 3d d8 3c 4e bd
       0.05498124 0.14882933 0.0607809 -0.050350994
0001d0 76 e5 4b be 5f 9e 35 be 0c 57 ef bd 4f 4b 4e bd
       -0.19911751 -0.17736195 -0.11686525 -0.05036479
0001e0 f9 f2 be bd 60 3e fc bd 48 1e c0 bc 7f 33 d1 bd
       -0.09323687 -0.123165846 -0.02345194 -0.102149
0001f0 77 b8 dd bc d9 98 b0 3c 4e 8e a9 3d 4a dc 5c be
       -0.027065499 0.021557258 0.082790956 -0.21568409

lstm.bias_hh_l0 f4 [128]
000000 ec 18 5d bd d2 98 b2 bd 92 c0 20 be 2e 20 0e 3d
       -0.053978845 -0.087205544 -0.1569846 0.034698658
000010 e8 62 8c bd 44 0b 32 3c 00 1f 2c be b3 d4 16 be
       -0.06854802 0.010866944 -0.168087 -0.14729576
000020 c6 e8 d9 3d 81 da 6b bd 31 ac d1 3d 47 9c 1d be
       0.10640101 -0.05758143 0.10237921 -0.15391646
000030 71 d1 b3 3d 46 cb 22 be 46 3f df bd d8 8b 12 3e
       0.08780182 -0.15897855 -0.1090074 0.14311159
000040 d2 47 a4 bd 6f 50 71 3d 90 8e 60 be f0 72 a0 3d
       -0.08021511 0.058914598 -0.21929383 0.078344226
000050 81 82 86 3d 9a c8 78 bd 5a 14 dc 3d 14 11 94 3d
       0.065678604 -0.060738184 0.10746069 0.0722982
000060 b1 36 e1 3d 90 4d cd 3d 68 e6 2e be 35 08 01 bd
       0.1099676 0.100245595 -0.1708008 -0.031501967
000070 0a 0a ba bd f2 a4 14 3d f8 5a e5 3d e8 02 34 be
       -0.09083946 0.036290117 0.111989915 -0.17579234
000080 88 09 f4 3c 85 13 17 be 04 de 10 be eb cf a5 bd
       0.029789701 -0.1475354 -0.14147192 -0.08096298
000090 5f aa 27 be 1f 76 1d 3e 80 5c e1 bc 38 57 99 3c
       -0.16373585 0.15377091 -0.027509928 0.018718347
0000a0 bc 17 0f 3d 84 39 25 bd 91 3b cb bd 7d 4c 26 3e
       0.034934744 -0.040338054 -0.09923471 0.16240115
0000b0 48 7a 7a 3d 6b d0 31 be ed 2a 15 be 6d cc 18 3e
       0.061151773 -0.17364661 -0.14567156 0.14921732
0000c0 a4 cd 46 bd d0 8f 5c bc 30 50 3a bd d8 93 a8 bd
       -0.048535958 -0.013462022 -0.04548663 -0.08231324
0000d0 60 d5 7b 3c e1 4a 02 3e 29 11 1a be 7c 8d 74 bd
       0.015370697 0.12723877 -0.15045609 -0.059705243
0000e0 39 d2 09 3e 61 90 02 3e 88 00 38 3d 28 f1 a9 3c
       0.134591 0.12750389 0.04492238 0.020744875
0000f0 2a 7f 23 be d4 c1 18 bd d9 8c 27 be 40 aa 06 3b
       -0.15966478 -0.037294224 -0.16362323 0.0020548254
000100 cc d3 63 3d 32 9f c7 bd 32 b9 3a bc 1e 20 58 3c
       0.055621907 -0.09747161 -0.011396693 0.013191251
000110 0c d4 30 3e 0c 1e cc 3d 49 e9 1d be a1 46 02 be
       0.1726839 0.099666685 -0.15421022 -0.12722255
000120 a7 ec 24 bd d3 81 4c bd f8 91 d5 3d 1d 24 05 3e
       -0.04026475 -0.049928498 0.10428232 0.13002057
000130 21 94 0f 3d 45 07 a6 bd 2d f3 f9 bd 3e ce 56 3d
       0.035053376 -0.08106855 -0.12204585 0.05244278
000140 4e 0a eb bd 54 5b bf 3d 85 8e ff 3d 6f b1 28 3e
       -0.11476575 0.09343591 0.12478355 0.16473936
000150 6e 29 e8 bd 1f a0 2e be c3 e7 d1 3d 8e cd c3 3c
       -0.11336027 -0.17053269 0.10249283 0.023901727
000160 d7 9e e7 bd a7 c3 dc 3d c5 de 43 3d a7 7b 7b bd
       -0.11309593 0.10779505 0.04781987 -0.06139722
000170 60 d3 42 3d 46 ba f7 bd 93 1e 21 3d cb 2b 41 bd
       0.047564864 -0.12096076 0.0393358 -0.047160905
000180 cd 74 c1 3b 40 0a 05 3c e0 9e 30 be af f7 2b be
       0.0059038163 0.00812012 -0.17248106 -0.16793703
000190 9e f0 2e 3e a4 a6 32 3d 9c 72 99 bd 13 57 ce 3d
       0.17083976 0.043615952 -0.07492563 0.10075202
0001a0 01 70 d0 3d be 28 29 be 14 96 20 be 69 f5 68 be
       0.10177613 -0.16519448 -0.1568225 -0.22749867
0001b0 37 d7 55 be 6e 32 0a 3e ff 95 25 be 52 15 f3 bc
       -0.20882879 0.134958 -0.161705 -0.029673252
0001c0 3b 48 00 3d 28 34 f6 bc 41 63 14 be 69 42 a5 3b
       0.031318884 -0.030054167 -0.14490987 0.005043317
0001d0 be 04 61 be 63 f1 d2 3d f4 ee c9 3d 95 7b af bd
       -0.21974465 0.10299947 0.0986003 -0.08568493
0001e0 ac 25 37 be aa 8f dc bd ce a5 12 3d 66 57 1d bd
       -0.17885464 -0.10769589 0.035802655 -0.038413428
0001f0 08 5c de bd c2 74 0a be fd 3e a9 3b e4 00 d5 bd
       -0.10857397 -0.13521102 0.0051649795 -0.104005605

fc.weight f4 [1, 32]
000000 de 06 96 3a b5 2e fd 3d dd 7b 50 bd 8a d9 b6 3d
       0.0011446138 0.12362424 -0.050899375 0.08928211
000010 2d eb df bd 98 de d4 3d 41 78 04 3e 6f 74 03 3d
       -0.10933528 0.10394019 0.12936498 0.03209346
000020 2d a6 3d 3e 04 cc ff 3d e7 c6 14 3d 58 ec cc 3c
       0.18520422 0.12490085 0.0363225 0.025015041
000030 11 6c 8c 3a b1 57 19 3e 3a c2 cb 3d 9a 83 d3 bd
       0.0010713359 0.14974858 0.09949155 -0.103278354
000040 df 88 23 3b da 39 b3 bd b1 cd 95 bb 40 1f 81 bd
       0.0024953408 -0.08751269 -0.0045716395 -0.063047886
000050 bf a9 31 3c 28 90 f8 3d ba f7 d9 3d 4c 11 43 be
       0.010843693 0.121368706 0.10642953 -0.19049567
000060 04 9c 19 3c 95 2f 29 3d bf b9 8f 3d a2 34 e3 bd
       0.009375576 0.041305143 0.0701785 -0.11094023
000070 bd 48 d3 3d 11 a5 c5 bc 72 4e 25 3e 95 9e 7d bc
       0.10316608 -0.024126561 0.16143206 -0.015479703
