best_models/best_model_nn_search_2_features_50.pt (torch, 398826 bytes, 19 tensors)

model.0.weight f4 [256, 50]
0	0x3d8b5ce3	0.06804826
1	0xbe0f45e1	-0.139915
2	0x3de2630b	0.11054047
3	0x3ca17154	0.01970736
4	0xbd64ef6e	-0.0558924
5	0x3dbd9460	0.09256816
6	0xbe060d1b	-0.13090937
7	0x3d9289d2	0.071551934
8	0x3c429573	0.011876452
9	0x3e04bfa4	0.1296373
10	0xbc457c73	-0.012053597
11	0x3dc856ca	0.09782179
12	0x3dc04acc	0.09389266
13	0x3dab88d7	0.083757095
14	0xbe33cf8f	-0.17559646
15	0x3d28c304	0.041201606
16	0x3d760aa2	0.060068734
17	0x3e428b6c	0.18998498
18	0x3c037724	0.008024011
19	0xbe2d3a6d	-0.16916819
20	0x3d6150d6	0.05500873
21	0xbd32b31b	-0.04362784
22	0x3c95e17e	0.018296
23	0xbe074755	-0.13210805
24	0x3cb623f0	0.022233933
25	0xbdb895e6	-0.09012966
26	0xbd61e65f	-0.05515134
27	0xbdf4d3fc	-0.11954495
28	0xbe4be150	-0.19910169
29	0xbd8030ae	-0.06259285
30	0xbdc6c4eb	-0.09705528
31	0x3e135195	0.1438659
32	0x3cacb40e	0.02108195
33	0xbe382c88	-0.17985737
34	0x3b66b173	0.0035200983
35	0x3c3a75cd	0.011380625
36	0x3c239e79	0.009986513
37	0x3bf1ceaf	0.007379375
38	0xbdf0da43	-0.1176038
39	0x3dd8713a	0.10568471
40	0xbd6d44a8	-0.057926804
41	0xbade19e3	-0.0016944971
42	0x3c432f26	0.0119130965
43	0xbd9b5e8c	-0.07586393
44	0x3def9137	0.116976194
45	0xbdca8485	-0.09888557
46	0xbcce509c	-0.025184922
47	0x3ae285e9	0.001728234
48	0xbd80a125	-0.06280736
49	0xbdcf4bec	-0.10121903
50	0x3d494fcd	0.04914837
51	0xbd0ef873	-0.03490491
52	0x3d6a57d9	0.057212684
53	0xbd41336c	-0.04716818
54	0xbdfb4cdb	-0.122705184
55	0xbda2a166	-0.079409406
56	0x3d3ce330	0.0461151
57	0x3e25b002	0.16180423
58	0xbdddf2f9	-0.10837359
59	0x3dc0d59c	0.09415743
60	0xbdfee7eb	-0.124465786
61	0xbe565210	-0.20929742
62	0x3cf43a2d	0.029812897
63	0xbd8638d9	-0.065538116
64	0x3d8dd1e6	0.069248006
65	0xbd04f157	-0.032456722
66	0xbe1eae8d	-0.15496273
67	0xbace74d1	-0.0015751367
68	0x3e800d27	0.25010034
69	0xbe1b7888	-0.15182698
70	0x3e24017f	0.16016196
71	0xbe2a875c	-0.16653198
72	0xbe361242	-0.17780402
73	0xbc2fd4b6	-0.010731867
74	0x3cc10402	0.023561481
75	0xbe0feb6f	-0.14054655
76	0xbd201fc8	-0.03909281
77	0x3e0aa5a4	0.1353975
78	0x3d490366	0.049075507
79	0xbce1a485	-0.02754427
80	0xbdc2bfd5	-0.09509245
81	0x3e097e33	0.13427047
82	0xbda024be	-0.07819508
83	0x3d1b7c07	0.03796008
84	0x3e0cfb67	0.13767777
85	0xbe1b4573	-0.15163212
86	0x3e1dcb27	0.15409528
87	0xbd3f0e26	-0.046644352
88	0x3d8a5b8c	0.067557424
89	0xbd87d4bd	-0.066323735
90	0x3e159cb3	0.14610557
91	0x3d94ef3b	0.07272192
92	0xbe19415e	-0.14966342
93	0xbdf26fc0	-0.11837721
94	0x3d5878a9	0.052849445
95	0xbc8d094f	-0.017216353
96	0x3dc8f0b8	0.098115385
97	0xbe52a409	-0.20570387
98	0xbc33d7c4	-0.0109767355
99	0x3d8ad488	0.06778818
100	0xbdceba4f	-0.10094129
101	0x3ce25377	0.02762769
102	0x3d4ed079	0.050491784
103	0x3e1c945a	0.15290967
104	0x3e3732d0	0.17890477
105	0x3e12ea2b	0.1434714
106	0xbac742d7	-0.0015202415
107	0xbd9edb3f	-0.077566616
108	0xbe2d1928	-0.16904128
109	0x3dc18af1	0.09450329
110	0x3cabb12a	0.020958502
111	0xbd89f1c2	-0.06735565
112	0xbdd50b87	-0.10402589
113	0xba6539a3	-0.0008744245
114	0xbd4b0d98	-0.04957351
115	0x3dd23664	0.102642804
116	0x3dbbcf50	0.09170401
117	0x3dd8904d	0.10574398
118	0x3ccefd53	0.025267279
119	0xbddea545	-0.108713664
120	0x3d906ba6	0.07051782
121	0xbdc20401	-0.0947342
122	0x3c3dc65d	0.011582938
123	0xbd737770	-0.059440076
124	0x3d699edc	0.057036266
125	0x3da2e7ac	0.07954344
126	0x3d7efd1f	0.062253114
127	0xbc00c8af	-0.007860347
128	0x3c6f9b24	0.014624391
129	0xbd3455fc	-0.044027314
130	0xbe4fbd47	-0.20287047
131	0x3dd91fa3	0.10601737
132	0xbd2e4661	-0.042547587
133	0x3d2d1df0	0.04226488
134	0xbe14fae2	-0.14548829
135	0x3e77ae17	0.24187504
136	0x3d1f70ed	0.038926054
137	0x3c88ec04	0.016714104
138	0xbcc56691	-0.024096759
139	0x3d31758e	0.043325
140	0xbe134078	-0.14380062
141	0xbe095278	-0.13410366
142	0xbdbb6d0d	-0.09151659
143	0xbdb30d9f	-0.087428324
144	0xbe5cc3d6	-0.2155908
145	0xbcf3184a	-0.029674668
146	0x3cbea27b	0.023270836
147	0x3d76ec80	0.060284138
148	0x3d95e3d2	0.07318844
149	0xbd2ad62c	-0.041708156
150	0x3dd8476c	0.10560498
151	0xbddf27cc	-0.108962625
152	0xbe457eb6	-0.19286618
153	0x3db040ef	0.08606135
154	0x3d9a9546	0.07548003
155	0x3d910ca6	0.070824906
156	0x3dd2ceeb	0.10293373
157	0xbe033618	-0.12813604
158	0x3e75efd8	0.24017274
159	0x3d3156d4	0.043295696
160	0xbccf6692	-0.025317464
161	0x3a60c097	0.000857362
162	0x3e4ef054	0.20208865
163	0xbe317116	-0.17328295
164	0xbbafd3c0	-0.0053658187
165	0x3da51f12	0.08062567
166	0x3d646999	0.05576477
167	0x3d6152b0	0.055010498
168	0x3e2ea586	0.1705533
169	0x3dac0e32	0.08401145
170	0xbc9763e0	-0.018480241
171	0xbda8849f	-0.082284205
172	0x3c832ef4	0.0160136
173	0x3db6aae3	0.08919313
174	0x3dd4f57a	0.103983834
175	0xbd883cf8	-0.06652254
176	0xbe0d1e0e	-0.13780996
177	0xbdbbc578	-0.091685236
178	0xbc944fff	-0.018104551
179	0xba6fd718	-0.0009149178
180	0x3e09d0ee	0.13458607
181	0xbc94328c	-0.018090509
182	0x3d9330e3	0.07187059
183	0xbc49ab27	-0.012308872
184	0xbdf3aad3	-0.118978165
185	0x3e16170c	0.14657229
186	0xbbf763d0	-0.0075497404
187	0xbc0d8354	-0.008637268
188	0x3e227cdc	0.15867943
189	0xbcb2b503	-0.021814829
190	0xbe120134	-0.14258271
191	0x3d851308	0.064977705
192	0xbdee1673	-0.116253756
193	0x3d8112f3	0.063024424
194	0x3e1bc564	0.15212017
195	0xbe0d1a5d	-0.13779588
196	0x3ad8cd32	0.0016540645
197	0x3cb0867f	0.021548508
198	0x3d85bc76	0.06530087
199	0xbd9f80f9	-0.077882715
200	0x3c88ac3f	0.016683696
201	0x3d81b948	0.06334168
202	0x3cb4b4ec	0.022058927
203	0xbe211c75	-0.15733512
204	0x3e38111c	0.17975277
205	0xbdc2c9c9	-0.09511144
206	0x3de0db76	0.10979359
207	0x3dd7e478	0.10541624
208	0xbcb94c7e	-0.022619482
209	0xbdd745b6	-0.10511343
210	0xbb8e8b14	-0.0043500755
211	0x3c578db0	0.0131563395
212	0xbd9830ac	-0.074311584
213	0x3d0d6bec	0.03452675
214	0x3d9062a5	0.07050065
215	0xbd8d646c	-0.069039196
216	0x3d500431	0.050785247
217	0x3d8db84f	0.0691992
218	0xbc8768b0	-0.016529411
219	0x3d00aefb	0.031416874
220	0x3dbe4db2	0.09292163
221	0x3da9c55a	0.08289595
222	0x3db5bb62	0.08873631
223	0xbccff5c7	-0.02538575
224	0xbe06108e	-0.13092253
225	0x3cc60b72	0.02417538
226	0x3d5b3402	0.053516395
227	0x3d292cd3	0.041302513
228	0x3cb45c95	0.022016803
229	0xbe4d84da	-0.2007021
230	0xbd77b7de	-0.060478084
231	0xbe326a8c	-0.17423457
232	0xba80fbdd	-0.0009840686
233	0xbe0aaf5b	-0.13543455
234	0x3d530ac7	0.05152395
235	0xbd4266a0	-0.047461152
236	0x3c505d00	0.012717485
237	0xbe548772	-0.20754793
238	0x3d982b36	0.07430117
239	0xbd985a79	-0.07439131
240	0x3ddba558	0.10724896
241	0x3b4a65f7	0.003088353
242	0xbdc029c0	-0.09382963
243	0xbe510a0c	-0.20413989
244	0x3d9d97b6	0.07694952
245	0x3df82311	0.121160634
246	0x3e62337d	0.22089954
247	0xbcf65a72	-0.030072425
248	0x3c9077fd	0.01763534
249	0xbc98f848	-0.018673077
250	0xbd963b87	-0.07335573
251	0x3db9a5f9	0.0906486
252	0xbd08315e	-0.033250205
253	0xbe45bf9a	-0.19311371
254	0x3d01c274	0.031679586
255	0x3d472a83	0.048624527

model.0.bias f4 [256]
0	0xbd79605e	-0.06088292
1	0x3deccccf	0.11562502
2	0xbe004ad0	-0.12528539
3	0xbdaebacb	-0.08531722
4	0xbd992941	-0.07478572
5	0x39f8b442	0.0004743655
6	0xbe02b65c	-0.12764877
7	0xbc2af074	-0.010433305
8	0xbd9aa48f	-0.07550918
9	0x3db0642c	0.08612856
10	0xbd23389a	-0.0398489
11	0xbdef416f	-0.11682402
12	0x3deed842	0.11662342
13	0xbdbcad30	-0.092127204
14	0xbd80dcbf	-0.06292104
15	0xbe069358	-0.13142145
16	0xbccaf71d	-0.024776036
17	0xbd93ec07	-0.07222753
18	0xbd442df2	-0.04789538
19	0xbbb06edd	-0.0053843097
20	0x3dc22d1b	0.094812594
21	0x3dd7eb17	0.10542887
22	0x3e0250d2	0.12726143
23	0xbe0bcad2	-0.13651589
24	0x3da97757	0.082747154
25	0xbdbcd0b9	-0.09219498
26	0xbddf0a75	-0.108906664
27	0x3cd5bbd2	0.026090536
28	0xbce08f26	-0.027412008
29	0xbd00d48d	-0.031452704
30	0xbd95c981	-0.073138244
31	0x3dce7012	0.100799695
32	0x3d6f415e	0.05841195
33	0x3dd542ae	0.10413109
34	0xbd576558	-0.052586883
35	0x3d0949c4	0.033517614
36	0xbdfad586	-0.122477576
37	0xbd8b3fa3	-0.06799247
38	0x3d8ac2ad	0.06775413
39	0x3d803006	0.0625916
40	0xbe0456ad	-0.12923689
41	0xbda87244	-0.082249194
42	0xbdca7924	-0.09886387
43	0xbc5a509e	-0.013324885
44	0x3d109a69	0.035303507
45	0xbc8ab763	-0.016933149
46	0xbdcfe60f	-0.10151302
47	0xbd2fb78b	-0.04289965
48	0x3d87acb0	0.066247344
49	0x3df5db84	0.1200476
50	0xbdd24b7f	-0.10268306
51	0xbbc4d9b5	-0.006007398
52	0x3e1177e0	0.14205885
53	0xbd412552	-0.047154732
54	0xbd06c1a5	-0.032899518
55	0xbce06c66	-0.027395438
56	0x3c83b089	0.01607539
57	0x3da0f1d9	0.07858629
58	0xbd30cf01	-0.043166164
59	0xbca0755f	-0.019587217
60	0xbd9001e0	-0.07031608
61	0xbbc29e79	-0.0059393016
62	0xbcc0d5c3	-0.02353943
63	0x3d110e24	0.035413876
64	0x3d8466ac	0.064648956
65	0x3d8d8c7c	0.06911561
66	0x3d9974a9	0.07492954
67	0xbd15609f	-0.0364691
68	0xbdd83f67	-0.10558968
69	0xbdbf40ed	-0.093385555
70	0xbce26ebd	-0.027640695
71	0x3e03914f	0.128484
72	0x3cba29fb	0.022725096
73	0xbdd8a6a1	-0.10578657
74	0xbc1a75b6	-0.009427479
75	0x3e00ad98	0.12566221
76	0x3dce33e1	0.10068489
77	0xbe12e152	-0.14343765
78	0x3c939cce	0.018019106
79	0x3ddffacc	0.109365076
80	0x3df19388	0.117957175
81	0x3d6f7705	0.058463115
82	0x3dfa642b	0.12226137
83	0xbdc30d9a	-0.09524079
84	0xbdb271a0	-0.087130785
85	0xbe080170	-0.13281798
86	0x3d219047	0.039444234
87	0xbe095946	-0.13412961
88	0x3df2a658	0.11848134
89	0x3dc4a9a4	0.09602669
90	0xbc32d830	-0.010915801
91	0xbd79c9e9	-0.060983572
92	0x3bc0106f	0.005861334
93	0xbc95f32d	-0.018304432
94	0x3da958ae	0.082688674
95	0xbd2e2276	-0.042513333
96	0x3e0ea2ce	0.13929293
97	0x3dbcd158	0.09219617
98	0x3cfcf762	0.03087968
99	0x3deb8306	0.114996
100	0xbcf26e75	-0.029593686
101	0xbd22a85b	-0.039711338
102	0x3dac1b94	0.084036976
103	0x3de1e96f	0.11030852
104	0xbc2274fe	-0.009915588
105	0x3e0f3054	0.1398328
106	0xbbfbe421	-0.007687107
107	0x3e14e5d0	0.14540792
108	0x3d05976e	0.032615118
109	0xbc8813e9	-0.016611056
110	0x3e093947	0.13400756
111	0xbe05d1a9	-0.1306826
112	0x3df30949	0.118670054
113	0x3d614917	0.055001345
114	0xbdc5aefb	-0.096525155
115	0xbddcf050	-0.107880235
116	0xbe146ce0	-0.14494658
117	0x3d0bdbfa	0.034145333
118	0x3dda4272	0.10657205
119	0x3d2947c3	0.041328203
120	0xbdaa4a16	-0.08314912
121	0x3d889970	0.06669891
122	0x3b311e84	0.0027026245
123	0xbacf6142	-0.0015821832
124	0x3dc8d2a0	0.098057985
125	0xbc153b89	-0.009108433
126	0xbc80773d	-0.015681857
127	0xbde39f1f	-0.11114334
128	0x3e1933a6	0.14961109
129	0x3d84020d	0.06445704
130	0xbce585d0	-0.028017908
131	0x3cb48bbf	0.022039292
132	0xbdd82c2f	-0.10555302
133	0xbe030b07	-0.12797175
134	0x3df08759	0.117445655
135	0x3c7889d3	0.015169579
136	0xbdb96470	-0.0905236
137	0x3c94ced6	0.018165033
138	0xbddaf697	-0.106915645
139	0x3c479bd0	0.012183145
140	0xbe0e9579	-0.13924207
141	0x3e060212	0.13086727
142	0x3d9b1e83	0.07574179
143	0xbc66625f	-0.014061539
144	0x3db5a577	0.088694505
145	0x3dc4f329	0.096166916
146	0xbc4d54e5	-0.012532447
147	0xbbc495a9	-0.005999286
148	0x3dc61d71	0.09673584
149	0x3dc0edb5	0.09420339
150	0xbcfda46b	-0.03096219
151	0x3dd4ae29	0.10384781
152	0x3d3cbf36	0.04608079
153	0xbdfed3a2	-0.124427095
154	0x3df88efa	0.121366456
155	0xb90206f9	-0.00012400364
156	0xbd0e06f9	-0.03467462
157	0x3d003266	0.031298064
158	0x3de9e340	0.114202976
159	0xbd86a5bf	-0.06574582
160	0x3dfb6a68	0.12276155
161	0x3d36b9d7	0.044610824
162	0x3d916f54	0.07101312
163	0x3d2eb6e7	0.042654898
164	0x3dc61aba	0.096730664
165	0xbdf0f989	-0.11766345
166	0x3c44a970	0.012003288
167	0x3d802bab	0.06258329
168	0x3ddad6d3	0.10685506
169	0xbe189863	-0.14901881
170	0x3cc183e9	0.02362247
171	0xbd282bf3	-0.04105754
172	0xbd44c270	-0.048036993
173	0xbdb6a289	-0.0891772
174	0xbdfcdcb1	-0.12346781
175	0xbd5f39a6	-0.054498337
176	0x3da64645	0.081188716
177	0xbb312fd8	-0.0027036574
178	0xbe0ec2d7	-0.13941513
179	0x3de63534	0.112406164
180	0xbdc2aeb4	-0.09505978
181	0xbe0a720b	-0.13520066
182	0x3d08cb24	0.033396855
183	0xbdeedd07	-0.11663251
184	0x3e0b0176	0.13574776
185	0xbe185cf4	-0.14879209
186	0x3dcc447e	0.09974001
187	0xbdcfb475	-0.10141841
188	0xbe134c6f	-0.14384626
189	0xb7f3b247	-2.9050874e-05
190	0xbd3d7360	-0.04625261
191	0xbcf03a13	-0.029324567
192	0x3d55c4f4	0.052189782
193	0xbd99076e	-0.0747212
194	0x3daf441f	0.08557915
195	0xbcedc2ee	-0.029023614
196	0xbd21e87e	-0.039528362
197	0x3cc9452b	0.024569115
198	0x3caa2d7b	0.02077364
199	0x3d5a36fe	0.0532751
200	0xbcf44193	-0.029816424
201	0xbdec3cc8	-0.115350306
202	0x3d862c7b	0.06551453
203	0xbdbe3a6e	-0.09288488
204	0x3ddad1df	0.10684561
205	0xbdb264f1	-0.08710659
206	0x3d086304	0.033297554
207	0xbd6a2806	-0.057167076
208	0x3d7b8580	0.061406612
209	0xbdd6c9f5	-0.10487739
210	0x3e07132b	0.13190906
211	0x3c225899	0.009908819
212	0x3d720e11	0.059095446
213	0xbd8a28e4	-0.067460805
214	0x3dd83725	0.10557393
215	0xbc9dbb84	-0.019254453
216	0xbd6a24df	-0.05716407
217	0x3dca31f9	0.09872813
218	0x3d8b733b	0.06809088
219	0x3ccff746	0.025386464
220	0xbd89fa69	-0.06737215
221	0xbe0b9109	-0.13629545
222	0x3d92b0a0	0.07162595
223	0x3d82fbed	0.06395707
224	0xbd9a995b	-0.075487815
225	0xbde2fb29	-0.11083061
226	0xbdcc97ea	-0.09989913
227	0xbd53383b	-0.051567297
228	0x3d1af91d	0.03783523
229	0xbcb2cd0c	-0.02182629
230	0xbdc2040a	-0.09473427
231	0x3d4c1d63	0.049832713
232	0x3c7a2a67	0.015268899
233	0xbd6122b4	-0.054964736
234	0xbe1136b1	-0.1418102
235	0xbdeb4c0b	-0.114891134
236	0x3dfda7ee	0.12385546
237	0x3dcde8ad	0.10054145
238	0xbde7c5fa	-0.11317058
239	0xbdda5845	-0.10661367
240	0x3bb886fb	0.0056313253
241	0x3d050f38	0.032485217
242	0xbe032e34	-0.12810594
243	0x3e01faeb	0.12693374
244	0x3cd5959d	0.026072318
245	0x3e0f06b5	0.13967402
246	0xbdfb0a9a	-0.122578815
247	0xbcbff3b8	-0.023431644
248	0x3d8beaf9	0.06831927
249	0xbcf69f60	-0.030105293
250	0xbcdfe19c	-0.027329259
251	0x3dbffd4b	0.09374484
252	0xba797112	-0.0009515445
253	0x3df8ede0	0.12154746
254	0xbd350716	-0.04419621
255	0xbe08301c	-0.13299602

model.1.weight f4 [256]
0	0x3f7ea225	0.9946616
1	0x3f7abdac	0.97945666
2	0x3f7d60ae	0.98975646
3	0x3f6f66aa	0.9351603
4	0x3f779003	0.9670412
5	0x3f5e11b6	0.86745775
6	0x3f7ee405	0.9956668
7	0x3f794a22	0.9737874
8	0x3f8882d5	1.0664927
9	0x3f806600	1.0031128
10	0x3f71190e	0.94178855
11	0x3f668277	0.90042824
12	0x3f76d85b	0.9642388
13	0x3f87e667	1.0617188
14	0x3f8a2e37	1.0795354
15	0x3f7641f6	0.961944
16	0x3f6d0f16	0.92601144
17	0x3f7b49c3	0.98159426
18	0x3f71bca8	0.9442849
19	0x3f6f463b	0.9346654
20	0x3f845b17	1.0340298
21	0x3f896346	1.0733421
22	0x3f7e8102	0.994156
23	0x3f74ab5e	0.95573986
24	0x3f86e546	1.0538719
25	0x3f6f08b3	0.9337265
26	0x3f6c8b37	0.92399925
27	0x3f88e1f2	1.0693953
28	0x3f72b2b6	0.9480394
29	0x3f6f12bd	0.9338797
30	0x3f901044	1.1254964
31	0x3f85ee46	1.046334
32	0x3f6fdc93	0.93695945
33	0x3f7a0114	0.97657895
34	0x3f858ade	1.0433004
35	0x3f8ffc6b	1.1248907
36	0x3f854b5a	1.041362
37	0x3f80a165	1.0049254
38	0x3f836054	1.0263772
39	0x3f88ca7b	1.0686792
40	0x3f846dcc	1.0346007
41	0x3f84d2c3	1.0376819
42	0x3f7bc75a	0.9835106
43	0x3f6ba46a	0.9204775
44	0x3f710513	0.9414837
45	0x3f70aec5	0.9401668
46	0x3f708c14	0.9396374
47	0x3f77c586	0.9678577
48	0x3f674434	0.90338445
49	0x3f7d90b1	0.99048907
50	0x3f90c2ce	1.130945
51	0x3f818fe4	1.0122037
52	0x3f663466	0.89923704
53	0x3f7e85c1	0.9942284
54	0x3f8ebf01	1.115204
55	0x3f80e7ac	1.0070701
56	0x3f7aa167	0.9790253
57	0x3f727556	0.9471029
58	0x3f7fd4df	0.9993419
59	0x3f826e08	1.0189829
60	0x3f5fe97d	0.8746565
61	0x3f71a71e	0.94395626
62	0x3f8412f0	1.0318279
63	0x3f86e93b	1.0539926
64	0x3f87be03	1.0604862
65	0x3f8a4d32	1.0804808
66	0x3f79ae1f	0.9753131
67	0x3f84f91f	1.0388526
68	0x3f677c3d	0.9042395
69	0x3f8ddaeb	1.1082433
70	0x3f731a9f	0.94962496
71	0x3f785e9c	0.9701936
72	0x3f8686c2	1.0509875
73	0x3f8b1e80	1.0868683
74	0x3f77d4f2	0.96809304
75	0x3f8967d1	1.0734807
76	0x3f8812db	1.0630754
77	0x3f7cb8ef	0.98719686
78	0x3f86b26f	1.0523204
79	0x3f64b578	0.893394
80	0x3f81187d	1.0085598
81	0x3f6757c8	0.9036832
82	0x3f6f88fc	0.93568397
83	0x3f82db0c	1.0223098
84	0x3f88a6a6	1.0675857
85	0x3f7dc187	0.99123424
86	0x3f8de2ce	1.108484
87	0x3f79d9d8	0.9759803
88	0x3f896068	1.0732546
89	0x3f698753	0.91222113
90	0x3f8c7a24	1.0974774
91	0x3f80154f	1.0006503
92	0x3f7abb22	0.9794179
93	0x3f6aa280	0.91654205
94	0x3f8d292f	1.1028193
95	0x3f83376f	1.0251292
96	0x3f6ed77e	0.93297565
97	0x3f864e72	1.049269
98	0x3f850085	1.0390784
99	0x3f7d2f92	0.9890071
100	0x3f7d34ba	0.9890858
101	0x3f6b7c5d	0.9198664
102	0x3f70e46b	0.9409854
103	0x3f8286bb	1.0197366
104	0x3f62190b	0.8831946
105	0x3f75d9dd	0.9603556
106	0x3f7b7fd7	0.98241943
107	0x3f8062dc	1.003017
108	0x3f834de7	1.0258149
109	0x3f6cf960	0.92568016
110	0x3f89f136	1.0776737
111	0x3f8107ef	1.0080546
112	0x3f87b041	1.0600663
113	0x3f7ace03	0.979706
114	0x3f58718c	0.8454826
115	0x3f75b9d3	0.9598667
116	0x3f6e0f60	0.9299221
117	0x3f7e4f5c	0.9933984
118	0x3f8b48b2	1.088156
119	0x3f888fd5	1.0668894
120	0x3f826371	1.0186597
121	0x3f85d519	1.0455657
122	0x3f7ca959	0.98695904
123	0x3f8fc700	1.1232605
124	0x3f731a18	0.9496169
125	0x3f8d48f8	1.1037893
126	0x3f82be12	1.0214255
127	0x3f8461db	1.0342363
128	0x3f781a16	0.96914804
129	0x3f8b7737	1.0895756
130	0x3f89043b	1.0704416
131	0x3f68303e	0.9069861
132	0x3f845614	1.0338769
133	0x3f8dc0a1	1.1074411
134	0x3f78150c	0.96907115
135	0x3f7020b2	0.9379989
136	0x3f838e3b	1.027778
137	0x3f6968e8	0.911757
138	0x3f739714	0.951524
139	0x3f82948a	1.020158
140	0x3f79ed28	0.97627497
141	0x3f832978	1.024703
142	0x3f895f12	1.0732138
143	0x3f77825c	0.9668329
144	0x3f7cdfb1	0.98778826
145	0x3f6a967f	0.9163589
146	0x3f7727e9	0.96545273
147	0x3f90e8c6	1.1321037
148	0x3f84358b	1.032884
149	0x3f63944d	0.88898164
150	0x3f82c7ae	1.0217187
151	0x3f7ff45a	0.99982226
152	0x3f776bff	0.96649164
153	0x3f70eb55	0.9410909
154	0x3f8b2284	1.0869908
155	0x3f77062d	0.964938
156	0x3f8ce077	1.1006001
157	0x3f647c1b	0.8925187
158	0x3f76014b	0.9609572
159	0x3f77ac39	0.96747166
160	0x3f7fccb2	0.99921715
161	0x3f6c84e9	0.92390305
162	0x3f638529	0.8887506
163	0x3f718294	0.9433987
164	0x3f6a3c4a	0.91498244
165	0x3f8c72fe	1.0972593
166	0x3f759e70	0.9594488
167	0x3f7a2c0a	0.9772345
168	0x3f85be3f	1.0448684
169	0x3f652ac5	0.89518386
170	0x3f8e10dc	1.1098895
171	0x3f8b88a1	1.0901071
172	0x3f734931	0.95033556
173	0x3f655337	0.895801
174	0x3f6fb317	0.93632644
175	0x3f7f5457	0.9973807
176	0x3f852afd	1.0403744
177	0x3f8e8a4b	1.1135954
178	0x3f8abe02	1.0839236
179	0x3f8912ae	1.0708826
180	0x3f905418	1.1275663
181	0x3f860161	1.0469171
182	0x3f81574e	1.0104768
183	0x3f7719cd	0.96523744
184	0x3f79e912	0.9762126
185	0x3f771da0	0.9652958
186	0x3f7291ee	0.9475392
187	0x3f7b0341	0.9805184
188	0x3f78b460	0.9715023
189	0x3f882fd3	1.0639595
190	0x3f7589c4	0.9591334
191	0x3f89390b	1.0720533
192	0x3f831f1c	1.0243869
193	0x3f6a2292	0.91459
194	0x3f7a5b2b	0.9779536
195	0x3f8e29c4	1.1106496
196	0x3f73ae0d	0.95187455
197	0x3f8af660	1.0856438
198	0x3f6cfbbb	0.9257161
199	0x3f7f0aff	0.99626154
200	0x3f7f9ff5	0.9985345
201	0x3f8e0172	1.1094191
202	0x3f834302	1.0254824
203	0x3f7ee6d6	0.9957098
204	0x3f853138	1.0405645
205	0x3f72f4a3	0.94904536
206	0x3f85ded0	1.0458622
207	0x3f72c149	0.9482618
208	0x3f86219f	1.047901
209	0x3f859825	1.0437056
210	0x3f6c9950	0.92421436
211	0x3f749017	0.95532364
212	0x3f76d8d4	0.96424603
213	0x3f6c7148	0.92360353
214	0x3f879f2c	1.059545
215	0x3f81ad59	1.0131027
216	0x3f886124	1.0654645
217	0x3f8cdc13	1.1004661
218	0x3f85dad6	1.0457408
219	0x3f6d90f3	0.927993
220	0x3f849fa1	1.0361215
221	0x3f7182ab	0.9434001
222	0x3f8e2365	1.1104552
223	0x3f86c294	1.052813
224	0x3f7133de	0.9421977
225	0x3f73fd63	0.9530851
226	0x3f708871	0.93958193
227	0x3f7641c8	0.96194124
228	0x3f83cdda	1.0297196
229	0x3f8ba0cd	1.0908448
230	0x3f638187	0.8886952
231	0x3f776c5e	0.9664973
232	0x3f783bd4	0.9696629
233	0x3f7deab9	0.99186283
234	0x3f718448	0.9434247
235	0x3f7f04fb	0.99616975
236	0x3f8281ff	1.0195922
237	0x3f7ad03c	0.9797399
238	0x3f814875	1.0100237
239	0x3f818968	1.0120058
240	0x3f7b28e6	0.9810928
241	0x3f8712ca	1.0552609
242	0x3f87d5b4	1.0612092
243	0x3f897374	1.0738358
244	0x3f793090	0.97339725
245	0x3f6437f8	0.891479
246	0x3f68a1c7	0.9087185
247	0x3f7817af	0.9691114
248	0x3f74bd10	0.95600986
249	0x3f8c05ea	1.0939305
250	0x3f87c818	1.0607939
251	0x3f7dcc9e	0.99140346
252	0x3f7645e7	0.9620041
253	0x3f859306	1.0435493
254	0x3f820fed	1.016111
255	0x3f7229f4	0.94595265

model.1.bias f4 [256]
0	0x3dd23765	0.10264472
1	0x3d68db12	0.056849547
2	0x3d40fc6f	0.04711574
3	0xbd94867a	-0.07252212
4	0x3d2bb06b	0.041916292
5	0xbe006174	-0.12537175
6	0xbd690d56	-0.056897484
7	0xbcb79c24	-0.02241332
8	0xbc20ae82	-0.009807231
9	0x3dce2cb3	0.100671194
10	0xbd3b26ae	-0.045691185
11	0xbe07200c	-0.13195819
12	0x3ccd5771	0.02506611
13	0x3d6896f3	0.05678458
14	0x3dfe9038	0.12429851
15	0xbc70dded	-0.014701349
16	0xbc92f5fd	-0.017939562
17	0xbd6bec11	-0.057598177
18	0xbcac138f	-0.02100542
19	0xbd8800ee	-0.06640802
20	0x3cfc2a29	0.030781822
21	0x3d4e714f	0.05040103
22	0x3cfa513b	0.030556312
23	0x3c2e5983	0.010641458
24	0x3cf53876	0.02993415
25	0xbd11bcbe	-0.03558039
26	0xbe00eb84	-0.12589842
27	0x3dc13a27	0.0943492
28	0xbdba4115	-0.09094445
29	0xbdb7c868	-0.08973771
30	0x3d96c44c	0.073616594
31	0x3d12d4bc	0.03584741
32	0xbd369f86	-0.044585727
33	0xbc9a911e	-0.018868025
34	0x3d86819b	0.06567689
35	0x3cf57e69	0.029967504
36	0x3d2da3c3	0.042392503
37	0xbd2bfcda	-0.041989185
38	0xbd257c18	-0.04040155
39	0x3daf9265	0.085728444
40	0x3c821d8e	0.015883233
41	0xbb826ce2	-0.003980265
42	0x3ca0525a	0.019570518
43	0xbc89a96b	-0.016804418
44	0xbd8563ab	-0.06513151
45	0xbd1e5456	-0.038654648
46	0xbc41cc80	-0.011828542
47	0xbca5bfcc	-0.020233057
48	0xbd8c5c17	-0.06853502
49	0xbd8e339b	-0.06943437
50	0x3d593687	0.053030517
51	0xbcdf60fa	-0.027267922
52	0xbc7caa8e	-0.015421523
53	0x3d6a2121	0.0571605
54	0x3dc2f040	0.0951848
55	0x3d254a8e	0.040354304
56	0xbd40e0af	-0.047089275
57	0xbd564c13	-0.052318644
58	0x3d02cc5e	0.03193318
59	0x3ddd8a89	0.10817439
60	0xbd9b7600	-0.07590866
61	0xbd965501	-0.07340432
62	0xbd955f59	-0.07293577
63	0x3d78c1b0	0.06073159
64	0x3da85b42	0.08220531
65	0x3d3452ef	0.044024404
66	0x3b753450	0.0037415214
67	0xba95f133	-0.0011439681
68	0xbd89b2cd	-0.06723557
69	0x3d5359e7	0.05159941
70	0x3ce635e0	0.028101861
71	0xbd4d8099	-0.05017147
72	0x3d068963	0.032845866
73	0x3dd9377c	0.10606286
74	0xbd58783f	-0.05284905
75	0x3e0930f4	0.1339758
76	0xbd527ff3	-0.051391553
77	0xbd17aadd	-0.037028182
78	0x3d75ff41	0.060057882
79	0xbdd5465d	-0.10413811
80	0x3d250ae0	0.040293574
81	0xbd527570	-0.05138153
82	0x3bf5f3c7	0.007505867
83	0xbc66ab73	-0.014078963
84	0x3dc73b74	0.09728137
85	0xbcc5d7be	-0.024150725
86	0xbcc87d73	-0.024473881
87	0xbd50fd46	-0.05102279
88	0xbbf1dee7	-0.0073813084
89	0xbdb6343d	-0.088966824
90	0x3d4514a1	0.048115376
91	0x3cf0204b	0.029312273
92	0xbc0e0ce4	-0.008670066
93	0xbdac06de	-0.08399747
94	0x3deba3ee	0.115058765
95	0x3da5a55e	0.08088182
96	0xbdae8f4f	-0.08523428
97	0x3d290e2e	0.04127329
98	0x3d78d0f6	0.060746156
99	0x3db9e9c9	0.09077794
100	0x3c8cfa88	0.017209306
101	0xbde76248	-0.112980425
102	0xbd63111a	-0.05543623
103	0x3d5bfd54	0.05370839
104	0xbd13945a	-0.03603015
105	0xbc13dc07	-0.009024627
106	0xbd449189	-0.047990356
107	0xbd9d2ac7	-0.07674175
108	0xbd3cfd64	-0.04614009
109	0xbcfa2df3	-0.030539488
110	0x3d2d088f	0.04224449
111	0x3dbebb04	0.09313014
112	0x3d0d5819	0.034507845
113	0x3b8dbc65	0.004325437
114	0xbe160713	-0.14651136
115	0x3ce3b435	0.02779589
116	0xbd0ead9a	-0.034833528
117	0xbd79e984	-0.061013713
118	0x3e1f068d	0.15529843
119	0x3dba65e4	0.09101465
120	0x3d841bb9	0.064506
121	0x3cc1e360	0.023667991
122	0xbd608f35	-0.054824073
123	0x3d4fa7d4	0.050697163
124	0x3bd208b8	0.0064097308
125	0x3dc6ea77	0.09712689
126	0x3d1108d5	0.035408814
127	0x3cce0e21	0.025153222
128	0x3be5bfb4	0.007011378
129	0x3d8acbc7	0.06777149
130	0x3d385878	0.045006245
131	0xbddd4841	-0.10804797
132	0x3ce9aca2	0.0285247
133	0xbd0e8e57	-0.034803715
134	0xbd69e864	-0.05710639
135	0xbd916f02	-0.07101251
136	0x3cc27583	0.023737675
137	0xbe0461be	-0.1292791
138	0xbcaab448	-0.020837918
139	0x3cfa49c9	0.030552762
140	0xbd120268	-0.035646826
141	0xba4c8961	-0.00078024535
142	0x3d75f170	0.060044706
143	0xbcb7d5ad	-0.022440756
144	0x3d86e54e	0.06586705
145	0xbda3e08e	-0.08001815
146	0xbdd5ca59	-0.104389854
147	0x3e0833df	0.13301037
148	0x3d3b31d1	0.045701806
149	0xbdc4fe72	-0.09618844
150	0x3d6432e1	0.055712584
151	0x3d832b21	0.064047106
152	0x3c86f484	0.016474016
153	0xbcb89606	-0.022532474
154	0x3da88b50	0.08229697
155	0xbced4e29	-0.028967934
156	0x3d436848	0.047706872
157	0xbe0d1389	-0.13776983
158	0xbda1b1a3	-0.0789521
159	0xbd16926d	-0.036760736
160	0x3c09fdd0	0.00842233
161	0xbd629ee3	-0.055327307
162	0xbe0e1927	-0.13876782
163	0xbbdd2cd0	-0.006749727
164	0x3c4fd44b	0.012684892
165	0x3cdf873c	0.027286164
166	0x3b2188ea	0.0024648258
167	0xbd49bc9d	-0.04925214
168	0x3c934d47	0.017981185
169	0xbdb675d7	-0.08909195
170	0x3dbcb8e9	0.09214956
171	0x3cff889d	0.031193072
172	0xbd3911c5	-0.045182962
173	0xbd0222c8	-0.03177145
174	0xbda679d5	-0.08128706
175	0x3c855f44	0.016280778
176	0x3ca075c8	0.019587412
177	0x3d515a0e	0.051111273
178	0x3d8919b0	0.066943526
179	0x3d922d0d	0.07137499
180	0x3dce2533	0.10065689
181	0x3c809e84	0.015700586
182	0xbaf10d41	-0.0018390791
183	0x3d29b109	0.0414286
184	0xbbb015a8	-0.0053736754
185	0xbbed448e	-0.0072408384
186	0xbd48a5f6	-0.048986398
187	0x3c3e78f0	0.011625513
188	0xbd8efd06	-0.06981854
189	0xbbc4765c	-0.005995555
190	0xbcba09f2	-0.02270982
191	0x3de6b64e	0.112652406
192	0x3d637f03	0.05554105
193	0xbd9545cb	-0.072887026
194	0xbd6e4f78	-0.058181256
195	0x3e047492	0.12935093
196	0x3be62206	0.007023099
197	0x3dc1dc82	0.09465887
198	0xbc42921e	-0.011875657
199	0xbde266c8	-0.1105476
200	0x3caace33	0.020850277
201	0x3e00720a	0.12543502
202	0x3d80a2fe	0.06281088
203	0xbd022d6b	-0.031781595
204	0xbb3b85ae	-0.0028613615
205	0xbd656fad	-0.056014705
206	0x3c6fed5b	0.014643992
207	0xbd9e54b3	-0.07730999
208	0x3d300cb5	0.04298087
209	0x3d0670ff	0.032822605
210	0x3cd29818	0.02570729
211	0xbce2e52e	-0.027697172
212	0xbdb1a494	-0.08673969
213	0xbc9b6195	-0.01896743
214	0x3d7dec45	0.061992902
215	0xbbbfadb0	-0.0058495626
216	0x3dafee18	0.08590335
217	0x3db8719a	0.09006043
218	0x3da1547b	0.078774415
219	0xbd486bb5	-0.048930842
220	0x3caf9fd4	0.021438517
221	0xbd47ea48	-0.048807412
222	0x3dba0812	0.090835705
223	0x3c4c00ed	0.012451393
224	0xbd357ea8	-0.044310242
225	0xbd0caea7	-0.03434625
226	0xbd270258	-0.04077372
227	0xbd2980fa	-0.041382767
228	0xbd38face	-0.04516106
229	0x3d20e57b	0.03928135
230	0xbd25f6a3	-0.040518414
231	0x3b45f159	0.003020367
232	0xbccef102	-0.025261406
233	0xbb120d6c	-0.0022285832
234	0xbc2446ef	-0.0100266775
235	0xbd8090bd	-0.06277607
236	0xbd9e29f2	-0.07722844
237	0x3a9e356c	0.0012070364
238	0xbd49b3d7	-0.049243774
239	0x3d8275e9	0.06370146
240	0x3ccdfb67	0.025144292
241	0x3dc66717	0.096876316
242	0x3d06325b	0.032762866
243	0x3d6d36e3	0.057913672
244	0x3be64fee	0.0070285713
245	0x3c97eb8b	0.018544933
246	0xbdc6e6f9	-0.09712023
247	0xbdc9035b	-0.09815093
248	0xbda8c1ca	-0.08240087
249	0x3dd89a82	0.10576345
250	0xbc24a336	-0.010048678
251	0x3c7a2fed	0.015270215
252	0xbd47432f	-0.048648056
253	0x3daa8713	0.083265446
254	0x3e088b3b	0.13334362
255	0xbcfd4a38	-0.03091918

model.1.running_mean f4 [256]
0	0xbd47d22a	-0.048784412
1	0x3db03652	0.08604111
2	0xbc90faa6	-0.017697643
3	0xbda7d6d1	-0.0819527
4	0xbd8c56d2	-0.06852497
5	0xbda3f7bf	-0.08006238
6	0xbcb81720	-0.022471964
7	0x3de0785a	0.10960455
8	0xbe38ff8d	-0.18066235
9	0x3ea25a95	0.31709734
10	0x3d2c36b0	0.04204434
11	0x3cd80e42	0.026373986
12	0xbcb6766c	-0.022273265
13	0x3d708a72	0.05872578
14	0xbaf22dcc	-0.0018476783
15	0xbe214cb2	-0.15751913
16	0xbe110615	-0.14162476
17	0x3afec457	0.0019437176
18	0xbe30cbe7	-0.17265283
19	0xbd8fd007	-0.070221
20	0x3c700e88	0.014651902
21	0x3e1f9e9f	0.15587853
22	0x3e75a8b7	0.23990141
23	0xbe056a84	-0.13028914
24	0x3d8bf86d	0.06834493
25	0xbc780ee2	-0.015140267
26	0xbe34b75d	-0.17648073
27	0xbbdf1a0e	-0.006808526
28	0xbddf6e4c	-0.10909709
29	0x3d87ab8e	0.06624518
30	0xbe3f8787	-0.18704043
31	0x3d437920	0.047722936
32	0x3e824046	0.25439662
33	0x3d946c62	0.07247235
34	0xbd2d6b00	-0.04233837
35	0x3c8d6305	0.01725913
36	0xbeaac87f	-0.3335609
37	0x3dd2f8a5	0.103013314
38	0x3c33a0a4	0.010963593
39	0xbe1948b3	-0.14969139
40	0xbe125e26	-0.14293727
41	0xbdaf764d	-0.08567486
42	0xbe5ca8f2	-0.21548823
43	0xbdfbf850	-0.12303221
44	0xbd7cf31e	-0.061755292
45	0x3cf26679	0.029589878
46	0xbdbc2289	-0.091862746
47	0x3d462e92	0.048384257
48	0xbe0c60cf	-0.13708805
49	0x3cdae261	0.026719274
50	0x3d653f24	0.05596842
51	0xbdd7a4a6	-0.10529451
52	0x3e91a219	0.28443983
53	0xbe0c7247	-0.13715468
54	0xbdb3d464	-0.08780745
55	0xbe6979a8	-0.22800314
56	0x3dd4fa51	0.103993066
57	0x3d6d650e	0.0579577
58	0xbca0750d	-0.019587064
59	0xbe33984c	-0.17538565
60	0xbd3f1bb6	-0.046657287
61	0xbd3c7264	-0.04600753
62	0xbd35fb62	-0.04442919
63	0xbe6f2a51	-0.23355986
64	0xbd49026f	-0.049074586
65	0x3d62c97d	0.055367935
66	0x3e91f318	0.28505778
67	0xbdd0490b	-0.10170182
68	0xbddb643d	-0.10712478
69	0xbe8154e9	-0.25260094
70	0xbcb22108	-0.021744266
71	0x3e0c1603	0.13680272
72	0x3d76889d	0.06018888
73	0xbd4bd42c	-0.04976289
74	0x3de0794c	0.109606355
75	0x3eb56769	0.35430458
76	0xbcd40446	-0.025880944
77	0xbda213fd	-0.07913969
78	0x3e85a578	0.26102805
79	0x3dc4894e	0.09596501
80	0x3e11ca67	0.14237367
81	0xbd3479e6	-0.044061564
82	0x3e093b52	0.13401535
83	0x3ba967cb	0.005169844
84	0xbe0b7961	-0.13620521
85	0xbe51be9a	-0.20482865
86	0x3def9faf	0.11700379
87	0xbe258804	-0.16165167
88	0xbcb35c46	-0.021894585
89	0x3e6bd24b	0.23029439
90	0x3e5bce2d	0.21465369
91	0xbdefdc2b	-0.117119156
92	0x3e0330e0	0.12811613
93	0xbc3fd83e	-0.011709271
94	0x3e2f411b	0.1711468
95	0x3daa4942	0.08314754
96	0x3cb6081e	0.022220667
97	0xbe045bc4	-0.12925631
98	0x3d2b628a	0.04184202
99	0x3ea621fe	0.3244781
100	0xbe22adc1	-0.15886594
101	0xbe5d390c	-0.21603793
102	0x3daae696	0.08344762
103	0xbd1386ae	-0.036017112
104	0x3ce83970	0.0283477
105	0x3e14ad7a	0.14519301
106	0xbd4f7650	-0.05064994
107	0x3e43fb4c	0.19138831
108	0x3dfbf913	0.123033665
109	0xbdb6d9ae	-0.08928238
110	0x3de4565c	0.11149284
111	0xbe52eda1	-0.2059846
112	0x3d88e232	0.06683768
113	0xbdcea37e	-0.100897774
114	0xbd3e3350	-0.046435654
115	0xbe20ae9c	-0.15691608
116	0xbda23e30	-0.079220176
117	0x3e08302b	0.13299625
118	0x3e87f039	0.26550463
119	0xbd9f0d2e	-0.07766186
120	0xbdda8628	-0.106701195
121	0x3de3f32d	0.111303665
122	0x3de9e6b3	0.114209555
123	0x3e072ce9	0.13200726
124	0x3e0996ee	0.13436481
125	0xbe44b9da	-0.19211522
126	0x3dad72e4	0.08469179
127	0xbe042935	-0.12906344
128	0x3dae1dd2	0.085017815
129	0xbde93a2a	-0.11388047
130	0x3d35da02	0.04439736
131	0x3d72f215	0.0593129
132	0xbe27fd39	-0.1640519
133	0xbc279954	-0.010229427
134	0x3cc51160	0.024056137
135	0x3d051631	0.032491866
136	0xbb6758f9	-0.0035300835
137	0xbd974fc6	-0.073882625
138	0xbe6ee8fa	-0.23331061
139	0xbd42c13c	-0.047547564
140	0x3d709a16	0.058740698
141	0x3e46cdf5	0.19414504
142	0xbe1be735	-0.15224917
143	0xbe03e8f6	-0.12881836
144	0x3e0d5a78	0.13804042
145	0x3e875eba	0.26439458
146	0xbd818c4b	-0.06325587
147	0x3c0ff7e0	0.008787125
148	0x3cf58596	0.029970925
149	0x3e507e80	0.20360756
150	0x3db846ee	0.08997904
151	0x3ea4292d	0.32062665
152	0x3cd5810e	0.026062515
153	0xbe3c1a98	-0.1836952
154	0x3de85b77	0.113455705
155	0x3e05a6be	0.13051888
156	0xbdc58521	-0.09644533
157	0x3e304687	0.17214404
158	0x3d81d927	0.06340247
159	0xbda6cfd2	-0.08145107
160	0x3d4dcc95	0.050243933
161	0x3e500703	0.20315175
162	0x3e732993	0.23746328
163	0xbe0b1e55	-0.1358579
164	0x3e8d8ac0	0.2764492
165	0xbd9d9026	-0.0769351
166	0x3d9b2cf2	0.07576932
167	0x3e1b4d42	0.1516619
168	0x3e91e284	0.2849313
169	0xbd87e5ac	-0.06635603
170	0xbd1b7688	-0.037954837
171	0xbe920b47	-0.2852423
172	0xbdece1ea	-0.11566527
173	0x3b85d938	0.0040847324
174	0xbe04eabc	-0.12980169
175	0xbd8cb6d5	-0.0687081
176	0x3d82b6a6	0.06382494
177	0x3d9c2ba5	0.07625512
178	0xbe6603be	-0.22462365
179	0x3e94f61b	0.29094014
180	0xbcb9da16	-0.022687
181	0xbe1ec0d5	-0.15503247
182	0xbc8cf9c4	-0.017208941
183	0xbe11fb27	-0.14255963
184	0x3c0ee6af	0.008721991
185	0xbd180600	-0.037115097
186	0x3e150602	0.14553073
187	0xbe2bc72e	-0.167752
188	0xbe5741b5	-0.21021159
189	0x3e65111b	0.22369806
190	0x3cb2b181	0.021813156
191	0xbe4100a4	-0.188479
192	0x3e36478e	0.17800733
193	0xbdaf75e6	-0.08567409
194	0x3c741184	0.014896754
195	0xbe127fca	-0.1430656
196	0xbe55c089	-0.20874228
197	0x3dcb5481	0.09928227
198	0xbb65cd7c	-0.0035065105
199	0x3d4192e7	0.047259238
200	0x3e4a6bc4	0.19767672
201	0x3d936537	0.071970396
202	0x3e89bc04	0.26901257
203	0xbe21ef40	-0.15813923
204	0x3e39629b	0.18104021
205	0x3dd58621	0.10425974
206	0x3d01a054	0.03164704
207	0x3cb735d8	0.022364542
208	0x3e677c93	0.22606115
209	0xbd328597	-0.043584432
210	0x3bab100c	0.005220419
211	0x3dee1fc4	0.116271526
212	0xbd5a78c7	-0.05333784
213	0xbc417006	-0.011806494
214	0x3d776148	0.06039551
215	0xbe185782	-0.14877132
216	0xbe978841	-0.2959614
217	0x3d4a810a	0.049439467
218	0x3d88582d	0.06657443
219	0x3d6bf1af	0.057603534
220	0xbe25e8f8	-0.16202152
221	0x3d5926be	0.053015463
222	0x3daddde4	0.08489588
223	0x3e34dd5f	0.17662571
224	0x3d1f4686	0.038885616
225	0xbe098e5a	-0.13433209
226	0xbb6e9f46	-0.0036410852
227	0xbd59b52a	-0.053151287
228	0x3dd96530	0.10615003
229	0xbd3e406d	-0.04644816
230	0xbe0034fe	-0.12520215
231	0x3e84ab08	0.25911736
232	0x39d9f490	0.0004157168
233	0x3da743aa	0.08167203
234	0xbe95daf3	-0.29268607
235	0xbe5bd871	-0.21469285
236	0x3db1d6a2	0.08683516
237	0x3de5e662	0.11225583
238	0x39f92520	0.0004752064
239	0xbea3993f	-0.31952855
240	0x3e342e13	0.17595701
241	0xbe01cec6	-0.12676534
242	0xbe4d0b7c	-0.20023912
243	0x3d77aa8d	0.060465384
244	0x3c9ecc18	0.019384429
245	0x3e60bcd7	0.21947037
246	0xbbb05049	-0.0053806645
247	0xbd6ad8af	-0.05733555
248	0xbd839376	-0.0642461
249	0xbd57573e	-0.052573435
250	0xbcae4ed7	-0.021277828
251	0x3c8462e6	0.01616044
252	0x3de32544	0.11091092
253	0xbe340f63	-0.17583995
254	0x3ceab00c	0.028648399
255	0xbdaecae0	-0.08534789

model.1.running_var f4 [256]
0	0x3e1d86d8	0.1538347
1	0x3db381ad	0.08764968
2	0x3dd09838	0.101852834
3	0x3e921a47	0.28535673
4	0x3db451ff	0.08804702
5	0x3e8aa935	0.2708222
6	0x3dd26ff5	0.1027526
7	0x3daa4485	0.0831385
8	0x3dfb48f5	0.12269775
9	0x3e494318	0.196545
10	0x3da88912	0.08229269
11	0x3e273b6c	0.16331261
12	0x3de784d1	0.113046296
13	0x3dbb65e0	0.091502905
14	0x3d8465a6	0.064647004
15	0x3e6a209b	0.22864
16	0x3de3e7aa	0.11128171
17	0x3e2453e0	0.16047621
18	0x3e3dab47	0.18522368
19	0x3dfedafe	0.12444113
20	0x3dbc6521	0.09198976
21	0x3e659ddd	0.22423501
22	0x3e77fa43	0.24216561
23	0x3e132129	0.14368118
24	0x3e0d7c02	0.13816836
25	0x3dd16103	0.10223582
26	0x3dce8709	0.1008435
27	0x3e2d1c5d	0.16905351
28	0x3d7b7e33	0.06139965
29	0x3dd365bf	0.10322141
30	0x3e8aefaa	0.27135974
31	0x3e16da52	0.1473172
32	0x3db4f4cb	0.08835753
33	0x3e7e78fe	0.24850842
34	0x3dee3621	0.11631418
35	0x3d9170f8	0.07101625
36	0x3e198321	0.14991428
37	0x3daf3a3b	0.085560285
38	0x3d9fc094	0.07800403
39	0x3e30a7f6	0.17251572
40	0x3e5722a7	0.21009313
41	0x3de845de	0.11341451
42	0x3e112b48	0.14176667
43	0x3dc8ffec	0.09814438
44	0x3e2543ef	0.16139196
45	0x3e03cb14	0.12870437
46	0x3dd364a9	0.10321934
47	0x3e0c33ef	0.13691686
48	0x3d6f02de	0.058352344
49	0x3da93d03	0.0826359
50	0x3de8a5d2	0.11359753
51	0x3e162203	0.14661412
52	0x3e0cae81	0.13738443
53	0x3dbf1d7e	0.09331797
54	0x3dce6f72	0.1007985
55	0x3d898fd5	0.06716887
56	0x3d8ea0c8	0.0696426
57	0x3d96ca16	0.073627636
58	0x3dd0ebd8	0.102012336
59	0x3e32609e	0.17419669
60	0x3e13409b	0.14380114
61	0x3da8cdfd	0.08242414
62	0x3d8ab47d	0.06772707
63	0x3d1a5122	0.03767503
64	0x3dbc0110	0.0917989
65	0x3e185412	0.1487582
66	0x3db42969	0.08796961
67	0x3df11488	0.11771494
68	0x3da6f0c0	0.08151388
69	0x3e40af0c	0.18816775
70	0x3de14617	0.10999697
71	0x3e07fb7b	0.13279526
72	0x3e2a57f8	0.1663512
73	0x3df5acdb	0.1199586
74	0x3df9251f	0.121652834
75	0x3e5952c5	0.2122298
76	0x3e03cbca	0.12870708
77	0x3e0621d0	0.13098836
78	0x3e820e79	0.25401667
79	0x3d9fa377	0.0779485
80	0x3e0f28ee	0.13980457
81	0x3ddd26ce	0.10798417
82	0x3df507b0	0.11964357
83	0x3d92794c	0.07152042
84	0x3e7e6abc	0.24845403
85	0x3e4ceac9	0.20011438
86	0x3e2de89e	0.16983268
87	0x3e40883c	0.1880197
88	0x3dc1e37a	0.09467216
89	0x3dd65c1a	0.10466786
90	0x3e0a5cae	0.13511917
91	0x3e187dd0	0.14891744
92	0x3e167e0e	0.14696524
93	0x3df8157e	0.12113474
94	0x3e1bfc17	0.15232883
95	0x3e00ce96	0.12578806
96	0x3e011cf4	0.12608701
97	0x3e8d04e0	0.27542782
98	0x3e032c08	0.12809765
99	0x3e3beea3	0.18352751
100	0x3e3c586b	0.18393104
101	0x3e010901	0.12601091
102	0x3dc57807	0.09642034
103	0x3d800c96	0.062524006
104	0x3dd8b452	0.10581268
105	0x3dbdeaa4	0.0927327
106	0x3d4b5ba6	0.04964795
107	0x3de5181b	0.111862384
108	0x3e0816a8	0.13289893
109	0x3e0e6507	0.13905726
110	0x3dc456c8	0.09586865
111	0x3dac6364	0.08417395
112	0x3d411bf1	0.047145788
113	0x3dca1f5b	0.09869262
114	0x3db90046	0.09033255
115	0x3e68e225	0.22742517
116	0x3d71bd77	0.05901858
117	0x3e097f1d	0.13427396
118	0x3d9b3863	0.07579114
119	0x3deeaac9	0.116536684
120	0x3d9d60ef	0.07684504
121	0x3e0a9e82	0.13537028
122	0x3e4d22df	0.20032834
123	0x3db838ee	0.089952335
124	0x3db2e3c5	0.0873485
125	0x3e38d970	0.18051696
126	0x3e771683	0.24129681
127	0x3db69706	0.08915524
128	0x3dab6587	0.08368974
129	0x3e2d6a29	0.16935028
130	0x3e507f7a	0.20361128
131	0x3e297b8d	0.16551037
132	0x3df76d86	0.12081437
133	0x3e311a6c	0.17295235
134	0x3e1c1f7c	0.15246385
135	0x3d98ceb8	0.074613035
136	0x3db80a12	0.08986296
137	0x3e099902	0.13437274
138	0x3e422122	0.18957952
139	0x3e6ff5c1	0.23433591
140	0x3e2107f1	0.15725686
141	0x3e07550f	0.13216041
142	0x3e5a3915	0.21310838
143	0x3d894641	0.06702853
144	0x3e12aa47	0.14322768
145	0x3dc7da45	0.097584285
146	0x3db6980c	0.089157194
147	0x3e691f1e	0.22765777
148	0x3e637b90	0.22215104
149	0x3da87928	0.08226234
150	0x3e6c3a04	0.23069006
151	0x3dd2a39e	0.10285114
152	0x3df90a0a	0.12160118
153	0x3e5a9f63	0.21349864
154	0x3e111dee	0.14171574
155	0x3dcd902b	0.100372635
156	0x3de133f9	0.10996241
157	0x3d93e8ae	0.072221145
158	0x3de28f0a	0.11062439
159	0x3da85e01	0.08221055
160	0x3e280bbd	0.16410728
161	0x3df02399	0.1172554
162	0x3ddc2bcd	0.10750542
163	0x3e35fa77	0.17771326
164	0x3dba51b7	0.09097617
165	0x3e27035c	0.16309875
166	0x3de97ebe	0.11401127
167	0x3d6fa99a	0.058511354
168	0x3dc1d363	0.09464147
169	0x3e889b86	0.26681155
170	0x3dcc4f48	0.09976059
171	0x3db56b10	0.08858311
172	0x3e457b4f	0.1928532
173	0x3eb8bc4a	0.36081153
174	0x3da3336f	0.079687946
175	0x3db1799c	0.08665773
176	0x3da34d5c	0.079737395
177	0x3e1411d5	0.14459927
178	0x3e060a37	0.13089834
179	0x3de6a461	0.112618215
180	0x3dd9b415	0.10630051
181	0x3db68b32	0.08913268
182	0x3e3d2189	0.18469824
183	0x3da6af91	0.081389554
184	0x3dbb0ae1	0.09132934
185	0x3e30eba9	0.17277397
186	0x3d9c1c42	0.07622577
187	0x3da48d46	0.08034758
188	0x3e93269d	0.28740397
189	0x3e096221	0.1341634
190	0x3df19705	0.11796383
191	0x3e0a3355	0.13496144
192	0x3dc74526	0.09729986
193	0x3e0385eb	0.12844054
194	0x3dca9e2b	0.098934494
195	0x3e1159e4	0.14194447
196	0x3ddd3a4b	0.10802134
197	0x3da5e56b	0.08100399
198	0x3e194a26	0.14969692
199	0x3d95b42c	0.07309756
200	0x3e433c9d	0.19066091
201	0x3dcfce4a	0.101467684
202	0x3e10a5d2	0.14125755
203	0x3dd97844	0.10618642
204	0x3ddb9e74	0.10723582
205	0x3d91b950	0.07115424
206	0x3d4cac13	0.04996879
207	0x3dde7c35	0.10863534
208	0x3e376739	0.1791047
209	0x3e1ebd73	0.15501957
210	0x3e648f46	0.2232028
211	0x3dc611b1	0.09671343
212	0x3df47a1e	0.119373545
213	0x3dc012d9	0.09378595
214	0x3daee5ca	0.085399225
215	0x3dde1a3d	0.10844848
216	0x3e07aaff	0.13248824
217	0x3e4228f8	0.18960941
218	0x3e5fbd72	0.21849611
219	0x3e508ae6	0.20365486
220	0x3df9f211	0.12204374
221	0x3dcc55d2	0.099773064
222	0x3e2db095	0.16961892
223	0x3de86890	0.11348069
224	0x3de496b8	0.1116156
225	0x3d632854	0.05545838
226	0x3dcdb099	0.10043449
227	0x3df687b8	0.12037605
228	0x3daf71a4	0.08566597
229	0x3e8a726c	0.27040422
230	0x3e284132	0.1643112
231	0x3dfe3036	0.12411539
232	0x3dd94f94	0.106108814
233	0x3d8af3d9	0.067847915
234	0x3e168a22	0.14701131
235	0x3db84c26	0.08998899
236	0x3e556db2	0.20842627
237	0x3da647c7	0.08119159
238	0x3dee2aa9	0.116292305
239	0x3db02378	0.08600515
240	0x3e4ab2a5	0.1979471
241	0x3e82bbe0	0.25533962
242	0x3dfad1d1	0.122470506
243	0x3df557a7	0.11979609
244	0x3e0349d6	0.12821135
245	0x3d9b7df8	0.07592386
246	0x3d6a8960	0.057259917
247	0x3dffca45	0.12489752
248	0x3dc3f7ae	0.095687255
249	0x3d8ec078	0.06970304
250	0x3e0c72de	0.13715693
251	0x3dffcefe	0.124906525
252	0x3e361422	0.17781118
253	0x3dcb7802	0.09934999
254	0x3d8eeea8	0.06979114
255	0x3e950ead	0.2911276

model.4.weight f4 [256, 256]
0	0xbd8244d2	-0.06360783
1	0x3e087e6a	0.13329473
2	0xbd4c042e	-0.049808674
3	0x3d770c52	0.060314484
4	0x3d1fa75a	0.03897796
5	0xbd4fccb3	-0.050732326
6	0xbc85829a	-0.016297627
7	0xbd1a07cd	-0.037605096
8	0x3d52e81b	0.051490884
9	0x3d3863ee	0.045017175
10	0xbd82cd99	-0.06386871
11	0xbd95bc0c	-0.07311258
12	0x3de620ec	0.11236748
13	0x3d899362	0.06717564
14	0xbdfade40	-0.12249422
15	0x3daedf22	0.08538653
16	0x3d338a56	0.0438331
17	0x3dbfccd9	0.093652435
18	0x3d8a957d	0.06766794
19	0x3df4a486	0.11945443
20	0x3db3995d	0.08769486
21	0x3ce79529	0.028269367
22	0x3d46bf63	0.048522364
23	0xbe1c02f6	-0.15235505
24	0xbd3cc33e	-0.046084635
25	0x3d85200d	0.06500254
26	0x3d878d92	0.06618799
27	0x3dbd0fbf	0.09231519
28	0x3d7816be	0.060568564
29	0x3d8765f1	0.06611241
30	0x3dbcd234	0.092197806
31	0xbde78124	-0.113039285
32	0x3c0131be	0.007885395
33	0x3d8b2d88	0.06795794
34	0x3d7457c2	0.059654005
35	0xbd50e333	-0.050997924
36	0x3cbd0a29	0.023076134
37	0xbda2c7c2	-0.07948257
38	0xbd1289c4	-0.035775915
39	0xbd28fa12	-0.04125411
40	0x3dd50306	0.10400967
41	0x3d50ef08	0.051009208
42	0x3c39aade	0.011332242
43	0x3da7ab1e	0.08186935
44	0xbc269db6	-0.010169437
45	0x3dfb5f10	0.12273991
46	0x3e242671	0.16030289
47	0x3dbee380	0.09320736
48	0x3d7d5ba7	0.061854985
49	0x3d825f73	0.06365862
50	0x3d80210e	0.06256305
51	0xbcf7c938	-0.030247316
52	0x3d3598a7	0.044335034
53	0x3a82099c	0.0009921077
54	0x3d2eedd7	0.04270729
55	0xbc648f68	-0.013950206
56	0x3d93bd36	0.072138235
57	0xbddf95e7	-0.109172635
58	0x3c5d4f15	0.013507624
59	0x3dd82eeb	0.10555824
60	0xbdd08bc3	-0.101829074
61	0x3db6d94e	0.08928166
62	0x3cd04b09	0.025426405
63	0xbd94e635	-0.07270471
64	0x3e085ebf	0.13317393
65	0x3d592273	0.05301137
66	0xbc88f51f	-0.016718445
67	0x3d3fd36c	0.046832487
68	0x3db5584b	0.08854731
69	0xbdf62f25	-0.12020711
70	0xbd5bd6fb	-0.05367182
71	0x3d95252a	0.07282479
72	0xbc085c2b	-0.008322756
73	0x3bb7af2e	0.0056056
74	0x3d9322e8	0.07184392
75	0x3b5f2950	0.0034051724
76	0x3ac05ae2	0.0014675523
77	0xbd4ef906	-0.050530456
78	0xbcda46d9	-0.02664511
79	0xbdd40e81	-0.10354329
80	0x3daba1fd	0.08380506
81	0x3ad107d4	0.0015947768
82	0xbd8ebcff	-0.06969642
83	0x3d211dc1	0.039335016
84	0xbcf8757b	-0.030329457
85	0x3e0828c5	0.13296802
86	0x3e0444a5	0.12916811
87	0x3d1e7e80	0.03869486
88	0xbd59b9f7	-0.053155866
89	0x3dc9b5bd	0.09849117
90	0x3d10977d	0.03530072
91	0xba2003cb	-0.0006104081
92	0x3d301af0	0.04299444
93	0xbd9a8228	-0.075443566
94	0xbd73ebd9	-0.059551094
95	0x3dc2b1ee	0.09506594
96	0xbcd15fce	-0.025558379
97	0x3e00af6f	0.12566923
98	0x3db7a754	0.08967462
99	0x3e0cc8b8	0.13748443
100	0x3c269a3d	0.010168609
101	0x3c9e4b83	0.019323116
102	0x3df075e6	0.11741237
103	0xbd730713	-0.05933292
104	0x3de87561	0.11350513
105	0xbd4452a0	-0.04793036
106	0x3e1e0c0e	0.15434286
107	0xbc134114	-0.008987684
108	0xbce0317c	-0.027367346
109	0xbaa5d11f	-0.0012650824
110	0xbd21a14b	-0.03946046
111	0x3db54ed0	0.08852923
112	0x3d8cd77e	0.068770394
113	0x3df41832	0.119186774
114	0x3db7324d	0.08945141
115	0x3dbb51d4	0.09146467
116	0x3d00f849	0.031486783
117	0xbca203b0	-0.019777149
118	0x3d23b6fd	0.039969433
119	0xbc607201	-0.013699056
120	0x3e1013f3	0.1407011
121	0xbc11cad1	-0.008898453
122	0x3dd96ea9	0.1061681
123	0xbd031f41	-0.032012228
124	0x3c41a04a	0.011818001
125	0xbd40963b	-0.04701827
126	0x3b74abef	0.0037333926
127	0xbd90781f	-0.07054161
128	0xbdffd4e3	-0.12491777
129	0x3d97443e	0.07386063
130	0x3cae5c3a	0.021284211
131	0x3d48f708	0.049063712
132	0xbd379bdd	-0.044826377
133	0x3cb54547	0.02212776
134	0x3d09b46c	0.03361933
135	0xbcd7a523	-0.02632386
136	0x3d969102	0.07351877
137	0x3dba6070	0.09100425
138	0x3d072e84	0.033003345
139	0x3e259d99	0.161734
140	0x3da436e7	0.08018284
141	0xbc58f442	-0.013241829
142	0x3df086b0	0.117444396
143	0xbc45140f	-0.012028708
144	0x3ccab1f1	0.024743052
145	0xbdba422d	-0.09094653
146	0xbb982c8a	-0.0046439813
147	0xbd1dc818	-0.038520902
148	0xbd8aca4c	-0.06776866
149	0xbd9d242b	-0.07672914
150	0x3daf0748	0.08546311
151	0xbd86e8db	-0.065873824
152	0xbdb00073	-0.08593836
153	0x3d232e6a	0.039839186
154	0xbdee5201	-0.11636735
155	0x3da5611c	0.08075163
156	0xbd2e5e52	-0.04257042
157	0x3deb0f6f	0.11477553
158	0x3d88aec9	0.066739626
159	0x3d10e4c0	0.035374403
160	0xbd523c3d	-0.05132698
161	0xbdb75054	-0.08950868
162	0x3e089145	0.13336666
163	0x3dae48f7	0.08510011
164	0xbca9d403	-0.020730978
165	0x3d50fd70	0.051022947
166	0x3b56c12e	0.0032768953
167	0x3b83df6a	0.0040244358
168	0x3cdd96da	0.02704947
169	0xbcf5884f	-0.029972224
170	0xbd7aae21	-0.06120122
171	0x3df4e953	0.119585656
172	0x3d5a1cfa	0.05325029
173	0x3d79531c	0.060870275
174	0x3d8c64a2	0.06855132
175	0xbd6a6641	-0.057226423
176	0xbdd50fe7	-0.10403424
177	0x3d7867dd	0.060645927
178	0x3db5b528	0.088724434
179	0x3d047c89	0.03234533
180	0x3dc31e3a	0.0952725
181	0xbb64d687	-0.0034917907
182	0x3d8f337b	0.06992241
183	0x3cbdb44a	0.023157258
184	0xbcc28b1a	-0.02374797
185	0x3d8b52a6	0.06802873
186	0xbddcc8de	-0.107805
187	0xbc91c90e	-0.017796066
188	0x3c3a5f4c	0.01137526
189	0x3d280992	0.041024752
190	0x3c9145ed	0.017733539
191	0x3d1b12b2	0.037859626
192	0x3d5caebb	0.053877573
193	0x3caee103	0.021347528
194	0x3d37c0ee	0.044861726
195	0x3d6d7643	0.05797411
196	0xbc81bf2d	-0.01583823
197	0x3de0fc3b	0.10985609
198	0xbc18d51f	-0.009328156
199	0xba0c4ca5	-0.0005351997
200	0xbd73ee53	-0.059553456
201	0xbc006e4f	-0.0078388
202	0x3c77964e	0.015111519
203	0xbc169a36	-0.00919204
204	0x3d988794	0.074477345
205	0xbd8ecedc	-0.06973049
206	0x3e4e3392	0.2013686
207	0xbdaa523d	-0.08316467
208	0xbd794e5e	-0.060865752
209	0xbd639ccd	-0.05556946
210	0x3e0f9468	0.14021456
211	0x3d9373d6	0.07199828
212	0xbd7877cf	-0.060661133
213	0xbdd2492e	-0.10267864
214	0xbc127132	-0.008938121
215	0xbd2ddab3	-0.042444896
216	0xbd51e0bd	-0.051239718
217	0x3c0e6a8d	0.008692396
218	0x3d139c8b	0.036037963
219	0xbe2731f8	-0.16327655
220	0xbb8e64fb	-0.004345534
221	0xbd8a685b	-0.067581855
222	0x3db293ef	0.08719622
223	0x3c8d0d76	0.017218333
224	0xbd644d0c	-0.05573754
225	0xbcc0fe28	-0.023558691
226	0x3e33dc4b	0.17564504
227	0x3b4c31bc	0.0031157574
228	0xbdd35ed9	-0.10320825
229	0xbb34fa44	-0.002761499
230	0xbc714531	-0.014725969
231	0xbb6000f6	-0.003418026
232	0x3d9fd5cc	0.078044504
233	0xbd90221d	-0.070377566
234	0xbdb5a9c6	-0.08870272
235	0x3d06f076	0.032944165
236	0xbd285dc9	-0.041105065
237	0x3d9ee8f3	0.07759275
238	0x3d6401c4	0.055665746
239	0x3ddd5365	0.10806922
240	0xbdb8a9bb	-0.090167485
241	0x3d6bb70b	0.05754761
242	0x3dc9f42b	0.098610245
243	0x3c9f71ef	0.019463507
244	0x3cacacb2	0.021078441
245	0xbcb7cb03	-0.02243567
246	0xbca8b6af	-0.020594923
247	0x3ccdb3b6	0.025110107
248	0xbbc8570a	-0.0061138915
249	0x3e0c7122	0.13715032
250	0xbd946417	-0.07245653
251	0xbdebf17a	-0.115206674
252	0x3d285e3e	0.0411055
253	0x3dd8a2a8	0.10577899
254	0xbda3d45a	-0.07999487
255	0x3d74b469	0.059742365
