best_models/best_model_rnn_search_9_features_50.pt (torch, 10016 bytes, 5 tensors)

rnn.weight_ih_l0 f4 [32, 20]
000000 cd 70 ac 3d 55 ef 3c 3e ad f0 b1 3d b5 1f 5b 3d
       0.084199525 0.18450673 0.086884834 0.053497035
000010 29 58 a1 3d ae 92 dc 3d da 7a 4d bd d2 5e 0c be
       0.07878143 0.107701644 -0.05016599 -0.13708046
000020 a0 18 00 3c 6f f3 c5 3d b0 45 db 3d 17 1f 72 3b
       0.007818371 0.09665572 0.10706651 0.00369448
000030 80 ee 12 be de a2 e3 3d 68 74 4d 3c ad f8 84 bc
       -0.14348793 0.11115049 0.01253996 -0.01623186
000040 57 45 ec 3d b5 d2 04 3e b3 f1 2f bd 39 c1 08 be
       0.11536663 0.12971003 -0.04295511 -0.13354959
000050 f3 67 52 3e 77 bb 6e 3d cf b4 3b 3d 7e 27 c4 3c
       0.20547466 0.05828425 0.04582673 0.023944613
000060 db 0f 2b bd 03 19 16 be 4c 71 34 be e9 96 4c be
       -0.041763168 -0.14657979 -0.17621344 -0.19979443
000070 c3 93 0d 3e f3 84 c0 3d bd 15 2e bd ea c1 cf 3d
       0.13825898 0.09400358 -0.0425012 0.10144408
000080 5a 53 03 bb 4a 70 19 3e 96 96 b2 bc 31 b9 bf bd
       -0.0020038695 0.14984241 -0.02180032 -0.09361494
000090 51 e2 36 be 12 3e bb 3d eb 0b 9b 3d f4 a4 9f 3d
       -0.1785977 0.09142698 0.075706325 0.07795134
0000a0 01 76 0d be 45 f1 1c be 99 c1 39 3d 4b a0 20 3d
       -0.13814546 -0.15326412 0.045350645 0.039215367
0000b0 d0 03 6d bd 41 c3 f3 3d 9d 3d b5 bd 49 37 22 3e
       -0.057864964 0.11902476 -0.088496424 0.15841402
0000c0 17 b5 13 3d 22 cd 0f 3d 0f 0e e6 bc 32 f4 b3 bc
       0.036061373 0.03510774 -0.028082876 -0.021967027
0000d0 96 5e 93 bd 70 71 b9 bc 06 27 81 bd 32 3d 8a bd
       -0.07195775 -0.022637099 -0.06306271 -0.06749953
0000e0 2b 85 05 be 17 35 17 3d 67 2a 4e bd b8 94 12 be
       -0.13039081 0.036915865 -0.050333407 -0.14314544
0000f0 75 c2 7e 3d 0e 93 1a 3e 73 39 62 bd fc 2d 6c ba
       0.062197167 0.1509516 -0.05523057 -0.0009009538
000100 ed 73 9f 3d 84 0d 17 3e fa da 45 3d a1 1c d6 3d
       0.07785783 0.1475125 0.048304535 0.10454679
000110 fd 91 10 3e c9 58 fd 3d d8 c8 30 be df 74 7c 3d
       0.1411819 0.1237045 -0.17264116 0.061634894
000120 bd b2 90 bc be 1f 53 3c c1 a5 ec 3c 0a 09 56 bc
       -0.017663354 0.012885986 0.028887631 -0.0130636785
000130 63 1a 83 3d 97 80 0b be 06 3c fb bc d0 98 dc 3d
       0.06401517 -0.13623272 -0.03066827 0.10771334
000140 0d 2e 0f bd 8c 13 fe 3c 66 9c 65 bd b7 17 a3 bd
       -0.034956027 0.03101518 -0.056057356 -0.079635076
000150 79 56 9f 3c bb 0c 15 3e 8a d6 66 3d bb 97 63 bd
       0.019450413 0.14555638 0.056356944 -0.055564623
000160 86 e0 6d 3d 4f 1f 63 3d c4 49 06 bc 80 ab f0 3d
       0.05807545 0.05544978 -0.008196298 0.11751461
000170 f0 ee f5 ba f6 18 6c 3d 04 1a 3e be 16 6d 4c be
       -0.0018763226 0.057640992 -0.18564612 -0.19963488
000180 38 43 fe 3d 8a 96 14 3e d7 b7 e3 bb 91 2e 97 3b
       0.12415165 0.14510551 -0.0069494057 0.0046137054
000190 fe 1b c3 3d ed 43 15 be 69 9e 2f bd 2c 5d f1 3d
       0.095268235 -0.14576693 -0.04287568 0.11785349
0001a0 09 d2 bd bd 68 0e 93 3a 4c 5f 00 be 01 92 f3 bd
       -0.09268577 0.0011219503 -0.12536353 -0.118930824
0001b0 1a 31 3e bd 34 30 b3 bc b7 28 8f 3d 83 17 2c 3e
       -0.046433546 -0.021873571 0.069901876 0.16805844
0001c0 ff a2 1f be 75 8a 08 3e 63 6f 14 3d 76 90 08 3d
       -0.15589522 0.13334067 0.03623904 0.033340894
0001d0 ff 9d 20 3c d6 34 b6 bd a3 62 0e 3d 8a 0d 10 3d
       0.009803294 -0.088967964 0.034762036 0.03516916
0001e0 0e 62 a0 bc 25 8f 08 be 15 4c 15 3d 8d b0 2c be
       -0.019578006 -0.13335855 0.03644951 -0.16864224
0001f0 08 fe 3f bc 7a b4 04 3e 9a 7e 88 bd 4b b2 3e 3e
       -0.011718281 0.12959471 -0.06664772 0.18622701
000200 89 48 85 bd 4e 73 71 3d a1 dd fd bd d2 5a db 3d
       -0.065079756 0.058947854 -0.12395788 0.10710682
000210 d2 16 2e be 8e 22 83 3d 19 12 5b 3d c9 0f 14 be
       -0.17000893 0.06403075 0.053484056 -0.14459147
000220 6f 07 1f bc c3 2d f7 bd e7 63 a0 3d ef 3d a7 bd
       -0.009706362 -0.12069275 0.07831555 -0.0816611
000230 d4 a0 32 3e 89 96 fe bd 93 13 a4 3d 9b 86 00 3e
       0.17444164 -0.12431056 0.08011546 0.12551348
000240 1d 7e e5 bd c6 6d 8f 3d 91 f6 cc ba 90 4e 35 bc
       -0.11205695 0.070033595 -0.0015637447 -0.011066094
000250 bb 1a 90 3c f8 71 bf bd 1b 48 63 3c ca 3c de bd
       0.017590871 -0.0934791 0.013872172 -0.10851438
000260 84 35 a7 bd 7c 7a 03 bd 6f 84 bb 3d 4e 5b 66 bd
       -0.08164504 -0.032099232 0.09156119 -0.05623942
000270 35 82 d2 3d 8c c9 9e bd fb 52 c2 3c 92 40 6b b9
       0.10278741 -0.07753286 0.023721209 -0.00022435401
000280 e9 d5 4d 3e 28 0e 76 bd bf d8 0a bd 97 f0 0a bd
       0.20101131 -0.060072094 -0.03389811 -0.03392085
000290 41 27 16 3c 3c cc 9d bd ad 3f 31 be f0 1e 32 be
       0.009164632 -0.0770497 -0.17309447 -0.17394614
0002a0 59 16 45 bd 31 f6 37 bc 9d e8 ad 3d e3 4c 11 bd
       -0.048117016 -0.01122813 0.08491633 -0.035473716
0002b0 ec 1c da bd 45 63 f5 3c 85 ef 54 bd dd 61 93 bd
       -0.10650048 0.029954562 -0.051986236 -0.071964
0002c0 f9 f8 48 be 37 f4 fb 3d 8e de 96 3d 7e 40 44 be
       -0.19626226 0.1230244 0.07366668 -0.19165227
0002d0 3a d1 56 bd bf 74 bf bd c7 eb bf 3c 6d 2a 32 3d
       -0.052445628 -0.093484394 0.023427857 0.04349749
0002e0 4b 6e 81 3d 2b 1f b0 3d cd 01 10 3e 83 41 9e 3a
       0.06319865 0.08599695 0.14063187 0.0012073967
0002f0 84 a2 24 3c 6e b7 93 3d 72 b7 b2 3c e6 f5 87 bd
       0.010048512 0.07212721 0.02181599 -0.06638698
000300 dd c7 2a bd 05 30 af bd 9d e4 a2 3d 36 3e 89 3d
       -0.04169451 -0.08554081 0.07953761 0.06701319
000310 11 8e 34 bc 06 9f db bd 82 3f cd bd ad 43 82 3c
       -0.011020199 -0.10723691 -0.10021879 0.015901411
000320 b2 30 c5 3d a3 09 e6 bd 92 b9 81 3d c0 a5 c0 3d
       0.096284285 -0.11232307 0.06334223 0.09406614
000330 ea d0 0e be 02 a7 b8 3d 9a 46 f1 bd 9f 5e 21 be
       -0.13946882 0.09016229 -0.11781044 -0.15758751
000340 96 90 47 bd 4d 5d ec bd e7 d1 78 3b 6f 62 9a bd
       -0.048721872 -0.11541233 0.0037966908 -0.07538306
000350 77 55 9e bd 4e d5 0a 3e 7d d0 64 be 5a 19 76 3c
       -0.07731145 0.13557932 -0.22345157 0.015020693
000360 b5 ed 37 be 29 44 17 3e f1 77 13 3e 72 5d ce 3c
       -0.17961772 0.14772095 0.14401223 0.025191043
000370 86 a5 3b bc fe 18 6f 3d 6c 4e f9 3b c2 5d cd 3d
       -0.011453038 0.058373444 0.0076082256 0.100276485
000380 7a 48 90 3d a3 ac 21 bd 67 93 8d 3c a7 81 01 be
       0.07045074 -0.03947128 0.017282201 -0.12647115
000390 55 2d 41 bd c5 21 0e 3e a5 82 81 bd 8b 6e aa bd
       -0.047162373 0.1388007 -0.063237466 -0.08321866
0003a0 5c d0 63 3d be 3b e0 3d 8b 49 2a 3e 48 e0 c0 bd
       0.05561863 0.10948895 0.16629617 -0.09417778
0003b0 40 6b 5a bd f8 f3 5c 3c 5a fc 27 3e 68 9c a9 3d
       -0.053324938 0.013485901 0.16404858 0.08281785
0003c0 b2 f5 ce bd a1 f3 37 3e c4 12 03 be 99 bf a9 bd
       -0.101054564 0.17964031 -0.12800127 -0.082884975
0003d0 02 3e 9f 3d 11 d3 c3 3c a3 a6 ae bd 34 44 0c 3e
       0.07775499 0.023904355 -0.08527877 0.13697892
0003e0 fb 6b a3 3d d5 09 07 3d de 24 15 be fb 22 ae 3c
       0.0797958 0.03296836 -0.14564845 0.021256914
0003f0 06 05 3e bc 35 78 4f 3e 9d 47 7a 3e 93 34 28 3e
       -0.011597877 0.20260699 0.24441381 0.16426305

rnn.weight_hh_l0 f4 [32, 32]
000000 50 77 c4 3c c8 d3 cf 3c f1 26 e4 bd a1 26 26 3e
       0.023982674 0.02536954 -0.1114024 0.16225673
000010 6a cc 9f 3d 80 b7 87 3a a3 eb ed bd 58 72 d8 3c
       0.07802661 0.001035437 -0.1161721 0.02642171
000020 12 25 e7 bd 9e a8 a8 3d 6e fa 17 be da 46 33 be
       -0.112863675 0.08235286 -0.14841625 -0.17507496
000030 66 eb c0 bd 40 69 1d bc 73 83 dc bd ba 2f af 3d
       -0.09419899 -0.009607613 -0.107672594 0.08554025
000040 3d e7 31 be 3a 63 76 bd 02 ec d1 3d c5 82 2a 3e
       -0.17373367 -0.060153224 0.10250093 0.16651447
000050 57 7f 12 3e c6 68 b9 3d 98 ea 99 bc fa d9 bd bd
       0.14306389 0.09053187 -0.01878862 -0.09270091
000060 05 3c 04 3e e4 c5 95 bd 0b 32 82 bd b0 38 9e bd
       0.1291352 -0.07313135 -0.06357201 -0.07725656
000070 aa 0c a5 3d 68 fc d2 bc 20 19 d3 3b 2a bd c1 bd
       0.08059056 -0.025755122 0.006442204 -0.09459908
000080 74 43 95 bd 90 3d 37 bc 50 01 d1 3c b5 a9 0f be
       -0.07288256 -0.011184111 0.025513321 -0.14029582
000090 bc 20 00 be ee 4e 87 bd 0b b0 29 3e 2c 28 84 3d
       -0.12512487 -0.066068515 0.16571061 0.06452975
0000a0 58 22 1c bd 50 e4 1c bd b7 ba 30 3e 17 5d de bd
       -0.03811869 -0.038303673 0.17258726 -0.10857599
0000b0 69 b6 12 3e 88 64 00 bd d1 2e 21 be a8 0c 54 3d
       0.14327396 -0.031345874 -0.15740515 0.051769882
0000c0 d1 23 20 3e 28 76 72 3d 8f 76 c6 bd 3e c4 d4 3d
       0.15638663 0.059194714 -0.09690582 0.10388993
0000d0 b2 cb 98 3d 72 1b e0 3d 20 84 c4 bb 02 40 29 be
       0.07460727 0.10942735 -0.005997196 -0.16528323
0000e0 42 24 c0 3d 28 e5 fd 3c 5e 19 93 bd 39 40 89 bd
       0.09381916 0.03099306 -0.07182573 -0.067017026
0000f0 f1 f9 31 3e 3f e5 a2 bd 10 ba 98 3c 33 58 cc bd
       0.17380501 -0.079538815 0.018643409 -0.0997776
000100 b0 e8 76 3d 4d 20 1a 3e 96 a3 18 be 68 9b 21 bd
       0.0602805 0.15051384 -0.14906153 -0.039454848
000110 34 06 29 bd 60 fd 2c be ea 13 f5 3d 5d 8d d9 bd
       -0.04126568 -0.1689353 0.11966689 -0.10622666
000120 80 b0 d1 bc 26 70 b4 bd 3c ac 2a 3d c8 09 64 3d
       -0.025596857 -0.08810453 0.04166816 0.05567339
000130 76 18 ee bd 24 40 f5 bd 24 b0 26 bd 64 73 49 3d
       -0.11625759 -0.119751245 -0.040695325 0.04918231
000140 4d 33 0e 3e bb ca 00 3e 7c 54 0d bd a6 48 88 3d
       0.13886757 0.12577336 -0.0345044 0.066544816
000150 c8 7f 26 3d 29 54 aa bd 20 f7 0e bc c2 bf c7 3d
       0.040649205 -0.083168335 -0.008725911 0.09753372
000160 78 42 14 be 90 4a 89 3c 00 c8 9d 3b 62 14 e1 3d
       -0.14478481 0.016759187 0.0048151016 0.10990216
000170 d1 6e 18 3e c6 45 c4 3d 3e 4b 08 be a0 0a eb 3c
       0.14886023 0.09583621 -0.13309953 0.02869159
000180 db 98 a0 bd 46 e3 ee 3d 53 2a d1 bd 70 2c 10 3c
       -0.07841655 0.11664443 -0.10213151 0.008799657
000190 bd 1b cf bd 76 02 c7 3d da 25 9d 3d 2b 51 27 3e
       -0.101127125 0.09717266 0.07673235 0.16339557
0001a0 2e 26 97 3d 68 5b b1 3c 69 01 0c 3e e2 2b ed 3d
       0.07380329 0.021650031 0.13672413 0.115806356
0001b0 fb 89 07 3e 14 be 12 bd 2f 91 12 3e fc 9b ee bd
       0.13236229 -0.035825804 0.14313196 -0.116508454
0001c0 64 01 30 3d 3c 60 8a 3d 7c bd 40 3d b0 9d 48 bc
       0.042970076 0.067566365 0.047055706 -0.012244627
0001d0 79 45 26 3e 7c 7b 1e 3d 2c f3 42 3d 70 d2 7f 3d
       0.16237439 0.038691983 0.047595188 0.06245655
0001e0 a0 ac 82 bd b0 e2 3d 3c d5 42 a4 bd 36 b8 c3 3d
       -0.06380582 0.011589691 -0.0802056 0.0955662
0001f0 d8 50 08 3d c0 27 71 3d d4 dd 06 be ad 46 0d be
       0.033280224 0.0588758 -0.13170558 -0.13796492
000200 60 48 15 3c 55 b8 23 3e 29 04 28 be aa 32 d1 bd
       0.009111494 0.15988286 -0.16407837 -0.102147415
000210 3c 7c 1a 3d ad a5 d2 bd 87 bf 11 3e c2 df c6 3d
       0.037716135 -0.102855064 0.14233218 0.09710647
000220 ec a3 da bd 67 ac 2c be a6 6a 8a 3d ea 8a a3 3d
       -0.10675797 -0.16862641 0.06758623 0.0798548
000230 98 1a 92 bc a4 8b a9 bd 40 42 96 3c a0 04 7e bc
       -0.017834947 -0.082785875 0.018342137 -0.015504032
000240 cb c7 11 3e 65 37 0d 3e e6 b8 be 3d ba 9e 30 be
       0.14236371 0.13790663 0.0931261 -0.1724805
000250 b6 f7 e2 3d c0 90 59 3b 29 ec 13 3e 5f aa 21 3e
       0.11082403 0.003319785 0.14445557 0.15787648
000260 57 67 26 3e 31 e2 2a 3e db 31 06 3e 84 1d 24 be
       0.16250359 0.16687848 0.13104956 -0.16026884
000270 dc ad 30 be df 4d 13 3e e8 73 b7 bc f9 29 05 3e
       -0.17253822 0.14385174 -0.022394136 0.13004293
000280 1c 83 10 be 91 ba e9 bd 70 8a 70 3d b8 a2 d7 bd
       -0.14112514 -0.11412538 0.058725774 -0.10529083
000290 84 ea 83 3d 4f e8 2a be fc a1 5c 3d af 79 16 3e
       0.06441215 -0.16690181 0.053865418 0.14694856
0002a0 7f 5f 0d 3e 35 10 30 3e 38 0c 20 3d d0 6e 2a bc
       0.1380596 0.17193682 0.039074153 -0.010402396
0002b0 0e 00 a6 bd 92 47 9d 3d a0 3a e6 3c c0 cf 6b bc
       -0.08105479 0.076796666 0.028104126 -0.014392793
0002c0 49 69 12 3e 07 88 2e be 5c bd b7 bd 48 87 6b 3d
       0.14297976 -0.17044078 -0.08971664 0.05750206
0002d0 78 ce 02 be 68 59 4f 3d 80 21 ff ba f0 0c a9 3c
       -0.12774074 0.050622374 -0.001946494 0.020636052
0002e0 dd 02 15 be 08 57 a9 bc ba f2 93 bd 3a c6 30 be
       -0.14551874 -0.020671383 -0.07224031 -0.17263117
0002f0 38 9f 19 3d 98 01 2f 3d 44 1d 32 3d 40 5a 76 3d
       0.03750536 0.04272613 0.04348494 0.060144663
000300 00 03 53 ba 33 c7 9b bd 46 a5 ba 3d 98 98 08 be
       -0.0008049458 -0.076063536 0.09113555 -0.1333946
000310 d2 75 2b be a4 8b 9c bd 36 89 e8 3d 1d 46 87 bd
       -0.16744164 -0.07643822 0.11354296 -0.0660517
000320 11 5c 16 3e 10 9a 63 bc 20 9a 02 bc 26 db d8 3d
       0.14683558 -0.013891712 -0.007971317 0.10588674
000330 57 ba be bd 5c b3 8e 3d ac f0 aa bd c6 ac ca 3d
       -0.09312885 0.06967804 -0.08346686 0.09896235
000340 93 99 1d be 9d 57 03 3e df 8d 33 3e 79 ec 1a 3e
       -0.15390615 0.1282639 0.17534588 0.1512927
000350 00 59 c1 3a 30 38 8a 3d a8 4e 97 bd ce 9b bf 3d
       0.0014751256 0.06748998 -0.07388049 0.09355889
000360 6e 62 ee bd 39 65 07 3e 10 52 e7 3c 87 03 1c be
       -0.11639868 0.13222207 0.028237373 -0.1523572
000370 ca b5 a6 3d 70 e4 53 bc c8 42 72 3d 9e 12 e6 3d
       0.08140142 -0.012932882 0.05914572 0.1123402
000380 19 dd 1c be 32 9e 91 3d d9 3c dc bd 80 9b bf bb
       -0.15318717 0.071102515 -0.10753793 -0.0058473945
000390 38 72 1b bd 73 f8 1f 3e 9c 93 1b bd 98 d5 17 3d
       -0.037950724 0.1562212 -0.03798257 0.037068933
0003a0 10 5e 21 3d c0 e7 a6 3b a6 35 b9 3d d0 cf 37 3d
       0.039396346 0.0050935447 0.09043436 0.04487592
0003b0 6c c7 36 3d 3e 37 ed 3d 68 e8 d2 3c 94 d1 6a bd
       0.044623777 0.11582802 0.025745586 -0.057328776
0003c0 38 20 05 bd d4 cc 51 3d 71 b4 07 be 52 a4 24 be
       -0.03250143 0.05122073 -0.13252427 -0.16078308
0003d0 38 fc ec 3c 34 91 86 3d 80 e2 17 3c 85 90 31 be
       0.028928861 0.06570664 0.00927031 -0.17340286
0003e0 13 cc 2c be 74 cd e2 bd 5e b8 02 be 88 d1 17 bd
       -0.16874723 -0.11074343 -0.12765643 -0.03706506
0003f0 94 14 02 be 6e 90 ad 3d 10 1c 3d bd f2 0f 6e bd
       -0.12703162 0.084748134 -0.04616934 -0.058120675

rnn.bias_ih_l0 f4 [32]
000000 84 37 eb 3b 16 56 8c bc 3c a3 4f bd f2 a3 88 3d
       0.007178249 -0.017130893 -0.05069278 0.06671895
000010 cd cb ef 3d c8 33 c7 bd 98 62 98 bd 10 b2 b7 bd
       0.11708794 -0.09726673 -0.0744068 -0.089695096
000020 13 24 1c be a7 98 c3 bd 8c 96 98 bd a2 0c 67 bd
       -0.15248136 -0.095506005 -0.074505895 -0.056408532
000030 43 3a 75 bd f5 b2 ce 3d 87 7d 75 3d f5 99 d2 3d
       -0.059870016 0.10092727 0.059934165 0.10283271
000040 f6 b3 15 3e 90 e7 ea bb 17 03 20 3e 9b 20 1f bd
       0.14619431 -0.0071687177 0.15626179 -0.038849454
000050 a4 22 b8 bd ef 06 97 3b 16 8a 0b be 19 9c f1 3c
       -0.08990982 0.004608981 -0.13626894 0.029493378
000060 da 93 d4 3d 4a 95 9c 3b 2a 4b d0 bc e6 16 02 be
       0.10379763 0.004778539 -0.025426466 -0.12704048
000070 5b dd f5 3c de f5 17 be 91 23 cb 3d cc 04 a2 3d
       0.030012777 -0.14839885 0.09918893 0.07911071

rnn.bias_hh_l0 f4 [32]
000000 80 49 eb 3d 6e 94 82 bb f9 e5 03 3e fd 6d 28 be
       0.114886284 -0.0039849794 0.12880696 -0.16448207
000010 4d 21 11 be d1 83 01 3e 81 d5 12 3e 50 1c 87 3d
       -0.1417286 0.1264794 0.14339258 0.06597197
000020 46 d1 70 bd 6b fd 15 3e 6f 05 e7 3d 7a 74 4b 3d
       -0.05879333 0.14647453 0.11280333 0.049671628
000030 6d 6e 57 bd 5d 15 31 bd 86 8a b8 37 3b 2c eb bd
       -0.052595545 -0.043233264 2.1999014e-05 -0.11483046
000040 f6 15 7c bd 89 1a 96 bd 05 ea ec 3c a4 1c f2 bc
       -0.06154438 -0.0732928 0.028920183 -0.029554673
000050 fa bd 84 bd 05 3d 74 bd 3c e6 c1 3d b2 e7 1e bd
       -0.06481548 -0.059628505 0.09467742 -0.03879518
000060 63 55 63 bd 11 c6 39 bd b5 f0 89 3c db 7d e1 3d
       -0.055501353 -0.045354906 0.01683841 0.11010333
000070 ca 2a c2 bd ce 2b 0f 3e ef 42 bf bd b4 3c d0 bd
       -0.094808176 0.13981554 -0.093389384 -0.10167828

fc.weight f4 [1, 32]
000000 fe 09 d0 3d 22 37 19 bc 64 04 da 3a 30 22 e3 3b
       0.10158156 -0.009351524 0.0016633389 0.0069315657
000010 50 df 90 3a 68 91 b8 39 ee 70 d1 3c 21 23 1e bc
       0.001105288 0.0003520355 0.025566544 -0.00965193
000020 b5 3f 0b be 72 da fd 3b c3 9e 1d bc c4 3a 5e bb
       -0.13598521 0.007746988 -0.009620371 -0.0033909539
000030 7c 9d 4d 3c 37 32 01 bc d4 b8 10 3b e3 ad 47 3c
       0.012549754 -0.007885507 0.0022082822 0.012187454
000040 ee 14 f1 3a e6 82 9c 3b e5 f5 a4 3b b9 94 53 bb
       0.0018393078 0.0047763465 0.0050341957 -0.003228469
000050 f7 72 f7 bc 6e 88 17 3c bf 82 75 bc ee 01 7e bb
       -0.030206187 0.009248836 -0.014984786 -0.0038758474
000060 c5 19 87 3b 3e 80 f8 3c f2 83 e6 3b 0b 55 69 bc
       0.004122945 0.030334588 0.007034772 -0.014241467
000070 e4 ae a3 bb b1 f0 2e 3b b5 57 2f bc fb 90 b0 ba
       -0.004995214 0.0026693756 -0.010702063 -0.0013470942
