best_models/best_model_rnn_search_10_features_all.pt (torch, 279476 bytes, 5 tensors)

rnn.weight_ih_l0 f4 [256, 11]
000000 27 a7 ef 3d 24 44 86 3d e1 7f c7 3d fb 09 85 3d
       0.11701804 0.065559655 0.09741188 0.06496044
000010 ec 69 f8 3d 06 d5 db 3d 1e 5f aa 3d 83 ad 0b bc
       0.12129578 0.1073399 0.083189234 -0.008525255
000020 1e fc 9a 3d e1 04 53 3d 41 86 a9 3d cd fb 25 be
       0.07567619 0.051518325 0.0827756 -0.16209336
000030 99 52 ab bd ae c8 d1 bd e1 52 9f bd 32 b8 a5 bd
       -0.08365364 -0.10243355 -0.0777948 -0.08091773
000040 9e c8 86 bd 00 69 95 bd 20 22 01 be d3 13 6c bd
       -0.065812334 -0.07295418 -0.12610674 -0.057636093
000050 25 34 d1 bd 92 63 a8 bd 94 eb ca 3d 7b 79 ab 3d
       -0.10215024 -0.082221165 0.09908214 0.0837278
000060 d4 0e 51 3a af d3 6a 3d 89 5a ef 3d d1 c1 ac 3d
       0.0007974927 0.057330783 0.1168719 0.08435405
000070 c0 5e b9 3d ad 0d 65 3d 3b 9e 28 3d 6b b5 5f 3d
       0.09051275 0.055921245 0.041166525 0.054616373
000080 93 d1 c2 3d 61 cb bc bd a9 82 0f bd 7c 7f 80 bd
       0.09512629 -0.09218479 -0.035036717 -0.06274316
000090 7c 29 ad bd 29 9d 1c bc f3 2c aa bd 9f 1b d4 bc
       -0.08455178 -0.009558954 -0.08309355 -0.025892077
0000a0 42 4c fc bc dd c6 82 3c a6 62 2d bd a8 8e a2 3c
       -0.030798081 0.015963966 -0.042330407 0.019843414
0000b0 47 e7 b2 3d e9 c7 1a 3d 3c 15 bc 3d a0 ca 00 3e
       0.08735519 0.037788305 0.09183738 0.12577295
0000c0 f6 0a 82 3d c3 6b 8f 3d be 5d 6a 3d 83 f3 81 3c
       0.06349747 0.07002976 0.057218306 0.015863186
0000d0 18 c8 36 3d f3 c1 d0 3c 16 ba 22 3d c5 e7 98 3d
       0.044624418 0.025483107 0.039728247 0.074660815
0000e0 75 b3 92 3c b9 71 3f 3d a5 04 d8 3d 64 21 f5 3c
       0.017907837 0.046739314 0.10547761 0.029923148
0000f0 b3 d3 b6 3d 45 b2 b7 3d 81 5b 3e 3d b8 59 21 3d
       0.08927097 0.08969549 0.046473984 0.039392203
000100 19 13 51 3d 38 af 81 3d 02 8f 41 bd e8 43 9d bd
       0.051043604 0.063322484 -0.047255524 -0.07678968
000110 fa 3f 80 bd bc 62 68 bd df 0b a6 bd 48 f2 f9 bd
       -0.062622026 -0.056734785 -0.08107733 -0.122044146
000120 74 92 83 bd 1b b6 f8 bd ea 78 d0 bc fc ab 84 bd
       -0.06424418 -0.12144109 -0.025448281 -0.06478116
000130 8e 8f 6a bd ab 31 79 bd 76 1b 9f bd 6e c4 5d bd
       -0.05726581 -0.060838383 -0.0776891 -0.054142408
000140 7e 75 8c bd 31 c2 d8 bd cf 58 8d bd 1b bd 0e bd
       -0.06858347 -0.10583914 -0.069017045 -0.034848314
000150 c1 08 84 bc f8 81 4c bd 08 32 bd bc ec cd fe bc
       -0.016117455 -0.049928635 -0.023095146 -0.03110405
000160 8a d1 17 bd 6e f3 82 bd 03 5e 38 bd 20 c4 df bc
       -0.037065066 -0.06394087 -0.04501153 -0.0273152
000170 86 17 fb bd 4c 2a 81 bd 9c f8 84 bd 6b 8c 0d be
       -0.12260346 -0.063068956 -0.06492731 -0.13823096
000180 d4 7a a6 bd 72 a8 f4 bd a5 90 7c bd f7 90 90 3d
       -0.08128896 -0.11946191 -0.06166138 0.070589
000190 81 dd e9 3d 0e ae 22 3d 46 1f ed 3d 0c 85 a3 3d
       0.11419202 0.039716773 0.115782306 0.07984361
0001a0 34 56 60 3d c0 44 36 3d ee 01 e5 3d 81 36 a6 3d
       0.05476971 0.04449916 0.11182009 0.081158645
0001b0 5b a3 80 3d 9a 63 37 3d fe 8a de bd 27 86 76 bc
       0.062811576 0.04477272 -0.108663544 -0.015046633
0001c0 95 9e 87 bc a3 43 8f bd fe 2c a3 bd 4d 75 48 bd
       -0.01655511 -0.069953226 -0.07967566 -0.04893999
0001d0 27 ee 86 bd 0b b9 8f bd 40 e5 03 bc 78 73 f6 bd
       -0.06588393 -0.07017716 -0.008050263 -0.12033743
0001e0 e3 08 d9 bc 73 50 12 3d 24 61 6e 3d 24 72 01 3e
       -0.026493495 0.035721254 0.05819811 0.12641197
0001f0 44 6c ae 3d 50 51 19 3d 3e be e9 3d 74 c9 f4 3d
       0.08516744 0.03743106 0.11413239 0.11952487
000200 9e 76 9e 3d 70 11 cd 3d 0e a1 dd 3d 92 3b 13 3d
       0.07737468 0.100130916 0.10821734 0.035945483
000210 0c 40 dd 3c 95 2c d8 3d b5 6e b1 3d 35 13 0b 3e
       0.027008079 0.10555378 0.08663694 0.13581546
000220 6c 6d 39 3d a2 5d e4 3d 13 4a a0 3d 2c af 3a 3d
       0.04527037 0.111506715 0.078266285 0.045577213
000230 bb 55 ac 3d 3f 1c 12 3d e9 f1 f4 3d 0e 53 1d 3e
       0.08414789 0.03567147 0.11960203 0.15363714
000240 e3 eb cb 3d 2d c9 23 3e 2a e4 18 3e 11 cc d4 3d
       0.09957101 0.15994711 0.14930788 0.10390485
000250 c7 a5 86 3d 5d 19 c1 3d 70 75 ee 3d ab 8b b4 3d
       0.06574588 0.09428666 0.11643493 0.08815702
000260 7f 65 c3 3d a0 5a da 3d 71 cf 35 3d ae 06 ae 3d
       0.09540843 0.106618166 0.044387285 0.08497368
000270 52 21 b1 3d 25 c8 2c 3d cf 99 7d 3d e2 e3 a7 3d
       0.086489335 0.04218306 0.06191426 0.08197762
000280 1d d2 12 bb ef 22 ae 3c 4e 4b c9 3d a5 d2 c3 3d
       -0.002240307 0.021256892 0.09828816 0.09561662
000290 91 9c 70 bc 98 58 8b 3d cd eb d1 3d a6 04 9e 3d
       -0.014685766 0.06804007 0.102500536 0.0771573
0002a0 9d 09 ae 3d 30 2e bd 3d a5 ee 51 3d d2 6e 6c 3d
       0.08497927 0.09237325 0.05125298 0.057722874
0002b0 3f 8d 22 3e 7a 7e 47 3d fd 6c b6 3d 12 0a 3e 3d
       0.15874194 0.0487046 0.089075066 0.046396323
0002c0 0a bd 93 3d 3f 33 91 3d 5d 45 4f 3d a3 0a d0 3d
       0.07213791 0.070898525 0.05060326 0.10158279
0002d0 3b c4 a6 3d 93 19 c4 3d 37 4b bb 3d ab 54 87 3d
       0.08142897 0.095751904 0.091452055 0.06607946
0002e0 09 9e 4e 3d 92 64 06 3c de 04 a0 3d c5 31 1a 3e
       0.050443683 0.008202689 0.07813428 0.15058048
0002f0 7b 2c a4 3d f2 9d 84 3d 05 82 02 3e fc ef cb 3d
       0.080162965 0.06475438 0.12744911 0.09957883
000300 08 82 88 3d 7b 94 15 3e af 71 b3 3d 69 f2 a6 3d
       0.066654265 0.14607422 0.08761918 0.08151705
000310 01 a6 32 3e a9 43 13 3e b4 ab 2a 3d d7 1b 55 3d
       0.17446138 0.14381279 0.041667655 0.052028503
000320 2f 72 d3 3d aa 36 a4 3d 92 a2 84 3d b8 07 bc 3d
       0.10324513 0.08018239 0.0647632 0.0918116
000330 af 4b a7 3d 7c c1 25 3d 22 da fa 3c 2f b5 17 3d
       0.081687324 0.040467724 0.030621592 0.037038025
000340 2f 1d 5b 3d 17 c7 e4 3d 46 dd c6 3d 95 84 90 3d
       0.05349463 0.11170786 0.09710173 0.07056538
000350 72 49 e7 3c 8d b6 cc 3d 18 cb 3e 3d 91 13 e1 3d
       0.028233264 0.09995756 0.046580404 0.1099006
000360 17 60 65 3d 46 33 e5 3d 21 38 a7 3d af 77 60 3d
       0.05599984 0.1119142 0.081650026 0.05480164
000370 03 6c 9e 3d 6a bc 90 3d f2 81 f1 3c f4 a1 03 3c
       0.07735445 0.07067187 0.029480908 0.008034218
000380 df 37 df 3d a9 23 87 3d 38 9c 83 3d c7 15 71 ba
       0.108993284 0.065985985 0.06426281 -0.00091966655
000390 30 2b d7 3c 81 5d b7 3d a9 a8 a9 3d 22 f4 1b 3e
       0.02626571 0.08953381 0.082841225 0.15229848
0003a0 a5 b9 31 3e 5b 8c 0d 3e dd 60 a6 3d 32 ef 91 3d
       0.17355974 0.13823073 0.08123944 0.07125701
0003b0 f8 9c a3 3d f5 6d d8 3d a6 1e 94 3d 31 c0 b3 3d
       0.07988924 0.10567848 0.07232408 0.08776892
0003c0 a9 fe 03 3e 2d cf a0 3d 06 4d 52 3d ca c8 9a 3d
       0.12890114 0.07852016 0.051342987 0.07557829
0003d0 ce 89 cb 3d 3b 8b 9d 3b fa 11 43 3d 6a 49 4c 3d
       0.099383935 0.0048078573 0.047624566 0.0498747
0003e0 de e8 d8 3d cd 63 aa 3d 8e e1 df 3d 52 cd aa 3d
       0.10591291 0.08319817 0.10931693 0.08339943
0003f0 d7 ee ac 3d 26 d9 31 3e 9a 92 1b 3e 9d 95 ef 3d
       0.084439926 0.17367992 0.15192643 0.11698458

rnn.weight_hh_l0 f4 [256, 256]
000000 88 49 49 bc e4 43 fd 3c a0 96 f6 bb b4 62 34 3d
       -0.012285598 0.030916162 -0.00752528 0.044039443
000010 3c a1 b4 bc 80 7c 85 3a 8e fa 1d 3d c0 6d 6d bc
       -0.022049539 0.0010184199 0.038569026 -0.0144914985
000020 80 fa 99 3a 56 e7 69 3d 54 e6 11 3d 20 2f 39 bd
       0.0011747628 0.057105385 0.03562005 -0.045210958
000030 54 05 24 bd 68 97 5f bd 18 a8 ac 3c 80 f7 30 ba
       -0.040044144 -0.05458775 0.021076247 -0.00067507476
000040 50 3d 26 bd 48 3b 1a 3d 24 fc 32 3d fc 54 72 3d
       -0.040585816 0.03765419 0.04369749 0.05916308
000050 40 d6 af 3b 14 58 76 3d 40 4d 10 3d 66 75 4c bd
       0.0053661168 0.06014259 0.03522992 -0.049916647
000060 f2 9e 46 3d d4 74 8e bc 22 1a 66 3d 08 98 5e 3c
       0.048491426 -0.017389692 0.056177266 0.013586052
000070 c0 f1 ef 3b 00 de 0e bb da 59 4f 3d 6c c7 34 bd
       0.00732252 -0.0021799803 0.0506228 -0.044135496
000080 e2 a2 17 3d 36 63 12 3d 28 9d 34 3c 30 80 75 bc
       0.03702057 0.035739146 0.011023797 -0.014984176
000090 b0 ff 05 3d 44 0e e9 3c da 80 14 3d 80 ba ad bb
       0.032714546 0.028449185 0.036255695 -0.0053017735
0000a0 24 29 bd bc 44 82 3f bd e8 fe 26 bc b4 7d fc bc
       -0.023090906 -0.04675509 -0.01019261 -0.030821659
0000b0 3c ae 9d bc 60 ee d7 bc 8e 0f 16 bd 04 a8 c1 3c
       -0.01924812 -0.026358783 -0.036635928 0.023639686
0000c0 f8 e1 30 bd 80 d8 4e bd 3c b3 8d bc aa 47 36 3d
       -0.04318425 -0.05049944 -0.01729738 0.044501938
0000d0 0a 6b 31 bd fc 03 04 3d 8c 75 be bc 1a 3e 71 bd
       -0.04331497 0.032230362 -0.02324941 -0.058897115
0000e0 00 9b 33 3d b6 a4 1f bd a0 d4 cf 3c fc 3c 30 bd
       0.04384899 -0.03897544 0.025369942 -0.04302691
0000f0 60 e2 de 3c 70 77 c0 3b ba 13 66 3d b8 22 4c bd
       0.027207553 0.005873613 0.056171156 -0.049837798
000100 92 b1 4a bd e6 b5 64 bd 7c 1d 3b bd ee 54 49 bd
       -0.04948575 -0.055837534 -0.045682415 -0.04915326
000110 f4 ef 04 3d 0c 46 df bc f0 c9 b5 3c 8a d1 42 bd
       0.0324554 -0.02725508 0.022191018 -0.047563113
000120 e0 eb 0f 3c b0 9b 94 3b fe f0 44 3d 2a 46 3e bd
       0.008784264 0.004535161 0.04808139 -0.046453632
000130 82 d0 71 3d 70 67 4a 3d f0 78 7a 3d a8 7b 50 bc
       0.05903674 0.049415052 0.06115049 -0.012724794
000140 c8 e9 40 bd 50 14 e3 bb e0 9f 6e bd 96 2a 2b bd
       -0.04709795 -0.0069299117 -0.058257937 -0.04178866
000150 f2 57 67 3d e0 45 2b bb 90 d8 b4 bb ac 19 55 bd
       0.056480356 -0.0026134178 -0.0055189803 -0.052026436
000160 d0 3c 0e 3d 1e 05 10 bd 90 2d 97 3c dc 2a c4 bc
       0.034725964 -0.03516113 0.018454343 -0.023946218
000170 c8 53 3a bc 66 c6 15 bd c0 31 a9 3b 80 3b 9d ba
       -0.011372514 -0.03656616 0.0051634014 -0.0011995882
000180 de 14 19 bd f4 00 3d bd a4 69 60 3d b8 fb d3 bc
       -0.037373416 -0.046143487 0.054788247 -0.025876865
000190 d8 cb 31 bd d4 8b f5 bc 58 11 d1 3c 7c 9f 95 3c
       -0.04340729 -0.029973902 0.025520965 0.018264525
0001a0 ca 26 7e 3d 60 51 c7 bc 00 f8 db 3a fc 6e a6 bc
       0.06204871 -0.024330795 0.0016782284 -0.020316593
0001b0 c0 81 7d 3d 68 26 6c 3d 44 35 33 bd f2 cf 56 3d
       0.061891317 0.057653815 -0.04375197 0.052444406
0001c0 5e a3 26 bd ae 42 07 3d a6 d4 7e 3d e8 ce 04 3d
       -0.040683143 0.033022575 0.062214516 0.032423884
0001d0 80 5e 1e 3b f2 a3 47 bd 68 5e 00 bd ac 62 45 bd
       0.0024165213 -0.048740335 -0.031340033 -0.048189804
0001e0 3e a3 1d 3d b4 76 f2 bc 00 18 25 3d a8 df 54 bc
       0.038485758 -0.029597618 0.04030609 -0.012992777
0001f0 7e 30 27 bd a8 0b 78 bd b0 c4 f3 bb f8 43 80 3c
       -0.04081773 -0.06055799 -0.0074392185 0.01565741
000200 ee 90 46 3d 76 24 59 bd 04 32 7c 3d 98 86 d5 3c
       0.04847806 -0.053013287 0.061571136 0.026065156
000210 b0 d7 7b bc dc e8 5d 3d 80 20 7a 3b 30 52 98 3b
       -0.015371248 0.05417715 0.0038166344 0.0046484694
000220 3a fe 29 bd 00 c3 d6 ba 18 ac 42 3c a0 d5 b3 3c
       -0.041502215 -0.0016385019 0.011881851 0.02195245
000230 f0 04 c9 3b ac b4 94 bc ac 87 73 bd b4 1c 73 3d
       0.006134622 -0.018152557 -0.05945556 0.059353545
000240 52 80 49 3d 98 4d 17 3d 14 33 bc 3c d2 31 51 3d
       0.04919464 0.036939234 0.022973575 0.051072903
000250 6c bd ad 3c 70 42 e3 bc 10 9f 76 bd ee ed 56 3d
       0.021208487 -0.02774164 -0.060210288 0.052473
000260 70 f9 16 3c e0 86 fd 3b b2 8f 55 bd 70 c4 ec 3b
       0.009214744 0.0077370256 -0.05213899 0.0072255656
000270 50 4c 2f 3c f4 69 7b bd 52 7a 29 bd d0 81 df bb
       0.010699347 -0.06138034 -0.04137642 -0.006820895
000280 68 c3 d6 3c d8 94 ab bc be 1e 51 bd f8 9d 75 bc
       0.026216224 -0.020944998 -0.05105471 -0.014991276
000290 78 8e 39 bd c4 15 65 3d 4c 84 5b 3d 68 80 bf bc
       -0.045301884 0.05592896 0.053592965 -0.023376659
0002a0 b6 60 35 3d e0 5d bf bc 2c 8d f7 bc 60 17 83 bb
       0.044281684 -0.023360193 -0.030218683 -0.0040005893
0002b0 50 4a 5f bd 1c 9d 9c bc 80 aa bd 3a 10 a9 5b 3d
       -0.05451423 -0.019117884 0.0014470369 0.053628027
0002c0 10 5f 66 3d 7e bc 3c 3d 98 4e 86 bc e4 eb 48 bd
       0.056243002 0.046078198 -0.016394898 -0.049053088
0002d0 84 a1 ad 3c 2c 4a 4e 3d 48 4f 07 bc 2c 30 5e bd
       0.02119518 0.050363705 -0.008258648 -0.05424516
0002e0 50 31 80 bb 36 44 09 3d 80 f7 ba 3b 88 e0 7a bc
       -0.0039121285 0.033512317 0.005705774 -0.0153123215
0002f0 60 bb ce bb 0e a8 7a bd d6 34 0e 3d 84 22 3e 3d
       -0.006308958 -0.061195426 0.034718357 0.046419635
000300 c0 1e 70 bd 1e b3 1a 3d 0a a4 34 3d 40 51 7f bb
       -0.058623075 0.037768476 0.044101752 -0.003895834
000310 86 53 02 bd 74 dc b3 bc 32 77 0d bd c0 1a 3d bc
       -0.031817935 -0.021955706 -0.0345375 -0.011542022
000320 ea cf 7c 3d b0 bd e8 3c ce 09 67 bd e2 16 09 3d
       0.06172172 0.028410763 -0.056405835 0.03346909
000330 b0 01 0e 3d 48 a8 44 3d 08 02 49 3c 90 b2 a5 3c
       0.034669578 0.048012048 0.012268551 0.020226747
000340 a0 a8 8a 3b 30 48 40 bc 76 41 45 3d 76 e0 43 bd
       0.0042315274 -0.011735961 0.04815813 -0.047821485
000350 d8 e9 14 3d fe c5 28 bd 00 08 19 bc 78 a5 70 3c
       0.036355823 -0.041204445 -0.009340286 0.014687888
000360 90 f3 dc bb 60 dd ba 3b 78 70 42 3c 14 40 cd bc
       -0.006742902 0.0057026595 0.011867635 -0.025054969
000370 5c 26 01 bd f0 0b 27 3d f4 24 f3 3c be c5 64 3d
       -0.031530723 0.04078287 0.029680707 0.055852644
000380 00 b6 82 39 7c 19 e1 3c 60 86 60 3c a4 a5 56 3d
       0.00024931133 0.027477972 0.0137039125 0.05240406
000390 5a e2 19 3d 8a b0 2b 3d 98 e5 1b 3d fe 70 1d 3d
       0.03756938 0.041916408 0.038060755 0.038437836
0003a0 40 d6 48 3c 50 62 73 bc b8 23 b3 3c 30 e3 23 bc
       0.012258112 -0.0148549825 0.021867618 -0.010002896
0003b0 82 57 0d bd 04 39 ba bc fc b0 a5 3c aa d3 75 bd
       -0.034507282 -0.022732265 0.020225994 -0.06001631
0003c0 ec 0f 86 bc 4c 72 04 bd cc 44 c7 3c 50 f2 1d 3c
       -0.016365014 -0.032335564 0.024324797 0.009640291
0003d0 dc 8c 0a 3d 88 b2 05 bc 8c 84 17 bd 4c 8a 56 3d
       0.03382574 -0.008160241 -0.03699164 0.052377984
0003e0 ce 68 41 bd d8 05 ed 3c 50 9c 1c bc b0 4d 8a 3c
       -0.04721909 0.02893345 -0.009558752 0.016882747
0003f0 c8 46 7f 3c 1c 36 49 bd 20 de 65 bc 30 23 78 3c
       0.01558084 -0.04912387 -0.0140300095 0.015145108

rnn.bias_ih_l0 f4 [256]
000000 9a c5 ff 3c 46 f3 5d bd 70 df c6 3d 48 8a 55 bd
       0.031222153 -0.05418708 0.09710586 -0.05213383
000010 47 9e 5e 3d c2 a5 dd 3d 6b 7e 2d bd 88 bf 67 bd
       0.054350164 0.108226314 -0.04235689 -0.056579143
000020 04 69 e7 bd 48 3b 2f 3d 89 25 5f bd 85 31 f0 3d
       -0.11299327 0.042781144 -0.054479156 0.11728195
000030 37 aa eb 3d 07 37 07 3e 6e 44 ba 3d 52 98 00 3e
       0.11507075 0.13204585 0.09095083 0.12558106
000040 18 67 26 3c 6f 39 fe 3d 2f d9 af 3d 03 9b 82 3b
       0.010156415 0.12413298 0.08586346 0.003985764
000050 e0 9f 7a 3d ae e0 e4 3d fc fd d3 3d 2d 9e d3 3d
       0.061187625 0.11175667 0.10351178 0.10332904
000060 b3 9d dc bc 6f 64 35 3d 50 b1 15 3c aa 63 e1 3d
       -0.026930666 0.044285234 0.009136513 0.110053375
000070 a0 60 82 bd c6 88 4f 3d f4 cb bb bd 78 c4 27 be
       -0.06366086 0.050667547 -0.0916976 -0.1638354
000080 60 4f c9 3d ae 39 eb 3d 99 da 34 bd 80 79 eb 3d
       0.09829593 0.11485611 -0.044153783 0.11497784
000090 c7 e4 c9 bd c0 af 8c bd 73 cc 0c 3e a8 29 b1 bd
       -0.09858089 -0.06869459 0.13749866 -0.086505234
0000a0 0a 65 1a be 69 a8 c6 3c a6 2c c5 bc fa 12 25 bd
       -0.15077606 0.024250226 -0.024069142 -0.0403013
0000b0 3d 7d 29 3e 50 ca 86 3d 5f 62 5c bc 29 a3 33 bd
       0.16551681 0.06581557 -0.013451188 -0.043856774
0000c0 ac 35 b8 3d 84 2a 5e bd 31 bc a4 bd 63 18 b1 3d
       0.08994612 -0.054239765 -0.08043707 0.086472295
0000d0 f7 3e 88 3c 3b 4c d8 3d e1 f1 cb 3d ee b5 20 3d
       0.016631586 0.10561415 0.09958244 0.039236
0000e0 04 5b 7f bd 86 db 0d be 5c 57 a7 bd f0 81 c7 3d
       -0.06234266 -0.13853273 -0.08170959 0.097415805
0000f0 ff 8a ac 3c 6d 55 e4 bc ad 07 41 bd 47 84 ce 3d
       0.021062372 -0.027872765 -0.04712646 0.10083824
000100 ec 82 04 3d a9 26 81 bd 21 1c 05 3d 98 d5 93 bd
       0.03235142 -0.06306202 0.03249753 -0.07218474
000110 ef 3b b0 bd 26 1f ae 3d 95 65 bf bd 5c 8d a9 bd
       -0.086051814 0.08502035 -0.09345547 -0.08278915
000120 64 43 bf 3d 0d a3 91 bc 0e f3 46 bd 26 27 94 bd
       0.093390256 -0.017777944 -0.04857164 -0.072340295
000130 f5 a1 f3 bd 8f ff 11 be 93 ed 70 3d 10 39 96 3c
       -0.11896125 -0.14257644 0.05882032 0.018337756
000140 7b c0 00 3d 55 8f e2 3c 73 da 03 3e e2 80 5e 3d
       0.031433564 0.027656237 0.128763 0.05432213
000150 ca e3 2c 3d 4d ba c0 3d b9 ba ef bd 34 10 10 3d
       0.042209424 0.09410534 -0.117055364 0.035171703
000160 c5 d3 c1 3c 4d 4d 22 bd e3 8c a3 3d 21 d7 cc bd
       0.02366055 -0.0396245 0.079858564 -0.1000197
000170 53 4e 7c 3d de 1d 0c 3e 52 25 f0 bd 39 ee f8 bd
       0.061598133 0.13683268 -0.11725868 -0.12154812
000180 eb 27 fd bc d7 cc ce bd 4b 99 84 3d ba c6 bf bd
       -0.030902823 -0.10097664 0.06474551 -0.09364076
000190 fd df 1a be 4a 93 6a bd 01 fe a5 bd 14 5e 84 bc
       -0.15124507 -0.057269372 -0.08105088 -0.016158141
0001a0 cb 44 29 bd 09 0e e5 bd de 1d bf 3d c5 4e fe bd
       -0.04132537 -0.111843176 0.093318686 -0.12417368
0001b0 6a 10 fe 3d 6b ba 0a 3e 49 ca 13 3e da c6 e7 bd
       0.124054745 0.13547675 0.14432634 -0.11317225
0001c0 d0 87 da 3d 8b 71 8a 3d 1e f3 a3 3d f2 d5 cd bd
       0.106704354 0.06759938 0.08005355 -0.100505725
0001d0 c9 b3 c4 bd 4b 86 ea 3c 95 d7 01 3b 70 d9 0e 3d
       -0.09604604 0.028628489 0.0019812335 0.034875333
0001e0 39 54 1a bd c5 6a 85 3d 47 7c 1e bd ea 3d f1 bb
       -0.037677977 0.06514505 -0.03869274 -0.007362117
0001f0 b6 68 5b 3d 17 f5 02 3d c4 86 d1 3d ee eb d1 3d
       0.053566657 0.031972017 0.10230783 0.10250078
000200 3c f1 00 3e 50 d2 aa bc a6 f5 de bd 6a fc ca 3c
       0.12592024 -0.020852238 -0.108866975 0.024778564
000210 2a e5 a5 bd 00 c8 b1 3c 96 2f ce 3d 31 73 b3 3c
       -0.0810035 0.021701813 0.1006767 0.021905513
000220 90 ec ea 3d 48 7c c9 bd 9d db 06 3e 3a 09 09 be
       0.11470902 -0.09838158 0.13169713 -0.13382426
000230 38 71 dd bd 14 d6 3a 3d 36 ac 8b 3d a5 b2 d8 bd
       -0.108126104 0.045614317 0.06819956 -0.10580949
000240 e6 c0 10 be 6f 5d 7c bd 23 03 39 bd d6 ce 98 bd
       -0.14136085 -0.061612543 -0.045169007 -0.07461326
000250 48 06 8f bd 81 bd 0c be b9 30 8a 3c 85 97 89 3d
       -0.0698362 -0.13744165 0.016868936 0.06718353
000260 84 57 c0 bd d9 a0 02 bc c1 73 cb bb d7 fb bd 3d
       -0.09391692 -0.007972919 -0.0062088673 0.0927655
000270 5c 03 23 3d b9 83 81 3d a9 22 fb bd 1e 86 d2 3d
       0.039798126 0.06323952 -0.1226247 0.10279487
000280 cd 1b a7 3d 9c 91 96 bd e1 5c 9b 3d 2f 2b f4 3d
       0.081595995 -0.073519915 0.075860746 0.11922299
000290 ea af 54 3d 91 13 21 3d 4b 75 d2 bc 1f 8a 6c 3d
       0.051925577 0.0393253 -0.025690695 0.05774891
0002a0 29 67 44 3c ed d0 2f be 31 b5 9c bc 08 43 5e bd
       0.011987486 -0.17169543 -0.019129368 -0.054263145
0002b0 6b 8c db 3d b0 aa aa bd ba ca c6 bc ef 47 cb 3d
       0.10720142 -0.08333337 -0.02426659 0.099258296
0002c0 cb c3 34 bd d0 e4 76 3d 0d 01 fc 3d ec bd ca 3d
       -0.044132035 0.060276806 0.12304888 0.09899506
0002d0 96 64 cc 3d 5c 7b 08 3e 42 0b f8 bd ff 63 65 3d
       0.09980123 0.13328308 -0.12111522 0.056003567
0002e0 c1 36 9b 3d dd f0 07 be 9e 71 ca bd 33 18 22 bc
       0.07578803 -0.13275476 -0.09884952 -0.009893465
0002f0 a5 45 b8 bc 21 32 1f 3c 00 ac 98 bd 73 b4 03 be
       -0.022494147 0.0097165415 -0.074546814 -0.12861805
000300 f6 16 d9 3c b3 95 c8 bd 81 56 d6 3d cb db 19 bd
       0.026500206 -0.09794178 0.10465718 -0.037563127
000310 26 80 31 bd 70 e1 f8 bd e1 b7 95 bc fd 67 48 bd
       -0.043335102 -0.12152374 -0.018276157 -0.048927296
000320 e2 41 45 3d 36 c8 e4 3d 47 b1 06 be 7d ee 9b 3d
       0.048158534 0.11171 -0.13153563 0.076138474
000330 e9 fc d2 bd 37 f5 1b be c2 3c 8f bd 80 e8 14 3d
       -0.10302145 -0.15230261 -0.069940105 0.03635454
000340 14 80 8d 3d fd 32 00 be dc f7 e5 bd ce 27 0a bd
       0.069091946 -0.1251945 -0.11228916 -0.033729367
000350 d4 a6 fc 3d f8 21 a5 3d d1 cc af 3d 13 4d 94 3d
       0.123365074 0.0806312 0.085839875 0.07241263
000360 01 1c 9a 3d 2d f5 ac bd 37 26 ff bd b9 2b 15 be
       0.075248726 -0.08445201 -0.12458461 -0.1456746
000370 d2 09 98 bd 71 59 7c bd 9c 2b a0 bb bd b0 fc 3d
       -0.07423748 -0.061608735 -0.004888011 0.12338398
000380 7a dd ee 3d e9 0b 14 3e 5c 12 fe bc 13 48 44 bd
       0.11663337 0.14457668 -0.031014614 -0.047920298
000390 e7 8b d4 3d 76 b0 2e 3d 2d 7f 00 be 5e e9 8c bd
       0.10378247 0.042648755 -0.12548514 -0.06880449
0003a0 74 c7 7a 3d f4 6f 07 be 1b 34 4f bd e8 9a 94 3d
       0.06122537 -0.132263 -0.0505868 0.072561085
0003b0 3c ff 48 3d d7 73 ac bd c4 92 05 bd f9 d2 14 bc
       0.049071535 -0.08420532 -0.03261067 -0.009083503
0003c0 52 1f 63 3d 5d b2 c6 3d 97 4a aa bd 6e 7c 0c 3e
       0.05544979 0.09701989 -0.08315008 0.13719341
0003d0 02 b9 83 bd 65 42 de 3d b8 30 5f 3d 60 4b bc 3d
       -0.06431772 0.108525075 0.05448982 0.09194064
0003e0 27 8f ff bd cf 9e ae bd 03 3b 85 bd 9d e2 01 be
       -0.12478476 -0.08526384 -0.06505396 -0.12684102
0003f0 86 95 fd 3d 83 98 a9 bd 43 2a d3 3d 94 36 74 3d
       0.12382035 -0.082810424 0.10310795 0.059622362

rnn.bias_hh_l0 f4 [256]
000000 05 5b 35 3d eb f7 1c be 12 df ed 3d eb ae cb bc
       0.044276256 -0.15328948 0.11614813 -0.02486368
000010 f9 74 ce 3d f0 84 c4 3d 3f f6 03 be 36 72 d6 bd
       0.100809045 0.09595668 -0.12886904 -0.10471003
000020 d0 48 30 bd 8d b1 e4 3d 0f 53 8b bd ce ed dc 3d
       -0.04303819 0.111666776 -0.068029515 0.10787545
000030 93 45 00 3e 4b 72 be 3d f0 4f d2 3d e9 7f 87 3d
       0.1252654 0.092991434 0.10269153 0.06616194
000040 19 ca 96 3d b7 5a f9 3d cf f2 39 3d 0f a9 88 3c
       0.07362766 0.121755056 0.045397576 0.016682176
000050 58 d3 c3 3d 14 f4 dd 3d 2c c1 46 bb 69 a8 8b 3d
       0.09561795 0.1083757 -0.0030327542 0.06819231
000060 e0 2e 49 bb 4d 0e 0a 3e 10 0d 70 3d ee 68 8d 3d
       -0.0030698106 0.13482018 0.058606207 0.069047794
000070 e0 bd 6a bd ba a2 aa 3d cf cf 3b bd 85 82 05 be
       -0.057309985 0.08331819 -0.04585248 -0.1303807
000080 e3 db 9b 3c ae f0 b4 3d 8e 08 01 be e8 25 ef 3d
       0.019025749 0.088349685 -0.1260092 0.11677152
000090 1d 41 a7 bc 8e 4e 83 bd ef 5e 10 3e 6c bd f6 bb
       -0.02041679 -0.064114675 0.14098714 -0.007529905
0000a0 16 17 0b be 01 d3 86 3c 70 ad fb bd d8 86 1c bd
       -0.13583025 0.016458036 -0.1228894 -0.038214535
0000b0 e6 09 b6 3d 87 ed 1e 3d 5f 3b 51 bc 96 0b 84 bc
       0.08888607 0.038800742 -0.012770503 -0.016118806
0000c0 f2 5a c6 3d a2 17 ad bd be 22 66 bd 85 db 88 3d
       0.09685315 -0.08451773 -0.056185476 0.06682495
0000d0 8c ee 15 3d 16 f9 9f 3d 62 c4 55 3d 35 43 11 3c
       0.03660445 0.07811181 0.05218924 0.008866121
0000e0 2f 68 db bd 6b 52 f5 bd a7 81 5f bc a5 a3 05 3d
       -0.10713231 -0.119786106 -0.013641751 0.032626767
0000f0 9f dd 0a 3d 15 30 da bd 11 ae aa bd 5f 3f eb 3d
       0.03390276 -0.10653702 -0.08333982 0.114866965
000100 d6 2b de 3d 01 77 fa bd d5 81 04 3e b0 2b 81 bd
       0.10848205 -0.122297294 0.12940152 -0.06307161
000110 df b4 63 bd 14 ae 1d 3e 14 9b 82 bd bb 87 18 be
       -0.055592414 0.15398437 -0.06377235 -0.14895527
000120 1e 35 02 3d a0 ea 49 bd 64 66 07 bd ee f9 ea bd
       0.031788938 -0.04929602 -0.03305663 -0.114734516
000130 98 b3 d1 bd 3e a3 9f bd 18 fe 23 3d fc f2 a9 3c
       -0.10239333 -0.07794808 0.040037245 0.020745747
000140 98 b9 e9 3d bb 66 39 3d e8 08 a6 3d 93 35 01 3e
       0.11412352 0.045263987 0.081071675 0.12618093
000150 a0 9f f1 3d 51 22 16 3d ab c9 b6 bd 4c b8 8f 3b
       0.11798024 0.03665382 -0.08925184 0.0043859836
000160 75 fe ee 3d f6 7f 0d be 8c 82 0e 3d 09 05 b9 bd
       0.116696276 -0.13818344 0.034792468 -0.090341635
000170 f9 66 eb 3d ae e2 92 3d 3c e1 93 bd 14 dd b4 bd
       0.1149425 0.07172142 -0.072206944 -0.0883123
000180 cd ec 3b bd 58 88 c0 bd 81 89 da 3c c6 05 eb bd
       -0.045880128 -0.094010055 0.026676895 -0.114757106
000190 73 39 eb bd 46 8d 72 bd d7 f5 b4 bd 2a 4b 26 bd
       -0.11485567 -0.05921676 -0.08835953 -0.040599026
0001a0 b0 a9 06 be b0 ae 51 bd e0 f6 4c 3d f6 d8 18 be
       -0.13150668 -0.051191986 0.050040126 -0.14926514
0001b0 5b d1 12 3e ce 5f ef 3d 87 a6 9b 3d e0 28 7f bc
       0.14337675 0.11688195 0.07600122 -0.01557371
0001c0 21 9b 45 3d 8f 8f 19 3d 6f 82 72 3d 5c cf ed bd
       0.048243646 0.037490424 0.059206422 -0.11611816
0001d0 4b 6d 16 be eb 45 14 3c 92 d8 ef 3d c5 97 0a 3d
       -0.1469013 0.009049873 0.117112294 0.033836145
0001e0 c8 ea ea bd 88 b6 f6 3c 12 ba f3 bd 9e 09 d8 bd
       -0.11470562 0.030116335 -0.119007245 -0.10548709
0001f0 4a 7b 1b 3c 2f 49 d1 3d 36 ec 23 3e bd 3e 2a 3e
       0.009489844 0.10219037 0.16008076 0.16625495
000200 db 53 b4 3d 65 65 2f bd b6 d8 ce bd 5e b2 24 3d
       0.08805057 -0.042821307 -0.10099928 0.040209167
000210 62 6b b9 bd 93 64 2e 3d 21 f5 8b 3d ef e7 dc 3c
       -0.09053685 0.042576384 0.06833864 0.026966063
000220 ba 68 94 3c 9a 2b ae bd e8 9c 23 3e 18 ae 5b bd
       0.018116344 -0.0850441 0.15977824 -0.053632826
000230 f3 87 4d bd 1a 4e 08 3e a3 f2 06 3d b9 76 10 be
       -0.05017848 0.13311043 0.03294624 -0.14107789
000240 49 67 d8 bd ae ee cd bd 7f af a0 bd f4 cc 80 bd
       -0.10566575 -0.1005529 -0.07845973 -0.06289092
000250 ff 01 02 bc fe ee 05 be 60 82 d0 3b b9 90 85 3d
       -0.007935046 -0.1307945 0.006363198 0.06521744
000260 6c b1 95 bd 49 52 05 bc 50 bb 9d bd df 8f bc 3c
       -0.07309231 -0.008137294 -0.07701743 0.023017822
000270 ee 66 4d 3d c1 2a 44 ba 21 fb 9d bd 66 15 79 3d
       0.05014699 -0.00074831775 -0.07713915 0.060811423
000280 51 19 dc 3d 38 59 fc bd 1f 0f 83 3b 89 da 18 3d
       0.10747016 -0.123217046 0.0039996053 0.037317786
000290 9c 6b 32 3d 99 1d 59 39 26 dd 05 be e6 ac 7c 3d
       0.043559656 0.00020705759 -0.13072643 0.061688326
0002a0 1f 30 a7 3d 28 3e 11 be 9d d0 13 bd 96 f4 2b be
       0.08163475 -0.14183867 -0.03608762 -0.16792521
0002b0 c4 8d a5 3d 48 18 ea bd e5 5e 84 bd dc 9a 83 3d
       0.0808368 -0.114304125 -0.06463412 0.064260215
0002c0 39 f3 ae 3b 7e 16 76 3d 0f 8f a8 3d 2a ba 8c 3d
       0.005339053 0.060080044 0.08230411 0.068714455
0002d0 9b 25 b7 3a 9c a1 65 3d c3 3d f1 bd 04 57 ff 3d
       0.0013972999 0.056062326 -0.11779358 0.12467769
0002e0 61 e1 5f 3d 9d fc b2 bd 98 0d ac ba 9b 2e 33 bd
       0.054658297 -0.087395884 -0.001312661 -0.04374562
0002f0 8a db 14 bc 3a 6c 79 3d 3f 84 b4 bd 8d e9 39 bd
       -0.009085545 0.06089423 -0.088142864 -0.045388747
000300 8f 5b d3 3d 47 cc ca bd ca 48 56 3d 15 59 3a bd
       0.10320198 -0.09902244 0.05231551 -0.04549511
000310 a1 35 e8 bd fd 62 a9 bd 98 25 67 bc 8d 6c 90 bd
       -0.11338354 -0.08270834 -0.014108084 -0.070519544
000320 13 b6 a9 3d 9e 95 f1 3d f2 87 0f be b3 53 dd 3d
       0.08286681 0.11796115 -0.14016703 0.1080698
000330 f5 27 b3 bd 46 dd ae bd 54 68 97 bd 42 51 6f 3c
       -0.087478556 -0.08538298 -0.07392946 0.014606776
000340 a3 49 97 3d ca e8 06 be b0 19 f3 bc 54 ac 49 bd
       0.07387092 -0.1317474 -0.029675335 -0.04923661
000350 f9 79 b6 3d b5 e9 9f 3d 96 43 04 3d 3b 40 ad 3b
       0.08909983 0.07808248 0.032291017 0.005287198
000360 46 7d fb 3d 0f 8d 41 bb 88 aa 1d bd 17 d9 1f be
       0.122797534 -0.002953354 -0.03849271 -0.15610157
000370 8a c1 ca bd dc 03 db bd ab 44 ab 3c 08 26 ab 3c
       -0.09900196 -0.106940955 0.020906767 0.020892158
000380 d0 d8 bd 3d 41 4f 0c 3e 65 d4 33 bc c0 45 6d 3c
       0.09269869 0.13702108 -0.010975932 0.014481962
000390 fc ab a2 3d 25 b9 e2 3d e3 36 59 bd ed 84 7a bd
       0.0794296 0.1107047 -0.05303086 -0.061161924
0003a0 5f 71 fd 3c 4a 4a 21 bd a1 24 c9 bd 8f e8 f8 3d
       0.030937849 -0.03937749 -0.098214395 0.12153732
0003b0 6e 3b 28 3d f4 60 01 be e7 43 9f bd 2b ca a1 3d
       0.0410723 -0.12634641 -0.07776623 0.078998886
0003c0 3b 4c 04 3e b8 99 fc 3d 51 96 e2 bd 11 28 61 3d
       0.12919705 0.12334007 -0.11063827 0.05496985
0003d0 48 6c a1 bd 1b bb b7 3c b3 b8 f6 3d 66 11 b0 3d
       -0.07881981 0.022428086 0.12046947 0.085970685
0003e0 51 f7 b2 bd 51 df 93 bd 16 f7 02 be 1d 3b 88 bd
       -0.08738578 -0.072203286 -0.12789568 -0.066519
0003f0 46 50 f1 3d 0e 09 79 bb a3 54 15 3e 2b 51 09 3d
       0.11782889 -0.0037999782 0.14583068 0.033524673

fc.weight f4 [1, 256]
000000 6b 5f b8 3e af 94 9d be 02 c6 d6 3e b9 55 aa be
       0.36010298 -0.307775 0.41947943 -0.33268526
000010 fd 5a ba 3e c4 7a c1 3e d6 23 cb be 60 8d d4 be
       0.36397544 0.37788975 -0.39675778 -0.4151411
000020 44 1d 8a be a3 08 b8 3e d6 c9 a6 be 11 ed cf 3e
       -0.26975453 0.3594409 -0.32575864 0.40610555
000030 37 5d d1 3e 86 17 72 3e ef 8a aa 3e 3c 86 55 3e
       0.4089143 0.23641786 0.33309123 0.20851988
000040 bb d1 90 3e 3a 8a 73 3e 3b 9a b8 3e 8c eb c3 3e
       0.28285012 0.23783198 0.36055169 0.38265646
000050 c9 53 bf 3e 4b e1 97 3e 8f 3e b8 3e eb e0 84 3e
       0.3736861 0.29664072 0.35985228 0.2595285
000060 aa 66 bf be eb 30 c6 3e 0b 4c c0 3e 1f 45 5a 3e
       -0.37383014 0.38709196 0.37558016 0.2131543
000070 f7 e7 ca be d3 eb cb 3e 25 ed cf be cd cb 83 be
       -0.396301 0.39828357 -0.40610614 -0.25741425
000080 f5 5f ca 3e 9f e3 b4 3e d4 75 d1 be 0d d2 cc 3e
       0.39526334 0.3532991 -0.40910208 0.40004006
000090 e7 b1 a8 be ec f5 b0 be 10 0f cf 3e 1c 77 d7 be
       -0.3294823 -0.34562624 0.4044118 -0.4208306
0000a0 66 0c d4 be 31 22 a6 be f8 f2 be be 65 bc 59 be
       -0.4141571 -0.3244796 -0.37294745 -0.21263273
0000b0 56 b7 63 3e 8f 7e b3 3e cc 59 be be 61 3b a6 be
       0.22237906 0.35057494 -0.37177885 -0.32467178
0000c0 2c cd 98 3e e6 77 bc be 11 89 b8 be d5 6b b0 3e
       0.29844034 -0.36810225 -0.36042073 0.3445727
0000d0 48 ef ae 3e 18 57 cb 3e 3c d4 c1 3e 11 50 d5 3e
       0.34166932 0.39714885 0.37857234 0.41662648
0000e0 3a 25 a5 be 95 e7 d7 be 05 84 b8 be 57 c5 c3 3e
       -0.32254964 -0.4216887 -0.36038223 0.38236496
0000f0 be 22 c7 3e 53 14 d4 be 8d 64 d4 be 4d 29 b8 3e
       0.38893694 -0.41421756 -0.41482964 0.3596901
000100 0d b9 c2 3e d1 a6 a4 be 13 f2 c2 3e 98 38 d1 be
       0.38031808 -0.3215852 0.38075313 -0.4086349
000110 82 30 b7 be 83 a8 cf 3e aa ea 99 be 84 df ac be
       -0.35779196 0.40558252 -0.30061847 -0.3376428
000120 ab 97 c2 3e b6 89 c9 be 1b 93 c8 be ba 81 55 be
       0.38006338 -0.39362878 -0.39174733 -0.20850268
000130 b6 39 db be 89 4f bb be b7 9d a5 3e da c1 ca 3e
       -0.42817467 -0.36584118 0.3234689 0.39601022
000140 00 46 bf 3e 6a 4a b7 3e 27 6f bb 3e 5a 58 6f 3e
       0.37358093 0.3579896 0.3660824 0.23373547
000150 1b a8 ad 3e 28 0d 99 3e 2f 26 cb be 89 af b4 3e
       0.33917317 0.2989285 -0.3967757 0.35290173
000160 09 34 c0 3e 5c 4a 9f be 81 67 d6 3e 77 89 d2 be
       0.375397 -0.3111142 0.41875842 -0.41120502
000170 fc 3e a8 3e 1c 04 9e 3e 1f de d1 be 56 99 c9 be
       0.32860553 0.3086251 -0.40989777 -0.393748
000180 f0 a1 b8 be 2d a1 c4 be 04 d0 d5 3e b9 70 bc be
       -0.36061049 -0.38404217 0.41760266 -0.3680475
000190 e3 04 90 be 27 ca 89 be 0c 14 cc be 54 11 bd be
       -0.28128728 -0.26912042 -0.39859045 -0.36927283
0001a0 30 b0 d8 be 08 24 92 be 20 b4 a7 3e 3c 4f 73 be
       -0.4232192 -0.28543115 0.32754612 -0.23760694
0001b0 c2 cf c7 3e 68 fc cf 3e 10 cd b7 3e ac 46 d0 be
       0.39025694 0.40622258 0.35898638 -0.40678918
0001c0 ed 18 be 3e 43 86 ab 3e 67 16 b3 3e 7b b6 c6 be
       0.37128392 0.3350087 0.3497803 -0.38811097
0001d0 c4 44 bd be eb d7 a5 3e fb 4e cd 3e fb c0 ad 3e
       -0.36966527 0.32391295 0.4009932 0.33936295
0001e0 4f a4 c7 be 59 dd 9c 3e d7 b1 c9 be 0e 1d d1 be
       -0.38992545 0.30637625 -0.39393494 -0.4084248
0001f0 01 04 c9 3e d8 b7 94 3e 90 89 a1 3e ad 60 70 3e
       0.39260867 0.29046512 0.31550264 0.23474379
000200 79 e2 b2 3e 49 0a d8 be ad 04 c8 be 66 88 b0 3e
       0.3493841 -0.42195347 -0.39066067 0.34479064
000210 7c 35 c1 be 23 f3 74 3e bd e1 d6 3e 90 e5 ba 3e
       -0.37736118 0.23920874 0.419691 0.36503267
000220 85 e7 c8 3e dd 89 d4 be 93 76 5b 3e c7 4e ac be
       0.39239135 -0.4151143 0.21431951 -0.33653852
000230 df 1a c9 be c8 ca a7 3e e1 dd d3 3e 29 70 a7 be
       -0.39278314 0.32771897 0.41380218 -0.3270276
000240 ed ae a8 be ce 7a bc be 50 21 b7 be 1c 7b b9 be
       -0.32945958 -0.36812443 -0.35767603 -0.36226737
000250 e3 7e d8 be f9 69 87 be f3 86 99 be ea ff 77 3e
       -0.42284307 -0.26448038 -0.2998577 0.24218717
000260 44 a3 8f be cf bb af be b7 b0 75 be af 7c b6 3e
       -0.2805425 -0.34322974 -0.23993193 0.35642
000270 2f 9a d3 3e 0e 5e c5 3e 4c c6 cf be b2 8c af 3e
       0.4132857 0.3854832 -0.40580976 0.3428703
000280 14 a0 a3 3e 5a 9b d4 be 9b f3 a9 3e 9f 90 b7 3e
       0.31958067 -0.41524774 0.3319367 0.35852525
000290 f1 89 ab 3e 5d 17 bc 3e e6 b7 b3 be b4 35 a2 3e
       0.33503678 0.36736575 -0.3510124 0.31681597
0002a0 be 21 c8 3e a2 7c 69 be 61 52 b6 be d2 66 c9 be
       0.39088243 -0.2280145 -0.35609725 -0.39336258
0002b0 e1 82 d8 3e c9 f9 bb be 7e 3d d0 be ce 77 d3 3e
       0.42287353 -0.36714008 -0.40671915 0.4130234
0002c0 e2 c4 b2 be 3b 7e c7 3e 2b 15 c8 3e fb 46 74 3e
       -0.34915835 0.38963494 0.3907865 0.23855202
0002d0 61 1c c0 3e 00 1e aa 3e 61 43 bb be c7 01 d9 3e
       0.3752165 0.33226013 -0.36574844 0.42384169
0002e0 7f 1a cc 3e 28 7f cf be 38 a2 b6 be 93 d1 b1 be
       0.39863965 -0.405267 -0.35670638 -0.34730205
0002f0 ee 95 d7 be 78 39 c7 3e 80 6d c9 be 75 4e bf be
       -0.42106575 0.38911033 -0.39341354 -0.37364545
000300 c0 df aa 3e b4 c5 55 be bd a6 cc 3e e2 fc c5 be
       0.33373833 -0.20876199 0.3997096 -0.38669497
000310 69 e2 bf be 6c 6d b7 be 64 e2 c9 be a3 06 c5 be
       -0.37477425 -0.3582567 -0.39430535 -0.38481626
000320 07 25 cb 3e f4 79 d3 3e 03 1b b0 be 4a 13 ca 3e
       0.39676687 0.4130398 -0.34395608 0.3946784
000330 c7 90 d0 be c4 06 ac be 63 c3 ad be 8b 82 d1 3e
       -0.40735456 -0.33598912 -0.3393813 0.4091991
000340 de ee 79 3e 87 fe 9b be 39 87 91 be 67 d8 cd be
       0.24407527 -0.30467626 -0.2842348 -0.40204164
000350 43 48 92 3e 29 af ce 3e 51 0b ae 3e c8 82 bc 3e
       0.28570756 0.40368012 0.3399301 0.36818528
000360 4e 4c a9 3e b1 d0 ba be 63 15 bf be 10 8c c5 be
       0.33066028 -0.36487344 -0.37321004 -0.38583422
000370 67 79 b4 be ac 36 ac be 9b 11 ad 3e dd fc 95 3e
       -0.35248873 -0.3363546 0.33802494 0.29294482
000380 e9 3a cb 3e 79 f3 bf 3e 38 d2 b7 be 38 fe b1 be
       0.39693382 0.37490442 -0.35902572 -0.34764266
000390 d7 8a 81 3e 99 31 b5 3e 68 5d bd be 33 ee d4 be
       0.2530124 0.35389403 -0.36985326 -0.41587982
0003a0 e0 72 b7 3e 42 ac c5 be f0 72 9a be cb 73 cf 3e
       0.3582983 -0.38607985 -0.30165815 0.4051803
0003b0 0d f1 ce 3e 03 62 b7 be 5f 42 d3 be 60 85 b1 3e
       0.40418282 -0.35816965 -0.41261575 0.3467207
0003c0 f7 3e c4 3e c9 de b8 3e 78 7b b3 be ef e7 b2 3e
       0.38329288 0.36107472 -0.35055137 0.34942576
0003d0 d6 96 ce be 85 da ba 3e 68 49 d4 3e 24 07 8f 3e
       -0.40349454 0.36494842 0.41462255 0.27935135
0003e0 63 ff 9a be 94 93 a5 be be 8b 76 be 6c a5 ba be
       -0.3027297 -0.32339156 -0.24076745 -0.36454332
0003f0 06 c0 a6 3e bb 34 bd be 9b 33 a1 3e ae 4b af 3e
       0.32568377 -0.36954293 0.31484684 0.34237427
