best_models/best_model_nn_search_3_features_all.pt (torch, 139408 bytes, 7 tensors)

model.0.weight f4 [64, 11]
-0.027276715 -0.01759947 0.097236015 0.12088628 0.0010893336 -0.0001399363 -0.38599044 -0.057165023
0.10570547 -0.23617138 0.23035312 -0.0725462 0.0032447954 -0.10505557 0.38980448 0.053944755
0.0061333436 -0.19957787 0.08470481 -0.13094297 -0.18710066 0.068323985 -0.055203248 -0.32795
0.092396766 0.3972857 -0.058773857 0.035130933 -0.29473364 -0.16234234 -0.21984823 -0.38174006
0.14892413 -0.030684598 0.11544464 0.26068005 -0.12439425 0.16056058 -0.24662845 0.2844985
-0.19266707 -0.03194017 0.20153335 -0.19726634 -0.103222765 -0.32148764 -0.22477913 0.23330368
0.12451691 0.018781602 -0.15461478 -0.022868795 -0.10485793 -0.37368235 -0.13041313 -0.13483405
-0.36539406 -0.19199774 -0.32906365 -0.47295627 0.007546907 0.1654686 -0.06899036 -0.19097218
-0.047347326 -0.0019646687 -0.16326882 -0.115362085 0.14542484 0.646306 0.13373706 -0.03434644
-0.11099358 0.05360802 -0.030986056 0.012544445 0.29747564 0.00042765 0.24189027 -0.263764
-0.27141917 0.010986413 -0.13751122 -0.0071378895 0.039429694 -0.30387166 -0.22205943 -0.13136084
0.077606685 -0.1266157 0.08601751 -0.14195235 -0.2961903 -0.06579077 0.019952348 -0.22546327
-0.29670167 0.06217264 -0.060665205 -0.046398222 -0.12941131 -0.054942578 -0.24952166 0.19344297
-0.15652272 -0.26104048 -0.068097994 -0.13243206 -0.26551625 -0.25235274 -0.020507395 -0.18715525
-0.06394589 0.21889383 0.04044807 -0.22282967 0.26918936 -0.09428236 0.13928396 -0.20800813
-0.04227969 -0.18075672 0.16256268 -0.05378722 0.5486669 0.022829447 -0.070978604 -0.21429797
-0.095871344 0.18755555 0.18480627 -0.033495016 -0.22587854 -0.08698801 0.2562119 0.25837374
0.060244013 0.008110778 -0.19717254 -0.35321322 -0.03670256 -0.07104323 0.19649355 -0.27706933
0.08554607 -0.2725118 0.10149009 0.21260138 0.02567583 -0.09403652 -0.21900955 0.04259943
-0.3894206 0.18835327 -0.17966704 -0.19837607 0.20783292 0.18152824 0.1306763 0.0027335158
-0.4520214 0.020899205 0.19049788 -0.1484762 0.24257019 0.03501657 -0.073313594 0.05566804
-0.08954399 0.26786238 -0.09347697 0.06889717 -0.3236529 -0.037097506 0.100306526 -0.03513271
-0.1308649 0.055404715 0.021730518 0.4211953 0.2744233 -0.017603397 -0.012225401 -0.088683784
0.07852041 -0.1544671 0.30617997 -0.14510226 0.16450459 -0.23678942 -0.059315678 -0.2320628
0.051736325 -0.4121963 -0.25663853 -0.010043872 -0.3469029 -0.31001306 -0.07519626 -0.22764288
-0.23287353 -0.6435667 -0.37972763 0.042781338 -0.38614538 -0.21833427 -0.1881092 -0.21282655
-0.18429063 0.012673318 0.017425146 -0.05422086 0.2656419 -0.072420195 -0.025019104 -0.23717463
-0.1999913 0.3266557 -0.21298768 -0.13638173 -0.32828948 -0.4171842 0.029226856 0.027657256
-0.17759039 -0.009323169 -0.11682276 -0.04511169 -0.27927566 0.1638348 -0.33666164 0.18390341
-0.33898956 -0.21155533 -0.6151569 -0.2535842 -0.048105925 -0.16998056 0.084676534 -0.37807247
0.09339495 -0.35943833 -0.004225159 -0.057341844 -0.28748944 0.3592966 0.43243188 -0.043455444
-0.0719409 -0.06606055 -0.23202945 0.18398915 0.055920944 -0.30395654 0.04337244 0.23169965
00000000: 6b73 dfbc c42c 90bc ad23 c73d 3a93 f73d
00000010: f8c7 8e3a ddbb 12b9 8aa0 c5be df25 6abd
00000020: 1c7c d83d e9d6 71be b0e1 6b3e 1a93 94bd
00000030: a2a6 543b 6027 d7bd 7494 c73e 2df5 5c3d
00000040: 37fa c83b 245e 4cbe b779 ad3d ea15 06be
00000050: 5197 3fbe 72ed 8b3d cd1c 62bd 10e9 a7be
00000060: 843a bd3d 0869 cb3e dbbc 70bd 74e5 0f3d
00000070: 54e7 96be 123d 26be e51f 61be 6f73 c3be
00000080: 917f 183e 445e fbbc 3d6e ec3d db77 853e
00000090: 6ac2 febd fe69 243e 2b8c 7cbe caa9 913e
000000a0: 844a 45be b2d3 02bd c25e 4e3e 3000 4abe
000000b0: 7566 d3bd 079a a4be 802c 66be 29e7 6e3e
000000c0: b902 ff3d e0db 993c 5653 1ebe 5757 bbbc
000000d0: c1bf d6bd 4b53 bfbe 058b 05be f011 0abe
000000e0: ee14 bbbe 0e9b 44be 087b a8be 5327 f2be
000000f0: 0b4c f73b 9a70 293e d14a 8dbd 368e 43be
00000100: 45ef 41bd acc1 00bb f12f 27be f542 ecbd
00000110: 40ea 143e 4f74 253f 5ef2 083e daae 0cbd
00000120: 9a50 e3bd 1594 5b3d 78d6 fdbc 3787 4d3c
00000130: ba4e 983e 3636 e039 15b2 773e 130c 87be
00000140: 74f7 8abe 5b00 343c becf 0cbe f5e4 e9bb
00000150: 0881 213d 1195 9bbe 8c63 63be 7583 06be
00000160: 41f0 9e3d 8ca7 01be f329 b03d f55b 11be
00000170: 41a6 97be 50bd 86bd 1b73 a33c d8df 66be
00000180: 48e9 97be bda8 7e3d 147c 78bd 100c 3ebd
00000190: 6684 04be 780b 61bd 9b82 7fbe ea15 463e
000001a0: 7e47 20be 19a7 85be f676 8bbd 459c 07be
000001b0: bff1 87be 6134 81be 20ff a7bc a0a5 3fbe
000001c0: 10f6 82bd b425 603e e0ac 253d 762d 64be
000001d0: 30d3 893e 1c17 c1bd 74a0 0e3e 1500 55be
000001e0: 782d 2dbd 4a18 39be d576 263e fd4f 5cbd
000001f0: 6f75 0c3f d204 bb3c 3b5d 91bd ed70 5bbe
00000200: 3258 c4bd 900e 403e db3d 3d3e 1232 09bd
00000210: b44c 67be c526 b2bd 352e 833e 9049 843e
00000220: 6dc2 763d 12e3 043c 99e7 49be 5dd8 b4be
00000230: 6c55 16bd 1d7f 91bd 9b35 493e 08dc 8dbe
00000240: c732 af3d ab86 8bbe 09da cf3d 2db4 593e
00000250: 1e56 d23c 3896 c0bd 0a44 60be bd7c 2e3d
00000260: 2362 c7be aedf 403e a3fa 37be 1923 4bbe
00000270: 27d2 543e 8ae2 393e 02d0 053e c924 333b
00000280: 596f e7be cf34 ab3c e011 433e 250a 18be
00000290: 5264 783e 896d 0f3d 7025 96bd 2c04 643d
000002a0: d762 b7bd 4225 893e db70 bfbd f619 8d3d
000002b0: d5b5 a5be 8ef3 17bd 826d cd3d 51e7 0fbd
000002c0: 7301 06be 0ef0 623d 3304 b23c e9a6 d73e
000002d0: 3681 8c3e 0035 90bc 0c4d 48bc d89f b5bd
000002e0: 4fcf a03d a02c 1ebe 9fc3 9c3e b095 14be
000002f0: e473 283e ed78 72be fff4 72bd dfa1 6dbe
00000300: 78e9 533d 650b d3be 2066 83be 0d8f 24bc
00000310: 429d b1be 08ba 9ebe 7f00 9abd 371b 69be
00000320: 6676 6ebe cac0 24bf a96b c2be 7c3b 2f3d
00000330: d9b4 c5be 0593 5fbe b39f 40be 34ef 59be
00000340: afb6 3cbe c0a3 4f3c 2ebf 8e3c b116 5ebd
00000350: 3702 883e 0a51 94bd ddf4 ccbc e8dd 72be
00000360: 85ca 4cbe 6a3f a73e 7119 5abe a7a7 0bbe
00000370: 8f15 a8be 2b99 d5be 296d ef3c 7891 e23c
00000380: 41da 35be 34c0 18bc c540 efbd 09c7 38bd
00000390: 38fd 8ebe 4fc4 273e ea5e acbe 2d51 3c3e
000003a0: 0a90 adbe f6a1 58be ec7a 1dbf cad5 81be
000003b0: b80a 45bd 620f 2ebe e46a ad3d b792 c1be
000003c0: da45 bf3d 4d08 b8be 3473 8abb 48df 6abd
000003d0: d131 93be b9f5 b73e b667 dd3e 56fe 31bd
000003e0: c055 93bd c14a 87bd 2199 6dbe a767 3c3e
000003f0: 5c0d 653d 31a0 9bbe 4da7 313d ac42 6d3e

model.0.bias f4 [64]
1.6214614 1.1253711 1.1968393 -0.04699525 0.6743188 -0.8941842 1.5139058 0.053858146
0.5688437 -0.055445388 -0.1323783 1.1553036 1.2547714 0.73350435 1.417585 1.1291426
1.5031612 -0.8728974 -1.3910735 1.0234234 -0.6175132 -0.8679016 1.3291289 1.3003571
1.3054296 0.34384063 1.4613502 -0.12966733 -0.29262468 -0.22011699 0.77393126 -1.2209868
0.28643388 1.4525983 -0.37361297 0.8564126 0.6850179 0.8482009 1.2904949 1.3367491
1.5164639 -0.2272498 0.20414907 1.3962145 0.51192725 -1.0696588 -1.306647 -1.1396782
-0.24427137 0.6654867 0.65013605 1.7406769 -1.1282434 1.2807374 1.6184322 1.8075228
1.5353539 0.3883542 1.4418398 -0.9207251 0.043658573 -0.71005976 0.18578932 0.030864036
00000000: 0c8c cf3f 290c 903f 0832 993f 177e 40bd
00000010: 28a0 2c3f 41e9 64bf aac7 c13f 5c9a 5c3d
00000020: be9f 113f b41a 63bd 2d8e 07be fde0 933f
00000030: 599c a03f f1c6 3b3f 6d73 b53f bf87 903f
00000040: 9667 c03f 3476 5fbf b20e b2bf 8aff 823f
00000050: 5815 1ebf cd2e 5ebf e520 aa3f 1a72 a63f
00000060: 5118 a73f e10b b03e 860d bb3f 83c7 04be
00000070: e7d2 95be 5966 61be 5c20 463f 4c49 9cbf
00000080: 76a7 923e beee b93f 334a bfbe db3d 5b3f
00000090: 555d 2f3f b223 593f f02e a53f 981a ab3f
000000a0: 7d1b c23f 2cb4 68be 740c 513e 28b7 b23f
000000b0: aa0d 033f 94ea 88bf 3540 a7bf fae0 91bf
000000c0: 4622 7abe 565d 2a3f 516f 263f 80ce de3f
000000d0: 486a 90bf 34ef a33f c928 cf3f e85c e73f
000000e0: 7a86 c43f 5dd6 c63e 358e b83f a4b4 6bbf
000000f0: 55d3 323d 7ac6 35bf 8e3f 3e3e 93d6 fc3c

model.3.weight f4 [256, 64]
-0.11988758 -0.10904203 0.021903012 0.094567224 -0.06463267 0.05223684 0.13827538 -0.205131
-0.01520168 -0.123165086 0.08298878 -0.0024472321 -0.049733765 0.019428112 -0.02973213 0.09461654
-0.13976306 -0.07301489 -0.007971834 -0.08695588 -0.0026495426 -0.11295865 0.0039014255 0.032300696
0.07005654 -0.031402078 0.12059286 0.108675346 0.08476752 -0.0023525397 -0.1488052 -0.04674523
-0.030571416 0.09783624 0.07640509 -0.1588937 0.11639952 0.032340974 -0.010872581 -0.058143497
0.034972176 -0.03470218 0.005467817 -0.07895022 0.03856866 0.015959453 0.050463226 -0.039442774
0.08156104 -0.04944183 -0.044170033 0.07869596 0.09738579 -0.009790199 -0.16173363 0.118732914
-0.11280893 0.024214247 -0.08171855 -0.021690791 0.06731066 -0.050869133 0.023856044 0.083816305
0.049700804 -0.015098885 0.03945309 0.09671404 0.028485183 -0.04472387 0.042569656 -0.07437209
-0.041840468 -0.07689403 -0.022618756 0.0069656135 0.07434515 0.012415325 -0.06519786 -0.021116734
-0.026518524 -0.121410936 0.059119802 -0.08520901 -0.03221338 0.044097077 -0.029558847 -0.06277064
-0.06562725 -0.0149297975 0.021954035 0.08835104 -0.0022513212 -0.012636697 0.09114816 0.07346253
-0.1022802 -0.044936217 -0.16047002 -0.04711511 0.13348554 -0.023582196 0.010725939 0.0049015963
0.064060025 -0.10119037 0.10426743 -0.023161544 -0.034267463 0.020528832 0.10318996 0.057088874
0.003822 -0.10597768 0.09604324 -0.06104438 -0.11344244 0.04870247 0.0016128276 0.0021603226
0.0022873434 -0.03633393 -0.088447705 -0.11714388 -0.007904813 0.098100215 0.010470579 -0.10902153
0.05809587 0.03893813 0.00081585906 0.044962306 -0.04391953 -0.07303189 0.08502768 -0.075573154
0.013554127 -0.07253207 0.090958625 -0.11338986 0.039766766 0.015769657 -0.07156085 0.025605043
0.036003552 0.057421476 -0.056727037 -0.020252602 -0.076437585 -0.17859341 -0.030773953 0.021744644
0.08656747 -0.15493509 0.020133885 -0.06951773 0.041377027 -0.021468427 0.0555274 -0.17041926
-0.08507024 0.06380919 -0.13698708 0.016137833 -0.041275106 0.08669759 -0.07051671 0.08656731
0.048922393 0.06947534 0.01563026 -0.073343754 0.024886506 -0.06283854 0.029611776 -0.12518468
-0.0022511685 0.031092452 -0.0772205 0.035630967 -0.084491014 0.08016762 -0.10672924 -0.15366708
-0.039102368 -0.08678686 -0.013261494 -0.045778647 -0.050051495 0.05066034 -0.0443086 -0.10692243
0.045827687 0.08344935 -0.046325717 0.13970177 -0.069302045 0.09070816 0.025755882 0.026681835
-0.066835225 0.0011745393 -0.097550705 -0.1257131 -0.072722726 0.077560924 -0.026766872 -0.103203826
-0.07274073 -0.07695198 0.02715766 -0.11718187 -0.016298348 -0.069059536 0.15959007 -0.015555748
0.055286508 0.09412647 0.045184534 -0.081998676 -0.0123682 0.06909719 0.039005183 -0.16217972
-0.04555136 -0.046579164 -0.12701835 0.022104394 0.099027716 0.15330474 0.039865475 0.19187596
0.022087432 -0.04356335 0.039874136 0.109455556 0.07141544 -0.06771827 -0.07705082 -0.107174285
0.080000624 -0.01566908 0.033717804 0.059504043 -0.08333512 -0.074092135 -0.012575064 0.143993
0.053722348 -0.014687035 -0.074495375 -0.054767124 0.15633428 -0.03241932 -0.020324303 -0.0104842
00000000: 9f87 f5bd 6e51 dfbd f26d b33c 76ac c13d
00000010: 225e 84bd 4cf6 553d 1098 0d3e dc0d 52be
00000020: 7810 79bc fa3d fcbd 06f6 a93d be61 20bb
00000030: a2b5 4bbd b427 9f3c cc90 f3bc 51c6 c13d
00000040: 0c1e 0fbe d588 95bd 4c9c 02bc ed15 b2bd
00000050: f3a3 2dbb dd56 e7bd 0faf 7f3b bc4d 043d
00000060: ce79 8f3d 779f 00bd 64f9 f63d 2e91 de3d
00000070: 989a ad3d 112d 1abb 6460 18be ed77 3fbd
00000080: e870 fabc 5e5e c83d 467a 9c3d 08b5 22be
00000090: df62 ee3d f877 043d e922 32bc e027 6ebd
000000a0: fc3e 0f3d e023 0ebd 602b b33b a7b0 a1bd
000000b0: 2cfa 1d3d 66bd 823c 87b2 4e3d bf8e 21bd
000000c0: 7909 a73d 8483 4abd a3eb 34bd 592b a13d
000000d0: 3372 c73d 1267 20bc 809d 25be 3e2a f33d
000000e0: 5e08 e7bd f55c c63c 0e5c a7bd e3b0 b1bc
000000f0: 2cda 893d 275c 50bd c06d c33c e2a7 ab3d
00000100: 1293 4b3d 5061 77bc 9099 213d 0312 c63d
00000110: c259 e93c 6030 37bd 855d 2e3d 6550 98bd
00000120: e960 2bbd 9e7a 9dbd f84a b9bc cd3f e43b
00000130: 4542 983d a669 4b3c 7586 85bd 00fd acbc
00000140: 603d d9bc 4ca6 f8bd 9b27 723d 1082 aebd
00000150: 2df2 03bd 239f 343d 6525 f2bc e58d 80bd
00000160: 9467 86bd 1c9c 74bc f3d8 b33c 64f1 b43d
00000170: e78a 13bb 260a 4fbc e3ab ba3d 8673 963d
00000180: 4878 d1bd 0a0f 38bd 4152 24be c6fb 40bd
00000190: 6fb0 083e 732f c1bc d9bb 2f3c 929d a03b
000001a0: e731 833d e63c cfbd 2a8a d53d 47bd bdbc
000001b0: 0a5c 0cbd 152c a83c 4255 d33d 06d6 693d
000001c0: 857a 7a3b d30a d9bd 51b2 c43d ac09 7abd
000001d0: 8354 e8bd 3e7c 473d 8465 d33a 3394 0d3b
000001e0: 41e7 153b e3d2 14bd 1224 b5bd 21e9 efbd
000001f0: 3083 01bc c4e8 c83d cb8c 2b3c ae46 dfbd
00000200: eff5 6d3d 977d 1f3d 60df 553a 652a 383d
00000210: f7e4 33bd be91 95bd fe22 ae3d 19c6 9abd
00000220: 2112 5e3c b28b 94bd 8448 ba3d f138 e8bd
00000230: 7ae2 223d 5e2f 813c 7f8e 92bd abc1 d13c
00000240: 7678 133d c832 6b3d 9c5a 68bd c9e8 a5bc
00000250: 4f8b 9cbd 31e1 36be a819 fcbc d321 b23c
00000260: 494a b13d 4ea7 1ebe d1ef a43c 505f 8ebd
00000270: f57a 293d 8ede afbc b370 633d 6382 2ebe
00000280: 4e39 aebd 65ae 823d 5746 0cbe 7d33 843c
00000290: 1610 29bd 828e b13d 116b 90bd 344a b13d
000002a0: d962 483d 1649 8e3d 080b 803c 4035 96bd
000002b0: c9de cb3c 7eb1 80bd 6594 f23c 6a30 00be
000002c0: 5788 13bb 99b5 fe3c c825 9ebd c7f1 113d
000002d0: a009 adbd ec2e a43d dc94 dabd e75a 1dbe
000002e0: ce29 20bd 4fbd b1bd bd46 59bc 6482 3bbd
000002f0: cc02 4dbd 3781 4f3d ef7c 35bd 26fa dabd
00000300: d0b5 3b3d 7ee7 aa3d 09c0 3dbd fb0d 0f3e
00000310: 3bee 8dbd 33c5 b93d 00fe d23c dd93 da3c
00000320: e8e0 88bd 00f3 993a aac8 c7bd efba 00be
00000330: a7ef 94bd 43d8 9e3d 3346 dbbc 875c d3bd
00000340: 18f9 94bd 0099 9dbd be79 de3c 0cfd efbd
00000350: 1d84 85bc 166f 8dbd 946b 233e 89dd 7ebc
00000360: 1b74 623d 61c5 c03d 6b13 393d ecee a7bd
00000370: fea3 4abc d482 8d3d e6c3 1f3d 7112 26be
00000380: 1094 3abd cbc9 3ebd 1911 02be 4614 b53c
00000390: 0bcf ca3d ebfb 1c3e fb49 233d 227b 443e
000003a0: b4f0 b43c 7c6f 32bd 1053 233d 3c2a e03d
000003b0: 4242 923d e0af 8abd d2cc 9dbd 317e dbbd
000003c0: 5ed7 a33d 715c 80bc ae1b 0a3d 83ba 733d
000003d0: 9aab aabd 9ebd 97bd a407 4ebc e772 133e
000003e0: f70b 5c3d e4a1 70bc 0891 98bd 7e53 60bd
000003f0: 1816 203e 1fca 04bd 277f a6bc ecc5 2bbc

model.3.bias f4 [256]
1.7346663 1.9780588 2.0275724 2.0816646 1.950953 1.5409899 -0.3177798 1.9830577
1.7599347 1.5419565 1.3986664 -0.5907594 1.795709 2.076799 1.8688179 1.7963376
1.8396652 1.9330362 1.9213078 1.9421053 1.8131706 1.5713872 1.615159 1.7027116
2.0056489 1.8451637 1.4025257 1.7237486 1.7477775 1.7688789 1.191014 1.713773
1.6796037 1.7959931 1.7350178 1.7199056 1.843094 1.5877693 1.775145 1.8005619
1.4253782 1.6879355 1.2669984 2.1371582 1.7981453 2.120914 1.8274349 1.4645436
1.5097762 1.8308794 1.1776217 1.5994912 1.7378016 1.491245 1.8838385 1.632354
0.42100894 1.477884 2.030728 2.1715915 1.0536078 1.0501171 1.162999 1.775052
1.1268818 1.7447867 1.7689661 1.5295416 1.9306842 1.6224371 2.1528468 1.2918246
1.7627109 1.195253 1.9467461 0.9979908 1.7464602 1.7253515 1.8243929 1.6297998
2.067128 1.844112 1.1547971 1.4390225 2.0398118 0.9470525 1.5635545 1.9567995
1.8490229 1.744614 1.8928827 0.59190184 1.7722203 1.997552 1.851574 1.4468391
1.7301583 1.808995 1.5937678 1.5737311 1.8896726 -0.23995712 1.5287083 1.4922708
1.4859892 1.6727192 1.8983644 2.041193 1.9298412 1.5580138 1.5933921 1.9073156
2.0340867 1.5649388 1.1546732 1.477068 1.8810529 1.8836159 1.5948392 1.6534197
0.78227097 1.4095831 1.4046519 0.983185 1.7190593 1.6382766 1.7029821 -0.10840161
1.8838041 2.1244056 2.0099592 1.9213212 2.1013596 1.9378858 1.7541965 1.7229879
2.0302444 1.1392382 0.9052902 1.0491475 0.89254934 1.8167025 1.5155272 1.827365
1.3438498 1.6128223 1.4556319 1.8703787 1.8971446 1.896323 1.2041086 1.4048033
1.0626572 1.9985914 1.8077571 1.7669051 2.0902562 1.9949089 1.235151 1.1091803
1.7177135 1.9207461 1.7534052 1.7558587 0.9304711 0.6514658 -0.59090304 1.9371362
1.8262837 1.7617004 1.7183805 1.4695584 1.6134492 1.7132242 1.4183472 1.804471
1.7603288 1.7645206 1.4358459 1.6780367 1.9406055 1.6618521 1.5713243 0.819503
1.9661179 1.7347747 1.7741867 1.6675558 1.4052361 1.0911328 0.72642267 1.4770116
1.3683302 1.9398166 1.860558 0.74165946 1.7481873 1.9401904 1.603571 0.37887374
1.7708275 0.9560459 1.7928244 1.2248749 1.0649589 1.8104502 1.6015418 1.7722614
1.3621972 1.6970738 1.728814 1.1359699 1.7772304 1.9079973 1.6346096 -0.37296528
1.7748089 1.607968 1.8879352 1.7643443 2.036205 1.8783606 1.5810934 1.5503081
1.8042117 0.68671906 1.6247529 1.6423005 2.0042999 2.010673 1.7970521 1.812154
1.9257251 1.4016848 1.4774022 1.7687215 1.081953 1.2507279 1.723743 1.8971099
2.2703962 1.2893811 1.9225631 0.8093338 1.8016632 1.9308608 -0.14072347 1.4459931
1.6179243 1.6738434 1.8469979 2.1192806 1.7418137 1.8804697 1.3772405 0.77423686
00000000: 8c09 de3f 0831 fd3f bfc3 0140 fe39 0540
00000010: d4b8 f93f 283f c53f 09b4 a2be d6d4 fd3f
00000020: 8a45 e13f d55e c53f 8007 b33f 023c 17bf
00000030: cbd9 e53f 46ea 0440 6d35 ef3f 64ee e53f
00000040: 267a eb3f bb6d f73f 6aed f53f e896 f83f
00000050: f915 e83f 3723 c93f 88bd ce3f 74f2 d93f
00000060: 8d5c 0040 532e ec3f f685 b33f cba3 dc3f
00000070: 2cb7 df3f a06a e23f 2673 983f ea5c db3f
00000080: 41fd d63f 1ae3 e53f 1015 de3f de25 dc3f
00000090: 81ea eb3f 063c cb3f f437 e33f d078 e63f
000000a0: cb72 b63f 450e d83f 012d a23f 33c7 0840
000000b0: a029 e63f 0ebd 0740 63e9 e93f 2a76 bb3f
000000c0: 5940 c13f 425a ea3f 4fbc 963f 21bc cc3f
000000d0: 4870 de3f 1ee1 be3f 9f21 f13f faf0 d03f
000000e0: 7c8e d73e 4e2b bd3f 73f7 0140 5bfb 0a40
000000f0: 9fdc 863f 3d6a 863f 27dd 943f e734 e33f
00000100: aa3d 903f 2c55 df3f 7b6d e23f 05c8 c33f
00000110: a920 f73f 05ac cf3f 3ec8 0940 825a a53f
00000120: 83a0 e13f 0dfe 983f fa2e f93f 537c 7f3f
00000130: 028c df3f 51d8 dc3f b585 e93f 489d d03f
00000140: d34b 0440 dd0b ec3f 64d0 933f e431 b83f
00000150: 478c 0240 0872 723f 8e22 c83f 6878 fa3f
00000160: c8ac ec3f 834f df3f fb49 f23f e186 173f
00000170: 1dd8 e23f c9af ff3f 6000 ed3f 0632 b93f
00000180: d475 dd3f 268d e73f 9500 cc3f 0570 c93f
00000190: cbe0 f13f 52b7 75be b7ac c33f bb02 bf3f
000001a0: e534 be3f aa1b d63f 9bfd f23f e8a2 0240
000001b0: 0905 f73f ff6c c73f 46f4 cb3f eb22 f43f
000001c0: 7a2e 0240 ea4f c83f 55cc 933f 9010 bd3f
000001d0: 57c6 f03f 531a f13f b123 cc3f 42a3 d33f
000001e0: e942 483f 386d b43f a2cb b33f 03b2 7b3f
000001f0: 230a dc3f 0cb3 d13f 51fb d93f aa01 debd
00000200: 7e20 f13f 43f6 0740 2ca3 0040 daed f53f
00000210: ad7c 0640 a40c f83f 8389 e03f de8a dc3f
00000220: 86ef 0140 8fd2 913f 19c1 673f 774a 863f
00000230: 1d7e 643f b589 e83f ccfc c13f 19e7 e93f
00000240: 4503 ac3f f670 ce3f 2552 ba3f 9268 ef3f
00000250: a2d5 f23f b6ba f23f 3b20 9a3f 98d0 b33f
00000260: 2705 883f d8d1 ff3f 9664 e73f f229 e23f
00000270: c2c6 0540 2d59 ff3f 6e19 9e3f 9ff9 8d3f
00000280: 09de db3f 02db f53f 956f e03f fabf e03f
00000290: 5b33 6e3f 76c6 263f 6c45 17bf 14f4 f73f
000002a0: aac3 e93f 667f e13f e4f3 db3f 7d1a bc3f
000002b0: 8185 ce3f ee4a db3f 678c b53f e8f8 e63f
000002c0: 7452 e13f d0db e13f ccc9 b73f e8c9 d63f
000002d0: c365 f83f 92b7 d43f 2821 c93f f3ca 513f
000002e0: c0a9 fb3f 190d de3f 8d18 e33f 7872 d53f
000002f0: c7de b33f 3daa 8b3f d6f6 393f b70e bd3f
00000300: 7225 af3f e94b f83f c426 ee3f 65dd 3d3f
00000310: 9ac4 df3f 2958 f83f d141 cd3f bdfb c13e
00000320: 7aaa e23f 6dbf 743f 457b e53f b3c8 9c3f
00000330: 9350 883f d5bc e73f 52ff cc3f 76d9 e23f
00000340: 7a5c ae3f b739 d93f c749 dd3f 7667 913f
00000350: 497c e33f 4139 f43f e33a d13f 4ef5 bebe
00000360: f02c e33f e5d1 cd3f dca7 f13f 09d6 e13f
00000370: 2f51 0240 1f6e f03f 4561 ca3f 7f70 c63f
00000380: 69f0 e63f d2cc 2f3f e7f7 cf3f e736 d23f
00000390: 7346 0040 deae 0040 ce05 e63f aaf4 e73f
000003a0: 297e f63f 686a b33f 841b bd3f 7765 e23f
000003b0: 707d 8a3f da17 a03f 9ca3 dc3f 7fd4 f23f
000003c0: 2c4e 1140 710a a53f 8c16 f63f 8030 4f3f
000003d0: e69c e63f 7226 f73f d019 10be 4d16 b93f
000003e0: 2518 cf3f 8040 d63f 6d6a ec3f 4ba2 0740
000003f0: c0f3 de3f 3bb3 f03f 6b49 b03f 6334 463f

model.6.weight f4 [64, 256]
-0.051806748 0.026405895 0.037920833 0.0021077762 0.0035129038 -0.0040563657 -0.0028575866 -0.033183128
-0.064446494 -0.013608453 0.05032307 0.04512016 -0.04602847 0.028477898 -0.0021349739 -0.0005313266
-0.058169413 0.027283583 0.029499134 -0.05646625 -0.035937455 -0.0372671 0.034202453 0.007247121
-0.0062053264 0.014420294 0.017170751 0.028624197 -0.06484001 -0.0062705292 0.009420293 -0.09012546
0.0901782 -0.03629694 -0.028235545 0.002515297 0.009360175 -0.03296571 -0.11652859 0.025162783
-0.027156413 0.008528757 -0.017397108 -0.043566633 0.033606786 -0.025168644 -0.028198926 -0.00092050666
-0.04053954 0.036975157 -0.064624615 -0.033522166 0.022031616 -0.07241634 0.010174755 -0.06231077
-0.013438645 -0.017544884 -0.06916882 -0.034251507 -0.03738357 0.010230357 0.036169175 0.010568122
0.034853674 -0.041155074 -0.040343486 -0.024015866 -0.0011483269 0.039723746 -0.07721651 -0.059026852
0.012029354 -0.032737765 -0.032755993 0.028960878 -0.05459967 -0.101374686 -0.017589353 -0.02292791
-0.046339456 -0.0592443 -0.06309453 -0.058925346 -0.05642174 -0.04604915 0.03575843 -0.04187737
0.0070637087 -0.050609678 0.025497697 0.028376859 0.012124382 0.014804594 -0.030768171 -0.024126496
-0.05951886 0.023780815 0.010979576 -0.06678908 0.022698434 -0.045446653 0.05698799 -0.06151375
0.021228686 -0.02546544 0.031007754 -0.054944705 0.008001444 -0.05232869 0.03296251 -0.0017104757
-0.041553672 -0.017872691 0.03760834 0.03989416 -0.05292827 0.0039014688 -0.012472905 -0.0180573
0.0071026543 0.02262197 -0.023954682 -0.010918572 -0.06074354 0.034432113 -0.08049633 0.04239337
0.0046354407 -0.0024587815 -0.018048648 0.033600256 0.004055142 -0.012118647 0.026669404 -0.0034075605
0.018324152 0.00019063562 -0.0671828 0.02616472 -0.05887046 -0.047934245 0.028802942 -0.058628235
-0.06827887 -0.072837114 0.027905686 -0.051084056 0.004483928 -0.06608496 -0.07852208 -0.06840753
-0.047752757 -0.04007919 0.038404144 -0.052917518 0.05502253 0.009352787 -0.07017733 0.01065589
-0.06416583 -0.02689283 -0.014399701 -0.058771923 0.008866723 -0.014458519 -0.07131613 -0.018776717
-0.019903207 -0.1142528 -0.0067522544 -0.055598892 -0.017524334 -0.08423904 -0.067722365 -0.014709694
0.014619155 -0.0433833 0.042842258 -0.011419286 0.048195038 0.0118476 0.021840416 -0.030338574
-0.016690033 -0.059808437 -0.036999602 0.042109244 0.007157347 0.0028156128 -0.0071639954 0.019548252
-0.022222256 -0.0072628083 0.011924297 -0.05122694 -0.13348196 -0.011638293 -0.02598979 -0.0010714348
0.004399129 -0.08132438 0.007965543 0.014559556 -0.020423647 -0.031138249 0.002894079 0.024125569
0.020777082 -0.01692209 -0.044693172 0.04404211 0.062139723 -0.08080327 -0.054963585 0.008705132
-0.024062047 -0.0568685 -0.0074885204 -0.013595562 -0.041596577 0.045048494 -0.0031749217 -0.05955801
0.017344788 0.05045704 0.0365132 -0.007753399 -0.008361976 -0.08624576 0.01992849 0.019801794
0.037489995 -0.019944236 -0.07870453 0.0042239716 -0.027078046 -0.085042305 -0.053466477 0.0037651216
0.0029460627 -0.08517312 0.05318756 -0.033445794 0.028269121 -0.038893595 0.0009876414 -0.026827592
0.050349414 0.0060998984 -0.0073292167 0.035696674 -0.0022285914 -0.01735184 -0.06453409 -0.053528108
00000000: 5033 54bd 2d51 d83c e052 1b3d 9e22 0a3b
00000010: bf38 663b 43eb 84bb 5946 3bbb 08eb 07bd
00000020: 86fc 83bd fdf5 5ebc 901f 4e3d ebcf 383d
00000030: 5988 3cbd 7b4a e93c ebea 0bbb b948 0bba
00000040: 0d43 6ebd d281 df3c 2ba8 f13c 2849 67bd
00000050: 2733 13bd 63a5 18bd df17 0c3d 4279 ed3b
00000060: 0d56 cbbb 1943 6c3c ada9 8c3c 4b7d ea3c
00000070: d7ca 84bd 0379 cdbb 9357 1a3c b293 b8bd
00000080: 59af b83d 1aac 14bd 3b4e e7bc aed7 243b
00000090: 6b5b 193c 0d07 07bd 8ba6 eebd 2e22 ce3c
000000a0: 2077 debc 33bc 0b3c 6184 8ebc ed72 32bd
000000b0: 45a7 093d 792e cebc 6f01 e7bc 284e 71ba
000000c0: ca0c 26bd 4373 173d e959 84bd 8a4e 09bd
000000d0: a67b b43c 054f 94bd 04b4 263c 9439 7fbd
000000e0: c32d 5cbc 4aba 8fbc 62a8 8dbd 4f4b 0cbd
000000f0: 841f 19bd 3a9d 273c 2126 143d eb25 2d3c
00000100: bac2 0e3d 3992 28bd 363f 25bd ecbc c4bc
00000110: 7583 96ba 5eb5 223d b123 9ebd 24c6 71bd
00000120: c516 453c 0918 06bd 262b 06bd 5d3f ed3c
00000130: e7a3 5fbd 889d cfbd 8c17 90bc 50d3 bbbc
00000140: 71ce 3dbd 27aa 72bd b437 81bd b45b 71bd
00000150: 7c1a 67bd 099e 3cbd 6e77 123d 9b87 2bbd
00000160: af76 e73b 184c 4fbd 8ce0 d03c 9676 e83c
00000170: 58a5 463c f88e 723c 880d fcbc eea4 c5bc
00000180: 0cca 73bd fccf c23c aee3 333c b7c8 88bd
00000190: 11f2 b93c 4526 3abd 3d6c 693d d8f5 7bbd
000001a0: c8e7 ad3c e69c d0bc f903 fe3c b30d 61bd
000001b0: 7d18 033c 9c56 56bd b203 073d 0a32 e0ba
000001c0: 2f34 2abd c069 92bc 340b 1a3d 0f68 233d
000001d0: 50cb 58bd c9af 7f3b 285b 4cbc e7ec 93bc
000001e0: 62bd e83b b651 b93c 9c3c c4bc cfe3 32bc
000001f0: 38ce 78bd b008 0d3d 43db a4bd aca4 2d3d
00000200: e5e4 973b 8223 21bb c2da 93bc 6ca0 093d
00000210: ffe0 843b 4a8d 46bc cb79 da3c 6151 5fbb
00000220: 881c 963c 5ce5 4739 2397 89bd 6557 d63c
00000230: 2722 71bd b356 44bd 26f4 eb3c 2924 70bd
00000240: cbd5 8bbd a02b 95bd 779a e43c 843d 51bd
00000250: eaed 923b 8d57 87bd 2fd0 a0bd 3f19 8cbd
00000260: 6598 43bd 142a 24bd aa4d 1d3d 0ac0 58bd
00000270: 4e5f 613d 6f3c 193c 22b9 8fbd 0b96 2e3c
00000280: 6069 83bd 5a4e dcbc b9ec 6bbc d4ba 70bd
00000290: bb45 113c 6de3 6cbc 310e 92bd a1d1 99bc
000002a0: 0d0c a3bc 5ffd e9bd 0442 ddbb aabb 63bd
000002b0: 318f 8fbc 8585 acbd 06b2 8abd ee00 71bc
000002c0: 2e85 6f3c b0b2 31bd 5d7b 2f3d f517 3bbc
000002d0: 2968 453d 701c 423c acea b23c 9a88 f8bc
000002e0: 89b9 88bc b1f9 74bd e58c 17bd be7a 2c3d
000002f0: 2e88 ea3b 2586 383b f3bf eabb a823 a03c
00000300: 730b b6bc dafc edbb 205e 433c 57d3 51bd
00000310: 7faf 08be 8aae 3ebc 8ae8 d4bc 636f 8cba
00000320: 9226 903b 668d a6bd e981 023c 348b 6e3c
00000330: 7e4f a7bc a415 ffbc 97aa 3d3b fca2 c53c
00000340: b334 aa3c 32a0 8abc 3010 37bd 8065 343d
00000350: 3986 7e3d 2f7c a5bd 7f21 61bd f89f 0e3c
00000360: c51d c5bc f2ee 68bd 4362 f5bb ecbf 5ebc
00000370: 2c61 2abd c584 383d 5912 50bb 1af3 73bd
00000380: a816 8e3c 0bac 4e3d dd8e 153d 3a10 febb
00000390: ab00 09bc 9ea1 b0bd 1341 a33c 5f37 a23c
000003a0: 1c8f 193d 1862 a3bc d72f a1bd 3e69 8a3b
000003b0: c7d2 ddbc a92a aebd aaff 5abd 42c0 763b
000003c0: bb12 413b 3f6f aebd 33db 593d 75fe 08bd
000003d0: a594 e73c e44e 1fbd bf73 813a 8ac5 dbbc
000003e0: 303b 4e3d a8e1 c73b ed29 f0bb ad36 123d
000003f0: 8f0d 12bb 7225 8ebc 732a 84bd 4a40 5bbd

model.6.bias f4 [64]
0.015690448 1.8392258 1.9406408 0.028024921 -0.040812515 -0.04695786 1.7838422 -0.061487008
1.80958 1.9783357 -0.069951884 -0.0767448 1.7773448 1.7720892 -0.057808828 2.0254478
0.010130306 -0.033685934 2.0419145 1.6494112 -0.061945163 1.73711 1.8448734 -0.020624299
0.008843372 1.7985291 2.0168238 -0.006392349 1.7861983 1.8927631 1.680512 2.0222547
-0.085178 1.6914425 -0.08809603 0.019144803 1.634596 1.794108 2.1448107 1.6121913
2.1332262 -0.110555984 1.9523329 1.6499116 1.6611434 1.6683339 1.7698194 2.1364436
-0.02730634 0.00971084 2.007401 1.9896437 1.5886185 1.6178067 2.103289 -0.060094316
-0.053874798 -0.0497626 -0.0066080415 2.1637785 1.8489499 1.6882495 1.6759796 1.9123468
00000000: 4189 803c c06b eb3f eb66 f83f 8594 e53c
00000010: 062b 27bd e356 40bd f154 e43f cdd9 7bbd
00000020: 51a0 e73f 1b3a fd3f ef42 8fbd 612c 9dbd
00000030: 0980 e33f d2d3 e23f f3c8 6cbd f0a0 0140
00000040: 95f9 253c 43fa 09bd baae 0240 e81f d33f
00000050: 36ba 7dbd 9f59 de3f d024 ec3f 4af4 a8bc
00000060: cae3 103c 3436 e63f a413 0140 e976 d1bb
00000070: 25a2 e43f 1046 f23f 041b d73f 9f6c 0140
00000080: ce71 aebd 3081 d83f b16b b4bd 90d5 9c3c
00000090: 713a d13f 55a5 e53f 9444 0940 495c ce3f
000000a0: c786 0840 2d6b e2bd 0be6 f93f 4e30 d33f
000000b0: 59a0 d43f f78b d53f 7189 e23f 7ebb 0840
000000c0: 8cb1 dfbc 371a 1f3c 4279 0040 a5ac fe3f
000000d0: da57 cb3f 4a14 cf3f 499c 0640 7525 76bd
000000e0: d2ab 5cbd ded3 4bbd 4588 d8bb 597b 0a40
000000f0: 64aa ec3f 8f18 d83f 8086 d63f c8c7 f43f

model.9.weight f4 [1, 64]
-0.046095837 0.11329279 0.09382034 -0.052590355 -0.037152853 -0.0026428448 0.11668081 -0.044914436
0.10803444 0.08670763 -0.05680261 -0.018327106 0.108451925 0.11585052 -0.014996028 0.08621541
-0.026994733 -0.024696292 0.09517813 0.13457657 -0.007122044 0.1243399 0.10732412 -0.045167904
-0.09719317 0.11170378 0.09046935 -0.08206651 0.105191685 0.1258426 0.11564395 0.08726482
-0.05805155 0.11491248 -0.061127163 -0.03755549 0.12993966 0.10662895 0.076758996 0.13199261
0.07907867 -0.027257783 0.09485621 0.13727008 0.09767162 0.11281602 0.11408008 0.083044045
-0.036459506 -0.043857943 0.08685555 0.08545288 0.13208188 0.13065207 0.08389915 -0.092885494
-0.0109461155 -0.06461295 -0.008381327 0.08290592 0.10627922 0.11481819 0.13633922 0.084156215
00000000: fdce 3cbd 0d06 e83d e124 c03d fc68 57bd
00000010: 972d 18bd 9433 2dbb 59f6 ee3d 33f8 37bd
00000020: 2941 dd3d c593 b13d dba9 68bd ba22 96bc
00000030: 0b1c de3d 0a43 ed3d e6b1 75bc b491 b03d
00000040: 0f24 ddbc e14f cabc c0ec c23d 71ce 093e
00000050: 0960 e9bb eba5 fe3d c0cc db3d fb01 39bd
00000060: 360d c7bd f4c4 e43d ff47 b93d 7d12 a8bd
00000070: bd6e d73d e2dc 003e bcd6 ec3d e6b7 b23d
00000080: 76c7 6dbd 3c57 eb3d 7a60 7abd c9d3 19bd
00000090: e70e 053e 4760 da3d d233 9d3d 1229 073e
000000a0: fff3 a13d b74b dfbc f943 c23d 8790 0c3e
000000b0: 0f08 c83d 160c e73d d1a2 e93d ff12 aa3d
000000c0: 9056 15bd 63a4 33bd 53e1 b13d eb01 af3d
000000d0: 7940 073e a8c9 053e 51d3 ab3d c03a bebd
000000e0: 5657 33bc cb53 84bd d551 09bc 94ca a93d
000000f0: eba8 d93d cd25 eb3d 829c 0b3e 185a ac3d
