best_models/best_model_nn_search_1_features_all.pt (torch, 81797 bytes, 19 tensors)

model.0.weight f4 [64, 96]
00000000: 6470 a0bd 6f13 6f3c bcd6 923d 294f 4cbd
00000010: 29e6 a1bd f1b2 ab3a 5dd8 7cbc dd78 eb3c
00000020: 3597 b73d 3b74 3f3d 8408 513d fc6f 94bc
00000030: 84e5 a5bd 628a 263c edc8 683c 1c1e de3a
00000040: d6de 7dbd 3174 47bd 7491 b7bd 7e6e 643c
00000050: ea39 3c3d f0d8 f2bc b085 86bb adc0 383d
00000060: 42a1 813d 04c3 a9bc a38b 8ebc 228f bc3d
00000070: 0f98 5e3d 3575 45bd e7a8 36bd 3f6a 193d
00000080: 9dfd 98bd 1aa0 23bc d3c1 0cbc f871 fe3c
00000090: aa51 203c 12f4 923d 312c d2bd ca02 d23d
000000a0: a926 d33c b0ee 123d b481 893d 1cb3 d6bd
000000b0: ae13 a3bd b9d2 5ebd 33d9 9d3d cfc1 04bc
000000c0: de70 ba3d 0fd7 f6bd eb22 9bbd 1fcf 543d
000000d0: 336f 223d 575b eb3c 0c13 69bd c986 e53c
000000e0: 7066 aebd 62a1 5d3a 147a 923d b1e5 7f3d
000000f0: d7e2 46bc 3c7e 32bd 0507 453a 2758 2a3d
00000100: 8971 773d 2fca b23d 98e5 e0bc 94d8 683d
00000110: 3019 4abd 3a58 b1bd 13a1 483d 6e43 773c
00000120: 8a8f a4bd 88a0 aa3d 66b2 183d 36de 96bd
00000130: 96b0 ec3d 5938 3dbd 7920 a83d b743 91bd
00000140: d4a3 51bc dddb 6bbd 5216 093d 2f51 9ebd
00000150: 97b0 7c3c 431a d13d d96d 02bd 277f aa3a
00000160: afd2 b5bd 99d7 1c3d 6e73 d539 08f1 093e
00000170: 77d9 a9bd f8d6 4fbd 41ed c2bd 8231 86bd
00000180: e34c 853c 59b7 1d39 08c0 9b3d 017c 143d
00000190: 7205 af3c 344b 6f3c 1444 5a3b 633c 8dbc
000001a0: 9d93 e13d 9144 b4bd 77be 143c e498 323c
000001b0: 0dca b0bd e35f a8bb c17c b83c 6350 c13a
000001c0: 75fb 80bd 345f 8cbd 2533 0abc 5212 a4bd
000001d0: e8c2 bb3d 5180 2f3c c27e 823c 654a 27bd
000001e0: 5299 d439 a2e3 91bd 2e1a b0bb 2f07 f7bd
000001f0: feea 3bbd 6ccb 57bd 1f13 0bbd 775d bc3c
00000200: d55d 7bbb 97f7 27bd f755 7fbd bf2e a03d
00000210: 087a c13d 7397 aabd e6ab ed3c 9da6 73bd
00000220: 2472 b93c 2ca4 9abd 7602 9bbd c6fd a0bd
00000230: 286f b93d a243 8abc c5ed 9b3d fbb5 e53d
00000240: 354f 493d 9099 7bbd 5e3c da3c d076 84bb
00000250: 3a25 963c b410 85bc 659e 2b3d f10e 4dbd
00000260: 63c6 b3bd ad14 303d 5692 2a3c 7318 473c
00000270: 1fe8 06bd 109b 513b 4cc6 13bd a52d a3bc
00000280: 16b6 6cbd ebfb 85bd 1b1d 573d c557 833c
00000290: ed39 863d deed 92bd a8a2 3dbd 1859 03bd
000002a0: 9322 39bd 83a8 883d d538 ad3d bed5 87bc
000002b0: 6374 c1bd bcef 09bd 1ce8 bbbd 48b6 80bd
000002c0: dd51 5c3d f26a 93bd ab2c 6cbd 5d6e 9a3d
000002d0: f1ce 183c d5ea b73d 738d ac3d 2fb9 9c3d
000002e0: 4453 46bc e583 98bd 6fa3 853d c098 67bd
000002f0: 9888 0a3d 51a7 de3d 3649 413c addf 323c
00000300: 10ff e53c cef4 c4bd 5334 be3c 14a8 cbbd
00000310: de96 1e3d b7c2 85bd bc2b 01bc 46cc b2ba
00000320: e45b 153d 42d3 1fbd f641 673d 616e a0bd
00000330: 0e1a bb3d 515a 90bd e598 5e3d 58d3 f73c
00000340: ff4e 2e3d 88cf 9ebc 7bbb 843c 8484 5a3c
00000350: ec76 a4bc a1d0 efbc 6690 bc3d 5155 acbd
00000360: e76e a9bd 8a2c a4bd 257f f2bd 8840 413c
00000370: 7ce3 9dbd f085 7b3b dbcf 92bc a11f 38bd
00000380: a7e0 113c 9f82 a73d 0f10 acbd a3f6 95bc
00000390: 006e acbd f505 523d 99cf e0bd c709 38bd
000003a0: 4a0b 173d 8cde b73d f205 643d 5f4a 533d
000003b0: f18f 65bd 3e56 d3bd 2de6 13bd bc80 f63c
000003c0: e7e2 40bc ee45 41bd 880f 1bbd 01f9 d23d
000003d0: e4d5 3cbb f706 6c3d e2d0 8abd f256 a83d
000003e0: e2ee 16bd f902 0b3d c097 37bc 84a3 1fbc
000003f0: 9de1 0cbd 27da 973d 2364 393d 20ea 39bd
-0.07833937 0.014592036 0.071698636 -0.04988018 -0.07905228 0.0013099593 -0.015432444 0.028744156
0.08964387 0.046741705 0.05103351 -0.018119805 -0.08100417 0.010164829 0.014208061 0.0016946229
-0.06198009 -0.048694793 -0.0896329 0.013942359 0.04595367 -0.02964446 -0.0041052923 0.045105625
0.063295856 -0.020722874 -0.017400568 0.09206988 0.054344233 -0.04820748 -0.04459467 0.03745484
-0.07470248 -0.009986902 -0.008591133 0.031060204 0.009785095 0.07175459 -0.10262335 0.10254438
0.02577527 0.03587216 0.06714192 -0.10483381 -0.07962738 -0.05440018 0.07707443 -0.008102848
0.09103559 -0.12052738 -0.075750194 0.05195534 0.03965683 0.028730078 -0.05690293 0.028018372
-0.08515632 0.0008454529 0.07152191 0.06247491 -0.012139044 -0.043577418 0.00075159996 0.041587975
0.06041101 0.0872997 -0.027453229 0.05684717 -0.049340427 -0.08659406 0.048981737 0.01509176
-0.080351904 0.083314 0.03727951 -0.07366602 0.115571186 -0.046196315 0.08209319 -0.07092994
-0.012795407 -0.057582725 0.033468552 -0.07730328 0.015422962 0.10210087 -0.03184304 0.0013007865
-0.08878075 0.038291547 0.00040712528 0.13470852 -0.08293431 -0.05074212 -0.09517909 -0.065524116
0.016272014 0.00015040989 0.076049864 0.03625107 0.021364901 0.014605332 0.0033304738 -0.017240709
0.11014483 -0.088021405 0.0090786135 0.01090071 -0.08632288 -0.0051383837 0.022520425 0.0014748689
-0.062979616 -0.06854096 -0.008435045 -0.08011307 0.09168035 0.010711745 0.015929583 -0.040842433
0.00040550024 -0.07123496 -0.0053742146 -0.12061917 -0.045878403 -0.052684233 -0.033953782 0.022993786
-0.0038355489 -0.041007604 -0.06233784 0.07821416 0.09447104 -0.08329668 0.029012632 -0.059485067
0.022637434 -0.075508446 -0.07568829 -0.078609034 0.090544045 -0.016877953 0.0761371 0.11216351
0.049147803 -0.061425745 0.026640113 -0.004042484 0.018328298 -0.016243316 0.041899104 -0.050063077
-0.08778074 0.042988468 0.010410866 0.012151825 -0.03293621 0.0031983294 -0.036077783 -0.019919226
-0.05779084 -0.0654219 0.05251799 0.016033063 0.06554017 -0.07174276 -0.0462977 -0.03206739
-0.04519899 0.06672766 0.084581055 -0.016581412 -0.09446027 -0.033675894 -0.09175131 -0.062847674
0.05378901 -0.071981326 -0.057659786 0.075405814 0.009326682 0.089803375 0.08425417 0.076525085
-0.012104813 -0.07447032 0.06525313 -0.056542158 0.033821672 0.10871757 0.01179724 0.010917586
0.028075725 -0.09617005 0.02321831 -0.09944168 0.038718097 -0.065312795 -0.007883962 -0.00136412
0.036464587 -0.03901983 0.05645939 -0.07833553 0.09135829 -0.070484765 0.05434503 0.030252144
0.042555805 -0.019386068 0.016202679 0.013337258 -0.020076238 -0.029274287 0.09207229 -0.0841471
-0.08273106 -0.08016308 -0.11840657 0.011795171 -0.07709405 0.0038379394 -0.017921379 -0.04495204
0.008903659 0.08179211 -0.084015004 -0.018306082 -0.08419418 0.051275212 -0.10977096 -0.0449312
0.036876 0.08977994 0.055669732 0.051584598 -0.056045476 -0.10319184 -0.036108185 0.030090682
-0.011772848 -0.04718583 -0.03785661 0.103014 -0.0028814012 0.05762383 -0.067781225 0.082197085
-0.03684891 0.03393838 -0.011205614 -0.009743575 -0.03439485 0.07414656 0.045261513 -0.045389295

model.0.bias f4 [64]
00000000: 7107 233d 1459 bbbd 1977 c8bc b399 55bd
00000010: 7008 363d 9d3e c83c 7c83 a3bd 05c7 2fbc
00000020: b93f 49bd 1bcf b83c 851c ccbb fb15 1439
00000030: c4fb b33d 8f46 50bd d50c 813c 6171 dabc
00000040: 075b c03d fbd6 88bd 7dbb 133c 5f75 933b
00000050: e696 debc 3f66 4d3d 86c6 a5bd b6ba d03c
00000060: e4bb a4bd 0d61 5a3d 2579 bc3c 66dd 863a
00000070: 9565 b33d 7c98 963d 8e07 cf3c 2450 aa3d
00000080: 6e61 46bd d084 c0bd d2c3 7eba 15c5 f13b
00000090: d650 b4bd 38e1 50bd 5bcc 853d 3ea2 51bd
000000a0: 090e 6f3d 8e0b bcbd 3bfe d9bc 5e6e be3d
000000b0: ffb0 7cbd ab63 903b 4b99 993d 000c 233c
000000c0: 6b72 5abd bb04 863d b51e 90bd 84b9 3ebd
000000d0: 190d 22bd 92af 263d fa80 9f3c fc4b 4ebd
000000e0: 4804 e63c 6c2c 693c 405a 443a ff56 373d
000000f0: cf51 25bd 548c 8dbc 2533 8b3d f0c0 613d
0.03980202 -0.0914785 -0.024470853 -0.052148532 0.04444164 0.024443919 -0.07984063 -0.010728602
-0.049133036 0.022559693 -0.0062289857 0.00014122568 0.08788255 -0.05084854 0.01575319 -0.026665391
0.09392362 -0.06681629 0.009016869 0.0045000757 -0.027171563 0.050146338 -0.08094506 0.025479656
-0.0804365 0.05331521 0.023006985 0.001028937 0.087596096 0.07353303 0.025272157 0.08316067
-0.04843276 -0.09400332 -0.00097185106 0.0073782303 -0.08804481 -0.050996035 0.06533118 -0.051180117
0.058362994 -0.091818914 -0.026610484 0.092983946 -0.061692234 0.0044064126 0.074999414 0.0099515915
-0.053331774 0.06543871 -0.07037107 -0.04656364 -0.039563272 0.04069478 0.01947068 -0.050365433
0.028078213 0.014231782 0.0007490255 0.0447607 -0.040361222 -0.017278828 0.067968644 0.05511564

model.1.weight f4 [64]
00000000: 9a87 7d3f 1090 823f 55da 813f 5c3a 803f
00000010: 8207 7c3f eda6 803f 5717 813f f4c5 7b3f
00000020: 5c1a 823f c76a 803f 1863 7e3f 8856 813f
00000030: e3a9 833f dc4c 7a3f c558 853f 1147 833f
00000040: 943d 813f 428a 7d3f 65cd 7a3f b0e4 7f3f
00000050: c17f 813f ca31 7b3f c844 813f b9dc 7b3f
00000060: 13a8 7a3f efb4 7d3f b840 813f 6f57 7f3f
00000070: 457a 803f 38e6 813f 1817 7e3f b312 823f
00000080: 1617 7c3f 63fd 7c3f 214a 813f cefc 7d3f
00000090: 0378 7c3f 9061 803f 55d2 783f 2b7d 743f
000000a0: 922d 7a3f 0963 7c3f dae7 7d3f 6c06 813f
000000b0: 4096 7f3f 8ff5 7c3f f616 803f 57bc 803f
000000c0: 7497 7c3f 4835 813f 3451 823f 58c3 803f
000000d0: 2a39 7a3f b3e3 813f 901e 793f 3f25 803f
000000e0: 8766 833f 71e0 803f 34bc 803f 1e1d 7d3f
000000f0: dc48 813f 058e 7f3f 6360 813f 0a2d 803f
0.99035037 1.0200214 1.0144755 1.001781 0.98448956 1.0050942 1.0085248 0.9834893
1.0164294 1.0032586 0.99369955 1.0104532 1.028622 0.9777353 1.0417715 1.0256063
1.0096917 0.9903909 0.9796966 0.99958324 1.0117112 0.9812285 1.0099115 0.9838367
0.9791271 0.9910421 1.0097876 0.9974279 1.0037314 1.0148382 0.9925399 1.0161957
0.98472726 0.9882414 1.0100747 0.99213874 0.98620623 1.0029774 0.9719594 0.9550349
0.97725785 0.98588616 0.991819 1.0080085 0.9983864 0.9881219 1.0007007 1.0057477
0.986686 1.0094385 1.0181031 1.0059614 0.97743475 1.0147613 0.9731226 1.0011367
1.0265664 1.0068494 1.0057435 0.98872554 1.010036 0.9982608 1.010754 1.0013745

model.1.bias f4 [64]
00000000: cbbc 6abc ae36 833c 8d53 57bc 8b71 93bb
00000010: 63c5 a03a d8df 383c 9867 7eba 7eaa 73bc
00000020: 055f b33c 0ed8 e0bb 5ba3 c53b a8e5 023c
00000030: 0902 463c 966e ccba 730d 1a3d bf4c 943a
00000040: 717b 8d3c 8194 beba b81e a1bc 65d5 943b
00000050: 4486 90bb 3b69 d4bc a2cf e33b ead0 bfbc
00000060: 89d0 55bc d08b 83bc f5a5 3b3c c225 3bbc
00000070: c4e4 31bc a1e0 d93b 4434 9dbc 2674 82b9
00000080: 73ad 3f3a 06dd 97bc 7ac7 c53c c1ef f4bb
00000090: 9370 0cbd 158b 223c 5104 f2bc 6426 b7bc
000000a0: 7914 e9bb 521b 43bc 97a5 0ebb e26a f1ba
000000b0: b324 393c db8d 94bc 46fe 06bc c68c 6c3c
000000c0: e0ba fabb c905 023c ece8 3e3b bbfa 043b
000000d0: 7614 48bc 6c4b cd3c 06e6 eabc a067 26bc
000000e0: 3549 103c da51 8c3b 05b0 20bc 424b d9bb
000000f0: ee8a f83c 0c87 31bc 76e1 303b f4c5 0d3c
-0.014327238 0.016017284 -0.013142479 -0.0044996194 0.0012265857 0.011283837 -0.0009704768 -0.0148721915
0.021895895 -0.006861693 0.0060314364 0.007989325 0.012085446 -0.0015596922 0.037610482 0.0011314376
0.017270776 -0.0014540107 -0.019667968 0.00454204 -0.004410537 -0.025929084 0.006952242 -0.023415048
-0.013050207 -0.016057879 0.011453141 -0.011422576 -0.010857765 0.0066490923 -0.019189961 -0.0002488207
0.0007311918 -0.01853801 0.02414297 -0.00747487 -0.034287047 0.009920855 -0.029543074 -0.022357173
-0.0071130362 -0.011908369 -0.002176618 -0.0018418694 0.011300254 -0.018134048 -0.008239334 0.01443786
-0.007651672 0.00793595 0.0029130531 0.0020291049 -0.0122119095 0.025060378 -0.028674137 -0.010156542
0.008806516 0.0042822184 -0.009807591 -0.006631286 0.030339684 -0.01083542 0.0026989854 0.008653153

model.1.running_mean f4 [64]
00000000: dcca 713c 6ec2 ddbd 73ca 26bd 21a9 8fbd
00000010: 63ae 053d 7c6c 013e c041 c0bd ab92 c2bd
00000020: 90fe 45be e4b3 d7bc 187b 88bd 9195 a13d
00000030: 43e2 bf3d be34 cebd 7e9e 3b3d 2cc7 073c
00000040: 7871 433d b040 a2bd 385c b6bc 04da 3f3d
00000050: 6dca c4bc 6225 913d b1d0 10be 73c7 2f3c
00000060: d34d 29be debe 0a3d d620 0a3d 0bb4 8a3c
00000070: 3497 103c e731 3c3c b216 1abd 672c 2e3e
00000080: 7c26 56bd f424 a6bd 02a0 cd3c 96d7 36bd
00000090: 6708 a03d 55cc fcbd b826 5b3b 4493 fdbd
000000a0: 3a09 aa3d ec84 9ebb d449 253c cf6b debc
000000b0: 8f97 ab3c 0081 bf38 9144 c03d 3a6a 363d
000000c0: de37 4f3a 58e0 a33d cdfd 2f3c 7947 2a3d
000000d0: 115d 293d dfed b33d 4360 c03c f64b a8bd
000000e0: 71af d33d 7a94 b23b aa90 a1bd 93b4 633e
000000f0: c790 b6bd 9dae 90bd 27b3 063e 2c01 19bc
0.014757838 -0.108281 -0.040720414 -0.07014681 0.03263701 0.1263904 -0.09387541 -0.09500631
-0.19335389 -0.026330896 -0.06664103 0.07889856 0.09369328 -0.100686535 0.045805447 0.008287232
0.047715634 -0.079224944 -0.02226077 0.046838775 -0.024022305 0.07087208 -0.1414211 0.010728705
-0.16533594 0.03387343 0.03372272 0.016931554 0.008825112 0.011486507 -0.0376193 0.17009126
-0.052282795 -0.08112517 0.025100712 -0.044639193 0.078141026 -0.12343661 0.0033439826 -0.12381604
0.08302541 -0.004837623 0.010088403 -0.027151017 0.020946292 9.131618e-05 0.09388078 0.0445349
0.0007904748 0.080017745 0.010741663 0.041572068 0.04134852 0.08785605 0.023483401 -0.082176134
0.10336197 0.0054498287 -0.078889206 0.22236852 -0.08914333 -0.07064555 0.13154279 -0.009338658

model.1.running_var f4 [64]
00000000: 028f ed3c 1c7a 6c3d 2e4e f43c cb7d 983d
00000010: ad34 2c3d 150c 423d de36 483d f7f2 c13d
00000020: 3253 f33c 51b0 213d dd4e 913d 5efc 9d3d
00000030: 642a 803d 16c8 883d 5a9d 943d 76bb 9c3c
00000040: d421 903d 73c6 173d 2440 1c3e ef62 3c3d
00000050: 1c6e cc3d 6259 363d 5f5e a13d a277 673d
00000060: c214 e83d bfb7 603d 9d82 bd3d 62bd 233d
00000070: 6117 e23c 09c2 873d 6cf8 1b3d 025b 963d
00000080: b11b b13d 268c ef3c 2bdb a23d 2c06 d13d
00000090: dc76 453d 091c 3a3d 90a1 4e3d 2502 b43d
000000a0: 3dbc 1f3d 20c3 123d 5b3f 393d 2c07 793d
000000b0: 1347 723d 249e 6a3d 20b1 2a3d 5d7d b53d
000000c0: feb7 553d a516 353d 32c1 543d 2c54 523d
000000d0: 7c6b 223d f173 7c3d 895b 7f3d 6c71 213d
000000e0: c768 653d 983c 013d ae14 4a3d fcc2 8a3d
000000f0: 4345 893d 5215 cf3c fc75 9f3d e183 1a3d
0.028998856 0.05773364 0.029822435 0.07445868 0.042042423 0.047374804 0.04888045 0.0947017
0.029702757 0.03947479 0.0709512 0.07714151 0.06258085 0.06678788 0.07256575 0.019132357
0.07037702 0.03705449 0.15258843 0.045992788 0.09981939 0.044518836 0.07879328 0.056510575
0.11332084 0.054862734 0.09253428 0.03997553 0.027599039 0.06628806 0.03807871 0.07341577
0.0864786 0.029241633 0.07951959 0.10206255 0.048209056 0.045436893 0.050447047 0.087894715
0.038997877 0.035830617 0.045226436 0.060797855 0.059149813 0.05727972 0.041672826 0.08861802
0.05217742 0.04421105 0.051942058 0.051349804 0.039653286 0.061634008 0.062343154 0.03941481
0.056008127 0.031551927 0.049336128 0.067754716 0.06702664 0.025278721 0.077861756 0.037723426

model.4.weight f4 [32, 64]
00000000: 3215 9a3d 7b37 093d 465e fdbd 01ec ae3d
00000010: 89b2 0d3e 3cc9 32bd 3e84 a73d 5c75 1dbd
00000020: 9490 553c 8f95 f43c b518 a33d fe22 7f3d
00000030: 2a2f 70bd 2fa4 b43a ac12 46bc 45a8 083d
00000040: 1637 6fbd a74f 34bd 0719 10be 36c5 d3bd
00000050: b8e4 5f3d 5cba c2bd 73ec ff3d 350c 54bc
00000060: 3818 663c 6648 0b3c 7712 3fbd cedc 58bd
00000070: 6a22 ac3d 1131 82bd b94e fbbd 2139 3a3d
00000080: 1796 c03b 72c1 85bb 6712 66bd 7cc8 3fbd
00000090: fbb4 b3bd 7c93 c23d 6276 f23d 82e4 a5bd
000000a0: ae43 85bb f288 c3bc 66b6 0ebc a2d5 9ebc
000000b0: ef62 e4bd d483 8abd 9930 15bd bfab a0bc
000000c0: ab07 1bbc 29f8 0a3e 3ae2 9b3d b4ec b9bd
000000d0: be67 a0bc 8241 70bd 0e45 9a3d 91b9 e53d
000000e0: 188b c23c 54ce 83bc 34a9 0c3d 402a fcbc
000000f0: 089e e93d e0bb 333d 57cb b2bd d086 6f3d
00000100: 5cbd c03c b964 2bbc 6dcf 0cbe 3c41 5c3d
00000110: 20ed c7bc e70f 343d 146a ccbd c1fc c53d
00000120: a1c1 dd3d dc42 a2bd 18bb fdbc a7a5 b6bd
00000130: 207c f5bd 243a 98bd 07ee bdbd 3a05 b9bd
00000140: 6ea9 a4bc 85df 1a3d 8f50 80bd 3805 8a3c
00000150: 77ff 04bd 90dc 963d 33ed 583d 60c3 8dbd
00000160: 71a5 37bd 223e 863b 832d ebbd 3791 0fbc
00000170: 7779 f6bc 7c8c 02be 2944 82bd 7a3c 5bbd
00000180: 3274 74bc 7875 07bd 2275 0bbd 444d edb9
00000190: 8480 953d fe2b b63d 5121 ec3d 0412 aa3d
000001a0: e938 31bd 0e96 c8bd 4d5b 353d 5ca5 033d
000001b0: 9b0d b9bb 788f b7bd da63 073d 9b30 093e
000001c0: 31c4 003e d624 f83d f2fc 843d 621d ccbc
000001d0: b49a b8bd e183 e53d 7831 8a3c 2204 613c
000001e0: 0212 e7bd 3f48 7c3d 61f9 bbbb 34ca 003d
000001f0: e1cb 2ebd abc7 e1bd 3ba6 d53c e7e5 8f3d
00000200: 62c5 373c b7c6 023e 7ecd 473d 4846 96bc
00000210: 9b53 b23d 370e 93bd 2da9 d03b 68d7 ea3c
00000220: 731e 0a3d 6850 0ebc a1b5 bebd 73c5 d3bd
00000230: b191 6b3c 08c1 d43d 0580 80bd 6b95 b23d
00000240: 3319 53bd ddb6 1c3d d2d9 9cbd c5df b5bd
00000250: 3808 9b3b 92ff 1fbd 944f 5cbd dfa9 9bbd
00000260: 3591 1d3d 1a6a e33d 62f6 07bd faf9 8bbb
00000270: a5b0 fc3d c0a0 b4bd 5ec8 17bd 1d96 3abd
00000280: 5cbe 8ebd 0da2 8d3c 062a debd 36ba 343d
00000290: dd13 e4bd 4acb d7bd a853 04bd d42f b73c
000002a0: 3249 a83c 7ae3 7bbc 8809 d5bd 5678 723d
000002b0: 1cc5 f9bd 2a12 643d bda9 b93d c3b9 013d
000002c0: e86a 803c c408 4b3d b4ae 4c3d ca07 f63d
000002d0: 190d 1a3d 8a1d eb3d a20a 263d a20e d6bd
000002e0: 1ea7 b7bc c036 59bd abeb 96bc f605 66bd
000002f0: 5693 883d b63b 543c 06c7 e53a 7a8a c8bc
00000300: aef8 b1bd 93b6 153d 12e0 b63d 977f e93d
00000310: f904 f33d bd55 a6bc d064 9bbd f648 ffbc
00000320: 8673 dd3d a476 b73d e959 1ebc 67e2 293c
00000330: 1b8c 7a3c b575 593c 9449 6f3d 5b9e 9c3d
00000340: cc0c be3d b9da fcbd 3046 c2bb ed03 0fbd
00000350: c16f acbd 1084 8c3d cd12 83bd c041 733b
00000360: cfeb 7fbd 57d4 c33d e739 b43d b168 fb3d
00000370: fdf4 0f3e e4c4 cb3d 6e36 143d c05e 6d3a
00000380: 59b0 2bbd fd1a 443c d499 e8bd 4c86 abbd
00000390: 1820 633d 1878 783d 6afa ae3c a4bf 98bd
000003a0: 0dac 6abd ae8b 9fbd ab2c 83bd e346 34bd
000003b0: 9037 08be 1025 3c3c c970 083d 11bd 6fbd
000003c0: 2493 9a3c c655 393d ad38 343d 1f7d a8bc
000003d0: 807b 94bd e5bd a23c 8bfb 0c3d d01d 673d
000003e0: fbb9 253d 9be4 1fbd a6bd 7f3c 6ac2 c9bd
000003f0: 29bd 0f3e 8e18 66bd 9f12 b2bd d692 533d
0.07523574 0.033500176 -0.12371497 0.08541108 0.13837637 -0.043648943 0.0817952 -0.038442
0.013034958 0.029856471 0.07963697 0.06228923 -0.05863873 0.0013781841 -0.012089413 0.0333636
-0.058402143 -0.044021275 -0.14072047 -0.103403494 0.054661483 -0.095082015 0.12496271 -0.0129423635
0.01404386 0.008501148 -0.04664847 -0.05294495 0.084050015 -0.06357015 -0.122708745 0.04546464
0.005877267 -0.0040818984 -0.056169894 -0.046822056 -0.08774754 0.09500787 0.11838986 -0.08100225
-0.004066906 -0.023869012 -0.008710479 -0.019388977 -0.111516826 -0.067634255 -0.0364233 -0.019613145
-0.009462277 0.13571228 0.07611509 -0.09078351 -0.019580718 -0.058656223 0.075327024 0.112170346
0.023747966 -0.016089596 0.034341052 -0.030781865 0.11407095 0.043880343 -0.0873019 0.058478177
0.023527794 -0.010461026 -0.13751002 0.05377315 -0.024405062 0.04396048 -0.0998117 0.096673496
0.108279474 -0.07922909 -0.030973002 -0.089183144 -0.119865656 -0.074329644 -0.09273916 -0.090342
-0.020100322 0.03781082 -0.06265365 0.016848192 -0.032470193 0.07366288 0.052960586 -0.069220304
-0.04483551 0.0040967623 -0.1148329 -0.008762649 -0.030087216 -0.12748903 -0.06360657 -0.05352447
-0.014920281 -0.03307101 -0.034047253 -0.0004526173 0.07299903 0.088951096 0.11529792 0.083042175
-0.043267164 -0.09794246 0.044276524 0.03214012 -0.005647374 -0.08962911 0.03305421 0.13397448
0.12574841 0.12116401 0.06493558 -0.024916355 -0.09013882 0.112067945 0.016869292 0.0137338955
-0.112827316 0.061592337 -0.0057365154 0.031442836 -0.042674903 -0.11024412 0.026080241 0.07026272
0.011216493 0.12771116 0.048779957 -0.01834406 0.08707353 -0.07180446 0.0063678236 0.028667167
0.033720445 -0.0086861625 -0.09311987 -0.10340395 0.014377997 0.1038838 -0.06274418 0.087199055
-0.051537704 0.03826033 -0.076587334 -0.08880571 0.0047312044 -0.03906209 -0.05378683 -0.0760076
0.03846856 0.11104222 -0.033193953 -0.004271743 0.1233838 -0.08819723 -0.03705632 -0.045553315
-0.06969902 0.017289186 -0.10847859 0.044122897 -0.11136601 -0.10536821 -0.032306343 0.022361673
0.020542715 -0.015374059 -0.104022086 0.059196793 -0.12195799 0.055681385 0.09065578 0.031671297
0.015675977 0.049568906 0.049971297 0.120132044 0.037610147 0.114802435 0.040537484 -0.1045201
-0.022418555 -0.05303073 -0.018422922 -0.05615803 0.06668727 0.012953689 0.0017530627 -0.024480093
-0.0869001 0.03655107 0.08929457 0.11401289 0.11866183 -0.020304555 -0.07587588 -0.03116272
0.1081305 0.08958176 -0.009664991 0.01036892 0.015292193 0.013272692 0.05841978 0.076473914
0.092797846 -0.123464055 -0.005928777 -0.034915853 -0.08419753 0.068611264 -0.0640007 0.0037118047
-0.062480744 0.09561985 0.088001065 0.12275828 0.140583 0.09949663 0.03618472 0.00090549514
-0.041916225 0.011969325 -0.113574654 -0.083752245 0.05545053 0.060661405 0.021359641 -0.074584275
-0.057292987 -0.07790314 -0.06405004 -0.044012915 -0.13302445 0.011483446 0.033310685 -0.058529917
0.01886899 0.045247816 0.043999363 -0.020567475 -0.07250118 0.01986594 0.034419578 0.056424916
0.040460568 -0.039036375 0.015609181 -0.09851535 0.14037003 -0.05617576 -0.08694958 0.051653706

model.4.bias f4 [32]
00000000: 0797 b4bd 9438 a8bd 000a fd3c 07fd 32bc
00000010: 4b12 e73c 582a abbb baad 79bd e4c3 893d
00000020: a937 2d3d 0c62 bebd 2a63 b7bd 6b3d 8a3d
00000030: 2134 f43d ad37 d6bd 24c8 bcbd 85b5 8d3a
00000040: 5a66 bb3d cdac fcbd 8dc9 b6bc 2471 d33b
00000050: d3b0 553d 1c18 163d 81ed c23d 359c f1bd
00000060: 87b8 7d3d 2079 343c d9c1 183d 4f67 08bc
00000070: 4713 a2bd 88ae 56bc a938 3d3d 9e7a 753d
-0.08817869 -0.082139164 0.030888557 -0.010924584 0.028206965 -0.0052235536 -0.060956694 0.06726816
0.04228941 -0.09296045 -0.08954461 0.06749996 0.11924005 -0.10459838 -0.09217861 0.0010811543
0.091503814 -0.12337647 -0.022312904 0.0064526964 0.052170586 0.036644086 0.095179565 -0.11797372
0.061943557 0.011015207 0.037294243 -0.008325412 -0.07913833 -0.013103135 0.046196613 0.05993139

model.5.weight f4 [32]
00000000: d2bc 7e3f 9642 823f 047a 803f e948 813f
00000010: 77dd 7d3f 2776 823f ceb4 7f3f 2eb6 7c3f
00000020: d84f 7c3f b70b 7b3f 6f30 823f f6ef 803f
00000030: e3a8 7c3f 3fef 803f 41e1 7b3f c082 783f
00000040: 36a7 7b3f 1141 813f eb20 803f 71ae 7c3f
00000050: e905 803f 757b 813f 15d8 843f d1bf 7d3f
00000060: a851 793f 6c14 833f 324e 7b3f dfd7 843f
00000070: b87f 853f 3675 7d3f 4b2d 803f 9794 813f
0.99506867 1.017657 1.0037236 1.0100375 0.99166054 1.0192307 0.9988526 0.98715484
0.9855933 0.9806475 1.0171031 1.007323 0.986952 1.0073012 0.98390585 0.9707451
0.9830202 1.0097982 1.0010046 0.98703676 1.0001804 1.0115801 1.0378443 0.99120814
0.9739022 1.0240607 0.9816619 1.0378379 1.0429602 0.99006975 1.0013822 1.0123471

model.5.bias f4 [32]
00000000: 2862 0abc c8d5 563c 109e dcba 5046 17bc
00000010: 4f0a d4bc 87c5 3a3c d729 593b 6aa6 33b9
00000020: 90e9 8cbb 1e5c 90bc 527d 653c eac8 48bb
00000030: 5728 04bc 2885 1f3c b9d6 403b e615 68bc
00000040: ff86 c6bc d88e b73a 2dac 253b 9bd4 e2bb
00000050: 150d a9bc 84f2 cf3b 0e49 1d3c 0c9a cdbc
00000060: e27a 0dbd 3d3f 913c 1d24 5cbc dd0d d53b
00000070: db7c 7f3c ac31 8fba e9f6 b6bb 794f d03b
-0.008446254 0.013112493 -0.0016831774 -0.009233072 -0.025883822 0.011399633 0.003313651 -0.00017132764
-0.0043003038 -0.01762205 0.0140069295 -0.0030637332 -0.008066258 0.009736337 0.002942486 -0.014165377
-0.024234293 0.0014004363 0.0025279627 -0.006922317 -0.02063612 0.006346049 0.009599937 -0.02509787
-0.03454102 0.01773035 -0.013436344 0.006501897 0.015593733 -0.0010924838 -0.005583633 0.00635713

model.5.running_mean f4 [32]
00000000: 20b4 b7bd c013 8abe 8ee0 52bd bc85 203e
00000010: 8c05 0f3e 6ae2 d73d 0725 4abe 0be4 afbe
00000020: 3d93 3d3d fdf6 0bbf 8130 f7be b8e9 b43e
00000030: ef6f 6abe a0de 2bbf cfc6 efbe fea5 84be
00000040: 5f0d 893e a915 62be fe41 843e d6c4 4d3c
00000050: ba4d ec3d 11d3 213e b123 8c3d aac0 a53e
00000060: b271 793e e148 7cbd 2b8d 4abe 8d31 e03c
00000070: b025 84be 792e 393d 2632 56be dca5 8bbb
-0.08969903 -0.26968193 -0.051483683 0.15676016 0.1396696 0.10541232 -0.19740687 -0.3435367
0.046282995 -0.5467375 -0.48279193 0.35334563 -0.22894262 -0.67136574 -0.46831366 -0.25907892
0.26768014 -0.22078575 0.25831598 0.012559136 0.11538263 0.15803172 0.06842745 0.32373554
0.24359778 -0.06159294 -0.19780414 0.027367378 -0.25810003 0.045210335 -0.20917568 -0.0042617153

model.5.running_var f4 [32]
00000000: d7e8 773e 7020 113e 447e 2f3e 201d 7b3e
00000010: b2e2 973e 3133 0e3e 6249 833e e7c1 473e
00000020: 975e 523e b6f4 e63d 29e1 8a3e e016 373e
00000030: c1ef 823e cfa7 6a3e 0018 283e 890e 863e
00000040: ab5b a23e 6576 303e 5bb6 a73e 3463 5f3e
00000050: 4ad4 883e 9be5 833e 9001 653e efe7 4e3e
00000060: aeb3 4f3e 50d2 5c3e 34ff 523e e932 4a3e
00000070: 830e 9d3e 9907 883e e1e5 6c3e 4ef6 233e
0.24209915 0.1417253 0.1713801 0.24522829 0.29665142 0.13886715 0.25641924 0.19507562
0.20543896 0.11277144 0.2712491 0.1787982 0.25573543 0.22915576 0.16415405 0.26182964
0.31710562 0.17232664 0.32756314 0.21815187 0.26724464 0.25761113 0.22363877 0.20205663
0.20283386 0.21564603 0.20605165 0.19745983 0.30675134 0.26568297 0.23134567 0.16011927

model.8.weight f4 [256, 32]
00000000: b111 a9bd 5abf 2ebe 941e d53d 6b80 443d
00000010: 0994 653d 5f43 b73d a356 1cbe 7b62 8c3d
00000020: 9f76 1bbe 2bea b2bd 51bc 0a3e 944c 55ba
00000030: 8f0e 14be 5269 8f3d a807 713c bf21 f8bc
00000040: 841f c13d 7963 88bd 61ae abbd 286c eebd
00000050: 0064 ce3d dde7 03be a273 c43c 0d8e 313e
00000060: 9509 fc3d ae7d c4bd bbec d33d b39c 31bd
00000070: 004b ffbb b9c3 553d fa03 38be f06a 3abe
00000080: 1d48 003e 8a30 183e c6b1 4ebd 5d61 83bd
00000090: 8d7c 32bd 47a0 083e 5620 07be 6b70 10be
000000a0: dcad c73d ca53 c43b f616 323e 6190 2fbe
000000b0: 3052 f73d 89e0 77bc 2818 123e a09f 2b3d
000000c0: 1d63 f1ba c42c 89bd bffc 34be 8487 883c
000000d0: 7ae0 e93d e273 13bd d139 0d3e 72df 98bd
000000e0: ea9e 39bd a756 013e cd5f b8bb 3f02 d23d
000000f0: 9039 05bd b982 be3d f86c eabd dd63 13be
00000100: 4962 91bd d042 0cbe f7dc e63d 85c4 08be
00000110: 7551 3a3d ab4a d5bd e598 d93d 1617 3e3d
00000120: f3f9 8dbd f172 953c e42f 543d 620f e33d
00000130: 2820 5dbd 72a7 2bbe 0651 a93d f285 bf3b
00000140: 75c5 2fbe eca4 97bc 8ca2 2b3e eeb8 9bbd
00000150: fcbb 1cbe 55e5 793d b7fb cfbd b1bb 98bc
00000160: 3d17 3abd 876c b13c 4154 08be 5e47 05be
00000170: 93f9 2abe 6073 003e 8ee7 76bd 38e7 c93d
00000180: e23f 35be d464 68bb 701c 04be 06b7 173c
00000190: fa65 acbd 6ec7 87bd 0e8e f93d 58c1 88bd
000001a0: 5ead f9bc f751 18be edba 17be 672c 223c
000001b0: 8163 74bd 2b30 28bc dc1b f13d f0c5 d53c
000001c0: da9b bd3d 1a68 c9bd 1062 263e 2244 e3bd
000001d0: 8c47 a63b a5cd c73d 2faf 553d ee21 6f3d
000001e0: 3605 df3d e477 763c befe 12be 268f 223e
000001f0: 938b c73c 1591 df3d 8d58 34be 0249 0cbe
00000200: 1b12 d83d 0c98 8f3d daeb cf3b 6ecb 6d3c
00000210: 17ff d6bc 5349 343d 0056 a63b f388 d73a
00000220: 17fa 2e3b a81f b23d 9947 95bb 65e5 823d
00000230: fa72 11bc a0b4 bb3c 5c44 1d3e 9384 063e
00000240: c269 37bd d58b 1ebe 35bc babd 08dc 213e
00000250: 472a 26be 68f5 e43d 3f55 3d3d 75d0 97bd
00000260: 6d56 b13d 61f0 a03d bb9e 29bd 9faa a9bd
00000270: db68 3c3c edd8 0b3e d711 21bd f8d2 8cbd
00000280: ae47 45be a5d8 c53d 6b64 0c3e 8921 4dbe
00000290: a06a aabd 8d58 24be b91f 523d f9ce 293d
000002a0: 0fc4 2d3e 94e3 ffbb 9fa3 2c3e 1af6 3d3e
000002b0: d5a1 1dbd 38fd 033e da48 66bc f35c b53b
000002c0: 656c 8dbd b2d1 a1bd c577 513c 306a 22be
000002d0: eb11 623d 6c07 023e 3299 153e df5a 06be
000002e0: e152 2e3e 50ca 01be 69c1 0fbe 7e2b 96bd
000002f0: 5db0 fb3c ebc2 90bc 06ca 903d 17c1 8abd
00000300: 7cdc a03d 745a bebc 6182 29be fb75 853d
00000310: cbba ae3c cbb3 59bd 05a2 70bc abdf 163e
00000320: ccf4 debd a5ff 01be 15fa 073e e2e0 103d
00000330: 4d8e 22be bce8 16be 28bb 3a3e 964a f03d
00000340: 910e 1a3c 3327 76bd f474 a9bd b681 343d
00000350: 7dad bbbd 1d18 443e 5fd7 f03c aca6 1f3d
00000360: b90e 41bd 6c55 26be 6adb e9bd 18ed 36be
00000370: db23 073e 05f7 a43d 6dd5 8b3d f29c 29be
00000380: 2b7b bbbc 4ca6 11be eee8 9dbd 2509 af3c
00000390: cf60 07be 1dc3 95bd a063 1b3e e199 22be
000003a0: f86f 173e 6cda 0d3c 97f2 703d 4a3c e33d
000003b0: e0f0 babc 2525 e13d 9150 143e 09c4 053e
000003c0: 436c 08be feac 173e 90cb 0ebd 8e9a f6bd
000003d0: 8870 05be 8c03 953b 9692 d6bd 1b4c 933d
000003e0: bb83 0f3d ba4d 863d 9b14 c33d a5c0 1dbe
000003f0: 714a 2dbd b6d4 6dbb 416a d53d 662b 243d
-0.082553275 -0.17065182 0.10406223 0.04797403 0.05604938 0.08948397 -0.15267424 0.06854721
-0.15181969 -0.0873607 0.135484 -0.0008136716 -0.14458679 0.0700251 0.014711298 -0.030289529
0.09429839 -0.06659598 -0.083828695 -0.11641723 0.10077667 -0.12881418 0.02398092 0.17339344
0.12306515 -0.09594284 0.10347887 -0.04336233 -0.007790923 0.05218861 -0.17970267 -0.18204856
0.12527509 0.14862266 -0.050462507 -0.06415055 -0.043575812 0.13342391 -0.13195929 -0.14105384
0.09749958 0.0059914337 0.17391571 -0.1714492 0.12076223 -0.015129217 0.14267027 0.041900277
-0.0018416379 -0.066979915 -0.1767454 0.016666181 0.11419769 -0.035999186 0.13791586 -0.07464494
-0.045317568 0.12630711 -0.0056266547 0.10254335 -0.0325256 0.09302277 -0.114465654 -0.14393564
-0.070988245 -0.13697362 0.112726144 -0.13356216 0.04548784 -0.104146324 0.106248654 0.046408735
-0.0693244 0.018243285 0.051803485 0.110869184 -0.053985745 -0.16763094 0.08267407 0.005844825
-0.17165168 -0.018511258 0.16761225 -0.07603632 -0.15306085 0.061009724 -0.10155433 -0.018644186
-0.045432318 0.021658195 -0.1331339 -0.13015506 -0.16696768 0.12544012 -0.06027942 0.098585546
-0.1770015 -0.003546049 -0.12901473 0.009259945 -0.08417888 -0.06629835 0.12185298 -0.066775024
-0.030478176 -0.14875017 -0.148174 0.009898282 -0.059665207 -0.01026539 0.11772892 0.02609536
0.09258242 -0.09834309 0.16248345 -0.1109698 0.005074447 0.097560205 0.05216902 0.058381967
0.10889666 0.015043233 -0.14354989 0.1587492 0.024358546 0.10916344 -0.17611904 -0.13699725
0.10550328 0.070114225 0.0063452544 0.014513833 -0.026244683 0.04401524 0.00507617 0.0016444012
0.0026699358 0.08697444 -0.0045556542 0.0639141 -0.00887751 0.022913277 0.15358108 0.1313651
-0.044778593 -0.15483029 -0.09117929 0.15806592 -0.16227065 0.1117962 0.046223875 -0.07412807
0.086590625 0.07858349 -0.041411143 -0.082844965 0.011499609 0.1365697 -0.039323654 -0.068761766
-0.19265625 0.09660462 0.13710181 -0.20032324 -0.08321118 -0.16049404 0.051299784 0.04145715
0.16969322 -0.007809112 0.16859291 0.18550912 -0.038484413 0.12889564 -0.014055455 0.005534762
-0.0690544 -0.07901324 0.012784903 -0.1586082 0.05519287 0.12698144 0.1460922 -0.13120602
0.17023803 -0.12674832 -0.14038624 -0.07332514 0.030723745 -0.01767107 0.07069783 -0.0677511
0.07854554 -0.02323649 -0.16553642 0.065166436 0.021329304 -0.05314998 -0.014687066 0.1473376
-0.10886535 -0.12695177 0.13278992 0.035370715 -0.15874596 -0.14737219 0.18235457 0.11732976
0.009402887 -0.060095977 -0.0827426 0.044069014 -0.0916395 0.19149823 0.029399572 0.03897731
-0.04713318 -0.16243523 -0.11418803 -0.17863882 0.13197272 0.08054928 0.06827817 -0.16563776
-0.02288588 -0.14223593 -0.077104434 0.021366665 -0.13220523 -0.073126055 0.15174723 -0.15879013
0.14788806 0.008658033 0.0588251 0.110954836 -0.022819936 0.10993413 0.14483859 0.13063063
-0.13322549 0.14812085 -0.0348621 -0.12041198 -0.13031209 0.004547542 -0.10477178 0.0719225
0.035037737 0.06557794 0.095254146 -0.1540552 -0.04230732 -0.0036290116 0.10420657 0.04008045

model.8.bias f4 [256]
00000000: 75f8 10be 5fe0 c03d c983 16be 89db 273e
00000010: f1bf 993d f96b 8b3d 019b ae3c a2f4 573d
00000020: 6041 d8bd 6b7f a43d 4c3a 60bd 1167 89bd
00000030: e318 893d cb34 22be 2a7a f7bd f25a 073e
00000040: 4fd9 683d cd60 d93d ae3c d43d 793d b4bd
00000050: a597 9c3d 900e bbbd afc6 893d 579f 07be
00000060: dc48 30bd a6ce 90bd 28b7 14be a389 1d3d
00000070: 5966 c0bc 43ad 8a3d ef2b 1ebe 64cf 093e
00000080: 3509 f8bd 2649 ac3c 5de2 0d3e 2661 59bd
00000090: c9ba ce3c bc9f 75bd d393 263d 2e06 2ebd
000000a0: c76b b33d 73ef a43d 0e42 bcbb 429c cbbd
000000b0: da9e 303c 1803 dbbd 87d5 9b3c 999a 04be
000000c0: 5bf8 11be eb76 f13d 8d2e 1ebd ec1a 03be
000000d0: 14c3 37bd e458 2f3c 1e98 b1bc 681b 163c
000000e0: e167 bc3d 7369 e73c b84d 86bd 4ade bdbd
000000f0: 960b 1abe f3da f9bd d72c f8bd b4ea 05be
00000100: f564 1cbe 674e 0bbd f15e 2c3e 7654 a5bd
00000110: 9221 11be 2af5 113d 1327 6e3d a320 02be
00000120: 2075 10be 35ae aabd de7b e0bd 6eb6 943c
00000130: 6a30 06bd 948e 883d 296f 2d3b 52e7 433c
00000140: 81c2 f93d edd5 81bc 4fc1 333d af98 f23d
00000150: b9de 84bd 3002 e03d 4930 b43d 2dfa 27be
00000160: 9619 343e 0a39 29bd 5bea 1c3e 2ad4 78bd
00000170: 9ec1 ec3c c423 68bd 3fa0 7cbd e925 263e
00000180: 8c47 2dbd f896 8cba 4073 0d3e bf6d 08bc
00000190: 0628 c6bd 479b f83d a21a 52bd 024e 0e3e
000001a0: 68c5 093e 1d1c 35be 6b52 a83b 5c4b 0f3e
000001b0: 5954 dfbd 5cd4 833d 285e 9e3d 17f8 803d
000001c0: 04d6 173d 9daf 8a3d 3056 243e a06e 24be
000001d0: 7b34 18be 87f8 11be bb9b 66bc 4730 493c
000001e0: 7a34 2f3e 55fe a4bb 356f ac3c 056e f3bd
000001f0: 3456 e93d 77e9 0dbe abc9 053e 745c adbd
00000200: b3f3 2ebe ea73 d0bd 8861 c7bd 41be d3bd
00000210: 7908 c9bd 4dc0 af3c 7971 12bd bb38 43bd
00000220: 2ce7 96bd 99a2 e9bc 5a2d ddbd 0248 4abd
00000230: a010 32be 795d 16be fee0 31be 7204 53ba
00000240: e086 92bb f24f 19be b419 213e 8876 01be
00000250: d204 eabd 7eca 2bbe 6a8a b23d f8f0 fd3d
00000260: 8e6f bcbd cbde 013e 4a72 cabc d3ba 09bc
00000270: b734 f73d fbd7 20be a681 303b dc38 04be
00000280: 7d1a ba3c 6985 22be 7a36 0f3e 0d12 28be
00000290: 1627 173e e9b6 6bbd 704c f33c ff42 f03d
000002a0: 06ef 453d aecb 0e3e c1ad f1bd f4cd ae3d
000002b0: 51e9 b8bc 5674 03be bab0 923d 5f86 e13d
000002c0: 7653 c33c b051 26be d919 e9bd 2722 21bc
000002d0: 442b e83c fd37 f53b 6d78 1b3e 24b8 283e
000002e0: 4628 b5bd cb65 0c3e d7f8 10bc 4d3b a1bd
000002f0: 5b60 603c 3f99 023e ae38 003e 63f1 6d3d
00000300: e93a 07be 28e1 ccbd 68d1 abbd d31b 1e3e
00000310: a4cd 0e3e 4065 033e 4b42 b5bd 25b1 e23a
00000320: 53d0 b4bd d27f c33d 753b f6bc d633 24be
00000330: a589 373b 9172 5c3c f9ec d1bd efe9 2bbe
00000340: d59c 1bbe e516 88bc e2a3 efbb fe80 323d
00000350: d33f b5bd c334 7bbd 907c 073e eb83 7cbc
00000360: 867d 2bbe 4ec2 80bd 11f2 e4bd e8b5 bfbd
00000370: f13c 16be f11f f0bd 0197 a2bd bf9c cc3d
00000380: cef8 323e 465b 62bd 475b 0c3e c9c7 b2bd
00000390: a533 a33d f3ad 52bc 813d 943d 9039 e5bd
000003a0: 039a c3bd a313 27be 9add c43c 6222 b9bc
000003b0: 2fa3 5a3d f0e2 febd 24ad ed3d 41d1 22bd
000003c0: cf88 eb3d 0cd9 c2bd e98c 17bc cc9c 11bc
000003d0: 7427 b6bc 1401 81bd 3c33 063d eec8 8dbd
000003e0: a8b7 53bd 66e8 03be 9cbe 0c3d 7c25 9a3d
000003f0: f566 ae3b 1f2d f2bc 1735 ff3d 0faa fd3d
-0.14157279 0.094177954 -0.1469871 0.1639234 0.07507313 0.068077035 0.021314146 0.052723534
-0.10559344 0.080321155 -0.054743096 -0.067091115 0.066942 -0.15840451 -0.12083848 0.13218287
0.056847867 0.106141664 0.10363136 -0.088007875 0.076461114 -0.09133637 0.06727349 -0.13244377
-0.043038234 -0.07070665 -0.14522994 0.03846134 -0.023486303 0.06771328 -0.15446447 0.1345802
-0.12111131 0.021030974 0.13855882 -0.053071164 0.02523555 -0.059966788 0.04066832 -0.042486362
0.08760791 0.08053484 -0.005745179 -0.09941913 0.010780061 -0.106939495 0.019022716 -0.129496
-0.14254896 0.1179026 -0.038618613 -0.12803239 -0.044863775 0.0107023455 -0.02167898 0.009161808
0.09199501 0.028248524 -0.065577924 -0.09270914 -0.15043482 -0.121999644 -0.121179275 -0.13077813
-0.15272887 -0.034010317 0.16833092 -0.0807275 -0.14172962 0.035634197 0.058142733 -0.12707762
-0.1410718 -0.083340086 -0.10961126 0.018153396 -0.032761015 0.066678196 0.0026463962 0.0119570065
0.12195302 -0.015849078 0.043885525 0.11845528 -0.064877935 0.10937917 0.08798272 -0.16404028
0.17587885 -0.041314162 0.15323775 -0.06074921 0.028900918 -0.056674734 -0.06167626 0.16225399
-0.04230456 -0.0010726145 0.13813496 -0.008326947 -0.096756026 0.12138992 -0.05129493 0.13896945
0.13454211 -0.17686506 0.005136778 0.13993591 -0.1090476 0.06436989 0.07732803 0.062973194
0.037069336 0.06771777 0.16048503 -0.16057825 -0.1486377 -0.14254962 -0.014075215 0.012279577
0.17109862 -0.0050352016 0.021049121 -0.11886219 0.11393395 -0.13858591 0.13065211 -0.084649
-0.17085151 -0.10178359 -0.097353995 -0.103390224 -0.09816069 0.021454 -0.035752747 -0.047661524
-0.07368311 -0.028519915 -0.10799666 -0.04938508 -0.17389154 -0.14684094 -0.17370984 -0.00080496736
-0.0044716448 -0.14971903 0.15732461 -0.12642872 -0.11426701 -0.16776463 0.08717807 0.12399477
-0.09200965 0.12682645 -0.0247127 -0.008406359 0.120706014 -0.1570739 0.0026932745 -0.12912315
0.022717709 -0.15871204 0.13985625 -0.16413136 0.14761004 -0.057547484 0.029699534 0.117315285
0.048323654 0.13944885 -0.11800719 0.08535376 -0.022572191 -0.12837347 0.07162614 0.110119574
0.023843508 -0.16242099 -0.11381883 -0.009834803 0.028340943 0.007483481 0.15182658 0.16476494
-0.08845572 0.13710706 -0.008848391 -0.07872639 0.013694848 0.12753771 0.12521622 0.058091532
-0.13206066 -0.10003883 -0.083895504 0.15440302 0.13945633 0.12831593 -0.08850535 0.0017295225
-0.08828797 0.09545864 -0.030057648 -0.16035399 0.0028005627 0.013455049 -0.10250277 -0.16788457
-0.15196545 -0.01661248 -0.0073132375 0.043580048 -0.08850064 -0.061329614 0.1323111 -0.015412311
-0.16747102 -0.06287061 -0.11178983 -0.09360868 -0.14671685 -0.11724842 -0.07938958 0.099908344
0.17477724 -0.055262826 0.13706695 -0.08729512 0.07968835 -0.012858856 0.072382934 -0.1119262
-0.0955086 -0.16316085 0.02403145 -0.022599403 0.05337828 -0.12445629 0.116052896 -0.03975034
0.115007035 -0.09514055 -0.009249904 -0.008887481 -0.02223561 -0.06299034 0.032763705 -0.0692309
-0.05168882 -0.12881622 0.034361467 0.07526681 0.005322332 -0.029562531 0.12461298 0.12385952

model.9.weight f4 [256]
00000000: a331 783f 5660 773f 1b61 773f 4bff 763f
00000010: d235 773f 910f 793f ecde 703f a4dc 733f
00000020: 870d 743f 0f4e 743f b96f 7a3f d230 763f
00000030: 707c 783f 63e7 753f 5f3c 7a3f a33a 753f
00000040: f4d3 793f f88f 753f d600 6c3f e3ba 753f
00000050: b0cf 763f 655b 7b3f 8f43 773f f699 753f
00000060: fa5a 783f ee17 763f 1654 743f 5c20 783f
00000070: bba6 743f cce0 6d3f 7bb1 783f f69f 743f
00000080: b28e 743f 5727 773f 2366 753f b4a9 773f
00000090: 6e90 783f 5555 763f 8846 7a3f 7215 723f
000000a0: e704 793f 4abc 743f 64c5 753f f507 783f
000000b0: ba04 773f 4c06 763f aeee 753f de84 6f3f
000000c0: 0ebb 763f 80f1 753f 156f 733f 4c61 753f
000000d0: 824d 773f 8ed7 763f 1291 653f f433 753f
000000e0: 7b09 763f caf5 753f 9224 743f 59e5 753f
000000f0: 279f 793f f45c 713f 85e7 773f f233 7b3f
00000100: 08b1 773f 6867 743f 5dc5 753f 74ed 733f
00000110: 3b5c 763f c5e0 763f e464 763f 6aac 773f
00000120: bb16 793f d611 793f 9794 753f 025e 773f
00000130: 93a1 753f 0029 783f 9d9b 763f 80f1 743f
00000140: 498d 763f 77e1 6d3f 2de1 743f c4e1 763f
00000150: 0925 753f 26da 773f c73a 753f 52a0 753f
00000160: 794f 753f 4f77 753f 0c09 783f 7267 643f
00000170: 9382 753f 4af4 763f 8770 593f 1947 753f
00000180: bee3 763f 520e 763f 9029 753f ad2f 763f
00000190: 5b40 783f 7ed1 753f 10d9 773f c7a2 743f
000001a0: d170 753f cfdc 763f cf2a 783f 0de2 6b3f
000001b0: b910 753f 7fac 743f c990 773f eacc 753f
000001c0: 4c77 773f 7198 6c3f 664e 743f 00fe 753f
000001d0: 4d38 733f e641 763f 12cc 763f f5fe 633f
000001e0: e547 753f b78f 743f 93d7 783f 32f6 753f
000001f0: dd7a 703f 75ec 763f 2464 713f 32ff 733f
00000200: 0099 743f a627 763f 500a 6f3f 7012 793f
00000210: d544 6d3f eb2e 773f 3073 763f 9a38 783f
00000220: 849f 783f c077 753f 7d0e 793f 33b3 773f
00000230: 2a6c 773f 0efb 753f e2cb 763f ab65 793f
00000240: 5316 713f 5378 773f 03bd 773f 1590 773f
00000250: 9690 753f 3dee 753f ce5d 6e3f 09a1 743f
00000260: 59b0 743f c0ab 763f 9748 783f f3e8 763f
00000270: a948 773f c40a 763f 4bd5 763f 8f5b 743f
00000280: d0fa 783f db52 753f 36e2 763f 58c9 733f
00000290: 74a3 783f 9e33 763f 892d 723f 1531 7a3f
000002a0: da61 753f 0e16 773f e246 723f d730 773f
000002b0: dc3f 793f 82d5 753f 37dc 743f fb9d 783f
000002c0: 77b4 753f 4b83 753f e843 603f 3cd6 743f
000002d0: eb39 6b3f 5fef 793f aa6a 773f 8328 753f
000002e0: 07c1 753f f6b4 683f 4d5a 743f 3c29 763f
000002f0: bf3e 753f 6893 753f 1233 763f ab07 773f
00000300: e08e 773f c5b5 7b3f 3d8b 763f af88 743f
00000310: f5fd 743f 60be 753f d480 673f 7c7a 773f
00000320: f166 763f 1263 753f c2c2 743f 21f3 693f
00000330: 8bc3 773f dc7e 763f b7cb 753f 48d6 783f
00000340: 0494 773f 6406 783f aa37 653f 40e6 753f
00000350: 3a5d 753f 4d9b 753f 98ca 753f 0626 753f
00000360: 01a1 743f 1376 773f debc 733f d452 763f
00000370: 8176 773f 609c 6c3f f30d 703f f3ec 743f
00000380: e7dc 733f 05ef 753f 212e 7a3f 78e2 753f
00000390: 5092 7a3f e685 743f 76cf 743f 5c1d 763f
000003a0: df6e 7a3f 2c19 5f3f 3d8c 753f 4645 713f
000003b0: 8a64 773f 4434 773f 18c6 753f 9b7d 6c3f
000003c0: 2fb3 763f 7d7b 733f 2f39 753f 6e70 773f
000003d0: 4a0e 773f 47d5 743f 36f9 763f 436d 793f
000003e0: d299 643f 7f9b 783f 7cfe 773f bf96 743f
000003f0: 0134 713f 31bf 743f bdcd 6f3f ac15 6c3f
0.9695074 0.9663137 0.96632546 0.96483296 0.965665 0.9728938 0.9409015 0.95258546
0.9533314 0.9543161 0.97826725 0.96168244 0.97064877 0.96056193 0.9774837 0.957926
0.9758904 0.95922804 0.92188776 0.9598829 0.96410656 0.9818633 0.9658746 0.9593805
0.9701382 0.96130264 0.95440805 0.96924376 0.9556691 0.9292114 0.97145814 0.9555658
0.95530236 0.965444 0.95858973 0.9674332 0.9709538 0.96223956 0.9776387 0.9456397
0.97273105 0.95599806 0.9600432 0.9688714 0.9649159 0.9610336 0.9606732 0.93562114
0.9637917 0.96071625 0.9509137 0.9585159 0.9660264 0.9642266 0.89674485 0.957824
0.96108216 0.9607817 0.953683 0.9605308 0.9750847 0.9428246 0.96837646 0.9812614
0.96754503 0.95470285 0.9600428 0.952842 0.9623448 0.9643672 0.96247697 0.9674746
0.9730031 0.9729284 0.95929855 0.9662782 0.9594967 0.9693756 0.963312 0.95681
0.96309334 0.9292216 0.9565609 0.9643824 0.95759636 0.96817243 0.9579281 0.95947754
0.9582439 0.95885175 0.96888804 0.89220345 0.95902365 0.96466506 0.8493733 0.9581161
0.96441257 0.961156 0.95766544 0.961665 0.969732 0.96022785 0.96815586 0.9556088
0.9587527 0.9643068 0.9694032 0.921418 0.9572864 0.9557571 0.967053 0.960158
0.9666641 0.9242011 0.95432127 0.960907 0.95007783 0.96194303 0.96405137 0.8906091
0.9581283 0.9553179 0.9720394 0.9607879 0.93937474 0.96454555 0.9429343 0.9531127
0.9554596 0.9615425 0.9337511 0.9729376 0.92683154 0.96555966 0.9626951 0.9696137
0.971184 0.9588585 0.9728773 0.9675781 0.9664942 0.96086204 0.9640485 0.9742076
0.9417469 0.96667975 0.96772784 0.96704227 0.95923746 0.9606665 0.93111885 0.9555822
0.95581585 0.9635582 0.96985763 0.964492 0.96595246 0.9611018 0.9641921 0.9545221
0.9725771 0.9582955 0.9643892 0.952291 0.9712441 0.9617251 0.9460073 0.97731143
0.95852435 0.9651803 0.9463941 0.965589 0.97363067 0.9602891 0.9564852 0.9711606
0.9597849 0.9590346 0.87603617 0.95639396 0.9188525 0.97630876 0.9664713 0.9576494
0.9599766 0.90901124 0.9545029 0.9615667 0.9579887 0.9592805 0.9617168 0.96496075
0.96702385 0.98324233 0.9630621 0.9552106 0.9570001 0.95993614 0.9043095 0.9667127
0.96250826 0.95854294 0.95609677 0.9138661 0.9678275 0.9628732 0.9601397 0.9720197
0.9671023 0.9688475 0.8953806 0.9605446 0.9584538 0.95940095 0.9601226 0.95761144
0.9555817 0.9666454 0.95210063 0.96220136 0.966652 0.9242611 0.93771285 0.95674056
0.95258945 0.9606784 0.9772664 0.9604869 0.97879505 0.9551681 0.9562906 0.9613855
0.97825426 0.87147784 0.9591711 0.9424633 0.96637785 0.96564126 0.9600539 0.9237916
0.9636716 0.95110303 0.9579038 0.9665593 0.9650618 0.95637935 0.96474016 0.97432345
0.8929721 0.9711227 0.9687269 0.9554252 0.94219977 0.95604235 0.93673307 0.9222057

model.9.bias f4 [256]
00000000: ffd6 9ebc 3a92 3bbc 98c6 b2bc 3813 9dbc
00000010: a69f 62bc 2238 e1bc a5d8 39bd 4cb4 16bd
00000020: 2294 5dbd 7808 25bd ec8a 36bc fef9 c1bc
00000030: 6223 ccbc c0db f7bc 95b4 9cbb 9eb1 04bd
00000040: b902 78bc 6b6a 85bc c55f 9cbd c7bd f4bc
00000050: 100f e3bc eddf 04bc 3a92 d4bc 0374 12bd
00000060: b267 f5bc ef9d edbb de49 17bd d75b 8ebc
00000070: f11a a4bc 3cfc 94bd 9734 64bc a900 2fbd
00000080: 4eff 0abd 6213 adbc b17b e9bc 87cc 10bd
00000090: 9a0b 8fbb 53f4 eabc aa5c b2bb f6e6 4ebd
000000a0: d242 dabc 907a f2bc 2058 22bd 3e6a 04bd
000000b0: 431b eabc 0a29 e3bc 1a7f e5bc 1ba2 73bd
000000c0: 83ca 5dbc ce6a 9fbc 9b15 5ebd bfe7 10bd
000000d0: 7cff 93bc a296 e5bc 7489 d8bd b029 f0bc
000000e0: 7707 f4bc 4cf9 f8bc dff9 59bd 2da5 f2bc
000000f0: 5d0e aabc 84c1 56bd 2770 d1bc 4e8d 8fbc
00000100: aa65 a9bc a31d bebc ac22 5dbd 99ae 44bd
00000110: 6854 95bc ab4e 03bd 0711 f8bc 6733 4dbc
00000120: df75 38bc 2b6a c1bc 604c cbbc 4dc6 edbc
00000130: f482 02bd b6fd e7bc cd85 06bd db31 0abd
00000140: 618f d2bc 22d3 78bd 27af aabc aa1c 83bc
00000150: 5737 2ebd 3dfe 9bbc e3e1 f3bc b956 e5bc
00000160: 0b97 aabc 03f2 9bbc 6156 c0bc 73b1 cabd
00000170: e399 f6bc 5eae 1fbd 798c 11be f816 1abd
00000180: 5f83 53bc a1d3 8abc 97ca 0abd 8ad3 e6bc
00000190: 5b2a 8cbc 3779 f6bc 3790 b4bc 5d43 04bd
000001a0: 7400 07bd fd08 1cbd 55ed b9bc 2d8e 79bd
000001b0: b5c3 b4bc bce7 03bd ec9d eebc 9433 1ebd
000001c0: 9c7f b3bc 253f 8fbd 03b6 29bd 150d 06bd
000001d0: 7cb2 5bbd f6b7 e1bc 0402 18bd 28b0 bdbd
000001e0: cd6f c6bc 1c59 18bd 615f 73bc 9331 16bd
000001f0: 1255 4cbd 6ca6 05bd 4283 6bbd 7a2e 17bd
00000200: 737c 1cbd 3838 00bd f2b8 89bd 3c0c b9bc
00000210: 42eb 71bd dbfb bcbc 9a87 c2bc aaf8 8cbc
00000220: a4a9 ecbc c318 cebc a6f5 c7bc ee45 81bc
00000230: 74b2 3abc 27ab c5bc fc14 f3bc 4c2c 8cbc
00000240: ce7d 34bd 1cd5 7bbc f5a0 25bd 98a8 07bd
00000250: 4af8 0bbd 122e acbc 70b4 64bd 4742 b1bc
00000260: e881 f0bc 7064 cabc 941f aebc 9896 dfbc
00000270: d391 01bd 2d19 12bd 620d f2bc e1d3 e5bc
00000280: 058b 9fbc 44d4 babc bfe4 05bd f9d4 ecbc
00000290: bac3 23bc 3b65 b7bc 8a24 29bd f62b 43bc
000002a0: 4b10 d4bc 07ae 7bbc 5eeb 44bd 4601 9abc
000002b0: 6399 30bc 0d6a 0dbd ba75 10bd 9d04 e1bc
000002c0: 55f1 cdbc a632 cebc a7f5 e3bd 5729 eabc
000002d0: 1c94 95bd 3c24 80bc a5d1 72bc da82 cfbc
000002e0: 1cd8 2ebd a3e2 bbbd 5dea 09bd 3d3c 1abd
000002f0: 5cd6 96bc a9f4 14bd 7b2d a0bc 519b 8fbc
00000300: 0505 99bc 1343 f7bc befa c4bc a25e d9bc
00000310: 9e48 e1bc 4561 c0bc 5655 bdbd bc0b 65bc
00000320: e573 05bd c31f febc 8f21 f6bc e0b5 a8bd
00000330: 95a5 89bc f98e 37bc 8445 bbbc 6fda d7bc
00000340: 45bd 2bbc 5ad3 1ebc a700 b8bd c161 03bd
00000350: 28ee adbc 0ac9 c1bc 2bf9 e7bc fee4 21bd
00000360: e059 e4bc 1f44 dbbc 4531 13bd 8ff3 afbc
00000370: 3b80 c1bc 91dc 93bd 4fa5 83bd 3b72 bebc
00000380: 1f93 fabc f014 acbc ba1d 01bc 44a0 14bd
00000390: 0f47 3abc 7d3f 05bd e133 f0bc 1856 d2bc
000003a0: 58fc c0bc 5bcb f3bd 08de 97bc da61 56bd
000003b0: f647 67bc 1ac2 bcbc 6056 a2bc 29bd 96bd
000003c0: eda6 3abd 4992 ecbc bd1e 08bd db6d 7dbc
000003d0: 8e33 f1bc 65ef 00bd ae85 f1bc 7cc5 e0bc
000003e0: 80ea c0bd fb49 adbc a048 19bd 2fba a0bc
000003f0: ee91 84bd 840c 0cbd 4de0 93bd 1b0f 86bd
-0.019389628 -0.011448437 -0.021823213 -0.019174203 -0.0138320085 -0.027492587 -0.045372624 -0.03679304
-0.05409635 -0.04029128 -0.01114152 -0.023678776 -0.024919216 -0.030256152 -0.0047822692 -0.03239595
-0.015137368 -0.016286096 -0.07635454 -0.02987565 -0.027717143 -0.008110029 -0.025948633 -0.03575517
-0.029956672 -0.007251493 -0.03693568 -0.017377777 -0.020032378 -0.072746724 -0.013928554 -0.04272524
-0.033934884 -0.021127407 -0.028501363 -0.035351302 -0.0043653967 -0.028680956 -0.0054431753 -0.05051323
-0.02664319 -0.029599458 -0.039634824 -0.032327883 -0.028577453 -0.02772953 -0.028014708 -0.059480768
-0.013537052 -0.019460108 -0.054219823 -0.03537726 -0.01806616 -0.028025929 -0.10573092 -0.029316753
-0.029788716 -0.030392312 -0.05321681 -0.029619778 -0.020758802 -0.052430645 -0.025566174 -0.017523434
-0.02067836 -0.023207491 -0.053988144 -0.04801807 -0.018228725 -0.032057445 -0.030281557 -0.012524462
-0.011258571 -0.023610195 -0.024816692 -0.029025221 -0.031863168 -0.028319221 -0.032842446 -0.033738952
-0.025703134 -0.060748227 -0.020835472 -0.016004879 -0.042533245 -0.019042129 -0.029770797 -0.027995454
-0.020823976 -0.019036299 -0.023478689 -0.09897127 -0.030102676 -0.03898465 -0.14213742 -0.03761956
-0.012909739 -0.016946616 -0.03388461 -0.028177042 -0.01711004 -0.030087097 -0.022041423 -0.032290805
-0.032959417 -0.03809451 -0.022696177 -0.060926605 -0.022065977 -0.03220342 -0.029128037 -0.038623407
-0.021911435 -0.06994466 -0.041433346 -0.03272732 -0.053637013 -0.02755354 -0.037111297 -0.09262115
-0.024223233 -0.037194356 -0.014854283 -0.03666837 -0.049885817 -0.032629415 -0.057498224 -0.036909558
-0.03820462 -0.031303614 -0.06724729 -0.022588842 -0.05906225 -0.023069313 -0.0237463 -0.017208416
-0.028889485 -0.025158292 -0.024409126 -0.015780415 -0.011395086 -0.024129463 -0.029673092 -0.017110966
-0.04406529 -0.015370633 -0.040436704 -0.033119768 -0.034172334 -0.021018062 -0.05583614 -0.021638049
-0.02935882 -0.024706095 -0.021255292 -0.027293488 -0.03163321 -0.03566854 -0.029547397 -0.028055133
-0.01947547 -0.022806294 -0.032688852 -0.028910147 -0.009995395 -0.022387138 -0.041294612 -0.011912337
-0.025886675 -0.015361316 -0.048076026 -0.018799435 -0.010778758 -0.034524966 -0.035268523 -0.02746802
-0.02513949 -0.025170635 -0.11130839 -0.028584165 -0.0730364 -0.015642278 -0.014820491 -0.02533095
-0.042686567 -0.09174087 -0.033670772 -0.037655104 -0.018412761 -0.03636614 -0.019552937 -0.017530115
-0.018679151 -0.03018335 -0.024045344 -0.026534382 -0.027500447 -0.023483882 -0.09244792 -0.0139798485
-0.03258123 -0.031021005 -0.030045299 -0.08237815 -0.016802588 -0.011203521 -0.022860296 -0.026349274
-0.010482137 -0.009693945 -0.089844994 -0.032075647 -0.021231726 -0.023655433 -0.028317055 -0.039525025
-0.027874887 -0.026765881 -0.03593566 -0.021478442 -0.023620715 -0.07219804 -0.064280145 -0.023247829
-0.03058773 -0.021006078 -0.0078806225 -0.036285654 -0.011369481 -0.03253125 -0.029321613 -0.025675818
-0.023557827 -0.11904021 -0.01853849 -0.052339412 -0.014116278 -0.023041774 -0.019816577 -0.07360298
-0.04556935 -0.028878348 -0.03323244 -0.015468086 -0.029443529 -0.031478304 -0.029482689 -0.027437918
-0.09419727 -0.02115344 -0.037422776 -0.01962003 -0.064731464 -0.034191623 -0.07220516 -0.0654585
