best_models/best_model_nn_search_5_features_20.pt (torch, 38762 bytes, 19 tensors)

model.0.weight f4 [32, 20]
0.12692046 -0.03486763 0.15289749 0.1838414 -0.13372639 -0.05160974 0.18277112 -0.073872685
0.15028626 0.19928654 -0.07348914 -0.13798831 0.19463488 0.18676947 -0.08416035 0.10439298
-0.004316941 0.10812304 0.20130956 -0.09453029 0.21250667 0.016603889 -0.11341297 -0.07806381
0.10438987 -0.010549317 -0.06681238 0.15246058 0.05093566 -0.05123439 0.037722666 0.058461055
0.031035485 -0.150232 -0.105164215 -0.20259999 0.041214388 -0.08645895 -0.08504155 0.054807823
-0.1248533 -0.22320591 0.048666295 0.19834918 -0.18324083 0.049752086 0.13590978 -0.017620938
0.13695501 0.10955632 -0.16716523 0.11287361 -0.14941125 -0.19596112 0.11336234 -0.16297345
0.0058383313 -0.21142347 -0.0867972 -0.21291141 0.1318264 0.098202005 -0.017965961 0.16054115
0.18398659 0.22378004 0.121614255 0.033675868 0.04853533 0.09796812 -0.12454111 0.21689413
-0.21518719 -0.010120133 0.05059071 -0.16924082 -0.09696694 -0.060120694 0.10226091 0.1995024
-0.037178732 0.01111509 0.14581145 -0.08592 -0.04377412 -0.11839034 -0.1378268 -0.10355872
0.10137035 0.143304 -0.111340426 -0.1212076 0.05666761 0.18839881 -0.01385572 0.14951895
-0.22130658 -0.16315842 -0.17987473 -0.1940931 0.17931372 0.028220069 0.26902655 0.06435573
-0.09585117 0.13792595 0.041388378 0.1719487 -0.03868915 0.14914082 0.16079268 -0.24077615
-0.048830554 -0.14874649 -0.14297009 0.06728329 0.050643485 0.14085342 -0.15146333 0.08902776
0.055620212 0.019744158 -0.22738893 0.046150938 0.089612864 0.03841335 0.03158828 -0.086649105
0.11023148 -0.1877351 0.073389895 0.26562583 0.007560233 0.16844034 -0.06280922 0.070613146
-0.13274102 -0.2230777 -0.14510351 0.118582346 0.019110283 -0.14253311 0.14449196 0.05259004
0.015651517 -0.06771709 -0.14871708 -0.031325754 0.08981179 -0.09067662 -0.14269435 -0.08896622
0.0020676323 0.16200174 -0.12636667 -0.24397075 0.09853534 -0.024789976 -0.102240026 -0.060220543
0.20807317 -0.019635072 -0.20286195 0.12141031 0.19416179 -0.14528108 -0.08343079 0.018177075
0.011588651 -0.07118645 0.18681967 0.20021409 0.2613035 -0.17092568 -0.21683882 0.15530275
0.07560962 0.0047774552 0.09561957 -0.014279787 0.109892845 -0.09410339 -0.036895283 0.1581185
0.1747934 0.06655813 0.08751217 0.16025142 0.16776913 -0.10808411 0.10108322 -0.096347116
0.109337926 -0.006780066 -0.18051578 -0.092753686 -0.20111376 0.0024328758 0.055182137 -0.10673286
-0.057373874 0.089773156 0.20341885 -0.07986873 0.17179589 -0.038420293 0.01056897 -0.12299369
0.15055022 -0.1912818 -0.19564234 0.15416329 0.057164308 -0.107288845 0.05629883 0.08473622
0.16608359 0.001117304 0.12720683 0.21667829 0.07290968 0.025274826 -0.03261793 -0.1836565
0.032187525 -0.015189253 -0.03736076 0.09301085 -0.084188774 -0.20640598 0.2061878 -0.016910432
-0.20589918 0.050101522 -0.026340354 -0.03832893 -0.060386494 0.094000824 0.24463972 -0.23878488
-0.15607767 -0.19697437 -0.18123858 -0.09832361 0.06089122 -0.01322972 0.06411248 0.14410791
-0.20828421 0.20995453 0.1751034 0.03194025 -0.1533083 -0.014725695 -0.116985664 -0.1793357
00000000: 70f7 013e 5cd1 0ebd 2991 1c3e ec40 3c3e
00000010: 92ef 08be bc64 53bd 5a28 3b3e 904a 97bd
00000020: a4e4 193e c511 4c3e 7981 96bd cf4c 0dbe
00000030: 5e4e 473e 7f40 3f3e 435c acbd fdcb d53d
00000040: 2075 8dbb 9d6f dd3d 1824 4e3e 1999 c1bd
00000050: 599b 593e e104 883c 0f45 e8bd ebdf 9fbd
00000060: 5bca d53d 0bd7 2cbc eed4 88bd a01e 1c3e
00000070: e9a1 503d 27db 51bd 1583 1a3d dc74 6f3d
00000080: 213e fe3c 6bd6 19be 5660 d7bd 5f76 4fbe
00000090: 6bd0 283d 6411 b1bd 442a aebd 2b7e 603d
000000a0: 16b3 ffbd 1790 64be 4f56 473d 0c1c 4b3e
000000b0: 7ca3 3bbe d8c8 4b3d ef2b 0b3e c959 90bc
000000c0: ef3d 0c3e 105f e03d 5d2d 2bbe 472a e73d
000000d0: 43ff 18be 08aa 48be 842a e83d 83e2 26be
000000e0: 794f bf3b 657f 58be bbc2 b1bd 7305 5abe
000000f0: 80fd 063e 221e c93d 5a2d 93bc e664 243e
00000100: fb66 3c3e 9826 653e e510 f93d b5ef 093d
00000110: fbcc 463d 82a3 c83d 690f ffbd 7f19 5e3e
00000120: 085a 5cbe eace 25bc 3438 4f3d 774d 2dbe
00000130: 9a96 c6bd 1e41 76bd 2b6e d13d 5b4a 4c3e
00000140: ba48 18bd 111c 363c 994f 153e d3f6 afbd
00000150: 7e4c 33bd a276 f2bd 7822 0dbe 9816 d4bd
00000160: 429b cf3d 49be 123e 7306 e4bd b13b f8bd
00000170: 4c1c 683d 9eeb 403e 1a03 63bc 7f1b 193e
00000180: 319e 62be 0013 27be 1531 38be 57c0 46be
00000190: 049e 373e c62d e73c d9bd 893e f0cc 833d
000001a0: 9e4d c4bd 763c 0d3e dc86 293d 5213 303e
000001b0: 8478 1ebd 5fb8 183e d6a6 243e 068e 76be
000001c0: 8c02 48bd 0051 18be c066 12be d2cb 893d
000001d0: 8b6f 4f3d e13b 103e 3419 1bbe 3054 b63d
000001e0: 05d2 633d 80be a13c a5d8 68be c408 3d3d
000001f0: f386 b73d 5157 1d3d b662 013d 1675 b1bd
00000200: 0bc1 e13d a13d 40be 714d 963d 1c00 883e
00000210: d5bb f73b a07b 2c3e 1fa2 80bd a09d 903d
00000220: 43ed 07be 7b6e 64be 0496 14be 4ddb f23d
00000230: 2b8d 9c3c 33f4 11be b3f5 133e a768 573d
00000240: 9c37 803c 42af 8abd 4a49 18be 6f4f 00bd
00000250: 3eef b73d aab4 b9bd 781e 12be ec33 b6bd
00000260: 1d81 073b c9e3 253e 4466 01be 78d3 79be
00000270: e5cc c93d 5914 cbbc 3863 d1bd d1a9 76bd
00000280: 2211 553e bbd9 a0bc 0bbb 4fbe f8a5 f83d
00000290: 59d2 463e 90c4 14be c3dd aabd 17e8 943c
000002a0: 53de 3d3c 34ca 91bd a84d 3f3e ec04 4d3e
000002b0: 93c9 853e 2407 2fbe ff0a 5ebe af07 1f3e
000002c0: 37d9 9a3d 338c 9c3b 31d4 c33d c5f5 69bc
000002d0: 800f e13d 47b9 c0bd 821f 17bd d1e9 213e
000002e0: 0bfd 323e a14f 883d 9539 b33d f318 243e
000002f0: accb 2b3e 345b ddbd b804 cf3d a351 c5bd
00000300: 90ec df3d 512b debb 21d9 38be a5f5 bdbd
00000310: c4f0 4dbe e270 1f3b aa06 623d c296 dabd
00000320: de00 6bbd fdda b73d 084d 503e 3792 a3bd
00000330: 43eb 2f3e 995e 1dbd 7929 2d3c 1ee4 fbbd
00000340: d629 1a3e 60df 43be 7756 48be fbdc 1d3e
00000350: 1f25 6a3d 41ba dbbd 9a99 663d 2f8a ad3d
00000360: d111 2a3e 8072 923a 8242 023e eae0 5d3e
00000370: ac51 953d 270d cf3c 619a 05bd 7310 3cbe
00000380: 11d7 033d 58dc 78bc 9907 19bd 797c be3d
00000390: 2a6b acbd 175c 53be e522 533e bf87 8abc
000003a0: 3cd7 52be 4137 4d3d bac7 d7bc ccfe 1cbd
000003b0: d457 77bd 8183 c03d d682 7a3e 0684 74be
000003c0: d3d2 1fbe a6b3 49be 9b96 39be e45d c9bd
000003d0: 1269 793d 78c1 58bc 674d 833d 0691 133e
000003e0: 7548 55be 52fe 563e 4e4e 333e c8d3 023d
000003f0: dafc 1cbe 0b44 71bc 2e96 efbd c7a3 37be

model.0.bias f4 [32]
0.11671821 0.1574937 0.028587999 0.15239958 0.030338528 -0.10376875 -0.04143001 0.2159872
-0.044457257 0.12318854 -0.19243412 0.0641733 -0.066252984 0.05332081 -0.21849059 -0.10364608
-0.07688665 -0.13857093 0.07242761 -0.029134376 -0.03555906 -0.19214304 0.1255193 -0.12261001
-0.21254557 -0.17090827 -0.13429876 -0.17984451 0.028240357 0.14971794 -0.017256806 0.20084077
00000000: f509 ef3d 0746 213e 6131 ea3c a30e 1c3e
00000010: 8188 f83c b684 d4bd 84b2 29bd c02b 5d3e
00000020: d018 36bd 464a fc3d 730d 45be 4b6d 833d
00000030: a5af 87bd ec66 5a3d ffbb 5fbe 6544 d4bd
00000040: bf76 9dbd 8ae5 0dbe ed54 943d 37ab eebc
00000050: 60a6 11bd 25c1 44be 2288 003e f51a fbbd
00000060: 8ca5 59be 9402 2fbe 9d85 09be 2929 38be
00000070: 5258 e73c a94f 193e 255e 8dbc 34a9 4d3e

model.1.weight f4 [32]
1.0036006 0.9620901 0.9687481 0.9785819 1.0865248 1.0434147 0.95700425 1.0547427
0.95906246 0.9771644 1.0462204 0.9626137 0.96673715 0.9330951 0.9700284 0.98575044
0.9322194 1.0041114 1.0771266 0.96457124 1.1100165 0.957351 0.9511032 0.9449184
0.99502283 1.1368484 1.0179569 0.9302863 0.98958224 0.94441944 1.0187311 0.9546672
00000000: fc75 803f 894b 763f e0ff 773f 5884 7a3f
00000010: 3f13 8b3f 9d8e 853f 3bfe 743f cf01 873f
00000020: 1e85 753f 7227 7a3f 8dea 853f da6d 763f
00000030: 167c 773f 52df 6e3f c853 783f 245a 7c3f
00000040: eea5 6e3f b986 803f 49df 893f 24ee 763f
00000050: 0515 8e3f f514 753f 807b 733f 2ce6 713f
00000060: d1b9 7e3f 4084 913f 694c 823f 3e27 6e3f
00000070: 4355 7d3f 79c5 713f c865 823f 1265 743f

model.1.bias f4 [32]
-0.035382826 -0.009370086 -0.031413075 -0.038094852 0.036453087 -0.021581529 -0.030112524 0.02887542
-0.02894114 -0.011403234 0.03950883 -0.037636347 -0.017367985 -0.069981344 -0.022495808 -0.030362204
-0.07509768 -0.026500352 0.029502116 -0.019460853 0.036751293 -0.03228092 -0.036302373 -0.041364353
-0.04036274 0.06653502 0.01599016 -0.054350644 -0.015142749 -0.029884461 -0.017117174 -0.045022693
00000000: 95ed 10bd fd84 19bc ffaa 00bd 5909 1cbd
00000010: d54f 153d bfcb b0bc 8aae f6bc 258c ec3c
00000020: f815 edbc a1d4 3abc 03d4 213d 9228 1abd
00000030: 4e47 8ebc 6152 8fbd 2149 b8bc 28ba f8bc
00000040: d0cc 99bd 4417 d9bc 6cae f13c 5e6c 9fbc
00000050: 8688 163d ff38 04bd ccb1 14bd ab6d 29bd
00000060: 6753 25bd 8343 883d ccfd 823c c89e 5ebd
00000070: 4b19 78bc 42d0 f4bc 5139 8cbc b769 38bd

model.1.running_mean f4 [32]
0.21088387 0.20903082 -0.08958703 0.35279983 -0.13503705 -0.051532093 0.043476276 0.110352404
0.15897197 0.24776825 -0.11638819 0.04343728 -0.16161484 0.11167819 -0.22799046 -0.20341693
-0.08895745 -0.13995507 0.1250644 -0.09413342 -0.1304229 -0.26947147 0.11540279 -0.103178985
-0.25606745 -0.20094508 0.06583732 -0.036120955 0.07005271 0.11752033 -0.082195066 0.12451531
00000000: f1f1 573e 2d0c 563e 6879 b7bd 2ea2 b43e
00000010: 2747 0abe 5113 53bd 2e14 323d 7100 e23d
00000020: 8cc9 223e f6b6 7d3e ee5c eebd 4aeb 313d
00000030: 5c7e 25be 89b7 e43d 5576 69be 874c 50be
00000040: 532f b6bd 6250 0fbe e210 003e 06c9 c0bd
00000050: 958d 05be 2af8 89be 4c58 ec3d 814f d3bd
00000060: 461b 83be 8cc4 4dbe b8d5 863d 91f3 13bd
00000070: cc77 8f3d 80ae f03d e355 a8bd e201 ff3d

model.1.running_var f4 [32]
0.0966718 0.018718729 0.03633079 0.08313424 0.020564198 0.05901005 0.05473614 0.014071007
0.1824827 0.043364905 0.07950572 0.06630748 0.06650076 0.02626402 0.057363722 0.03823928
0.051011816 0.08153861 0.0666951 0.013973653 0.046812348 0.04613838 0.09296626 0.023664426
0.028678846 0.052758016 0.06887682 0.05759218 0.07256445 0.07770269 0.02018306 0.079949245
00000000: ddfb c53d 0558 993c 98cf 143d 4942 aa3d
00000010: 4076 a83c 86b4 713d 0133 603d 158a 663c
00000020: bfdc 3a3e 669f 313d e5d3 a23d 37cc 873d
00000030: 8d31 883d a427 d73c 39f6 6a3d cba0 1c3d
00000040: c4f1 503d b7fd a63d 7197 883d c0f1 643c
00000050: 4ebe 3f3d 99fb 3c3d 1865 be3d e6db c13c
00000060: e6ef ea3c ca18 583d 4a0f 8d3d c7e5 6b3d
00000070: ac9c 943d 9722 9f3d f256 a53c 6ebc a33d

model.4.weight f4 [64, 32]
-0.10802068 -0.13394275 -0.012530082 -0.10601343 0.120150246 -0.107234634 -0.0025355534 -0.09383513
-0.03394682 -0.016688336 0.16398516 0.101874486 -0.13947816 -0.036441125 -0.025041847 0.16566826
-0.10714508 -0.11023736 -0.14418857 0.022514546 0.05825588 -0.10923406 -0.16133362 0.0727274
0.11514663 -0.12581173 0.16911449 0.13217728 -0.08230886 -0.09649291 0.047456972 -0.17514302
-0.1771871 0.057476796 -0.14711818 -0.03197936 -0.05984701 0.10840507 -0.08210553 0.15911642
-0.0317329 -0.10541513 0.019731041 -0.10565744 0.12822305 -0.18626444 -0.18095323 0.06046589
0.0923206 -0.12161508 0.018858282 0.02914702 0.02437152 0.1262102 0.01961709 0.041842364
0.14084063 0.14000091 0.014571316 -0.17710312 -0.08657559 -0.023074469 5.3749278e-05 -0.14723976
-0.011314397 -0.110669985 0.045687716 -0.035779245 0.090958215 -0.14844249 -0.05944682 0.09871125
-0.073561534 -0.0710644 -0.04419125 0.1552378 0.16841313 -0.033123914 0.18741305 -0.12370214
-0.09106219 0.07930481 0.17231816 -0.1109914 0.14909427 0.0031291957 -0.07205059 0.14686362
0.06389549 0.10180917 0.14472584 0.09613083 0.10936954 0.124098495 -0.08247196 0.04378373
0.19634165 -0.07166838 0.08561993 -0.044722788 0.102980234 0.092220865 0.021389807 0.06473029
-0.045836758 0.16867208 0.08388331 0.14335354 -0.06687644 -0.083518654 -0.06785156 0.051621966
0.03589088 0.14576453 -0.06762287 0.13098872 0.119088314 -0.06660881 0.012720707 -0.110587515
0.19803165 0.1124416 0.14467892 -0.056598067 0.04724797 -0.07542864 -0.06461167 0.056393202
-0.025963712 -0.19960994 0.17774661 -0.12906231 0.10809664 0.005898811 0.075213075 0.041431475
-0.15254928 0.09329859 -0.06162393 -0.08008747 -0.11962219 -0.056974277 0.17043324 -0.01419326
-0.12207736 0.06986827 -0.07120622 -0.03584427 0.18831678 -0.07689935 -0.004429371 0.13427684
0.046167474 0.07470135 -0.07633305 -0.00063154683 0.10875028 -0.10955242 -0.0043474026 0.056377105
-0.056008253 -0.14492285 -0.06433784 0.042138476 -0.063440435 -0.0024825986 0.015065136 0.16328898
0.07601794 -0.12919627 -0.04828601 0.12409123 -0.12646247 0.03902572 -0.043808244 -0.121768564
0.049984146 -0.14794615 0.2024928 0.04148474 0.11309689 0.04137046 -0.0894231 -0.07868397
-0.098652795 0.2508416 -0.104492016 -0.08410293 0.0664095 -0.13351388 0.039103676 -0.0318999
-0.08006354 -0.07825622 0.011682851 0.032603994 0.1557168 -0.040506642 -0.12837881 -0.036354527
0.11966764 -0.10921989 -0.13880165 0.094762765 0.061282296 -0.0482173 -0.070960775 0.076696664
-0.096023805 0.09331418 0.14224708 0.18051249 0.21252282 -0.08168722 -0.053307798 0.14685
-0.0023043277 0.09088197 -0.016818427 0.07458371 -0.074084066 -0.18003753 -0.043220863 0.046896774
-0.055305853 0.105957605 0.0015670508 -0.15510498 0.035704773 0.07217759 0.090990275 0.20811184
-0.040628146 0.0036289096 0.1671858 -0.14587459 0.009495999 -0.10543468 0.041265648 0.028523896
-0.018444667 -0.12813596 0.11993682 -0.058355827 0.0973587 -0.11656989 0.07433415 0.0043764804
0.07109196 0.1317759 -0.16862583 -0.0884305 -0.05626942 0.086395316 -0.10887037 -0.03130554
00000000: f239 ddbd 4a28 09be f94a 4dbc 921d d9bd
00000010: 5511 f63d d59d dbbd 872b 26bb a22c c0bd
00000020: d20b 0bbd fab5 88bc baeb 273e 92a3 d03d
00000030: 5dd3 0ebe 4a43 15bd 8f24 cdbc f1a4 293e
00000040: e16e dbbd 20c4 e1bd 2ba6 13be 6d70 b83c
00000050: b89d 6e3d 1bb6 dfbd a434 25be 1af2 943d
00000060: ffd1 eb3d cad4 00be 592c 2d3e 7b59 073e
00000070: 8c91 a8bd 139e c5bd 3e62 423d b158 33be
00000080: 8970 35be ca6c 6b3d 26a6 16be cafc 02bd
00000090: 2322 75bd 7a03 de3d f226 a8bd 6aef 223e
000000a0: 5bfa 01bd e3e3 d7bd fea2 a13c ee62 d8bd
000000b0: e74c 033e 1bbc 3ebe ce4b 39be 15ab 773d
000000c0: 9512 bd3d 5411 f9bd af7c 9a3c bbc5 ee3c
000000d0: c8a6 c73c 3f3d 013e 05b4 a03c e662 2b3d
000000e0: 8738 103e 665c 0f3e 87bc 6e3c 855a 35be
000000f0: 8b4e b1bd ab06 bdbc d970 6138 05c6 16be
00000100: 0560 39bc f2a6 e2bd 0b23 3b3d 428d 12bd
00000110: 4d48 ba3d 4f01 18be 827e 73bd 2029 ca3d
00000120: 6ea7 96bd 368a 91bd e201 35bd a8f6 1e3e
00000130: 7e74 2c3e f1ac 07bd 35e9 3f3e 8c57 fdbd
00000140: d07e babd 8f6a a23d 2c74 303e 764f e3bd
00000150: 2bac 183e 3113 4d3b 428f 93bd 6b63 163e
00000160: a3db 823d 5381 d03d 0333 143e 3ee0 c43d
00000170: 23fd df3d 5a27 fe3d 0fe7 a8bd 9256 333d
00000180: c90d 493e dfc6 92bd 8059 af3d 3e2f 37bd
00000190: 4de7 d23d 4bde bc3d ad39 af3c 5091 843d
000001a0: 53bf 3bbd 60b8 2c3e 03cb ab3d 45cb 123e
000001b0: 84f6 88bd d40b abbd c2f5 8abd 8e71 533d
000001c0: 5102 133d 4c43 153e dc7d 8abd e821 063e
000001d0: 93e4 f33d 336a 88bd 836a 503c b57b e2bd
000001e0: cfc8 4a3e c847 e63d b626 143e 60d3 67bd
000001f0: 1687 413d 557a 9abd 2053 84bd 8ffc 663d
00000200: dab1 d4bc 8c66 4cbe 3503 363e e928 04be
00000210: c561 dd3d d04a c13b 5009 9a3d 0db4 293d
00000220: e135 1cbe 5513 bf3d 6069 7cbd e604 a4bd
00000230: 7bfc f4bd dc5d 69bd 0d86 2e3e d98a 68bc
00000240: b203 fabd 1817 8f3d 91d4 91bd 71d1 12bd
00000250: 1dd6 403e 687d 9dbd 4224 91bb de7f 093e
00000260: 1b1a 3d3d 05fd 983d 8154 9cbd 648e 25ba
00000270: 78b8 de3d 055d e0bd a874 8ebb aeeb 663d
00000280: e968 65bd a866 14be 8fc3 83bd 6599 2c3d
00000290: 0fed 81bd 18b3 22bb c3d3 763c 3a35 273e
000002a0: 4baf 9b3d 074c 04be 8dc7 45bd 8b23 fe3d
000002b0: 617f 01be 6fd9 1f3d 4670 33bd cc61 f9bd
000002c0: 2dbc 4c3d 327f 17be 465a 4f3e e7eb 293d
000002d0: 589f e73d 1274 293d 7523 b7bd 1025 a1bd
000002e0: 7a0a cabd 4f6e 803e e9ff d5bd 283e acbd
000002f0: b401 883d ddb7 08be 2d2b 203d 78a9 02bd
00000300: 5af8 a3bd cc44 a0bd 6e69 3f3c c48b 053d
00000310: 3a74 1f3e 4bea 25bd bc75 03be 7ce8 14bd
00000320: 4f14 f53d adae dfbd 0522 0ebe fb12 c23d
00000330: 2503 7b3d 817f 45bd e253 91bd 2413 9d3d
00000340: 21a8 c4bd 811b bf3d 38a9 113e 44d8 383e
00000350: 959f 593e a14b a7bd 4759 5abd d95f 163e
00000360: 3404 17bb 5420 ba3d ccc6 89bc 58bf 983d
00000370: 63b9 97bd c25b 38be 5c08 31bd d516 403d
00000380: 6488 62bd 4d00 d93d 8065 cd3a d7d3 1ebe
00000390: 2b3f 123d d8d1 933d 1c59 ba3d 451b 553e
000003a0: b369 26bd 00d3 6d3b c132 2b3e 2660 15be
000003b0: 1b95 1b3c 23ee d7bd 2b06 293d f2aa e93c
000003c0: 4519 97bc 1336 03be 6fa1 f53d 8506 6fbd
000003d0: 0064 c73d 32bc eebd 813c 983d 9468 8f3b
000003e0: a998 913d 43f0 063e 40ac 2cbe 0d1b b5bd
000003f0: c37a 66bd 07f0 b03d 6ef7 debd 3d3a 00bd

model.4.bias f4 [64]
0.07732237 -0.096350044 0.083752766 -0.12457149 -0.02164577 -0.040368926 0.035300482 -0.13243216
0.049714424 -0.037322596 -0.13123983 0.15112482 -0.09084223 -0.10739445 -0.0849407 -0.10256058
0.10673277 -0.113583684 -0.0747618 0.1633318 -0.10746917 -0.087796904 -0.07616528 -0.008411141
-0.17250694 -0.040974203 -0.04698433 0.08898055 0.009887793 0.02369097 0.021207111 0.01900843
-0.0060035787 -0.12865846 -0.043654073 0.16222128 -0.072069734 0.05550296 -0.0069335196 -0.13909929
0.117979564 0.1612296 -0.14214005 -0.10823367 0.09033651 -0.13213558 -0.08081081 0.08207244
0.11663359 0.06999706 -0.15420443 0.16611925 0.17122684 -0.12913856 0.066046424 0.041677717
-0.021936169 -0.04032527 0.09082893 0.13624139 0.08083557 -0.018268762 -0.16087447 -0.08588593
00000000: 315b 9e3d 2c53 c5bd 9286 ab3d 561f ffbd
00000010: 7852 b1bc e359 25bd 3d97 103d 4c9c 07be
00000020: 5aa1 4b3d 94df 18bd bc63 06be 77c0 1a3e
00000030: 7e0b babd 9ff1 dbbd 64f5 adbd 480b d2bd
00000040: b696 da3d 909e e8bd b71c 99bd 7440 273e
00000050: cc18 dcbd ddce b3bd 8bfc 9bbd e2ce 09bc
00000060: a9a5 30be 91d4 27bd a472 40bd 6f3b b63d
00000070: 6900 223c 9113 c23c 89ba ad3c 91b7 9b3c
00000080: abb9 c4bb 0bbf 03be 9dce 32bd 561d 263e
00000090: 4c99 93bd 1257 633d 9432 e3bb 0b70 0ebe
000000a0: 459f f13d 5f19 253e 298d 11be 9da9 ddbd
000000b0: 5902 b93d 8d4e 07be 2380 a5bd 9815 a83d
000000c0: 97dd ee3d 9e5a 8f3d c4e7 1dbe 2a1b 2a3e
000000d0: 1756 2f3e e63c 04be 5943 873d 41b6 2a3d
000000e0: 7bb3 b3bc 1c2c 25bd 8504 ba3d dd82 0b3e
000000f0: 1f8d a53d 5fa8 95bc 47bc 24be f6e4 afbd

model.5.weight f4 [64]
0.9571786 0.9557678 0.9620774 1.0476269 0.9886315 1.0578107 0.99648416 1.0788696
0.9635063 1.0538752 1.0167476 1.0012416 1.0059689 1.0526572 0.974482 1.0216
0.9388291 0.96660084 0.9317256 1.0402781 0.92889154 0.94735676 1.034757 0.98108935
1.1005428 1.0597283 0.98453736 0.97129256 1.0304316 1.109745 0.9244738 1.0276929
0.95154744 0.9382648 1.0293479 0.9475709 0.98037666 0.9967571 0.9954339 0.9925012
0.95297855 1.0220693 1.0312645 0.95930827 1.0015849 0.97732383 1.0430905 0.9958057
1.0291559 0.9805421 0.94174373 1.0734963 0.9950627 1.0612923 0.96252334 0.97975063
1.0581264 0.96831304 0.99526954 0.9467542 0.98635405 0.9839477 1.0351398 0.9521041
00000000: a809 753f 33ad 743f b44a 763f a318 863f
00000010: f416 7d3f 5766 873f 9619 7f3f 6618 8a3f
00000020: 59a8 763f 62e5 863f c924 823f af28 803f
00000030: 97c3 803f 79bd 863f a777 793f cac3 823f
00000040: 1b57 703f 2773 773f 9285 6e3f d527 853f
00000050: d6cb 6d3f f985 723f eb72 843f ac28 7b3f
00000060: 96de 8c3f 2da5 873f a40a 7c3f a1a6 783f
00000070: 2fe5 833f 200c 8e3f 51aa 6c3f 718b 833f
00000080: 9d98 733f 1f32 703f acc1 833f 0294 723f
00000090: f7f9 7a3f 792b 7f3f c2d4 7e3f 8f14 7e3f
000000a0: 67f6 733f 2bd3 823f 7a00 843f 3a95 753f
000000b0: ef33 803f e531 7a3f fd83 853f 1fed 7e3f
000000c0: 61bb 833f cf04 7b3f 1e16 713f 5468 893f
000000d0: 6ebc 7e3f 6dd8 873f ee67 763f f0d0 7a3f
000000e0: b070 873f 5de3 773f fcc9 7e3f 7c5e 723f
000000f0: b381 7c3f ffe3 7b3f 767f 843f 18bd 733f

model.5.bias f4 [64]
-0.045561254 -0.033441987 -0.0473009 -0.03464723 -0.010206309 0.005243188 -0.048298284 -0.013999329
-0.01523781 -0.0153180305 -0.025947593 -0.020255266 -0.03155044 0.02755973 -0.032309376 0.00683171
-0.06154007 -0.016552731 -0.06635125 0.003126312 -0.082626805 -0.03602383 0.0050263465 0.0070554684
0.0045109345 0.012344384 -0.031206151 -0.04027309 -0.02655187 0.021904057 -0.051621426 0.0028047645
-0.044386934 -0.0626533 0.012183767 -0.05027682 -0.026051056 -0.044630148 -0.0068748854 0.011203987
-0.056020193 -0.03154559 0.001132964 -0.070013955 -0.002932858 -0.040111944 0.0140604805 -0.030789988
-0.0037206274 -0.019648433 -0.057253174 0.008101092 -0.053328607 -0.007195134 -0.03464656 -0.014162003
0.01070999 -0.038291615 0.008718728 -0.044325963 -0.02300894 -0.01775273 0.04160993 -0.019891605
00000000: 709e 3abd 77fa 08bd 97be 41bd 41ea 0dbd
00000010: 5d38 27bc 0ccf ab3b 6cd4 45bd 715d 65bc
00000020: 02a8 79bc 7af8 7abc 0c90 d4bc 5fee a5bc
00000030: 093b 01bd f1c4 e13c d656 04bd 8adc df3b
00000040: 7111 7cbd 9899 87bc 2ae3 87bd d0e2 4c3b
00000050: 3e38 a9bd b98d 13bd 0db4 a43b 8f31 e73b
00000060: 76d0 933b 1940 4a3c 0ba4 ffbc 65f5 24bd
00000070: 4f83 d9bc 2370 b33c fd70 53bd 24d0 373b
00000080: 13cf 35bd 6050 80bd 6c9e 473c 11ef 4dbd
00000090: 0669 d5bc 1ace 36bd b846 e1bb ed90 373c
000000a0: 6e75 65bd f335 01bd f77f 943a 7a63 8fbd
000000b0: 3135 40bb 6c4c 24bd ee5d 663c 493b fcbc
000000c0: c5d5 73bb c0f5 a0bc 4e82 6abd 71ba 043c
000000d0: 196f 5abd 29c5 ebbb 8de9 0dbd bf07 68bc
000000e0: f478 2f3c abd7 1cbd ffd8 0e3c 248f 35bd
000000f0: 3f7d bcbc 2c6e 91bc 2d6f 2a3d b8f3 a2bc

model.5.running_mean f4 [64]
-0.2495405 -0.20973334 0.47054532 0.4230966 -0.011913583 -0.083838396 0.16869709 -0.04692707
-0.26964405 0.14605409 -0.00471819 0.4338356 0.10864238 -0.12621315 -0.30366075 0.4311795
0.397442 -0.19968235 -0.63680106 0.49142095 0.05099676 -0.28535482 0.016784366 -0.42222348
0.21218076 0.14769132 0.1561395 0.17274264 0.33492082 0.46909934 0.045946725 0.21317226
-0.28274417 -0.029631345 0.13603887 0.17288902 -0.43115407 0.40019494 -0.16446282 -0.12368841
0.1136221 0.61986995 0.01620959 0.16687383 -0.20490327 -0.03324134 0.48223758 0.19266553
0.4654512 0.35991943 -0.30515313 0.55502874 0.108771235 0.37928012 0.24310957 0.09502023
0.03673643 0.25929835 0.09877794 -0.1832186 0.20223156 0.02890074 -0.06662774 -0.18178712
00000000: 8b87 7fbe 56c4 56be 51eb f03e 1ea0 d83e
00000010: 3031 43bc 77b3 abbd eebe 2c3e 9936 40bd
00000020: c90e 8abe 348f 153e 0c9b 9abb b31f de3e
00000030: e57f de3d 053e 01be 6c79 9bbe 8fc3 dc3e
00000040: 857d cb3e 8879 4cbe 6505 23bf 879b fb3e
00000050: fbe1 503d 071a 92be 5e7f 893c ad2d d8be
00000060: ea45 593e 653c 173e 08e3 1f3e 72e3 303e
00000070: be7a ab3e ca2d f03e a232 3c3d d449 5a3e
00000080: d8c3 90be 6fbd f2bc c64d 0b3e d209 313e
00000090: 3ac0 dcbe 5ae6 cc3e f168 28be 5950 fdbd
000000a0: b4b2 e83d ccaf 1e3f f9c9 843c f9e0 2a3e
000000b0: 2ad2 51be 1228 08bd d8e7 f63e 1d4a 453e
000000c0: 9f4f ee3e 5c47 b83e 083d 9cbe 5d16 0e3f
000000d0: 74c3 de3d 0131 c23e b7f1 783e f799 c23d
000000e0: f078 163d c1c2 843e 174c ca3d a89d 3bbe
000000f0: ca15 4f3e 3fc1 ec3c 2074 88bd 6726 3abe

model.5.running_var f4 [64]
0.23366944 0.3391084 0.35738719 0.3965972 0.29356822 0.4833654 0.26971853 0.5613664
0.63556314 0.4794903 0.40547037 0.2737293 0.16897935 0.36258385 0.32831836 0.3924397
0.32438213 0.30336067 0.31758338 0.43529966 0.14579299 0.32208434 0.32529607 0.43455917
0.21744199 0.2464156 0.40773305 0.17643443 0.33324802 0.49605826 0.35782024 0.21671377
0.4507457 0.28076473 0.36034906 0.21681459 0.12833947 0.51618946 0.15231028 0.17274038
0.13062468 0.3965388 0.44097084 0.2306574 0.27654174 0.2875779 0.42049685 0.19137704
0.2662677 0.37783548 0.12862778 0.6260403 0.17301065 0.4419404 0.2327982 0.14609519
0.45875126 0.41503015 0.17156868 0.17631654 0.21850814 0.18918583 0.33962286 0.17708033
00000000: 0b47 6f3e 9e9f ad3e 74fb b63e ca0e cb3e
00000010: 934e 963e ab7b f73e 8c18 8a3e b5b5 0f3f
00000020: 44b4 223f c17f f53e d099 cf3e 3f26 8c3e
00000030: ec08 2d3e 97a4 b93e 5819 a83e dbed c83e
00000040: 6a15 a63e 1752 9b3e 4a9a a23e 99df de3e
00000050: c24a 153e 3de8 a43e 358d a63e 8a7e de3e
00000060: 1da9 5e3e 5f54 7c3e 63c2 d03e 3aab 343e
00000070: 7c9f aa3e 59fb fd3e 3734 b73e 37ea 5d3e
00000080: 24c8 e63e 65c0 8f3e ac7f b83e a504 5e3e
00000090: 6c6b 033e fe24 043f 3af7 1b3e dbe2 303e
000000a0: 7ac2 053e 2207 cb3e eec6 e13e 7431 6c3e
000000b0: e196 8d3e 693d 933e 5d4b d73e 58f8 433e
000000c0: 3d54 883e a773 c13e 00b7 033e 2d44 203f
000000d0: b429 313e 0346 e23e a762 6e3e fa99 153e
000000e0: 72e1 ea3e d57e d43e b3af 2f3e 538c 343e
000000f0: 99c0 5f3e eeb9 413e 0ce3 ad3e 8c54 353e

model.8.weight f4 [64, 64]
-0.07819075 -0.097178124 0.0270875 -0.013434415 -0.1381703 0.072487235 -0.060290016 0.058701847
-0.0683674 0.11973437 -0.042889092 -0.11738649 -0.17141083 -0.10680438 0.022001527 -0.09344076
0.021355517 -0.11144195 0.07708857 0.091239445 -0.1330891 0.033071637 -0.14704575 -0.048408043
0.11562871 0.11699976 -0.07158384 -0.0616298 -0.08130703 0.03909669 0.045651205 -0.00999494
-0.04705213 -0.03159886 -0.017414846 -0.1092913 -0.047482714 0.10021338 0.012481182 -0.1059612
0.029573295 -0.16546102 -0.1005687 -0.04125811 -0.025785161 -0.08371806 0.033839453 0.037811972
0.13241982 0.0457137 -0.07279871 -0.047197104 -0.057941016 0.04262012 -0.13133432 0.0022604857
-0.06655354 0.07276647 -0.01547483 -0.013778023 -0.02951538 -0.17536967 0.082433425 0.07120431
0.11721596 -0.009299182 0.068043515 -0.029976776 0.00027387685 -0.13655299 -0.048818395 -0.015326094
0.031494446 0.08033153 0.04707791 0.061613172 0.061326385 -0.09313828 -0.14146547 -0.06721222
-0.065513924 -0.11299048 0.04433621 0.08242698 -0.0542132 0.029024301 -0.0014555997 0.013287234
-0.064525835 0.036802083 0.07304518 0.042564884 -0.05937387 -0.055802748 -0.07242826 -0.02817153
-0.010438894 0.058669727 0.009731188 0.0062215826 -0.039508373 -0.10206646 -0.1582419 -0.07307853
-0.08247455 0.086035654 0.016106732 -0.106499076 0.03169563 0.08082244 -0.15152201 0.11880289
-0.025638908 0.044584997 0.004624424 -0.09593378 -0.03906992 -0.05530275 0.08195812 0.0632974
-0.13595161 -0.036163677 0.10825071 -0.10763881 -0.07404405 -0.069745965 -0.10552125 -0.028986903
0.05021394 0.088936314 0.072429985 0.09036499 -0.0065741497 -0.049030837 -0.04857612 -0.07843642
0.0864601 -0.013784471 -0.05818425 0.0022988145 0.100330375 0.0049272007 -0.04312069 -0.04286437
-0.079794705 -0.026711239 -0.035603322 0.005944675 -0.050110873 0.07061677 -0.013128952 -0.09877144
0.017054364 0.12211997 -0.055291828 0.07684458 -0.10831943 -0.10920184 -0.06935557 0.053384554
0.091949746 -0.012000133 -0.018539904 0.0587614 -0.032852054 -0.18064007 0.087985426 0.12081889
0.04272211 0.0032006209 -0.0655871 -0.029671123 -0.098065615 -0.010004171 -0.09060523 -0.1860307
-0.10091451 -0.04737197 0.035422023 -0.014619191 0.020575523 -0.14683613 -0.064096324 0.057406172
-0.15200979 -0.07380599 -0.114967234 0.007868458 -0.049518492 -0.05298432 0.08683025 -0.035176836
-0.09885474 -0.02630009 -0.04016042 0.02308921 0.069103286 0.10434172 -0.0663095 -0.03031329
-0.14493167 0.059271418 0.091333926 -0.119158074 -0.14750072 0.01573737 -0.036223978 -0.1523401
-0.016146636 -0.11133058 0.018117758 0.020305242 -0.055116978 0.081931606 0.074913636 0.08366375
-0.061036043 -0.087079264 0.12516724 -0.041894417 0.0036459414 -0.103740446 0.10255284 -0.0930726
-0.14614674 0.107478335 0.047699794 -0.043248337 0.036549266 -0.06766709 0.092377596 -0.0752951
-0.00034486756 0.04362566 0.124776885 -0.14992648 0.111870736 -0.04678447 0.07983156 0.07810493
-0.011717418 -0.070567876 -0.0054582315 0.0862678 -0.045930315 -0.062041152 0.08223315 -0.027098859
-0.07238812 0.024617366 0.038276855 0.062772065 0.06556348 0.05605397 -0.07104569 -0.024277424
00000000: 7922 a0bd 5305 c7bd 9be6 dd3c 051c 5cbc
00000010: 847c 0dbe 3074 943d aaf2 76bd 5971 703d
00000020: 3504 8cbd 4b37 f53d 79ac 2fbd 5468 f0bd
00000030: 5286 2fbe 41bc dabd 8c3c b43c df5d bfbd
00000040: c4f1 ae3c ad3b e4bd 9de0 9d3d bfdb ba3d
00000050: 8248 08be 2076 073d 2993 16be 8347 46bd
00000060: bfce ec3d 929d ef3d 8c9a 92bd 876f 7cbd
00000070: 4d84 a6bd da23 203d c2fc 3a3d d1c1 23bc
00000080: bcb9 40bd ce6d 01bd 94a9 8ebc 1ed4 dfbd
00000090: 3c7d 42bd ac3c cd3d df7d 4c3c 3002 d9bd
000000a0: b243 f23c 9d6e 29be f6f6 cdbd 44fe 28bd
000000b0: 673b d3bc 6074 abbd 3d9b 0a3d bae0 1a3d
000000c0: 1099 073e 4a3e 3b3d 7d17 95bd c051 41bd
000000d0: 8f53 6dbd 6f92 2e3d 817c 06be a824 143b
000000e0: 394d 88bd 9606 953d 248a 7dbc 38bd 61bc
000000f0: 3dca f1bc 1b94 33be dbd2 a83d 91d3 913d
00000100: ec0e f03d 995b 18bc 665a 8b3d db91 f5bc
00000110: 2197 8f39 8cd4 0bbe ccf5 47bd 4c1a 7bbc
00000120: 5200 013d db84 a43d c4d4 403d 185e 7c3d
00000130: 6031 7b3d 48bf bebd 53dc 10be 8fa6 89bd
00000140: 2a2c 86bd 8e67 e7bd e399 353d 7acf a83d
00000150: a90e 5ebd 5fc4 ed3c d2c9 beba b3b2 593c
00000160: 1f26 84bd c8bd 163d b698 953d 8458 2e3d
00000170: 0432 73bd 6c91 64bd 4555 94bd fbc7 e6bc
00000180: e507 2bbc ab4f 703d 906f 1f3c 6bde cb3b
00000190: 88d3 21bd 3808 d1bd 2a0a 22be 32aa 95bd
000001a0: 6be8 a8bd 7633 b03d 44f2 833c 301c dabd
000001b0: 47d3 013d 3c86 a53d 9628 1bbe ee4e f33d
000001c0: b008 d2bc c29e 363d 7b88 973b ee78 c4bd
000001d0: c807 20bd 2385 62bd a9d9 a73d 11a2 813d
000001e0: e636 0bbe 5d20 14bd 8cb2 dd3d bd71 dcbd
000001f0: 68a4 97bd f9d6 8ebd 861b d8bd f175 edbc
00000200: 22ad 4d3d 3e24 b63d 2c56 943d 4811 b93d
00000210: f76b d7bb 8fd4 48bd c1f7 46bd 46a3 a0bd
00000220: fe11 b13d 43d8 61bc 9c52 6ebd b5a7 163b
00000230: 037a cd3d 5b74 a13b 529f 30bd 8d92 2fbd
00000240: 686b a3bd 87d1 dabc cad4 11bd 8ccb c23b
00000250: 0f41 4dbd 869f 903d d11a 57bc ae48 cabd
00000260: 98b5 8b3c 091a fa3d af79 62bd b160 9d3d
00000270: 94d6 ddbd 37a5 dfbd 4b0a 8ebd c3a9 5a3d
00000280: 2650 bc3d 359c 44bc ffe0 97bc cbaf 703d
00000290: e08f 06bd b6f9 38be b431 b43d e56f f73d
000002a0: 61fd 2e3d 82c1 513b 8852 86bd db10 f3bc
000002b0: a0d6 c8bd 89e8 23bc 3c8f b9bd d57e 3ebe
000002c0: 44ac cebd 1c09 42bd af16 113d 5585 6fbc
000002d0: 008e a83c 365c 16be ef44 83bd bc22 6b3d
000002e0: 74a8 1bbe 9827 97bd f173 ebbd b4ea 003c
000002f0: e7d3 4abd 1606 59bd 0fd4 b13d 9615 10bd
00000300: 5b74 cabd 4973 d7bc 417f 24bd 9525 bd3c
00000310: 0686 8d3d 1db1 d53d 46cd 87bd 9453 f8bc
00000320: f868 14be 96c6 723d 480d bb3d 2609 f4bd
00000330: 6e0a 17be a8eb 803c 985f 14bd 0bff 1bbe
00000340: f345 84bc 4a01 e4bd b16b 943c 2e57 a63c
00000350: 57c2 61bd c2cb a73d 526c 993d e657 ab3d
00000360: ee00 7abd 9d56 b2bd d72b 003e 7b99 2bbd
00000370: bff0 6e3b df75 d4bd 3907 d23d d99c bebd
00000380: 7ea7 15be 9a1d dc3d dc60 433d 2b25 31bd
00000390: afb4 153d 0b95 8abd 7730 bd3d 5134 9abd
000003a0: 57cf b4b9 d2b0 323d 068b ff3d 5486 19be
000003b0: 7c1c e53d 13a1 3fbd bb7e a33d 7af5 9f3d
000003c0: 6afa 3fbc e485 90bd f7da b2bb 2cad b03d
000003d0: 6d21 3cbd dd1e 7ebd db69 a83d 6dfe ddbc
000003e0: 3940 94bd 5caa c93c 31c8 1c3d a48e 803d
000003f0: 2546 863d d998 653d 6780 91bd 73e1 c6bc

model.8.bias f4 [64]
-0.027245808 -0.046260152 -0.117527805 0.03517155 -0.07851151 0.03506323 -0.05579767 -0.051824912
0.08150419 -0.0035509455 0.040421635 0.072682746 0.083240606 -0.03717057 -0.115667254 0.07323409
0.0216037 0.011858642 -0.11916047 0.12722054 -0.0013582277 0.074322104 -0.0693835 -0.09484556
0.012226837 -0.1041215 -0.0705067 0.08303868 -0.04881212 0.112170056 0.11121059 0.0710988
-0.093289904 -0.0138180535 -0.01448114 0.10851548 0.00862226 -0.008213743 -0.03875174 -0.01905542
0.041208126 0.061423216 0.03635866 -0.04488715 0.026188888 0.04867989 0.03911247 0.10132348
0.11547321 0.09573488 -0.033358622 -0.09820394 0.004617371 0.0764728 -0.09665193 0.09779408
-0.10098594 -0.051548067 -0.059553646 -0.03394942 -0.11426991 0.024392061 -0.06275608 0.113769606
00000000: 9a32 dfbc 497b 3dbd 6bb2 f0bd 0b10 103d
00000010: a4ca a0bd 769e 0f3d 198c 64bd 5c46 54bd
00000020: abeb a63d fbb6 68bb 2891 253d b1da 943d
00000030: 0d7a aa3d 2b40 18bd f4e2 ecbd c1fb 953d
00000040: 3efa b03c c04a 423c 680a f4bd 1a46 023e
00000050: 8f06 b2ba 3036 983d f018 8ebd 643e c2bd
00000060: 1253 483c a73d d5bd d165 90bd 2f10 aa3d
00000070: 38ef 47bd 6ab9 e53d 61c2 e33d 3f9c 913d
00000080: c70e bfbd 1e65 62bc 4e42 6dbc 5d3d de3d
00000090: 6144 0d3c ef92 06bc 25ba 1ebd 1d1a 9cbc
000000a0: dac9 283d e996 7b3d d1ec 143d 97db 37bd
000000b0: 148a d63c 9064 473d 6634 203d af82 cf3d
000000c0: 387d ec3d a610 c43d 0da3 08bd 261f c9bd
000000d0: 514d 973b c59d 9c3d 72f1 c5bd 4348 c83d
000000e0: b7d1 cebd 1124 53bd 86ee 73bd 8c0e 0bbd
000000f0: 5806 eabd dcd1 c73c 4286 80bd 0a00 e93d

model.9.weight f4 [64]
0.7001331 0.78563946 0.7397799 0.7985473 0.674129 0.62747276 0.69932294 0.79260653
0.71729374 0.7289928 0.79959327 0.74351794 0.7716621 0.7555885 0.68002385 0.79761004
0.75475454 0.7206674 0.7808493 0.69432306 0.7840552 0.7852692 0.7412898 0.75546664
0.7421863 0.77475774 0.7823267 0.7186614 0.70144457 0.7479824 0.81165636 0.79988897
0.8048444 0.7456842 0.7857406 0.7584679 0.7653202 0.6411287 0.63955235 0.7025575
0.72344506 0.69732386 0.7944424 0.77887064 0.789108 0.7759545 0.794757 0.8064463
0.71900964 0.799331 0.61956257 0.7530013 0.7084493 0.77815074 0.7813436 0.7596145
0.7137475 0.74580353 0.74347943 0.7160649 0.8113162 0.7446651 0.7925526 0.79207474
00000000: ec3b 333f ab1f 493f 3762 3d3f 996d 4c3f
00000010: b893 2c3f 0ea2 203f d406 333f 43e8 4a3f
00000020: 90a0 373f 469f 3a3f 25b2 4c3f 3157 3e3f
00000030: a68b 453f 3f6e 413f 0b16 2e3f 2c30 4c3f
00000040: 9837 413f a97d 383f bde5 473f 28bf 313f
00000050: d7b7 483f 6707 493f 2bc5 3d3f 4366 413f
00000060: ecff 3d3f 8656 463f 9046 483f 32fa 373f
00000070: df91 333f c67b 3f3f b6c8 4f3f 86c5 4c3f
00000080: 480a 4e3f 29e5 3e3f 4c26 493f f42a 423f
00000090: 06ec 433f 0321 243f b4b9 233f cfda 333f
000000a0: b233 393f d183 323f 9460 4b3f 1164 473f
000000b0: fb02 4a3f f4a4 463f 3275 4b3f 4473 4e3f
000000c0: 0411 383f f5a0 4c3f a79b 1e3f b1c4 403f
000000d0: ef5c 353f e334 473f 2206 483f 1976 423f
000000e0: 28b8 363f fbec 3e3f ab54 3e3f 0750 373f
000000f0: 6bb2 4f3f 5fa2 3e3f bae4 4a3f 69c5 4a3f

model.9.bias f4 [64]
-0.26226553 -0.19103834 -0.2592441 -0.16897418 -0.3085128 -0.3371102 -0.2778858 -0.20872219
-0.25705627 -0.24955875 -0.17086351 -0.21731287 -0.1851719 -0.21836993 -0.33771756 -0.18158789
-0.21164708 -0.26289064 -0.1932015 -0.28642187 -0.22057314 -0.19129193 -0.2372819 -0.23580603
-0.24793638 -0.22422916 -0.22817217 -0.2688395 -0.2788586 -0.24393578 -0.16706944 -0.17957564
-0.18094067 -0.18650182 -0.19881167 -0.18940307 -0.22739473 -0.3421155 -0.34652254 -0.30049202
-0.25513247 -0.27383372 -0.20472662 -0.2016388 -0.20715652 -0.21590185 -0.17814054 -0.18045822
-0.27338982 -0.15833095 -0.3727643 -0.24250692 -0.2536599 -0.22071895 -0.20313957 -0.20144646
-0.2701869 -0.23099644 -0.25826734 -0.2811992 -0.14819276 -0.26307774 -0.20466636 -0.20915389
00000000: ab47 86be 8e9f 43be a5bb 84be 9107 2dbe
00000010: 64f5 9dbe b599 acbe 0c47 8ebe 45bb 55be
00000020: e19c 83be 548c 7fbe d8f6 2ebe 4487 5ebe
00000030: b49d 3dbe 5e9c 5fbe 51e9 acbe 2df2 39be
00000040: 03ba 58be 9a99 86be 9dd6 45be e3a5 92be
00000050: eddd 61be 08e2 43be 07fa 72be 2377 71be
00000060: 09e3 7dbe 549c 65be f7a5 69be 55a5 89be
00000070: 8ec6 8ebe 4dca 79be 4014 2bbe ade2 37be
00000080: 8348 39be 55fa 3ebe 4995 4bbe e1f2 41be
00000090: 2ada 68be c329 afbe 676b b1be 17da 99be
000000a0: b9a0 82be ef33 8cbe dba3 51be 677a 4ebe
000000b0: d720 54be 6015 5dbe 796a 36be 0aca 38be
000000c0: c0f9 8bbe 8221 22be f6da bebe bc53 78be
000000d0: b6df 81be 2604 62be d203 50be fb47 4ebe
000000e0: f055 8abe 558a 6cbe 9e3b 84be 57f9 8fbe
000000f0: d8bf 17be 20b2 86be 0f94 51be 702c 56be

model.9.running_mean f4 [64]
-0.54581636 -0.4440314 -0.523924 -0.09239049 -0.50758755 -0.71613467 -0.6195892 -0.45983115
-0.1860241 -0.69277716 -0.29463622 0.0150644705 0.11652325 -0.08400077 -1.0023838 -0.15003267
-0.31307194 -0.29050136 -0.14182085 -0.042363863 -0.5008456 -0.057008155 -0.30294773 -0.30353913
0.06799961 -0.431376 -0.17702204 -0.11089072 -0.46913698 -0.61070657 0.008457039 -0.004926811
-0.24087973 0.011632292 -0.4476534 -0.10141687 -0.59252435 -0.8464973 -0.6701527 -0.6841739
-0.6428237 -0.1035065 -0.17210865 -0.16249152 -0.16166249 -0.81834185 0.032669865 -0.2935303
-0.06344062 0.07365586 -0.5435573 -0.45166177 -0.486409 -0.36307856 -0.6712154 -0.49321902
-0.66977155 -0.13274789 -0.35051453 -0.5846933 -0.79435956 -0.57290965 -0.69815445 -0.14930256
00000000: 9fba 0bbf 1558 e3be e21f 06bf 3a37 bdbd
00000010: 42f1 01bf 9a54 37bf 669d 1ebf fd6e ebbe
00000020: 1a7d 3ebe d859 31bf 8fda 96be f8d0 763c
00000030: bea3 ee3d 9808 acbd 1d4e 80bf 2aa2 19be
00000040: f74a a0be 98bc 94be 7c39 11be bb85 2dbd
00000050: 6b37 00bf 6281 69bd f71b 9bbe 7b69 9bbe
00000060: 6143 8b3d 51dd dcbe 4445 35be ac1a e3bd
00000070: b932 f0be 4457 1cbf 648f 0a3c 1671 a1bb
00000080: 2da9 76be 5e95 3e3c d432 e5be a6b3 cfbd
00000090: adaf 17bf 0cb4 58bf 218f 2bbf 0526 2fbf
000000a0: 1890 24bf 37fb d3bd 403d 30be 2d64 26be
000000b0: da8a 25be da7e 51bf d6d0 053d 9a49 96be
000000c0: 28ed 81bd e2d8 963d 9226 0bbf 3640 e7be
000000d0: 9a0a f9be 6fe5 b9be c6d4 2bbf 3487 fcbe
000000e0: 2676 2bbf 10ef 07be a476 b3be 76ae 15bf
000000f0: 265b 4bbf 35aa 12bf 40ba 32bf c5e2 18be

model.9.running_var f4 [64]
0.3382634 0.38616917 0.61357015 0.2673441 0.68631834 1.4814214 0.95166415 0.732643
0.17173153 1.3160948 0.6746766 0.31171924 0.5017064 0.4209728 1.6002706 0.501821
0.2867418 0.52137226 0.23465769 0.37745333 0.65011054 0.3603526 0.30756393 0.77924544
0.3091831 0.6706295 0.6397033 0.32571474 0.5232252 1.1823556 0.3435607 0.7541602
0.32972306 0.46307367 1.0151702 0.41812834 0.82947093 1.32801 0.9163052 0.88373715
1.2241071 0.23276837 0.48630336 0.2968149 0.17395401 1.8057042 0.29950142 0.781299
0.45963678 0.35828248 1.0309064 0.3105007 0.67011774 0.8973767 0.32064664 0.690416
1.4184738 0.5299949 0.78079444 1.0283769 0.9356799 0.71113586 0.54416645 0.8045417
00000000: dc30 ad3e f7b7 c53e ef12 1d3f 53e1 883e
00000010: 8fb2 2f3f 379f bd3f 43a0 733f 7e8e 3b3f
00000020: 64da 2f3e cb75 a83f 9bb7 2c3f aa99 9f3e
00000030: d56f 003f bf89 d73e abd5 cc3f 5777 003f
00000040: d2cf 923e a778 053f 1b4a 703e 9041 c13e
00000050: a56d 263f 2380 b83e 0579 9d3e a17c 473f
00000060: 3f4d 9e3e 60ae 2b3f 98c3 233f 15c4 a63e
00000070: 16f2 053f 6e57 973f 30e7 af3e a510 413f
00000080: 76d1 a83e fe17 ed3e 19f1 813f eb14 d63e
00000090: 3558 543f 3bfc a93f fa92 6a3f 993c 623f
000000a0: 8baf 9c3f d55a 6e3e c1fc f83e 1ff8 973e
000000b0: 0021 323e 5121 e73f 4058 993e 3603 483f
000000c0: 8355 eb3e cd70 b73e bef4 833f f3f9 9e3e
000000d0: d68c 2b3f 7bba 653f cc2b a43e 1abf 303f
000000e0: 8d90 b53f bfad 073f 25e2 473f dba1 833f
000000f0: b888 6f3f 000d 363f 7e4e 0b3f 72f6 4d3f

model.12.weight f4 [1, 64]
-0.001751409 -0.001979104 -0.0017414722 -0.0011711919 -0.0020195309 -0.006490803 0.0018605887 -0.0035760473
0.005598771 0.0064619468 0.00029757494 -0.005375746 0.0030421636 -0.0023234554 0.011565171 -0.0062731723
-0.0019038832 -0.00780268 -0.002398416 -0.008293147 0.007944489 -0.0027228727 0.00014048179 -0.0065343874
0.0066414448 -0.0006611546 0.0049279057 0.0112727 0.0020472002 0.0019103704 -0.0038289474 0.002363839
-0.012828577 0.002354163 0.0043154527 0.00094431156 -0.0011892773 -0.0024218971 -0.0007783461 -0.0015935776
0.0057089967 -0.0009124837 -0.003808429 -0.0035900506 0.0006129481 0.010230775 -0.0036661143 0.01083367
-0.0066010794 -0.00608605 -0.0014214385 -0.004543439 0.0029515196 -0.00067982613 0.0035270392 -0.0025605645
-0.0040029422 0.000410232 0.0038067673 0.0061631636 -0.010975731 0.0078567965 -0.007815438 0.0031771283
00000000: 898f e5ba dbb3 01bb 1c42 e4ba ae82 99ba
00000010: 1b5a 04bb cdb0 d4bb ffde f33a 1e5c 6abb
00000020: e575 b73b bdbe d33b d503 9c39 0727 b0bb
00000030: 095f 473b 1d45 18bb d87b 3d3c 2f8f cdbb
00000040: b88b f9ba a0ad ffbb be2e 1dbb fbdf 07bc
00000050: 9a29 023c 3972 32bb 4b4e 1339 6a1e d6bb
00000060: 7aa0 d93b 5651 2dba 457a a13b 21b1 383c
00000070: 522a 063b 6565 fa3a 14ef 7abb a3ea 1a3b
00000080: f42e 52bc 4d48 1a3b a468 8d3b ad8b 773a
00000090: 86e1 9bba b1b8 1ebb ec09 4cba 97df d0ba
000000a0: 8912 bb3b bf33 6fba d696 79bb 0e47 6bbb
000000b0: 40ae 203a fb9e 273c 3143 70bb b57f 313c
000000c0: de4d d8bb 7d6d c7bb 904f baba 21e1 94bb
000000d0: 486e 413b 5c36 32ba e625 673b 25cf 27bb
000000e0: 1d2b 83bb 6814 d739 f57a 793b 5df4 c93b
000000f0: 8dd3 33bc cbb9 003c 530c 00bc 5e37 503b
