best_models/best_model_nn_search_1_features_70.pt (torch, 66820 bytes, 7 tensors)

model.0.weight f4 [256, 20]
-0.086073965 0.12855653 0.19966033 0.12937953 -0.2034529 0.05094729 -0.04081204 0.060415935
0.11568208 0.06589451 -0.018947857 0.09061886 -0.12509155 0.032166235 0.22909412 -0.06286558
0.1888653 -0.11894485 0.05395187 0.10993092 -0.011727128 0.0899322 0.15643124 0.22213823
-0.040805444 -0.12675759 -0.21086396 0.117044255 0.20339431 -0.15718164 0.1844412 -0.13711153
-0.07424357 -0.17919952 -0.09314122 -0.08270565 0.085303865 0.16555783 -0.031790007 0.05137786
0.038231824 -0.0073774965 0.18674771 -0.17302498 -0.22641122 0.08908861 -0.010329727 0.10936514
0.018057358 -0.018786889 -0.18276568 -0.110569745 0.15022272 0.06824163 0.09957487 0.19050775
0.15842175 -0.19477844 0.04113115 -0.1980431 0.11662759 0.11788589 0.012222197 -0.002193223
-0.12120548 0.21033387 0.14383212 -0.23008458 -0.15419266 -0.13312587 -0.06511127 0.079711296
-0.098426804 -0.065856405 0.1635902 -0.18364173 0.20060787 -0.055596426 -0.20457645 -0.16735072
0.18952025 -0.053496726 0.021543518 -0.22848229 0.15819326 0.18944424 -0.20606944 -0.20135479
-0.18052885 0.13979772 0.035546713 -0.17469627 0.08355672 -0.08742292 0.21821143 -0.092969164
0.022358252 0.18623596 0.05082552 -0.14103 0.1482702 -0.1596916 -0.10340282 -0.0066486066
0.058559988 0.1501609 0.1777979 -0.12725085 0.21257362 0.07089366 -0.18660031 -0.041812237
-0.018587844 0.014839137 -0.05692044 0.19689062 -0.1988061 0.20893933 0.112176724 0.112293266
0.13833725 -0.16300112 -0.17265764 0.18751517 -0.11512908 -0.19896825 0.1711221 0.15426804
-0.108855516 0.042739928 -0.0007156792 0.07323264 0.1914829 0.045894567 0.16693889 0.09289753
-0.1455918 0.14454672 -0.20314258 0.05473801 -0.23561059 -0.12407495 0.08269358 0.12645575
-0.08086731 -0.12298416 0.09927755 -0.010565638 0.07794019 -0.17564294 0.07725075 0.15407053
-0.17560585 0.116710946 0.06531316 -0.074099295 -0.037156187 0.07026525 -0.12487448 -0.07901498
0.12039702 -0.08946303 0.023745049 -0.1968461 0.078019135 -0.03460973 0.09797325 0.07965383
-0.011134932 -0.093480945 -0.07688823 0.00019411696 -0.038538955 -0.21159734 0.14688179 -0.053487573
-0.17684847 -0.21343128 0.040315334 -0.000285999 -0.22343518 -0.032026686 0.20146883 -0.15984777
0.16540045 0.007210704 -0.050418522 -0.047189597 0.20937902 -0.18420874 0.061594833 -0.015403141
-0.06954211 -0.22590534 -0.066733316 0.05497353 -0.08728459 0.14075266 0.18408714 -0.20765603
-0.22467019 0.18450703 0.05551505 -0.14747095 0.12067454 0.1990799 -0.10141931 0.113658525
0.21343082 -0.114258975 0.035154946 0.17944288 0.06858541 -0.12318579 -0.033197973 0.07023164
-0.13462046 0.15084405 0.087802865 0.018786892 0.052130204 0.17258719 0.1606362 -0.21159948
-0.012045038 0.09130934 -0.057499204 -0.18217844 -0.18509704 0.1826683 -0.22010335 -0.17611282
-0.016567098 -0.22488849 -0.19747463 0.14098284 -0.025083166 0.024924172 0.18381976 -0.09354973
-0.16585605 0.21424441 0.16744055 -0.16099036 -0.15879954 -0.19285041 -0.21216679 0.21635345
-0.088146575 0.06699539 -0.033659186 0.14741011 -0.18779431 -0.15648293 0.099565364 -0.05994326
00000000: 8c47 b0bd 53a4 033e c273 4c3e 117c 043e
00000010: f555 50be 1bae 503d 872a 27bd b376 773d
00000020: baea ec3d b3f3 863d 8938 9bbc 6296 b93d
00000030: 0018 00be bec0 033d a697 6a3e abbf 80bd
00000040: e865 413e 5c99 f3bd a3fc 5c3d 7623 e13d
00000050: 2423 40bc 602e b83d 832f 203e 3478 633e
00000060: 9c23 27bd becc 01be b9ec 57be e6b4 ef3d
00000070: 9946 503e 39f4 20be 27de 3c3e f766 0cbe
00000080: 030d 98bd 1480 37be d3c0 bebd 9461 a9bd
00000090: cbb3 ae3d fe87 293e 3d36 02bd 9771 523d
000000a0: f998 1c3d edbe f1bb cb3a 3f3e 762d 31be
000000b0: 58d8 67be 1774 b63d 043e 29bc d5fa df3d
000000c0: 06ed 933c f6e6 99bc ed26 3bbe 6472 e2bd
000000d0: fcd3 193e 45c2 8b3d e9ed cb3d 7714 433e
000000e0: 5039 223e 0074 47be 2379 283d cfcb 4abe
000000f0: 72da ee3d 286e f13d 9c3f 483c 2dbc 0fbb
00000100: 943a f8bd c361 573e ba48 133e 4b9b 6bbe
00000110: aee4 1dbe 2652 08be 0f59 85bd ad3f a33d
00000120: fe93 c9bd b9df 86bd 3084 273e 940c 3cbe
00000130: 266c 4d3e 14b9 63bd 7d7c 51be fd5d 2bbe
00000140: 9911 423e 621f 5bbd 087c b03c 43f7 69be
00000150: 6afd 213e acfd 413e de03 53be f32f 4ebe
00000160: 8edc 38be 2227 0f3e 6e99 113d 94e3 32be
00000170: c91f ab3d ca0a b3bd d172 5f3e 9e66 bebd
00000180: a728 b73c a4b4 3e3e 6c2e 503d 2b6a 10be
00000190: 25d4 173e 3286 23be dcc4 d3bd 8edc d9bb
000001a0: 99dc 6f3d c7c3 193e a710 363e 0c4e 02be
000001b0: e6ac 593e b230 913d 2714 3fbe 4f43 2bbd
000001c0: 8945 98bc da1f 733c 6825 69bd b29d 493e
000001d0: d493 4bbe 31f4 553e e9bc e53d 03fa e53d
000001e0: 48a8 0d3e c4e9 26be 2acd 30be fa03 403e
000001f0: ccc8 ebbd 55be 4bbe a23a 2f3e 71f8 1d3e
00000200: a4ef debd 1010 2f3d 6b9c 3bba fffa 953d
00000210: 1814 443e f1fb 3b3d 07f2 2a3e 0f41 be3d
00000220: 0416 15be 0e04 143e 9c04 50be f734 603d
00000230: e743 71be 021b febd 405b a93d 9e7d 013e
00000240: c39d a5bd 1fdf fbbd 0752 cb3d 7f1b 2dbc
00000250: 1b9f 9f3d bedb 33be a435 9e3d aac4 1d3e
00000260: 05d2 33be 2606 ef3d e8c2 853d 5fc1 97bd
00000270: 1631 18bd 3ae7 8f3d 31be ffbd 9bd2 a1bd
00000280: b692 f63d 6538 b7bd fa84 c23c 0692 49be
00000290: 7fc8 9f3d efc2 0dbd 33a6 c83d 8c21 a33d
000002a0: 4a6f 36bc f072 bfbd 9477 9dbd e08b 4b39
000002b0: 06db 1dbd f9ac 58be 2e68 163e c915 5bbd
000002c0: c417 35be bb8d 5abe b121 253d 23f2 95b9
000002d0: 31cc 64be 6a2e 03bd d84d 4e3e 22af 23be
000002e0: bc5e 293e c547 ec3b a783 4ebd e149 41bd
000002f0: 7467 563e 37a1 3cbe dd4a 7c3d 755d 7cbc
00000300: 186c 8ebd bb53 67be 7aab 88bd ed2b 613d
00000310: 43c2 b2bd 7721 103e 5781 3c3e c8a3 54be
00000320: f10f 66be 69ef 3c3e c063 633d a002 17be
00000330: 3724 f73d 9adb 4b3e edb4 cfbd cdc5 e83d
00000340: 9c8d 5a3e 9c00 eabd a2fe 0f3d e0bf 373e
00000350: 8276 8c3d d548 fcbd 99fa 07bd 9bd5 8f3d
00000360: f2d9 09be dd76 1a3e fdd1 b33d f8e6 993c
00000370: 7b86 553d b2ba 303e d17d 243e 89ad 58be
00000380: 8d58 45bc 6400 bb3d 4984 6bbd fc8c 3abe
00000390: 148a 3dbe 660d 3b3e c662 61be eb56 34be
000003a0: b9b7 87bc 2b49 66be ca36 4abe ce5d 103e
000003b0: 367b cdbc c72d cc3c 3f3b 3c3e 0097 bfbd
000003c0: 2bd6 29be e362 5b3e 8975 2b3e a8da 24be
000003d0: 599c 22be 947a 45be 4042 59be c28b 5d3e
000003e0: 3186 b4bd e134 893d 37de 09bd adf2 163e
000003f0: 274d 40be 103d 20be ede8 cb3d 1087 75bd

model.0.bias f4 [256]
-0.14747314 0.18547389 0.14722505 -0.120775625 -0.19786544 -0.056869853 -0.12175841 -0.09035311
-0.16360337 -0.014116051 0.044471957 0.16982758 -0.18111706 0.1622312 0.19297184 -0.20668374
0.053891536 0.19208163 0.1453277 0.121951535 0.17618488 -0.110631794 0.086215705 -0.12079844
0.11267401 -0.20218562 0.07915417 -0.17774197 0.0948137 0.065006725 0.108374804 -0.0872385
0.18146797 0.03543655 -0.14448443 0.20559159 -0.2220416 -0.21419293 0.103789896 -0.18430513
0.18657722 0.05576938 0.10712246 0.09213991 -0.10858756 0.20704015 0.105985686 0.21111679
-0.05690306 0.09007281 -0.22261204 -0.007892649 -0.17836758 -0.00059893494 -0.05657256 0.086461514
0.22079557 0.17915657 -0.15803109 0.20120646 -0.016292918 0.124787174 0.0006836331 0.0028552136
-0.00408279 -0.06878834 -0.059816856 0.16574761 -0.09723738 0.039785918 0.19726391 0.030754812
0.12815687 0.06505387 0.1772032 -0.12632968 -0.033598233 0.0025450482 0.1045334 -0.16930503
0.2032594 -0.096566774 0.1430894 -0.0009976802 0.03256224 -0.14627305 -0.19125374 0.023287654
0.05215008 0.15516035 0.2008652 0.20433287 -0.18872447 0.14651431 -0.11786129 -0.15908882
-0.12998745 0.16591665 0.05838487 0.026785742 -0.030856693 0.11633746 -0.10249684 -0.17947227
-0.19112508 -0.16591953 -0.029995648 0.18704742 0.03216584 0.015007218 0.05924738 0.07296257
-0.10582444 0.1890927 -0.16439068 0.21851873 0.02391591 -0.09576009 0.14054252 0.01178768
-0.16577958 -0.14301565 0.19804987 0.15951738 -0.085663624 -0.13748646 0.18069494 0.064288415
-0.1347006 0.023490576 -0.013213968 0.095431715 0.0006620308 -0.07098637 -0.18042879 -0.1355882
-0.1929324 0.045751046 -0.20038992 0.08192499 0.13960293 0.04125781 0.14229493 -0.19927706
0.12131065 0.02936843 0.08573281 -0.15129411 -0.09234525 0.19320971 -0.17742433 -0.025617808
0.080457464 0.007163054 0.14933756 0.17953978 -0.07934581 0.12370293 -0.17987473 0.10922719
-0.19167413 0.048389543 0.068943076 -0.09075307 -0.08634443 0.097991586 0.056463562 -0.19519866
-0.06764323 -0.053240836 -0.08730887 -0.030796492 0.0979295 -0.05183008 -0.0450565 0.11700028
-0.16572963 -0.12750831 0.022700408 -0.129243 0.08403656 0.0001882095 -0.19997133 -0.061763044
0.09140489 0.06476648 -0.20862368 0.13128972 -0.0068791546 -0.15161136 0.16989265 0.04070574
0.19903886 -0.08235666 0.100483455 0.034002308 -0.12119416 -0.14959812 -0.11208356 -0.21586466
0.1156379 -0.04507728 0.18391627 0.13007875 0.11451204 0.08582558 -0.17661983 0.013912663
0.049832303 0.02248236 -0.025441967 0.18077554 0.1239825 -0.16836795 -0.04101779 0.03174844
-0.09400116 -0.106854506 0.11747829 0.08020064 -0.026206397 -0.075117014 0.17126 -0.12049287
0.18623428 0.109705195 0.04403971 0.19629899 0.18329357 0.021643067 0.1125075 0.019144857
-0.19156648 -0.21597217 -0.07805149 -0.13421042 -0.052723255 0.09182454 -0.16739838 -0.070108406
0.10524916 0.009918574 0.11522699 -0.2086673 0.15367316 -0.11241233 -0.13614479 -0.113325566
0.083077595 0.23301476 -0.17545721 0.21327925 -0.08567917 -0.13878335 0.08588403 -0.0458379
00000000: 3303 17be deec 3d3e 2ac2 163e 3659 f7bd
00000010: 3d9d 4abe 5df0 68bd 795c f9bd 0d0b b9bd
00000020: a487 27be 0247 67bc 3a28 363d 48e7 2d3e
00000030: c076 39be f01f 263e 699a 453e e7a4 53be
00000040: 5fbd 5c3d 0cb1 443e c9d0 143e bac1 f93d
00000050: cf69 343e ec92 e2bd dc91 b03d 2c65 f7bd
00000060: a2c1 e63d bf09 4fbe 951b a23d fe01 36be
00000070: af2d c23d 3f22 853d 9cf3 dd3d 19aa b2bd
00000080: bdd2 393e ea25 113d baf3 13be 9a86 523e
00000090: e05e 63be 6455 5bbe cc8f d43d 7cba 3cbe
000000a0: 190e 3f3e 6f6e 643d 0563 db3d d9b3 bc3d
000000b0: 2863 debd 5502 543e 060f d93d 002f 583e
000000c0: 2f13 69bd 1878 b83d 69f4 63be 2b50 01bc
000000d0: fea5 36be d801 1dba a1b8 67bd bc12 b13d
000000e0: 3c18 623e d274 373e e7d2 21be 1109 4e3e
000000f0: ba78 85bc 6b90 ff3d d735 333a 891e 3b3b
00000100: edc8 85bb e7e0 8cbd 8502 75bd beb9 293e
00000110: 6424 c7bd 8ff6 223d 8dff 493e 84f1 fb3c
00000120: 8e3b 033e f73a 853d c174 353e 915c 01be
00000130: 4d9e 09bd d3ca 263b 9b15 d63d 4c5e 2dbe
00000140: 3b23 503e cdc4 c5bd 0786 123e 98c4 82ba
00000150: fc5f 053d 9ac8 15be 05d8 43be c0c5 be3c
00000160: 539b 553d 5be2 1e3e 9baf 4d3e a33c 513e
00000170: fd40 41be d907 163e 4361 f1bd 2ee8 22be
00000180: 6e1b 05be 0ee6 293e f924 6f3d c66d db3c
00000190: 2dc7 fcbc 5642 ee3d dde9 d1bd 94c7 37be
000001a0: 4bb6 43be cfe6 29be 6fb9 f5bc 5c89 3f3e
000001b0: 54c0 033d d6e0 753c 61ad 723d 666d 953d
000001c0: 7cba d8bd 84a1 413e 0856 28be 60c3 5f3e
000001d0: 4ceb c33c de1d c4bd 61ea 0f3e 1d21 413c
000001e0: 1fc2 29be b272 12be 96cd 4a3e 8658 233e
000001f0: 6970 afbd 40c9 0cbe 1808 393e a5a9 833d
00000200: f4ee 09be 4f6f c03c 667f 58bc b471 c33d
00000210: 238c 2d3a 4d61 91bd 53c2 38be a2d7 0abe
00000220: 1290 45be 7365 3b3d 0433 4dbe 4ac8 a73d
00000230: 12f4 0e3e f3fd 283d c3b5 113e 490f 4cbe
00000240: b871 f83d 1096 f03c af94 af3d d8ec 1abe
00000250: 821f bdbd c4d8 453e b9ae 35be 70dc d1bc
00000260: e2c6 a43d 0db8 ea3b f2eb 183e 47d9 373e
00000270: 0e80 a2bd f657 fd3d 1531 38be 81b2 df3d
00000280: 3946 44be 1d34 463d 0732 8d3d bfdc b9bd
00000290: 59d5 b0bd d0af c83d 5646 673d 28e2 47be
000002a0: 8988 8abd 1013 5abd fece b2bd ed48 fcbc
000002b0: 438f c83d c74b 54bd 2a8d 38bd d89d ef3d
000002c0: 07b5 29be 8a91 02be 35f6 b93c 4758 04be
000002d0: 5c1b ac3d 1a5a 4539 49c5 4cbe 3ffb 7cbd
000002e0: 7d32 bb3d 4aa4 843d 72a1 55be d070 063e
000002f0: 886a e1bb 0240 1bbe 57f8 2d3e 10bb 263d
00000300: d8d0 4b3e 9caa a8bd 45ca cd3d 0146 0b3d
00000310: a534 f8bd 4030 19be 118c e5bd a00b 5dbe
00000320: 90d3 ec3d f4a2 38bd 8c54 3c3e 5d33 053e
00000330: 4a85 ea3d 52c5 af3d d4db 34be f0f1 633c
00000340: f51c 4c3d ed2c b83c ac6b d0bc 391d 393e
00000350: 89ea fd3d a668 2cbe 4502 28bd a70a 023d
00000360: ae83 c0bd 89d6 dabd 7598 f03d 3c40 a43d
00000370: ccae d6bc f3d6 99bd c85e 2f3e f7c4 f6bd
00000380: 33b4 3e3e 1ead e03d fc62 343d 9a02 493e
00000390: 4fb1 3b3e cd4c b13c 556a e63d add5 9c3c
000003a0: 012a 44be cf27 5dbe 76d9 9fbd 756e 09be
000003b0: 57f4 57bd 810e bc3d 7b6a 2bbe ff94 8fbd
000003c0: df8c d73d 8481 223c 21fc eb3d e1ac 55be
000003d0: 7f5c 1d3e 7038 e6bd 8a69 0bbe 3c17 e8bd
000003e0: 9624 aa3d 6c9b 6e3e 0eab 33be e065 5a3e
000003f0: 9078 afbd 391d 0ebe f7e3 af3d 86c0 3bbd

model.3.weight f4 [32, 256]
0.05412865 0.0118456455 -0.06704987 -0.004492538 0.028033637 -0.00415736 0.017363504 -0.011372885
-0.057150982 0.025628293 0.026513726 -0.030949289 -0.007301949 -0.049513236 -0.07751126 0.048865803
0.047397375 0.009770082 0.024425149 -0.015636023 -0.013379737 0.03278629 0.020092634 0.011142338
-0.015769247 -0.04355415 -0.04901065 -0.0041318913 -0.009748959 -0.008234863 0.027252004 0.013715646
-0.07820322 0.01166658 -0.033451 -0.044727568 0.048331786 0.014792865 -0.042061266 0.038491037
-0.0717871 0.0025209412 -0.016156737 0.03389048 -0.009414146 -0.018862892 -0.014436391 -0.048088502
-0.007670122 -0.06826613 -0.03249433 -0.020053443 -0.03896007 0.019696536 0.032233953 0.031154733
-0.005237572 -0.056403358 0.00055155304 -0.022245564 0.03388131 0.03439213 -0.02686977 0.011825008
0.035206743 0.03424636 -0.010526397 -0.03720345 0.04860728 -0.01624453 0.008738499 -0.036877006
0.03312977 0.044286933 -0.0697321 0.030482473 0.023364937 -0.04294674 -0.007344666 0.055135157
-0.008574713 0.046347484 0.00065782724 -0.060873967 0.0478421 -0.007836383 0.03249554 -0.009775145
-0.06255014 -0.022250017 -0.054480992 0.038325105 0.038892552 -0.037435155 -0.022468092 -0.04327795
0.043259673 -0.0052657085 0.05424481 -0.0024271735 0.041509062 0.015453719 -0.027030798 -0.0075379508
-0.07273337 -0.05441655 0.015186742 0.025077512 -0.059553064 -0.068977684 -0.029538997 -0.03659431
-0.046939805 0.03521878 0.04221922 0.035673272 -0.022690983 -0.037460957 -0.06065065 -0.045630775
0.01509308 -0.0580591 0.015868872 0.022336658 -0.013359 -0.0682572 -0.0063363444 -0.046541646
-0.008599455 -0.039993647 0.024036624 -0.06811522 -0.060484678 0.04243037 0.008521238 0.053577017
0.031685203 -0.019079596 0.06227179 0.02469857 0.011563136 0.012762931 0.017497525 -0.06574486
0.04608735 -0.01034561 0.0016465087 -0.038858727 -0.043273065 0.039269257 0.02605741 -0.05728036
0.031327892 0.029378708 0.013735185 -0.0091472585 -0.035091434 -0.06404924 -0.038581014 0.035608344
0.008854619 -0.012817024 -0.06835389 -0.0028747537 -0.033464253 0.050279442 -0.066955656 0.045500614
-0.017914746 0.021804074 -0.0036842495 0.042013522 -0.00093273376 -0.061499614 -0.039624635 -0.07167336
0.0202787 -0.042251434 0.047789574 0.035200942 0.04694066 -0.04911447 0.03749276 -0.0043350374
-0.016344814 -0.044631373 -0.042556025 -0.05728027 -0.06937772 -0.0028715888 0.02523043 -0.02086755
-0.0064050704 0.04077581 -0.04312818 -0.05160296 -0.03558385 -0.057930622 -0.005779109 0.04787512
0.016091954 0.046658747 0.026328726 0.014770089 0.017827094 -0.0006946821 -0.03070151 -0.050746996
-0.025847048 -0.055620134 -0.04722508 -0.05381074 0.011818623 -0.06204719 -0.07087539 0.029862192
-0.028785834 -0.021169443 -0.031458277 -0.015695399 0.0341881 -0.02900967 -0.002189638 0.01970737
-0.05368941 -0.020032108 0.016310496 -0.069922015 0.010495035 -0.075782835 0.04017378 -0.002917004
-0.03521999 -0.0155507475 -0.049589854 -0.0062726527 -0.030435378 -0.05932723 0.028466836 0.046569902
8.510913e-05 -0.043067075 0.027544506 -0.004504274 0.020018276 -0.06264243 0.04917737 -0.04280215
-0.015643377 -0.0112715345 0.027709352 -0.01289289 0.0047179763 0.00024442218 -0.048750304 -0.03192747
00000000: 01b6 5d3d 3d14 423c 7151 89bd 2436 93bb
00000010: cca6 e53c 773a 88bb e83d 8e3c 5655 3abc
00000020: 2617 6abd 6df2 d13c 5033 d93c 5d89 fdbc
00000030: 3045 efbb 64ce 4abd 39be 9ebd 8227 483d
00000040: c023 423d b212 203c 4017 c83c 1e17 80bc
00000050: af36 5bbc eb4a 063d 4f99 a43c 5a8e 363c
00000060: 822e 81bc d665 32bd 64bf 48bd d164 87bb
00000070: 19ba 1fbc 85eb 06bc 983f df3c 97b7 603c
00000080: 0329 a0bd 2f25 3f3c ea03 09bd 4134 37bd
00000090: 8df7 453d c65d 723c 6f48 2cbd c7a8 1d3d
000000a0: 1d05 93bd 6036 253b 225b 84bc bed0 0a3d
000000b0: ca3d 1abc 5a86 9abc 9d86 6cbc 73f8 44bd
000000c0: a655 fbbb 1dcf 8bbd c618 05bd 1e47 a4bc
000000d0: 9894 1fbd a15a a13c c007 043d 3638 ff3c
000000e0: f09f abbb 3507 67bd 1996 103a 543c b6bc
000000f0: 21c7 0a3d c3de 0c3d fe1d dcbc aebd 413c
00000100: f234 103d e945 0c3d e976 2cbc a562 18bd
00000110: 6d18 473d 4013 85bc ec2b 0f3c 580c 17bd
00000120: 15b3 073d 3766 353d b4cf 8ebd 61b6 f93c
00000130: d367 bf3c ece8 2fbd 86ab f0bb 67d5 613d
00000140: f47c 0cbc dcd6 3d3d 0a72 2c3a fb56 79bd
00000150: 14f6 433d 2c64 00bc 0b1a 053d ee27 20bc
00000160: 4a1a 80bd ab45 b6bc 7627 5fbd c9fa 1c3d
00000170: cc4d 1f3d 9b55 19bd 010f b8bc 3844 31bd
00000180: 0e31 313d f78b acbb ce2f 5e3d 3711 1fbb
00000190: 6805 2a3d 9831 7d3c b16f ddbc ea00 f7bb
000001a0: 3cf5 94bd e3e3 5ebd d0d1 783c 5b6f cd3c
000001b0: eaed 73bd 2c44 8dbd c4fb f1bc eae3 15bd
000001c0: f443 40bd 9141 103d 10ee 2c3d 231e 123d
000001d0: 71e2 b9bc a970 19bd d16c 78bd 56e7 3abd
000001e0: f748 773c 61cf 6dbd 70ff 813c 5efb b63c
000001f0: b5df 5abc 6eca 8bbd 1ca1 cfbb 74a2 3ebd
00000200: bae4 0cbc 61d0 23bd 74e8 c43c fe7f 8bbd
00000210: c8be 77bd 78cb 2d3d aa9c 0b3c 9373 5b3d
00000220: 58c8 013d d04c 9cbc b410 7f3d a854 ca3c
00000230: 4f73 3d3c 9d1b 513c f856 8f3c 3ea5 86bd
00000240: 17c6 3c3d a280 29bc aacf d73a 542a 1fbd
00000250: 193f 31bd cdd8 203d 5976 d53c d09e 6abd
00000260: ad51 003d 9eab f03c 8b09 613c 62de 15bc
00000270: 09bc 0fbd 3f2c 83bd 2007 1ebd 0eda 113d
00000280: f712 113c 7ffe 51bc 20fd 8bbd 5d66 3cbb
00000290: d011 09bd d1f1 4d3d 0c20 89bd da5e 3a3d
000002a0: f2c1 92bc 759e b23c 7373 71bb 5f16 2c3d
000002b0: b482 74ba 05e7 7bbd 714d 22bd 7cc9 92bd
000002c0: 841f a63c d70f 2dbd 00bf 433d dd2e 103d
000002d0: d944 403d 412c 49bd 0292 193d ee0c 8ebb
000002e0: 8fe5 85bc 63cf 36bd 3a4f 2ebd b79e 6abd
000002f0: e815 8ebd 4431 3cbb 0cb0 ce3c 6df2 aabc
00000300: a0e1 d1bb 8904 273d 2da7 30bd a05d 53bd
00000310: 5fc0 11bd a948 6dbd ae5e bdbb b418 443d
00000320: 46d3 833c 3e1d 3f3d 57af d73c 3efe 713c
00000330: 200a 923c 541b 36ba bc81 fbbc 15dc 4fbd
00000340: 30bd d3bc f0d1 63bd 166f 41bd a768 5cbd
00000350: e6a2 413c 3225 7ebd 1e27 91bd 8ea1 f43c
00000360: 45d0 ebbc 8a6b adbc 65da 00bd a393 80bc
00000370: d208 0c3d b0a5 edbc 0880 0fbb 5a71 a13c
00000380: 6de9 5bbd 601a a4bc 979d 853c 4633 8fbd
00000390: 5ef3 2b3c 0834 9bbd 438d 243d 352b 3fbb
000003a0: d642 10bd 90c8 7ebc bb1e 4bbd d38a cdbb
000003b0: 9d53 f9bc 1c01 73bd 4833 e93c 15c0 3e3d
000003c0: 9e7c b238 1a67 30bd 04a5 e13c 9798 93bb
000003d0: 5efd a33c ad4a 80bd 366e 493d 4f51 2fbd
000003e0: 8a26 80bc 3eac 38bc b9fe e23c b33c 53bc
000003f0: 4199 9a3b ca25 8039 66ae 47bd 61c6 02bd

model.3.bias f4 [32]
-0.053304307 -0.04697554 -0.03969716 0.04044724 -0.019664936 -0.046466175 -0.023936583 -0.0664246
-0.004931388 -0.061508823 -0.06737838 0.026205756 -0.025335798 0.017170727 -0.011237804 -0.0072787944
-0.007662154 -0.024872595 -0.02879924 -0.036805656 0.011254033 0.05243146 -0.031348597 0.043212038
0.0050929594 -0.06291233 0.023002116 0.021798136 0.013783428 -0.03983136 -0.07219669 0.03304372
00000000: 9e55 5abd 6d69 40bd 7d99 22bd 01ac 253d
00000010: 5c18 a1bc 5153 3ebd a716 c4bc 9f09 88bd
00000020: 7b97 a1bb adf0 7bbd adfd 89bd 74ad d63c
00000030: 058d cfbc a0a9 8c3c c41e 38bc f482 eebb
00000040: ce12 fbbb 9dc1 cbbc 62ec ebbc 87c1 16bd
00000050: d662 383c 5fc2 563d 6367 00bd 1bff 303d
00000060: d7e2 a63b 2ed8 80bd ef6e bc3c 0192 b23c
00000070: e3d3 613c 3526 23bd dcdb 93bd da58 073d

model.6.weight f4 [64, 32]
-0.037585646 0.02805916 -0.051706515 0.004837333 0.13052697 -0.090549946 0.023185045 -0.020085197
0.057958823 -0.09645642 -0.14932497 -0.0949914 0.15671088 -0.013896781 0.11219692 0.020980166
-0.06959396 -0.0121402815 -0.10640708 -0.109331034 -0.06808641 0.009946364 -0.17478593 0.08669765
-0.068899505 -0.035720803 -0.112037204 -0.1432061 -0.008288996 0.09330679 -0.13911352 0.044995006
-0.14471838 0.087158166 -0.038609635 -0.1755235 -0.102290265 -0.014772711 0.05292225 0.144488
0.14763647 -0.0826871 0.12189619 -0.17651638 -0.02628504 0.024430638 0.11001979 0.10642057
0.083756186 0.1625423 -0.026064714 0.061270427 -0.09827827 0.03817572 -0.014659216 -0.11963612
-0.03381519 0.17136785 -0.108911075 0.14122209 0.073640846 0.043709658 0.018090928 -0.122317865
-0.02340672 0.077501535 -0.09483808 -0.07231578 0.17401132 0.1388675 -0.1843661 0.13223335
0.17255142 0.16693513 0.17439044 -0.10409999 0.060690194 0.019543396 -0.13038513 -0.086732484
-0.18005253 -0.11693545 -0.09517942 -0.05322872 0.015080199 -0.07700106 -0.068262674 -0.16353273
0.032753874 0.16382937 0.029673845 -0.0076523833 -0.07734209 0.13930689 -0.08764844 0.12308903
0.09072964 -0.094048984 0.13128303 -0.09042231 -0.0793575 -0.07994653 -0.1859634 -0.08118509
-0.0090043135 0.012178696 -0.018864708 -0.038674735 0.052802347 0.049683757 0.08495578 -0.16147248
-0.029721336 0.007360838 0.03621459 0.15809022 -0.15722762 -0.020869553 -0.13865846 -0.113766216
-0.10681917 0.1572769 -0.07228829 -0.034506325 0.13304158 0.16007048 0.16609527 0.14646828
0.12116011 -0.1044129 -0.112968355 0.1495957 -0.08524757 -0.17798138 -0.17103243 -0.06468998
0.16763344 -0.14658165 0.0793785 0.09444805 -0.10065547 -0.05103777 0.07421488 -0.08566965
0.047251385 0.028127018 -0.1434366 0.034134664 -0.07511643 -0.002845443 0.00395138 -0.04489531
-0.17579138 0.10967462 0.06305499 -0.09155846 -0.14237122 0.059488554 0.107720606 0.0024828273
-0.014505919 -0.0061299736 -0.033529807 0.08767101 -0.16080974 -0.12689692 -0.0885411 0.06740196
0.16559668 -0.16993807 0.124236755 0.038579106 -0.013327092 0.11176539 0.050347403 -0.10142074
-0.024152718 0.0026592878 -0.15250114 0.02584658 0.14277925 -0.11056662 -0.09781065 -0.00075130624
-0.083722614 -0.031328436 -0.075968444 0.08267119 -0.019278726 0.10284394 0.14386111 0.071329
-0.1696471 -0.12761928 0.07629575 0.12743756 0.08919372 0.10706595 -0.03003613 0.12917188
0.048016068 -0.015483466 -0.06854581 -0.061736993 -0.17727792 -0.032094743 0.10151622 0.13366826
0.0076099853 0.122146145 -0.08510219 -0.051587414 0.057355385 -0.012064572 0.13688654 -0.08873268
-0.071760826 0.113704674 -0.09581744 0.056040097 -0.11489822 0.10147865 0.14902543 0.0081850635
-0.08421595 0.08703927 0.17025079 0.1416338 -0.08668641 -0.084237166 0.07358322 0.15029265
0.023945197 -0.050437193 -0.11953018 -0.06601662 -0.09250183 0.046095885 0.12123837 -0.033144798
0.010255066 -0.14471683 -0.03978926 -0.15502468 -0.08902719 -0.16237995 0.12163015 -0.09259386
0.13058081 -0.15811163 -0.07267752 -0.15781981 -0.18704985 0.034633495 0.014220729 -0.0818501
00000000: 68f3 19bd 53dc e53c 36ca 53bd 7e82 9e3b
00000010: dda8 053e 4072 b9bd 90ee bd3c b689 a4bc
00000020: 3b66 6d3d f28a c5bd a5e8 18be da8a c2bd
00000030: d178 203e 53af 63bc 80c7 e53d 99de ab3c
00000040: 4787 8ebd 08e8 46bc f5eb d9bd f3e8 dfbd
00000050: e370 8bbd 13f6 223c 15fb 32be 8a8e b13d
00000060: 2f1b 8dbd fa4f 12bd c373 e5bd 9fa4 12be
00000070: 92ce 07bc a117 bf3d c673 0ebe af4c 383d
00000080: 0e31 14be fb7f b23d 2325 1ebd 6fbc 33be
00000090: 8f7d d1bd 3e09 72bc 00c5 583d aaf4 133e
000000a0: 042e 173e db57 a9bd b6a4 f93d b6c0 34be
000000b0: b953 d7bc c322 c83c 0e52 e13d 07f3 d93d
000000c0: 5d88 ab3d 7d71 263e ab85 d5bc b3f6 7a3d
000000d0: 1e46 c9bd 255e 1c3d 352d 70bc c803 f5bd
000000e0: cc81 0abd 0e7b 2f3e c50c dfbd 869c 103e
000000f0: 03d1 963d e608 333d 6d33 943c ca81 fabd
00000100: 73bf bfbc 20b9 9e3d 783a c2bd 4c1a 94bd
00000110: 0630 323e 4833 0e3e 78ca 3cbe 2e68 073e
00000120: 52b1 303e 0bf1 2a3e 6893 323e 6032 d5bd
00000130: 4896 783d 7919 a03c ae83 05be cda0 b1bd
00000140: b15f 38be da7b efbd 6eed c2bd 5c06 5abd
00000150: f012 773c bbb2 9dbd 4dcd 8bbd 2075 27be
00000160: ed28 063d e3c2 273e 9016 f33c d8c0 fabb
00000170: 8865 9ebd 77a6 0e3e 0681 b3bd 1a16 fc3d
00000180: 76d0 b93d c19c c0bd 0f6f 063e 552f b9bd
00000190: 2f86 a2bd 02bb a3bd 316d 3ebe 5e44 a6bd
000001a0: d486 13bc 2789 473c 298a 9abc 6669 1ebd
000001b0: 4647 583d 3281 4b3d 4cfd ad3d 0b59 25be
000001c0: 297a f3bc 2f33 f13b c055 143d 67e2 213e
000001d0: 4700 21be a0f6 aabc 7cfc 0dbe 43fe e8bd
000001e0: 02c4 dabd 320d 213e e20b 94bd 8156 0dbd
000001f0: 0d3c 083e 84e9 233e e114 2a3e c8fb 153e
00000200: cb22 f83d 6ed6 d5bd f45b e7bd 9d2f 193e
00000210: 4796 aebd c040 36be 2023 2fbe 2e7c 84bd
00000220: 1aa8 2b3e 8019 16be 3291 a23d fb6d c13d
00000230: 7424 cebd fb0c 51bd f9fd 973d 9273 afbd
00000240: ab8a 413d a26a e63c 0be1 12be cad0 0b3d
00000250: a5d6 99bd 9d7a 3abb 947a 813b 25e4 37bd
00000260: a802 34be 169d e03d f922 813d 0083 bbbd
00000270: c3c9 11be 45aa 733d 9f9c dc3d eeb6 223b
00000280: 3caa 6dbc f2dd c8bb 8d56 09bd dc8c b33d
00000290: 4fab 24be 44f1 01be 0955 b5bd 0a0a 8a3d
000002a0: 2d92 293e 3f04 2ebe d76f fe3d 2005 1e3d
000002b0: e059 5abc 41e5 e43d 1439 4e3d adb5 cfbd
000002c0: ecdb c5bc 7247 2e3b 4229 1cbe 35bc d33c
000002d0: b934 123e c170 e2bd f350 c8bd 4ff3 44ba
000002e0: c376 abbd 3f52 00bd 5895 9bbd 834f a93d
000002f0: 6bee 9dbc d89f d23d 5450 133e f014 923d
00000300: f8b7 2dbe a1ae 02be f240 9c3d fe7e 023e
00000310: 32ab b63d 6545 db3d 550e f6bc a245 043e
00000320: 7fac 443d 5dae 7dbc bf61 8cbd eedf 7cbd
00000330: 5888 35be c775 03bd bce7 cf3d 55e0 083e
00000340: 2f5d f93b c227 fa3d 0f4a aebd 534d 53bd
00000350: 7bed 6a3d 7caa 45bc fc2b 0c3e 7bb9 b5bd
00000360: 57f7 92bd ffdd e83d ef3b c4bd 4d8a 653d
00000370: c24f ebbd 0ad4 cf3d 1f9a 183e a51a 063c
00000380: 6979 acbd a541 b23d 3956 2e3e 7308 113e
00000390: a588 b1bd 8984 acbd cdb2 963d 51e6 193e
000003a0: b828 c43c 3b97 4ebd 3dcc f4bd b933 87bd
000003b0: 9971 bdbd 0acf 3c3d d34b f83d d7c2 07bd
000003c0: dd04 283c a630 14be 10fa 22bd cabe 1ebe
000003d0: e353 b6bd ee46 26be 3a19 f93d daa1 bdbd
000003e0: fab6 053e 04e8 21be f4d7 94bd 849b 21be
000003f0: ff89 3fbe dadb 0d3d 0ffe 683c 06a1 a7bd

model.6.bias f4 [64]
0.0084073655 0.16912858 -0.09508638 0.1338297 -0.0041700825 0.11458542 -0.015534072 -0.07212437
0.1461194 -0.096939586 -0.04951528 -0.08727253 -0.15056881 -0.11802968 0.017119585 -0.03065857
-0.039913792 -0.011970461 0.043553583 -0.014828171 0.005018842 0.10054299 0.14527655 0.03667026
0.110521585 -0.05291169 0.15374246 -0.08868473 -0.014898338 -0.07232762 0.11802045 0.0032946581
0.14813419 0.09664255 0.08480285 -0.032416254 0.08699111 -0.14594455 0.02180054 -0.14393462
-0.05447352 0.15177383 -0.08382633 -0.12916 -0.0073787714 -0.10398292 0.090315945 -0.12078905
0.11449857 0.029082697 0.020282367 -0.05605677 -0.16386244 -0.003346479 -0.10332378 0.05003437
0.05303703 -0.16030008 0.14449342 -0.090274304 -0.08371493 0.14413293 0.16246793 -0.025021633
00000000: 0cbf 093c 0b30 2d3e a6bc c2bd a70a 093e
00000010: 30a5 88bb c3ab ea3d 9f82 7ebc f1b5 93bd
00000020: 53a0 153e 4388 c6bd 89d0 4abd f1bb b2bd
00000030: b62e 1abe 8bb9 f1bd 5f3e 8c3c ae27 fbbc
00000040: a57c 23bd c11f 44bc 3e65 323d dbf1 72bc
00000050: 1975 a43b 7ce9 cd3d 60c3 143e 8e33 163d
00000060: 2459 e23d eeb9 58bd aa6e 1d3e 57a0 b5bd
00000070: 2918 74bc 8120 94bd b5b4 f13d 31eb 573b
00000080: 7db0 173e 87ec c53d 1ead ad3d e8c6 04bd
00000090: 6528 b23d 7d72 15be 0c97 b23c 9963 13be
000000a0: a01f 5fbd 996a 1b3e 24ad abbd 8542 04be
000000b0: 9fc9 f1bb fff4 d4bd 91f7 b83d 4060 f7bd
000000c0: 3a7e ea3d d63e ee3c 3527 a63c c99b 65bd
000000d0: 8ecb 27be 9a50 5bbb 6b9b d3bd d7f0 4c3d
000000e0: 5b3d 593d b425 24be 15f6 133e bce1 b8bd
000000f0: bc72 abbd 9597 133e fe5d 263e 2bfa ccbc

model.9.weight f4 [1, 64]
-0.040078655 0.037954837 -0.10133028 -0.088021554 0.05750505 0.0416708 -0.0055175633 0.04014105
-0.04568703 -0.07107226 -0.11193921 0.094210744 -0.09440413 0.09049714 0.0948795 -0.041790742
-0.014695498 0.0046169176 0.00083646376 0.034318514 0.05539782 0.013874736 -0.032904673 -0.046555117
0.10302405 0.074941635 0.105785616 0.08819562 -0.041496627 0.05182895 0.07676255 -0.090241246
0.07975524 0.03130606 -0.027470566 -0.03884448 0.0089337425 -0.07282815 -0.042660072 -0.025667742
-0.11088612 0.02537381 -0.044279225 -0.08517868 0.10528578 0.032641422 0.027613385 0.00024458044
0.047491875 0.039357502 -0.0016613948 -0.044159252 0.009581766 -0.105568886 0.07721017 0.061593913
0.10882893 0.068313375 0.07396003 -0.05636435 0.017236434 -0.060921516 0.08076003 0.0011015884
00000000: 8429 24bd 8876 1b3d 4086 cfbd a544 b4bd
00000010: 6a8a 6b3d 00af 2a3d adcc b4bb f16a 243d
00000020: 5322 3bbd 558e 91bd 6240 e5bd 90f1 c03d
00000030: f456 c1bd 9156 b93d 2f50 c23d c52c 2bbd
00000040: 63c5 70bc 8349 973b 2246 5b3a 9291 0c3d
00000050: d3e8 623d dc52 633c 0dc7 06bd 94b0 3ebd
00000060: 46fe d23d 007b 993d 21a6 d83d e89f b43d
00000070: 5ef8 29bd 984a 543d af35 9d3d 67d0 b8bd
00000080: b756 a33d c83a 003d f409 e1bc 641b 1fbd
00000090: d55e 123c ed26 95bd 54bc 2ebd 2845 d2bc
000000a0: 4318 e3bd bddc cf3c 225e 35bd 2972 aebd
000000b0: 12a0 d73d 03b3 053d 7735 e23c 083b 8039
000000c0: d786 423d 5535 213d 29c3 d9ba 55e0 34bd
000000d0: d7fc 1c3c 8034 d8bd 5e20 9e3d e649 7c3d
000000e0: b4e1 de3d e2e7 8b3d 5b78 973d 4ede 66bd
000000f0: 6c33 8d3c d788 79bd 8465 a53d 2c63 903a
