best_models/best_model_nn_search_2_features_20.pt (torch, 73220 bytes, 7 tensors)

model.0.weight f4 [32, 20]
000000 a7 6f 3c be 69 5d e6 bc bb e4 a9 3d 25 21 69 bd
       -0.18401967 -0.028120713 0.0829558 -0.056916375
000010 85 ea 38 bd c4 e9 38 be a9 dd 3a 3e 08 91 1b 3e
       -0.04514553 -0.18057925 0.18248619 0.15192044
000020 4f 07 f9 3d 39 58 26 3e 90 09 eb bd a5 c5 35 be
       0.12159597 0.16244592 -0.11476433 -0.17751177
000030 82 65 1c 3e 26 27 e5 bd 23 8d 56 3e 38 35 a8 3d
       0.15273097 -0.111891076 0.20952277 0.08213276
000040 37 ab c9 3c f3 34 04 be 6e f8 2a be 9a 04 2d be
       0.024617774 -0.12910824 -0.16696331 -0.16896287
000050 9f ff b5 bd 12 70 20 3e b3 04 2a 3c 04 70 92 3d
       -0.088866465 0.15667751 0.010377097 0.071502715
000060 18 19 ad bd 89 02 ef bd fd ad 55 3c 73 ab 36 3d
       -0.08452052 -0.116704054 0.01304197 0.0445971
000070 3a 8d 0b 3d 88 f0 aa 3d 1b c5 36 bd 09 cd af bd
       0.03407023 0.08346659 -0.04462157 -0.08584029
000080 e2 9c ba 3d f6 6d f0 3d 84 37 80 be 70 71 1d 3d
       0.09111954 0.117397234 -0.25042355 0.03843826
000090 c6 5f 3e be 29 51 07 3e d5 e6 23 bd ba 62 08 3e
       -0.18591222 0.13214554 -0.04001506 0.13318911
0000a0 2b 67 bd 3d bf b9 58 3e 18 d1 3b be e6 7a 58 be
       0.09248193 0.21164607 -0.18341482 -0.21140632
0000b0 02 1b b4 bd 64 74 9e 3d 20 ae 31 be 1d 32 6d 3e
       -0.08794214 0.077370435 -0.1735158 0.23163648
0000c0 4f 23 1a be 20 bb 3c 3c 83 a9 18 be e0 d5 5d bd
       -0.15052532 0.011519223 -0.14908414 -0.054159045
0000d0 a2 f9 c6 bd 99 a5 37 3e d2 6d 6b 3e 8f c0 c3 bd
       -0.097155824 0.17934264 0.22991112 -0.09558212
0000e0 36 2a 3a 3e bf 94 0b be 86 31 29 3d 86 a1 9b bd
       0.18180165 -0.13630961 0.041306995 -0.075991675
0000f0 92 09 b5 bd 4a 6c 3a be 75 42 29 be 55 c7 c6 bd
       -0.08839716 -0.18205371 -0.16529258 -0.09705988
000100 c9 ba 85 3d 9e 4d 36 3d be 2d c6 bd 0f 1e 0a be
       0.06529767 0.044507615 -0.096766934 -0.13488029
000110 34 df dd bc 09 c7 64 be fc ec 23 3e 72 d6 24 be
       -0.02708397 -0.22341551 0.16008371 -0.1609743
000120 07 b7 d4 bd 8c 76 62 be eb 0e c4 bd c6 98 dd bc
       -0.10386472 -0.22115535 -0.09573158 -0.027050387
000130 d5 12 ea bd 93 c0 bd bd e7 85 7c be f0 8b 48 3e
       -0.11429373 -0.09265246 -0.24660455 0.19584632
000140 6a 57 24 be 52 9d bf bc a9 20 63 bd 90 26 20 3d
       -0.16048971 -0.023390446 -0.05545107 0.039099276
000150 dc 77 d3 3d ea 11 91 bd e8 2e 1d bc 40 fe 06 be
       0.10325596 -0.07083495 -0.009593703 -0.13182926
000160 76 6a 2a 3b 9e c0 b5 bc f9 e7 7e 3d 4a 64 0d be
       0.0026003397 -0.022186574 0.062232945 -0.13807788
000170 e3 cd 29 bd 61 f5 1f 3d d2 9a a3 3c 71 1f bc bd
       -0.041456115 0.03905237 0.019971285 -0.091856845
000180 8e a2 15 be 4e 1b 9d 3c a9 74 9d 3d 4c 92 05 bd
       -0.14612791 0.019178059 0.07688267 -0.032610223
000190 40 13 e0 3d 4a 0f 55 3e ec fd ff bd 98 5f 89 3d
       0.10941172 0.20806614 -0.12499604 0.06707686
0001a0 d3 6d 07 3e 18 dd 1e be 36 30 79 bd 31 4d 0b 3c
       0.13225488 -0.15514028 -0.060836993 0.008502291
0001b0 7c 89 d6 bd 45 c1 cc bd e8 95 03 3e 22 75 cb 3c
       -0.10475442 -0.09997801 0.12850153 0.024836127
0001c0 ea 43 67 bc cd e0 30 bd 71 83 24 bc 91 4b 89 3d
       -0.014115313 -0.043183137 -0.010041104 0.06703866
0001d0 87 3d 20 be 53 97 83 bc 1e 58 3c 3d 23 38 3c 3e
       -0.15648471 -0.016063368 0.045982473 0.1838079
0001e0 5d 80 78 bd 76 b2 87 bd 38 4d 75 3c 58 f0 c4 3c
       -0.06066929 -0.066258356 0.014972024 0.024040386
0001f0 0c 18 1e be 9d 02 2a 3e d2 b5 19 3d f7 55 36 be
       -0.1543886 0.1660256 0.037526913 -0.1780623
000200 b9 6a 37 3e c7 71 b8 bd 7d 03 7b 3d 9d 32 c3 3d
       0.17911805 -0.09006076 0.061282624 0.09531138
000210 6c 05 46 3e 6a e9 34 bd 25 0a 26 3e 0c 66 23 be
       0.19338006 -0.044167913 0.16214807 -0.15956897
000220 6d 29 03 3e a0 d2 8f bd 7f 2d f2 3d d7 ab c0 3d
       0.12808771 -0.070225954 0.11825084 0.09407776
000230 60 d7 4b bd ff 26 2e 3d c2 8e 3b 3e c4 d0 a9 3d
       -0.049765944 0.04251766 0.18316177 0.08291772
000240 17 53 96 bd 3f 7c 31 3e 6d 48 22 be 6e 12 c4 bc
       -0.07340067 0.17332552 -0.1584794 -0.02393457
000250 59 b2 25 3e 34 9b 30 3e 7e 9c 82 3d 62 82 f4 3d
       0.16181315 0.17246705 0.06377505 0.11938931
000260 24 25 ae 3b a2 b3 45 bd a9 87 30 3e 27 25 08 bd
       0.005314486 -0.048267014 0.1723925 -0.033238556
000270 14 3e 6c 3e d8 d4 e6 bb 7d d3 75 bd f4 a1 39 be
       0.23070556 -0.007044416 -0.060016144 -0.18128186
000280 19 88 2e 3e 80 a5 39 3d 1d 58 4b be 42 20 11 3e
       0.17044105 0.04532385 -0.19857831 0.14172462
000290 ea 09 cc 3c 51 bd 70 bd 63 cd cb bd b8 1b 9b 3b
       0.024907071 -0.058774296 -0.09951284 0.004733529
0002a0 15 ed 0b 3e 8a 61 ba bd 47 78 05 3e 61 6f 2b be
       0.13664658 -0.09100635 0.13034163 -0.16741706
0002b0 d1 5b 0b be 00 76 9d 3d ae 74 e2 bd f7 05 32 3d
       -0.13609244 0.07688522 -0.11057411 0.04346272
0002c0 c7 33 06 bd 2f c4 0e be d7 ae 8a ba 62 64 84 bd
       -0.032764222 -0.13942026 -0.0010580671 -0.06464459
0002d0 81 cb 8f bd 84 ec 1a be b7 14 13 3e 3b db a9 3c
       -0.07021237 -0.15129286 0.14363371 0.02073442
0002e0 68 60 72 be ba 86 69 3d dd fa 1e 3e df a2 4e 3d
       -0.23669589 0.05701325 0.15525384 0.050448295
0002f0 87 d9 3b 3e 29 1e 6a be 09 4a 3f be 81 3a 27 3d
       0.18344699 -0.22863068 -0.18680586 0.040827278
000300 61 64 1f 3e dd 7d 8d 3d 67 d6 18 be 10 40 63 3d
       0.15565635 0.06908772 -0.14925538 0.055481017
000310 dc 7d d2 3d ca 80 0c be 8b b3 36 3d 5b 9f 69 3e
       0.10277912 -0.13721004 0.04460482 0.22814696
000320 b6 33 89 3d 8d a4 33 be 9a 50 4d 3d 94 7b 1a bd
       0.06699316 -0.1754324 0.050125696 -0.03771551
000330 b8 92 27 be a0 5b 6d be cc 14 2c 3e 17 0d 56 3d
       -0.16364563 -0.23179483 0.16804808 0.052258577
000340 11 ef 0b be e2 f7 82 be 2f 0d 11 3e eb 54 a8 bc
       -0.13665415 -0.25579745 0.14165185 -0.020548305
000350 38 e0 98 3d 6f d0 72 be 62 2e 42 be f5 6b 95 3b
       0.07464641 -0.23712324 -0.18963006 0.0045599886
000360 95 7d 09 be 02 b3 b6 3d c3 f8 2a be b2 5a 1e be
       -0.13426812 0.08920862 -0.16696458 -0.15464285
000370 a3 56 ad bc 67 28 cc bd 74 2c b0 bd a8 72 99 bc
       -0.021159476 -0.09968644 -0.08602229 -0.01873143
000380 d5 00 80 bd 66 b8 5b bd 9f 76 81 be e1 df 08 be
       -0.06250159 -0.053642653 -0.25285813 -0.13366653
000390 4a 40 39 3e 0e b8 32 3e 0a 95 27 be db f0 29 3e
       0.1809093 0.17453024 -0.16365448 0.16595785
0003a0 1d 87 cd bd 5f 41 c3 3c 41 be 87 3d bd de b5 3d
       -0.100355364 0.023834882 0.06628085 0.088803746
0003b0 7e 71 3f bd 43 83 2f be 41 27 8e bd e1 0e 84 be
       -0.046739094 -0.17139916 -0.06941081 -0.25792602
0003c0 44 55 2f be f2 51 65 be 8c 29 01 bb 50 2b 3f 3e
       -0.1712237 -0.22394541 -0.0019708602 0.18668866
0003d0 df c2 96 3d 57 23 c2 bd a8 52 5a be 2f cc 0c be
       0.073613875 -0.09479397 -0.21320593 -0.13749765
0003e0 58 f1 c2 bd f7 33 c0 3d 56 62 19 3d 6f 59 2b be
       -0.09518689 0.093849115 0.037447296 -0.16733335
0003f0 37 46 f1 3c 75 16 fe 3b 16 e1 1e 3e 4c a0 bb bd
       0.029452426 0.007754142 0.15515551 -0.091614336

model.0.bias f4 [32]
000000 ae 2a d5 bd f0 8c 2d be c3 39 00 be 39 3f 26 be
       -0.10408531 -0.16948295 -0.12522034 -0.16235055
000010 4e 3e 61 3d 10 09 d2 bd 45 3a 20 be aa 4b 85 bb
       0.05499106 -0.10255635 -0.15647228 -0.0040678577
000020 31 a9 e9 3d 4b ca 06 3c 7d 46 f8 3d 94 eb 23 3e
       0.11409224 0.008226941 0.121228196 0.16007835
000030 bc 15 9d 3b 38 1f 46 be a2 13 01 bd c6 15 1c be
       0.0047938507 -0.19347847 -0.031512864 -0.15242681
000040 6c fa d3 3d 1a 78 03 3e 1f 5d e0 bc a8 93 17 be
       0.103504986 0.12838784 -0.027388154 -0.1480242
000050 51 4e ca 3d 5f f2 06 3e 14 97 a2 bd 31 55 8d 3d
       0.09878219 0.13178395 -0.07938972 0.069010146
000060 b4 76 76 be f2 35 17 be fa 42 f6 3d 75 0a 9d bd
       -0.24068719 -0.14766672 0.120244935 -0.0766801
000070 df 05 e0 bd 9d cb 6b be 31 e3 8f 3d 03 15 22 bd
       -0.1093862 -0.23026891 0.07025755 -0.03957082

model.3.weight f4 [256, 32]
000000 37 13 17 3d 8e d7 a3 bd 14 dd bd bd e8 88 0b be
       0.03688356 -0.08000098 -0.09270683 -0.13626444
000010 98 01 3b be 37 a2 01 be 58 4c 15 3e 28 ce 0e be
       -0.18262327 -0.12659536 0.14579904 -0.1394583
000020 de 50 ae 3d d8 d4 14 bd 2c 76 23 be b2 36 85 3d
       0.08511518 -0.036335796 -0.15963048 0.06504573
000030 e2 a1 8b bd c8 24 8f bb 65 36 cb bd 07 8b 1d 3e
       -0.06817986 -0.0043683983 -0.09922484 0.15385066
000040 9a 50 7e 3d b4 36 ad bd 63 32 ab bd 7d 58 e1 bd
       0.062088586 -0.084576994 -0.0835922 -0.11003206
000050 8e fa a0 3d a6 4a 4f bc e8 b6 de bb 84 bb 80 bd
       0.078602895 -0.012652075 -0.0067967065 -0.06285766
000060 e5 ef ee 3d 03 1c 06 3e ae 3c 89 3d 0f 16 b4 3d
       0.1166685 0.13096623 0.06701027 0.0879327
000070 99 03 a0 bd d0 c1 c7 3d a7 4d 99 bd c4 7b 1c be
       -0.07813186 0.09753764 -0.07485514 -0.15281588
000080 fd df 35 be c6 aa 9a bd cd 4f 1f bd e3 b0 2e 3e
       -0.17761226 -0.07552104 -0.038894463 0.17059664
000090 79 c0 11 3d c1 1f 71 bd 14 92 3e bc d7 bd 0b 3e
       0.035583947 -0.058868174 -0.011631507 0.13646637
0000a0 b0 b5 24 bc 78 3b 5a bc 60 81 8e bd 74 79 3c 3c
       -0.010053083 -0.0133198425 -0.0695827 0.011503566
0000b0 24 38 b9 3d 5f 3f e0 bd 49 fb 04 be d0 c5 40 3e
       0.09043911 -0.10949587 -0.12986483 0.1882546
0000c0 5d 0c 27 be 48 8f f1 bd 29 76 f5 3b 8d 6e db 3d
       -0.1631331 -0.11794907 0.0074908924 0.10714445
0000d0 8c 9b 0b be ca f1 3e be e6 a9 fe 3c cf 4e 00 bd
       -0.13633555 -0.18646923 0.031086873 -0.031325158
0000e0 9f 9f 89 bd fe 0e fd bd 1e 5c 12 be fd a6 20 bd
       -0.067198984 -0.12356375 -0.14292952 -0.039221752
0000f0 96 78 bb 3d 72 f8 89 bc 00 3a 45 3d 1f 46 09 be
       0.09153859 -0.0168421 0.048151016 -0.13405655
000100 12 d7 4b bc c8 82 1e be 4a 11 07 3e e5 85 59 bd
       -0.0124414135 -0.15479577 0.13190189 -0.053106207
000110 d7 61 e5 3d 21 02 1e be af e5 5f bd 9d e8 36 bd
       0.11200302 -0.154305 -0.054662403 -0.04465543
000120 e8 7d 97 bd f2 58 a3 3d b5 ac 29 be 6b 5b a4 3c
       -0.073970616 0.07975949 -0.16569789 0.020063123
000130 d1 cf 08 3e 6e ba ef 3d 72 4a 28 be 8d 56 24 3d
       0.13360526 0.117054805 -0.16434649 0.040121604
000140 4b 79 76 3c 80 60 6a 3d 36 58 9a bd 83 7f 39 3d
       0.015043567 0.057220936 -0.07536356 0.04528762
000150 11 23 42 be bb 79 19 3e 72 fc c1 3d ec c8 17 3e
       -0.1895869 0.14987843 0.09471978 0.1482274
000160 ea 61 d8 3d 32 47 a0 bd 51 e0 f3 3d d7 20 20 bd
       0.105655506 -0.078260794 0.11908019 -0.03909382
000170 1b 02 d3 3d ab 42 12 be a1 3b d3 bd 40 de 05 3e
       0.10303136 -0.14283244 -0.10314108 0.13073063
000180 60 cb 88 bd 6e 57 0b 3e 4c 74 40 bd b1 b0 b0 3c
       -0.06679416 0.1360757 -0.04698591 0.021568628
000190 54 b6 c1 bd be 38 2c be cc f8 d8 3d eb 9c 21 3d
       -0.094586045 -0.1681852 0.10594329 0.03945629
0001a0 75 8e ac bd d3 46 23 bd 44 56 40 bc f3 11 89 bd
       -0.08425609 -0.039862465 -0.011739317 -0.06692877
0001b0 86 f9 9b bc bb 1f 80 3d df f0 2f 3e 49 94 34 bd
       -0.01903988 0.06256052 0.17181729 -0.04408673
0001c0 82 dd 26 3e d5 e1 6f bd 72 71 16 3d 59 7e a0 3d
       0.16295436 -0.05856498 0.036729284 0.07836599
0001d0 62 49 69 3d 08 6f 32 3e 68 f9 ec bb 1c 0c 6c bc
       0.05695475 0.17425168 -0.00723188 -0.014407184
0001e0 23 82 31 be 6d 3a ac bd a1 a0 1d 3e 45 2a f8 3d
       -0.173348 -0.08409581 0.15393306 0.12117437
0001f0 b8 02 e3 bd 0d d2 96 3d be f0 b0 bd 05 48 4d be
       -0.11084503 0.07364283 -0.08639668 -0.20047005
000200 b0 29 19 be 33 6b cd bb e3 43 c3 3a fa 21 8b 3d
       -0.14957309 -0.0062688827 0.0014897551 0.0679359
000210 ea 5b 8a bb d4 5f fc 3d 4f 47 2c be 44 6f 38 3d
       -0.004222383 0.12322965 -0.16824077 0.045027986
000220 18 b1 08 be 60 3f 97 bd 97 2f 06 3e 29 5e 30 be
       -0.13348806 -0.07385135 0.13104092 -0.17223419
000230 b9 f4 d9 bd 5c 39 fc bd 68 6a 03 bd 71 6b ab 3d
       -0.1064238 -0.12315628 -0.0320839 0.08370102
000240 5d 33 53 3d 8d 31 11 3e c3 5f dd bd 4b 8e 25 be
       0.051562656 0.14179058 -0.10809281 -0.16167562
000250 f1 e3 2b bd c0 55 e6 3d b8 e9 07 bd cb ee 11 3e
       -0.04196543 0.11246824 -0.033181876 0.14251249
000260 b0 ce 5e 3c fa 1f 89 bd 20 fb 60 bd 4f b9 08 be
       0.013599083 -0.06695552 -0.05492699 -0.1335194
000270 4b 19 30 3e af 38 22 3e 70 99 1c 3e b6 f1 77 bc
       0.17197149 0.15841936 0.15292907 -0.015133312
000280 68 9f 12 be 65 a8 70 bb a1 4a 43 be e2 94 f8 bd
       -0.14318621 -0.0036721465 -0.19071437 -0.12137772
000290 10 a0 1b be f7 2e c1 bd bb 14 de bd 25 ef 8a bd
       -0.15197778 -0.09432786 -0.10843798 -0.067838944
0002a0 1a c8 a6 bc 61 54 02 be 0c 3d 23 bd 02 5b eb 3d
       -0.020359088 -0.127275 -0.03985314 0.11491968
0002b0 29 39 34 bd 9b 3d 91 3d f4 42 bc bd 93 45 69 bd
       -0.043999825 0.070918284 -0.09192458 -0.056951117
0002c0 da 3e ec 3c 17 8b 97 bd b4 f0 37 bd df e5 4f 3d
       0.028838564 -0.07399576 -0.044907287 0.05075633
0002d0 e6 40 39 bc a3 26 e4 bd 77 81 af bd 91 36 3c 3d
       -0.011306977 -0.11140182 -0.08569615 0.045950476
0002e0 bf 3c eb 3d 5e 89 1b 3c 6a d0 4c bc 22 e7 6d bb
       0.11486196 0.0094932 -0.012500862 -0.0036301096
0002f0 34 75 e3 bd c2 b7 06 3e 9e ad 0d 3e fd 04 67 bd
       -0.11106339 0.13156036 0.13835761 -0.05640124
000300 f9 a7 cc bc c9 03 42 bc cf f5 f1 bd 0a 8e eb 3c
       -0.02498244 -0.011841723 -0.118144624 0.028754253
000310 85 1c 8e 3d e6 85 e9 bd 93 82 7d 3d 76 69 05 3e
       0.069390334 -0.11402492 0.061892103 0.13028511
000320 2d b5 a9 bc 84 df a4 bc 3a a8 b8 bd 00 75 fa bd
       -0.020716274 -0.020126112 -0.09016462 -0.12229347
000330 1a 3b d8 3c cf 28 8c bd 61 2b 44 be e6 a4 c6 3d
       0.02639537 -0.06843721 -0.19157173 0.09699421
000340 77 20 df bc c6 fc 96 3c 8d 5a c9 bd 63 b5 3f be
       -0.02723716 0.018431079 -0.09831724 -0.18721537
000350 42 8d 1c bd a0 6f 25 be aa 6d d1 bd ef 86 13 be
       -0.03822065 -0.16155863 -0.10225995 -0.14406942
000360 68 94 11 3e 45 80 b1 bd d3 12 1e 3d d8 93 b3 3d
       0.14216769 -0.086670436 0.03859217 0.08768433
000370 92 64 72 3d de ba 0f 3e a1 92 a1 bc 11 0f 3d be
       0.059177943 0.14036128 -0.019723238 -0.18462779
000380 3c 40 b2 3d 95 74 5d 3d 26 b8 84 3c aa 91 ab bd
       0.08703658 0.05406626 0.01620109 -0.083773926
000390 7e 9d 63 bd 4d 18 b1 3d 76 1f c7 bd e7 ab cb 3a
       -0.055570118 0.08647213 -0.097227976 0.0015538902
0003a0 dd 61 d1 3c b4 63 e3 bc b2 7d 09 be c2 59 21 3e
       0.02555936 -0.027757503 -0.13426855 0.15756896
0003b0 50 6a 9a 3d c9 9a 3e 3d ec 99 24 be 3f 0e c3 bd
       0.07539809 0.046534333 -0.16074342 -0.095242016
0003c0 40 2e 18 be 46 c9 5f 3c 4f 21 2f bd 44 71 b4 ba
       -0.14861393 0.013658827 -0.042756375 -0.0013766666
0003d0 40 da aa bd 14 ac c5 bd 89 d2 25 3e 50 b8 7d bd
       -0.08342409 -0.09651962 0.16193594 -0.061943352
0003e0 f8 d0 34 3e fe 0c 33 be c8 a5 96 bc 88 be aa bd
       0.1765784 -0.17485425 -0.018389598 -0.08337122
0003f0 80 16 7d bd 75 e6 49 3d 65 ea 0b be 87 7b 2b 3e
       -0.061789036 0.049292047 -0.13663633 0.1674634

model.3.bias f4 [256]
000000 ef 75 da 3d 89 b3 8e bc fd c8 10 3d 72 18 92 bd
       0.10667025 -0.017419593 0.035347927 -0.07133569
000010 21 cc 6b bd 58 db c3 3d 99 c1 7c 3d 71 54 48 bd
       -0.05756772 0.09563321 0.061708067 -0.048908655
000020 14 c6 02 3e a4 40 5f 3d d8 d1 a8 bd e8 97 f1 bd
       0.12770873 0.054505005 -0.082431495 -0.11796552
000030 57 c3 0a bd 0b 3f 93 bd 3b 9d ac 3d d3 86 17 bd
       -0.033877697 -0.07189759 0.08428427 -0.036993813
000040 7e f8 e7 3d 6e 96 ec bc 2d 04 39 3d 8f cd 87 3d
       0.11326693 -0.028880324 0.045169998 0.06631004
000050 5d 1f 43 be ca 83 80 3d 8a 99 56 bd d1 4a c5 bc
       -0.19054933 0.06275137 -0.05239252 -0.024083527
000060 e0 59 e9 bb 15 74 d3 3c bd 22 cb 3d a8 2f 97 bc
       -0.0071213096 0.025812188 0.09918735 -0.018455341
000070 fd fa 47 bd 01 c2 18 3e 8e 6e cd bd 46 fc 46 3d
       -0.048823345 0.14917757 -0.10030852 0.04858043
000080 1d 66 95 bd 78 54 30 be 03 ce d5 bd 2e af da 3d
       -0.07294867 -0.17219722 -0.10439684 0.10677944
000090 ec dd 9a 3d f7 8f 31 be 31 a4 83 3d be 26 da 3d
       0.075618595 -0.17340074 0.064278014 0.10651921
0000a0 7c 66 a4 3d ff 56 2e bd 27 83 12 be d6 c8 06 3c
       0.0802736 -0.042563435 -0.14307843 0.008226594
0000b0 54 d7 a0 3d 55 f3 8f 3d a0 82 f0 b8 0d 5a 05 be
       0.078535706 0.07028834 -0.000114684226 -0.13022633
0000c0 3a 40 86 3d c4 a8 62 bd a0 c3 55 3d a6 ae 58 3d
       0.06555219 -0.05533673 0.052188516 0.052900933
0000d0 71 92 2b bd 46 89 a2 ba d0 4e 89 3d f5 67 9f 3d
       -0.041887704 -0.001240053 0.067044854 0.077835
0000e0 db 89 2c 3e 48 72 13 3e 76 90 44 be 4b 13 b8 3c
       0.16849463 0.14399064 -0.19195732 0.022470137
0000f0 4c 46 8c 3c 39 c2 6f bd 96 5c cb 3d 36 3d ed bc
       0.017123364 -0.058534835 0.09929769 -0.028959852
000100 67 36 56 3d f5 79 e6 bd ef 61 de 3d 73 b0 36 bd
       0.052297976 -0.1125373 0.10858523 -0.04460187
000110 42 5a a6 3c 44 6a a8 3d 84 34 34 bc 8a c3 12 be
       0.02030671 0.082233936 -0.010998849 -0.14332405
000120 92 ef c1 3d 29 a2 d9 3d 3c 1d 9b bd 08 b0 22 be
       0.094695225 0.10626633 -0.075739354 -0.15887463
000130 db bd ff bd f4 70 b5 3d 7a 5e 92 3d 37 6f d8 bd
       -0.12487384 0.08859435 0.07146926 -0.105680875
000140 17 2d f8 bd 5a 03 b4 3c ff 1b fb bd 44 b4 c6 3c
       -0.12117975 0.021974254 -0.12261199 0.02425588
000150 5e c7 e5 bd e0 0b 3f be d7 65 c8 3d 6b 4d 82 3d
       -0.11219667 -0.18656874 0.097850494 0.063624226
000160 ca 4f 88 bd d0 70 07 3e 9b fc db bd aa eb e5 bb
       -0.066558436 0.13226628 -0.1074154 -0.0070166187
000170 b9 13 30 be 7c d7 8c bc d7 a2 8b 3d 77 03 12 be
       -0.17195024 -0.017192595 0.068181686 -0.14259134
000180 9b 22 9f bd 0a ea 17 be 56 42 00 3e fe f9 b5 3d
       -0.07770272 -0.14835373 0.12525305 0.08885573
000190 3c 43 9a 3d 9f 16 2e be 58 aa aa 3d af 41 51 3d
       0.07532355 -0.17000817 0.08333272 0.05108803
0001a0 b6 6d fb bd e0 bc 96 bd f5 be 24 3e 7c d5 9f bb
       -0.12276785 -0.07360244 0.1608847 -0.0048777442
0001b0 d4 7c 17 3e 63 d9 2f bd 26 6e e7 3d ed 62 c9 3d
       0.14793712 -0.042931926 0.11300306 0.09833322
0001c0 61 d9 d6 bc b7 52 06 3e 75 17 24 3c 6a bd 02 3e
       -0.026226701 0.1311749 0.010015358 0.12767568
0001d0 f1 e3 98 bd a2 64 cd 3c 38 09 5e 3d 1f ed 9a bc
       -0.074653514 0.0250724 0.05420801 -0.018911896
0001e0 ae ee 2d 3d 8c 63 c7 bc 87 60 bb 3c 52 ac 0b be
       0.04246395 -0.02433946 0.022873176 -0.13639954
0001f0 e1 ee 8c bc 61 28 21 be 11 47 16 3d 38 e8 69 bd
       -0.01720375 -0.1573806 0.036688868 -0.057106227
000200 13 46 b1 3d 58 0d 47 be d1 75 fd 3d 66 20 10 bc
       0.08655944 -0.19438684 0.12375987 -0.008796787
000210 29 0b ff bd 8d ee 1a be f8 a2 a9 3d c0 20 14 3e
       -0.124533005 -0.15130062 0.08283037 0.14465618
000220 1f 96 10 bd 34 fc f0 3c dc 75 a7 bd f4 1b 35 3d
       -0.035299417 0.029417135 -0.08176777 0.04421611
000230 0d fa b5 bd 2e ef 1a be dd e9 84 3d 24 73 c4 3d
       -0.08885584 -0.15130302 0.064899184 0.09592274
000240 e7 08 68 3d a1 1c 4e bd 84 f1 dc 3b 35 a0 7b 3d
       0.056649115 -0.05032027 0.006742658 0.061432082
000250 17 5b 11 3e 4f 85 f8 bd 6d e1 bf bd 3c 73 17 be
       0.14194904 -0.121348016 -0.093691684 -0.14790052
000260 ef cc 21 3d 8a bc ca 3d 95 fe a9 bd 72 11 15 3e
       0.03950208 0.09899242 -0.08300511 0.14557436
000270 72 1c ea bd 74 98 da 3d 8f cf d5 3c 38 cf 46 3d
       -0.11431207 0.106736094 0.026099948 0.048537463
000280 06 28 55 bd 2e 91 35 be 93 2d f8 bd 50 6d 44 3c
       -0.052040122 -0.17731163 -0.121180676 0.011988953
000290 87 d8 c1 bd d8 87 52 3d d1 2c 21 be 96 ae c0 3d
       -0.094651274 0.051399082 -0.15739752 0.094082996
0002a0 c3 ec 3e bd b4 b2 b2 bd ee 67 71 3d 15 30 d0 bd
       -0.046612512 -0.08725491 0.058937006 -0.10165421
0002b0 95 d0 e6 bb 8d 92 82 3d 1f 2f 14 3e b9 1b 26 be
       -0.007043908 0.063756086 0.144711 -0.16221513
0002c0 7e 3b 1b bd fb 74 0f 3e be 9d 2e 3b e4 62 14 be
       -0.037898533 0.14009468 0.0026644315 -0.14490849
0002d0 78 ac c4 3d f2 2a d9 3d d1 c0 0f bc 22 63 f9 bc
       0.09603208 0.10603894 -0.008773998 -0.030442778
0002e0 a4 d2 e1 3d 7d 6f cc 3d e1 66 7c bc 90 a8 b3 bd
       0.11026505 0.09982202 -0.015405388 -0.08772385
0002f0 4a 30 fe 3c 0c de e3 bd f7 aa cb bd af 2a a1 3d
       0.031028885 -0.111263365 -0.09944718 0.078694694
000300 f5 22 46 bc 6f 42 b3 bd 40 bb 8d 3d be cc 1e be
       -0.012093295 -0.087529056 0.06920481 -0.1550779
000310 c7 4c 01 3e 0e d6 b4 bd 81 bd 28 be f3 85 9e bd
       0.12626944 -0.0882989 -0.1647854 -0.077403925
000320 02 10 8d 3d be 76 a8 3d ea 02 9f bc 17 3b 1f 3e
       0.06887819 0.08225773 -0.01941057 0.15549885
000330 76 01 af 3d 6b 79 0a be b6 3f c1 bd bb f7 50 bd
       0.085452005 -0.1352288 -0.0943598 -0.051017504
000340 9d c9 bc bd ca 3c d3 bd d4 49 1e be f4 4c 4d 3c
       -0.09218142 -0.10314329 -0.1545785 0.012530554
000350 a3 59 43 3d e6 c8 05 bd e2 04 c6 bd 2f db d0 3d
       0.047692906 -0.032662295 -0.096689 0.10198056
000360 c0 8b a7 bd d9 84 c4 3d 2d c1 36 be 11 f0 f3 bd
       -0.08180952 0.09595651 -0.17847128 -0.119110234
000370 df 0a 66 3c 7e 35 10 3e 26 dc 3b 3c dd 90 c5 bd
       0.014040678 0.14082906 0.011466062 -0.09646771
000380 07 b0 5c 3d 86 07 55 bd 20 9e a1 bd c1 e8 cd 3d
       0.05387881 -0.052009128 -0.07891488 0.1005416
000390 99 7b 95 3d 48 86 f7 bd 59 57 69 3c 2a 11 c0 bc
       0.07298965 -0.12086159 0.014242017 -0.023445684
0003a0 3b 11 92 3d 08 33 87 3d 79 ca 45 bd a5 e7 36 3e
       0.07132193 0.0660153 -0.048288796 0.17861803
0003b0 8f ae 82 3d 28 6c ab bd fd 32 17 3e 97 7b 83 bd
       0.06380951 -0.083702385 0.14765544 -0.06420057
0003c0 c0 c2 2c be 6a e5 bc bd 92 03 00 bd fb 17 9b 3d
       -0.16871166 -0.09223445 -0.031253405 0.07572933
0003d0 bb 15 08 3e 97 67 6e 3d 7e a3 01 3e 7f 1a d3 bc
       0.1328954 0.05820426 0.12660024 -0.02576947
0003e0 00 f2 11 bc 46 04 0b 3d cf bc be 3d 3e cb dd 3d
       -0.008907795 0.033939622 0.09313356 0.10829781
0003f0 fe eb bc 3c 0c 75 a4 bd 5d c5 52 bd 4a bf 29 3c
       0.023061749 -0.080301374 -0.05145775 0.010360548

model.6.weight f4 [32, 256]
000000 3e d3 c6 bb 5a 33 2a bc be 35 be 3c 38 6b b3 bc
       -0.0060676625 -0.01038822 0.023218986 -0.021901712
000010 3c e4 7a 3c 0f 15 4d bd bc 0f c7 bb 91 11 0e 3c
       0.015313204 -0.05006891 -0.0060748737 0.00867118
000020 98 a6 27 bd 62 8e cd 3c cd 64 1b bd 7f 02 3f bd
       -0.04093036 0.025092307 -0.037937928 -0.04663324
000030 38 2f 51 3d 8a 70 95 bd 62 fe 2e bd fa da 8b 3a
       0.051070422 -0.07296856 -0.042723067 0.0010670118
000040 e5 04 98 bd b6 94 02 bd 5e 21 a0 3d cd f0 52 bd
       -0.074228086 -0.031880103 0.07818864 -0.051499177
000050 91 62 88 3d b8 72 22 3d 73 26 8d 3b f9 f3 b7 bc
       0.06659425 0.039660186 0.004307562 -0.022455202
000060 3e 4f 1c 3d 15 2f 8b 3d 34 fb c5 3c b6 36 41 bd
       0.03816151 0.067960896 0.024167635 -0.047171317
000070 27 1b 44 bd 7b 2d 46 bd ba d5 39 bd 24 46 59 bc
       -0.047877457 -0.048383217 -0.04536984 -0.013261352
000080 0f 6c 24 bd 85 4b 50 3d ff 51 5f 3c ec 5d 6b bd
       -0.040142115 0.05085327 0.013630389 -0.057462618
000090 12 ec 22 bd 97 cb 0d bd c7 00 82 3c 8f 39 75 bc
       -0.039775915 -0.034617987 0.015869511 -0.014967336
0000a0 b6 4d 93 bc f0 c8 0f 3c e5 8c 01 3c 8c 6c 39 3d
       -0.017981391 0.008775935 0.007907127 0.045269534
0000b0 26 9a 77 bd 32 c9 70 bd 0f bf 22 bd fe 58 6a 3c
       -0.06044974 -0.058785625 -0.03973299 0.014303444
0000c0 62 8e cd bc 10 1b be 39 42 11 91 bd 10 39 80 bd
       -0.025092307 0.00036259787 -0.0708337 -0.06260884
0000d0 33 75 83 3c e9 4e 81 bd 0a 91 d3 3c 1c e9 43 bd
       0.016047096 -0.06313879 0.025825996 -0.047829732
0000e0 d2 b4 eb 3c 00 f0 59 bd 1b 43 66 bd 25 63 8a bb
       0.028772745 -0.053207397 -0.05621634 -0.0042232447
0000f0 f7 76 0e bb 2c e1 d5 3c b9 1c 98 bc af b7 00 bd
       -0.002173839 0.026108347 -0.018568384 -0.031425174
000100 c9 b0 36 bb 79 0c b0 bc fc 8e 11 bd cb 32 1e 3d
       -0.0027876368 -0.021490322 -0.03553675 0.03862266
000110 7f 40 88 bc 6e 3b 19 3d 75 0b 1b bd 57 db 27 3c
       -0.016632317 0.037410192 -0.037852723 0.010245166
000120 e7 3e 2c 3c f5 c4 d6 bc f2 85 f4 bc f6 e3 56 bd
       0.010513044 -0.026216963 -0.029849026 -0.052463494
000130 29 db c6 bc 17 34 78 bc e8 0c d1 bc a5 22 4d bd
       -0.024274426 -0.015149138 -0.02551885 -0.050081868
000140 13 8f 99 bc 09 67 a2 bd 2c 23 68 bd 42 6a 19 bc
       -0.01874498 -0.07929809 -0.056674168 -0.009363713
000150 18 60 b2 3c b7 6f 1b 3d 95 c3 b6 bc ba 78 1c 3d
       0.021774337 0.037948336 -0.022310058 0.03820107
000160 a1 d7 4f 3c 63 86 98 ba f2 28 4c bd e6 3f a9 bc
       0.012685687 -0.001163673 -0.049843736 -0.020660352
000170 23 71 03 bb 5d 4c 8c bd c1 fb 3b bc d2 2d 3b 3c
       -0.0020056448 -0.06850503 -0.011473597 0.011424499
000180 7c c6 51 bd c3 96 4c bd f6 1b 51 3d 0b 02 17 bd
       -0.05121468 -0.049948465 0.051052056 -0.036867183
000190 d1 c1 7d bd 70 bf 04 3d c8 3b 51 bd e0 6d d3 3b
       -0.061952416 0.03240913 -0.051082402 0.006452307
0001a0 83 0b 89 bd 5d 90 6e bd 3c 4d 46 bb cc 4f 90 b9
       -0.06691649 -0.058243144 -0.0030258438 -0.00027525274
0001b0 fd ee 2c 3c a0 50 eb bc a5 50 b2 bd b6 cd 24 bd
       0.010555026 -0.028724968 -0.08706788 -0.040235244
0001c0 92 cd 82 bd f4 6c 91 bc 12 64 65 3d 79 03 1a 3d
       -0.06386866 -0.017752148 0.056003638 0.037600968
0001d0 4b 71 da bb c6 08 9f bc c5 6d b5 bc 1f e4 34 3d
       -0.0066663376 -0.019413363 -0.022147069 0.044162866
0001e0 d9 84 fd 3c d8 a6 9b bb 3f e0 75 bd 45 5f 96 bd
       0.030947136 -0.004750114 -0.06002831 -0.0734239
0001f0 2c 3b fc 3c 0c 75 34 3d 4a 3c 55 bd e1 1e 80 3d
       0.030789934 0.044056937 -0.05205945 0.0625589
000200 8c 9e 09 3b 06 be f6 bc da f5 f2 3c 71 24 50 3c
       0.0020999042 -0.030119907 0.029658247 0.012704001
000210 6a 48 81 bd 94 45 d7 bc 34 f6 41 3c 1d a0 47 bc
       -0.0631264 -0.026278295 0.011838485 -0.01218417
000220 0e cf 47 3d da 02 0a bd f7 63 d1 3c 53 c5 c9 3c
       0.048781447 -0.033694126 0.025560362 0.024630224
000230 e2 c1 ac bd d0 2a 62 3c 32 36 d3 39 50 81 e3 bb
       -0.08435418 0.013804153 0.00040285435 -0.0069429055
000240 e7 b2 35 bb a3 49 e9 3c 3d 0d bb 3b 08 fe 2d 3d
       -0.0027725042 0.028477496 0.0057083652 0.04247859
000250 10 2e 76 bd f8 1d 09 bd f7 8e 0b bd 4b 48 c8 3c
       -0.060102522 -0.033475846 -0.03407189 0.024448534
000260 8e 00 88 bd dd f5 fe bc b2 87 a2 bc 89 e3 4d bc
       -0.06640731 -0.031123096 -0.019840095 -0.012566456
000270 88 45 17 3d fc 58 66 bd 05 7f 50 3b f4 0b 8f bd
       0.036931545 -0.056237206 0.003181399 -0.06984702
000280 25 06 6b bd 68 6b 8b bc 5f 71 47 bd 6f 30 e1 3c
       -0.057378907 -0.017018989 -0.048692103 0.027488915
000290 8e f5 8c 3c a4 6f 96 bd 69 83 a5 bb d5 e9 e5 bb
       0.017206933 -0.073455125 -0.0050510657 -0.0070164003
0002a0 46 a3 4a bd 30 7c a4 3c 32 65 56 3c 1a 90 8d 3c
       -0.049472116 0.020078748 0.01308565 0.017280627
0002b0 8f fc cd bb a3 81 66 bd 45 99 29 3d 56 51 60 bd
       -0.006286211 -0.056275975 0.041405935 -0.054765068
0002c0 04 05 11 3d 4e 48 2a 3d 68 98 97 bb f7 be 32 bd
       0.035405174 0.04157286 -0.0046263225 -0.04363915
0002d0 ae 31 31 bd a2 37 7c bc 5e 35 72 3c e6 8a 77 bd
       -0.04326027 -0.015394123 0.014783232 -0.0604352
0002e0 5d b8 ec bc 2d 41 3a bd 23 90 c9 bb a5 3e 3d bd
       -0.028896505 -0.045472313 -0.0061512156 -0.04620232
0002f0 b6 c1 9a bc d8 6a 72 bc 5a 59 be bc 79 78 f9 3c
       -0.018891197 -0.014795981 -0.023235966 0.030452954
000300 f4 28 1a 3d fe aa b9 3c 56 c5 8b bc e0 d5 52 3d
       0.037636712 0.022664543 -0.01706187 0.0514735
000310 7f 7a 28 3c d5 99 a2 bc 85 b8 5d bd de c0 40 bd
       0.010283112 -0.019848743 -0.05413105 -0.047058932
000320 7a 80 50 bd b7 dc b0 3c 0d 71 51 3d 9e 0a 46 bd
       -0.050903775 0.02158962 0.051133204 -0.04834997
000330 43 63 57 bd 3d 7a 70 bd 5e df 55 3b 70 32 99 bc
       -0.052584898 -0.058710326 0.0032634358 -0.018700808
000340 cc 25 2e bd 9d ff 3a 3d e0 3b 73 3c f5 9a f7 bb
       -0.042516515 0.045653928 0.014845818 -0.007556314
000350 a2 72 90 bc 7f 47 73 bd a1 59 27 bd 82 42 ef 3b
       -0.017632786 -0.059394356 -0.04085696 0.0073016295
000360 79 54 08 bd 98 25 71 bd 9b 8c 25 3d c6 8e 64 bc
       -0.033283684 -0.058873743 0.040417295 -0.013950055
000370 b6 7a 12 3c d7 d6 b3 bc a7 49 b7 bc ae 31 88 bc
       0.008940389 -0.02195303 -0.022373987 -0.016625252
000380 e5 66 14 bc ef 6f 4e 3c fe 89 18 3d 21 2f 46 bc
       -0.009057735 0.012599929 0.037240975 -0.012096197
000390 e4 68 76 bc e9 e3 16 bc 49 49 39 bd 0d 0a 74 bc
       -0.015039656 -0.009209611 -0.045235906 -0.014894974
0003a0 d4 33 03 3c 4f 56 56 3c e4 12 ae bc 04 99 9c 3c
       0.008007962 0.013082101 -0.021249242 0.019115932
0003b0 f3 fe 9f 3c e8 3e ea 3b 83 c4 ed bc 32 3b 76 bd
       0.019530749 0.0071486123 -0.029024368 -0.060115047
0003c0 7d 3b 6a 3d 1a d8 f8 bb 31 59 2f 3c 45 e2 b7 3b
       0.05718564 -0.0075941207 0.010702417 0.00561169
0003d0 b1 b3 7b bd ca 99 3d bd 3d 9b 46 bd 8c 03 dd 3c
       -0.061450664 -0.046289243 -0.04848789 0.02697923
0003e0 d9 b2 90 bc 14 b1 6c bd d2 ff b4 bc 82 25 8b bd
       -0.017663406 -0.057786062 -0.02209464 -0.067942634
0003f0 8e 36 30 bc e9 03 54 bd 9c bc 7e bd 4c 0f 99 3c
       -0.010755194 -0.05176154 -0.06219159 0.018684052

model.6.bias f4 [32]
000000 12 42 b9 bc 0b 83 f1 3b 01 e6 39 bd d8 c8 9c bd
       -0.022614513 0.007370358 -0.045385364 -0.076554954
000010 74 2c 05 bd 3c ef 40 bd b7 88 ce 3c 68 0f 9c bd
       -0.032513097 -0.04710315 0.025211675 -0.07620126
000020 5d 0c f5 3c 87 ca 10 bd ff 7c 88 bd 36 ec 7c bb
       0.029913122 -0.035349395 -0.06664466 -0.003859294
000030 4c 85 47 bc f2 78 42 3b 6d 2c 4d bc 4a eb 18 3d
       -0.012177777 0.002967414 -0.012522799 0.037333764
000040 bd 1c be 3d 09 0e 60 bb d7 10 e8 bb 16 67 f8 3c
       0.09282825 -0.0034188053 -0.0070820856 0.030322593
000050 32 11 99 bd 9f 4d 76 bd 6d d8 97 3b a5 b9 69 bd
       -0.07473983 -0.06013262 0.0046339543 -0.05706181
000060 09 b7 cb 3c 05 93 d6 bc ab f9 8c 3c 1f 0a 2a 3c
       0.024867551 -0.026193151 0.017208895 0.01037839
000070 4d da 44 bd 38 fc 55 bd 88 c9 87 3d 18 a8 f0 3c
       -0.04805975 -0.052242488 0.06630236 0.029377028

model.9.weight f4 [1, 32]
000000 4a f9 ea b9 64 00 06 be 5b 69 69 bb 77 b4 4d bd
       -0.00044817693 -0.13086087 -0.0035615775 -0.050220933
000010 ce 88 f8 bd dd fa 18 3e 0b 92 33 bc 40 e9 29 bd
       -0.121354684 0.14939447 -0.010960112 -0.04148221
000020 b3 81 fd bd f9 37 74 3d 96 60 0a bd bf 77 d0 3c
       -0.12378254 0.059623692 -0.033783518 0.025447724
000030 37 88 af bd cc 1f 1f be d9 0c 0d 3d f0 c9 23 be
       -0.08570903 -0.15539473 0.03443608 -0.15995002
000040 27 29 ba 3c b5 79 96 3d 79 30 23 3c fe 47 d3 bd
       0.022724701 0.073474325 0.009960287 -0.10316466
000050 02 39 6e bc 29 49 da bd 0d 77 57 3d 22 7f 08 be
       -0.014539959 -0.106584854 0.05260377 -0.13329747
000060 6f 34 50 bd 93 65 9f 3d c5 33 f7 bd 0e 9d de bb
       -0.050831255 0.077830456 -0.12070421 -0.0067936247
000070 5c 42 a5 3d 6e f2 6b bd 9e a1 0b 3d cf 96 3d bd
       0.08069298 -0.057604246 0.034089677 -0.0462864
