best_models/best_model_nn_search_1_features_20.pt (torch, 118762 bytes, 19 tensors)

model.0.weight f4 [64, 20]
00000000: c76b 343e efa6 a9bd 1763 733c 1851 453d
00000010: b1d6 543e af24 49be 0b70 a0be fa4a f0bd
00000020: 55d2 a73d 7dc3 17be 7b2a fa3d 31be a7be
00000030: 505f 633e a555 493d 572e 193d 4f55 dd3d
00000040: bb49 6b3e 13a7 37be 3bfc 79bd bb48 ecbd
00000050: 3d54 413e e6f4 4ebe 2a6f 8bbd ac9d 413e
00000060: 74f1 2a3e 895e 81be cc6c 1dbd 90f7 e4bd
00000070: c6bf 7e3e 21a2 73be 81f2 393d 32fa 803b
00000080: 5c33 8e3d 1eb1 a2bd 7887 403e e341 1d3d
00000090: 5367 d5bd 4856 59b9 e935 19bd 9c0e 72bd
000000a0: adcf 18be e511 a1be ba86 053e d496 86be
000000b0: b504 6cbe 9d0c 4d3e 0f73 003d bbbc cd3d
000000c0: f63e a33a 2dbe d2bc d0d0 873e a7b9 0e3e
000000d0: bde5 d5bd 8bb8 ed3c 6ac4 dbbb b623 fd3d
000000e0: c2a4 da3d f22f 723e a676 cdbd 6458 eabd
000000f0: 29c8 6fbe 7932 a43d 32c0 473d 5dae 33be
00000100: 6553 01be 5e05 5dbe e7c2 2e3e 816e e8bd
00000110: 4007 5bbc b772 47be 7ff5 0abe 444b 883d
00000120: 449f 33be 48b8 333e 8104 43be 072e 15bd
00000130: d817 45bd b960 c7bd 2248 1b3e bd18 813d
00000140: 1628 ce3d db60 de3c b750 283e c932 d93b
00000150: 68bd 07be 6af4 2dbe 6ab6 9d3d 0ed0 0bbe
00000160: 684b b33d 0c56 013e 19ef 2c3e 9f5e 1fbb
00000170: d4c6 27be de9d 0b3e 2e30 a8be 06af 51bd
00000180: f407 a63e 9c7c 6e3d 28d5 383b 1b81 253e
00000190: 96a8 a83b ab92 1a3e 28b2 3d3d faa6 333e
000001a0: 8bda 46ba 91eb 57be cd17 063c bfac d03d
000001b0: 2c92 67be 174b 09bb 42a6 70be f6ed 523e
000001c0: b741 863e 3acf f13d a7bf 3a3d d368 f73d
000001d0: 5147 1fbd fc34 73be b8fb e3bd e497 013e
000001e0: 22fb 31bd c2bc 16bc 8e2f aabd 6ccb 393e
000001f0: c774 773e 3e35 7ebd 7b01 613d dbac 63be
00000200: b6ca 07be ef89 75bd 0b3c 80be 411f 17be
00000210: 8f4d 733e ae8f a73d 699d ab3d a137 113e
00000220: 70fa 5e3d 18cd 883e a544 303e f14e 6ebe
00000230: 77ed 1a3d 3283 e3bd 7757 9fbc 5875 243e
00000240: 0185 d1bd 9170 09be 99ba e23d 8f9f 61be
00000250: 8438 823d 47dc 72be 39ff 9fbc 85da 573e
00000260: 7cdb a5be eb87 a03b ef6e 6f3d 14bf 52be
00000270: 92c4 3b3e ff4c 213e 7025 393b 16a7 17bc
00000280: 0213 d7bc 1edd 68bd fded af3c cc75 413e
00000290: 7592 78be 69ae f23d f0eb 94be e0de aa3d
000002a0: c53d 743e 4f1e 8bbe 5483 a63e 3446 91be
000002b0: 648d 26bd 50e2 3d3e ed98 88bd 18ec e7bd
000002c0: 9069 363d 48f4 fcbd c22d 4d3d 9c69 84be
000002d0: 475f 3b3d 325e 83be 288b 89be 97d3 04bd
000002e0: c46f b2be 30fc edbd 1841 87bd 4718 48be
000002f0: d12e 743e f011 00be 1e18 7b3d 509e 013e
00000300: 33f9 f0bc 4692 3c3e 031c 6cbe ab32 13bd
00000310: 5d9a bcbd 6423 673e 76a9 793d 35b1 0abe
00000320: dae4 493e 03e2 b73d 4bdd d6bc 2705 843c
00000330: a8d1 83bd f366 b0bd 8cbf fe3c 768d 0c3d
00000340: 3052 c9bd 2a61 92bd 8525 d9bc 0437 213e
00000350: 5645 123e a7b8 38be 606e 0abe 23c9 3bbe
00000360: 88eb 303d 0c1c 843d 2f99 3d3e 0474 e7bd
00000370: 8e72 42be 6483 02be f0ec 88be ba11 b13c
00000380: 16b3 163e 0d25 9ebd 4706 abbe dc28 853d
00000390: a807 95bc 2457 f6bd bf06 7a3d 5e70 05bd
000003a0: 4b12 513e ffb4 043e e72c 0dbe ecd6 c33c
000003b0: eceb ab3d 0aa2 a53e dd67 953e 861a 42be
000003c0: 227e 4c3e f863 693d fdf8 753e c45c 63be
000003d0: 9ef5 95be e16f 583e c632 f8bd 9741 553e
000003e0: 3544 92be de22 51bc e12a 3bbe 9dfd 0a3c
000003f0: 972b 7abc e447 7d3d 8350 073e f6d4 363e
0.17619239 -0.08283793 0.014855168 0.04817304 0.20785023 -0.196429 -0.31335482 -0.11733051
0.081944145 -0.14820667 0.12215134 -0.32762292 0.22204328 0.049153943 0.03739771 0.10807287
0.22977345 -0.17934828 -0.06103156 -0.1153731 0.1887979 -0.20210609 -0.06808312 0.18907803
0.1669367 -0.25267437 -0.038433835 -0.11180031 0.24877843 -0.23792316 0.045397285 0.0039360756
0.0694339 -0.07943939 0.18801677 0.038392913 -0.10420098 -0.00020726875 -0.03740493 -0.059095964
-0.14922972 -0.31458965 0.13039675 -0.26286948 -0.2304867 0.20024343 0.03135973 0.10045763
0.0012454677 -0.025725449 0.265265 0.13938008 -0.1044421 0.029018661 -0.006706764 0.12360327
0.10675956 0.23651102 -0.10032396 -0.114426404 -0.23416199 0.080174394 0.048767276 -0.17546983
-0.12629469 -0.21584079 0.17066537 -0.11349202 -0.013368428 -0.19477354 -0.13570212 0.06654981
-0.17541224 0.17550766 -0.19044687 -0.03642085 -0.048118442 -0.09735245 0.15164235 0.063035466
0.100662395 0.027145794 0.1643704 0.0066283685 -0.13255847 -0.16987768 0.07700808 -0.13653585
0.08754617 0.1263048 0.16888084 -0.0024317873 -0.1638444 0.1363444 -0.32849258 -0.051192306
0.32427943 0.058224306 0.0028203223 0.16162531 0.00514705 0.15095012 0.04631248 0.17544165
-0.0007585666 -0.21085955 0.0081843855 0.10189199 -0.22614354 -0.0020949298 -0.23500922 0.20598587
0.2622201 0.118071035 0.04559293 0.120805405 -0.038886372 -0.2375068 -0.11131996 0.12655598
-0.04345239 -0.009200277 -0.083098516 0.18144006 0.24165641 -0.062062494 0.054933053 -0.22233908
-0.13260922 -0.059945997 -0.2504581 -0.14758016 0.23760055 0.081817016 0.08379633 0.14181377
0.054438055 0.26718974 0.17213686 -0.23272301 0.03782412 -0.11109008 -0.019450886 0.16060388
-0.102304466 -0.13421847 0.11070747 -0.22033523 0.06358436 -0.23716842 -0.01953088 0.21079452
-0.32394016 0.004899015 0.058455404 -0.20580703 0.18336704 0.15752028 0.0028251074 -0.009256145
-0.02625418 -0.0568515 0.021475786 0.18892592 -0.24274619 0.11849672 -0.29086256 0.08343291
0.23851688 -0.2717156 0.3252207 -0.28373873 -0.040662184 0.18543363 -0.06669793 -0.11324328
0.044534266 -0.123512805 0.050092466 -0.25861824 0.04574516 -0.25657803 -0.2686398 -0.03242835
-0.34850895 -0.116203666 -0.066042125 -0.19540511 0.23845984 -0.12506843 0.061302297 0.12658048
-0.029415702 0.18415174 -0.2305756 -0.035936993 -0.0920913 0.22572094 0.060952626 -0.13544162
0.19716206 0.08978655 -0.026228568 0.016115738 -0.06436473 -0.08613386 0.031097196 0.034314595
-0.09830129 -0.07147439 -0.026507149 0.15743643 0.14284262 -0.1803919 -0.13518667 -0.18338446
0.04319337 0.06450662 0.18515466 -0.11301425 -0.18989012 -0.12745434 -0.2674327 0.021614898
0.14716753 -0.077219106 -0.33403227 0.06501934 -0.018192127 -0.120283395 0.06104159 -0.032577865
0.20417134 0.1295967 -0.1378666 0.023906194 0.08394608 0.32350188 0.29180804 -0.1895543
0.19969991 0.056980103 0.24020763 -0.22203356 -0.29288954 0.21136428 -0.12119059 0.20825802
-0.28567663 -0.012764661 -0.18278076 0.008483318 -0.015269182 0.06183614 0.13214307 0.17854676

model.0.bias f4 [64]
00000000: 1fa6 c53d e053 063e 3f93 803e fd6e 3c3e
00000010: 84f9 f6bc cad1 1b3c 31e3 dfbc f705 f2bd
00000020: ef68 4abc 5f0d 3ebd e708 533e f95d 473e
00000030: d81d 16be cfef d8bd ad5d 453e 40f8 4e3e
00000040: dc2e 423e ffe3 3ebe 8cc8 db3d f292 353d
00000050: d3a2 523e d09b 063e 9283 66be 7d8f 193e
00000060: 3274 45be 12c0 cf3b 558e aa3d 3ed3 503e
00000070: 2423 1ebe 2f27 2fbd 4b60 fa3d b44f f6bc
00000080: a010 4fbe fa79 28be c4a0 6fbd 9f2c f2bd
00000090: 5c9b ec3d d19b 003e 9d85 6e3e db66 55bd
000000a0: b1e4 4f3e 008d 3a3e d3de 3d3a 08b4 8d3d
000000b0: 1000 413e 83e7 913a 5cef 133c 35bd a2bd
000000c0: 5229 86bd dfd1 ce3d 4aad 373e 9e5b 2fbe
000000d0: 0a49 083d 45f1 053e 0c88 ef3d 6ed0 0abe
000000e0: 282a 353e 9fb1 363e a968 0b3e b20a e33d
000000f0: 8edd 1ebe b9a2 a5bd 587c 6abd 74ac 133e
0.09650826 0.13117933 0.2511234 0.18401714 -0.030148275 0.009510467 -0.027330013 -0.11817544
-0.01235412 -0.04639947 0.20608865 0.19469441 -0.14659822 -0.10592615 0.19274016 0.20211887
0.18963188 -0.18641661 0.10731611 0.04432959 0.20569925 0.13145375 -0.22511128 0.14996143
-0.19282606 0.0063400352 0.08327929 0.20393082 -0.15443093 -0.042761978 0.12225398 -0.030067302
-0.20221186 -0.1645278 -0.058502927 -0.11824917 0.1155307 0.12559439 0.23293157 -0.052100044
0.20302083 0.1821785 0.0007242981 0.06919104 0.1884768 0.0011131618 0.009029236 -0.079462446
-0.0655085 0.100986235 0.17937198 -0.17124793 0.03327278 0.13080318 0.11695871 -0.13556072
0.17691863 0.17841195 0.13614143 0.11086024 -0.15514204 -0.080876775 -0.05724749 0.14421254

model.1.weight f4 [64]
00000000: 7693 763f 936f 503f 76e1 5a3f 0968 553f
00000010: a35c 713f 9311 853f e29e 8b3f 0fa9 683f
00000020: 4d9d 6c3f a129 7f3f 60e2 723f 5781 7b3f
00000030: 9a8c 5c3f 5da7 843f 451d 6a3f 4489 983f
00000040: 8014 8c3f e963 663f e7fc 883f dc6a a63f
00000050: 184a 8c3f 77dd 463f e03d 743f dbfe 873f
00000060: 5440 773f b193 5e3f db8c 913f 14f1 803f
00000070: d0ae 7d3f 9fd8 903f aca4 333f 7b33 6a3f
00000080: 0fa7 663f 2967 823f 1513 943f aba5 5a3f
00000090: b4e4 843f d3fa 863f dbc5 943f 51d7 853f
000000a0: 4b5b 903f 0df5 993f ccbb 783f 41c8 623f
000000b0: ca4b 883f 5182 823f be46 743f 82e3 833f
000000c0: d078 763f f8f4 863f f543 843f 738c 833f
000000d0: 2879 7b3f 335d 8f3f 14b0 6b3f 96e8 6a3f
000000e0: 7adf 643f c93d 693f 1710 953f 4969 803f
000000f0: 7a8c 803f 58d5 733f 293b 713f f640 733f
0.9631876 0.8142025 0.85500276 0.8336187 0.9428198 1.0395988 1.0907862 0.9088296
0.9242752 0.99672896 0.9487667 0.9824423 0.8615204 1.0363575 0.9145091 1.191689
1.0943756 0.899962 1.070218 1.3001361 1.0960112 0.7768168 0.95406914 1.0624651
0.9658253 0.8694411 1.1371111 1.0073571 0.9909487 1.1316108 0.70173144 0.914848
0.9009866 1.0187732 1.1568323 0.8540904 1.0382295 1.0545295 1.1622881 1.0456334
1.127786 1.2027909 0.97161555 0.88586813 1.0648129 1.019602 0.95420444 1.0303805
0.96278095 1.0543509 1.0333239 1.0277237 0.98231745 1.1200317 0.9206555 0.9176115
0.894035 0.911099 1.1645535 1.003213 1.004287 0.9524741 0.94230896 0.95021

model.1.bias f4 [64]
00000000: d8de a1bd dd7b 3abe 0382 85bd 60ed 7ebe
00000010: 12d9 243d 386d 01be 98a8 283d 8e48 0b3d
00000020: a887 2ebd 6fe8 9d3d 808b a4bd be23 9639
00000030: 2efa 06be 3426 903b 9c74 4cbe babf ad3d
00000040: 5eef 98bd 2adf 6abe a2cd eb3d 41cc 093e
00000050: 759d 6c3d 687c 48be 4a25 7cbd 5165 9fbc
00000060: bcb0 a8bd c397 d4bc d01e 063d e7cd 273d
00000070: de70 dfbd debc 463d 6e30 99be 3a55 1cbe
00000080: 4b4a 7bbd 0ced 973c 8446 ac3c 57cd 36be
00000090: 1afe 00be b14a d8bd 1c08 b73d 6767 e6bc
000000a0: 4e4e 533c 15a3 e93d d454 6dbd 8416 69bd
000000b0: d93c 913b 65ca 3dbc 708c bebd 3e28 a23c
000000c0: 611c 2cbe b34b dd3d d192 503d 021f 91bd
000000d0: d21e 7dbd 6ad7 6f3d c9ee 5fbd c8b5 7b3c
000000e0: 9439 a5bc aad7 13bd fd2f d13d d465 dc3c
000000f0: ac08 393d 125b 3ebd 35a2 45bd d381 ebbc
-0.07903832 -0.18211313 -0.065189384 -0.24895239 0.040246077 -0.1263932 0.04117641 0.03400474
-0.04260984 0.07710349 -0.0803442 0.0002863686 -0.13181373 0.0043990854 -0.19966358 0.084838346
-0.07467531 -0.22936693 0.11513831 0.13456823 0.05776735 -0.19578707 -0.061559 -0.019457491
-0.082368344 -0.025951272 0.03274423 0.04096785 -0.109101996 0.04851996 -0.2991976 -0.15266886
-0.06135015 0.01854565 0.021029718 -0.17851768 -0.12596932 -0.10561121 0.089370936 -0.028125478
0.012897087 0.114080586 -0.057942227 -0.05690624 0.0044323024 -0.011583899 -0.0930413 0.01979458
-0.168077 0.10805454 0.050921265 -0.070859924 -0.06179697 0.058555044 -0.054671083 0.015363164
-0.020169057 -0.036094345 0.10214231 0.026904024 0.045174286 -0.04647357 -0.048250396 -0.028748428

model.1.running_mean f4 [64]
00000000: cb9f e53d 5b91 5a3e 076a 203e aed0 e2bc
00000010: 065f 86bb d225 593d 48ff 323d 5f28 1ebe
00000020: 159f 2bbd b81a 22be 67e0 783e c372 813e
00000030: ae5b 88be 86c6 64be e8cb be3d 6514 343e
00000040: 6172 823e 1dc1 8cbe f048 58bc 40b3 ed3c
00000050: aaed 793e aaf4 763c 326f cebe 7ccd 293e
00000060: b0f9 9abe 704b 03be 9120 633d 1977 853d
00000070: cfef 263e 72de 02bc 5768 613e f44d abbd
00000080: 70e9 5fbe 50ab 94bd 75e0 043d b233 e5bd
00000090: 9b98 a23e 98da 6b3e de5f 4f3d 3ad9 233d
000000a0: 5a60 533e 1309 603e 7dcb d4bd f416 103e
000000b0: ef13 383e c999 c63c cd83 ef3d 28f6 a2bd
000000c0: f6a4 2e3d 339d 1e3e 6315 31bd 69ea 47be
000000d0: ed5b 963d f6f8 163e abb1 203e 6f43 2cbe
000000e0: 525a b23c 1742 053e d4c9 963e 9b25 b03d
000000f0: a8c4 c5be 99aa 7ebe 78be 01be 34ec 8a3e
0.11212119 0.21344511 0.15665446 -0.027687397 -0.004100683 0.053014584 0.043700486 -0.15445088
-0.04189976 -0.15830505 0.24304353 0.2528287 -0.26632446 -0.22341356 0.09316236 0.17585905
0.2547789 -0.27491084 -0.013200983 0.029016137 0.24407068 0.015072981 -0.4031921 0.16582292
-0.3026862 -0.12821746 0.05545098 0.06516857 0.16302417 -0.007987605 0.22012459 -0.08364478
-0.21866393 -0.07259238 0.03244062 -0.11191501 0.31757054 0.23032606 0.050628535 0.040002085
0.20642224 0.21878462 -0.10390375 0.14071256 0.17976354 0.024243252 0.11695061 -0.07957107
0.042637788 0.15489654 -0.043233287 -0.19523014 0.07341752 0.14743409 0.15692775 -0.16822599
0.021771584 0.13013493 0.29450858 0.08600923 -0.386266 -0.24869765 -0.12670314 0.27133334

model.1.running_var f4 [64]
00000000: 3b2a f73d 0f53 cc3d 8a3d a33d e1c6 c73d
00000010: f1ce 7e3d c728 a73d 3aaa fb3d 300e c03d
00000020: 0996 853d ac9b 523e ed9a 503d 1764 243e
00000030: cb92 c93d 00c9 823d 63fe 4c3d b1da 9e3d
00000040: 9dff 243e 2967 c73d 90e2 493e 6bc4 e93d
00000050: 4081 0c3e 8a66 113d d9ff 2d3e 1286 5c3d
00000060: 5bb1 b33c 96b9 0e3e a6db a03d 1c4e 5d3e
00000070: 1db8 503d 8c44 8f3d b796 773d cf1f f23c
00000080: 27c0 0c3e 781a 833d 9cdf a33d c895 d63d
00000090: d20f 073e 95ee 613d c1fa c13d 4de8 1b3e
000000a0: 3fcf 533d 5b24 223e a93e 303d beb4 b13d
000000b0: 1234 cb3d 4d02 003e 5b7e be3d b8b8 273e
000000c0: 143c 893d 16e8 9c3d bba0 523d 2322 3c3d
000000d0: 2189 4e3d afd8 e73d 313d dc3d 4a7e 033d
000000e0: 2270 c53d 8ef8 153e 2173 703e 7f72 3f3e
000000f0: 57b7 853d ab7c a63d fc03 063d b69f f63d
0.12068602 0.0997678 0.07970722 0.0975473 0.062209073 0.081620745 0.122883275 0.09377706
0.065227576 0.20567197 0.050929 0.16053806 0.09842452 0.06385994 0.05004729 0.07756556
0.16113134 0.09736473 0.19715333 0.11414417 0.1372118 0.03549818 0.1699213 0.053838797
0.021935156 0.13937983 0.078543946 0.21611828 0.050956834 0.06995496 0.060446467 0.029556183
0.13745175 0.06401533 0.080016345 0.10477787 0.13189629 0.05515917 0.09471656 0.15225334
0.051711317 0.15834181 0.043028507 0.08677052 0.09922041 0.12500878 0.09301444 0.16379058
0.06700912 0.076614544 0.051422816 0.045930993 0.050423745 0.11320626 0.10753859 0.03210286
0.09640528 0.14645597 0.23481418 0.1869602 0.0652911 0.08129247 0.032718644 0.12042181

model.4.weight f4 [256, 64]
00000000: 92fd bb3d 6b77 70bd 4bcc 91bc 3409 bd3d
00000010: 6936 2dbe dd6a 76bd b1ed 32be 2eb4 a93d
00000020: 7e4f 59bb 2c8a c7bd a1cd 3abe cc09 013e
00000030: 65df a13d 0888 3abe 2f8a 0fbe 72e7 98bd
00000040: cc5b 7cbe d893 67bd 5462 90bd 252d bebd
00000050: 56ed 0abd 1e76 bdbd 0f33 0ebc bbd4 aabd
00000060: dd02 bebc 6e4c acbc 38a5 3dbe 316d 3f3d
00000070: bdeb 2ebd b098 07be b900 4fbe 2438 b23d
00000080: 4909 01be f036 a83d f86a c5bd c145 bbbd
00000090: 1455 75be e499 fcbd 2ffe 7abd 370e 40be
000000a0: ae4c c13d 57fe 5dbe 0342 83bd 3448 6e3c
000000b0: 854b 5bbe 6631 90bd 2150 e8bc c1bf 18be
000000c0: d60f 093e 8fbc 7d3d e3fb 73bd 0936 283e
000000d0: 660c 3fbd c55e b23d ac05 31be 8570 2d3e
000000e0: 3cd4 99bb 8fed 09bd 8aab debd f340 26be
000000f0: 7f8c 45bc 5b5a 23be 536f 6c3e 8dab dfbd
00000100: 7a9a 1ebe ddf6 78bd 7b85 4b3e 7c4c 123c
00000110: bcb6 9a3d 90ed 1fbe afc8 91bd cf79 673d
00000120: 373c 053e 57eb 183d 505e 893b 3e03 5cbe
00000130: 53f6 463d 7f13 303d ffb2 1cbd bb4f c1bd
00000140: 3759 4fbd c26f 2cbe 5955 df3c 3e1f 19be
00000150: 7133 1ebe edb1 3b3d 1536 cfbd 4b64 91bc
00000160: 170d 9c3d 8db6 1ebe 4e85 2fbe 4bcc 19bc
00000170: 4f6a 233e 3bb9 fdbd bcd2 91bd d8a1 ddbc
00000180: 96b3 7d3b 66cd 103e 25c7 e73c 430c 2c3e
00000190: e63b 4a3d bad0 9abd 4c73 1dbe 5e14 b9bd
000001a0: c665 06be dcb5 e5bc c3ac 103c 895e 8c3d
000001b0: f88e bc3c 53e4 113c 35c1 bdbd 061a 993d
000001c0: f1e0 a0bd adbc 013e fd6f babc 4ef4 933d
000001d0: 4b80 13bc 0b22 3bbd 87bb 3c3e 05c7 97bb
000001e0: bd40 84bc 6d76 923d 56cc 20be 50a6 b93d
000001f0: ea25 f0bd 5049 34be 05e5 5d3e 20c4 07bd
00000200: 8db2 153e 04dd 2fbd fb5c 1c3e 063e 2c3d
00000210: d35a b63e b815 57be 0dd3 e03d 273e 50be
00000220: 2f8c 8ebd 7cbd d6bd f5b4 9ebc ab9b 353d
00000230: af14 3f3d 23bf 35bd d04f 3dbd b457 063b
00000240: 9ff7 e0bd da24 9ebd 5eb1 a9bd c93b 59bc
00000250: 0af2 0f3d d467 aabd fc66 963b 3783 a5bb
00000260: 1b35 11bd 0974 023c fd5b c0bc a00c 133e
00000270: 50f3 5bbe 886d 6e3d 6fe2 203c 0caa ed3c
00000280: 24f2 03bc 703b 923c deae 9cbc 976c 0f3e
00000290: 06da b5be f7ca 05be 8815 bdbd d0af 18be
000002a0: 216f 6e3d b0d6 6bbd 3f42 99be d0e5 f13d
000002b0: e998 c03d f019 a9bd fafc cd3d 522a d73d
000002c0: e0c9 8dbd f9ed 863d 2101 463c 4f29 a63d
000002d0: 8bfe bbbb 2969 073e a462 78bd c3d4 09be
000002e0: 1cc4 87bc 2786 9c3d 9cca bc3d fe0e 303e
000002f0: 9220 17bd 8867 f5bd 0577 fcbd 72d0 343e
00000300: 5697 c63d 0191 b5bd 609e cb3b c123 d83d
00000310: fecb 833d b79c 4dbd 77f8 ee3b 5322 19bd
00000320: d8be 443e 35ca f7bb c568 cebd 5969 603c
00000330: 6397 fcbc 5adc 0d3e 78df 85bd 28a5 5fbd
00000340: 1536 0e3c c28e 34be b85e 6c3e abe5 10bc
00000350: 958f 76be 7edc 833b 65ee 9b3d 2ae1 0abe
00000360: 29f0 c53d aad0 6abd 9343 a23d 18e2 c23d
00000370: 5f6c 43bd 51fc 09bd 1de3 a93d 0aa4 683d
00000380: 57d8 193e 4acc be3d aabe de3c 0b60 d8bd
00000390: a43b c3bc 04f6 1dbe 07fa 8ebc 6361 93bd
000003a0: 2427 a53d fc42 0dbd eedb b73d b186 7bbd
000003b0: 1c4d 7a3e 1c48 2b3d 520b b2bd eea2 363e
000003c0: 98b4 39be f5b3 c5bd 4bf7 c13b 1836 cdba
000003d0: 2db8 4d3d 16e5 c4bd 20b4 7abd 984f 0dbe
000003e0: 97b5 65bd e6a9 fe3d ef7a f6bc b887 1a3d
000003f0: 6a35 6abc 905e ddbd ff80 153e f657 06be
0.09179224 -0.058707636 -0.01779761 0.09230271 -0.16915287 -0.060160507 -0.17473485 0.0828632
-0.0033158953 -0.09743151 -0.18242504 0.12601393 0.07903937 -0.18215954 -0.14017557 -0.0746602
-0.24644393 -0.05653748 -0.070500046 -0.092859544 -0.033917747 -0.09251045 -0.0086791655 -0.08341356
-0.023194725 -0.021032538 -0.18520057 0.046734992 -0.042705286 -0.1324184 -0.2021512 0.08702114
-0.12601198 0.082136035 -0.09639543 -0.09144164 -0.23958236 -0.1233404 -0.061277565 -0.18755423
0.094384536 -0.21679054 -0.06409075 0.014543582 -0.21415527 -0.07040672 -0.028358521 -0.14916898
0.13384947 0.0619474 -0.05956639 0.16426863 -0.046642683 0.08709482 -0.1728732 0.16937454
-0.0046944898 -0.03367382 -0.10872562 -0.16235714 -0.012057423 -0.15952437 0.23089342 -0.109213926
-0.15488616 -0.060782302 0.19875138 0.008929368 0.07554385 -0.15617967 -0.071183555 0.05651265
0.13011251 0.037333813 0.004192151 -0.21485612 0.048574757 0.042987343 -0.03825664 -0.094390355
-0.05062219 -0.16839507 0.027262377 -0.14953324 -0.15449311 0.04582398 -0.10117737 -0.017748019
0.07619684 -0.15499325 -0.17140695 -0.009387086 0.15958522 -0.123888455 -0.071202725 -0.027054712
0.0038711778 0.14140853 0.028293202 0.16801552 0.04937353 -0.07559343 -0.15376014 -0.09037088
-0.13124761 -0.028040819 0.008830252 0.06853969 0.023017392 0.008904534 -0.09265367 0.07475667
-0.07855404 0.1266963 -0.022758478 0.07224332 -0.009002755 -0.045686763 0.18430911 -0.0046318793
-0.01614415 0.07151494 -0.15702948 0.09064925 -0.117259815 -0.17606091 0.21669395 -0.033146024
0.14618893 -0.042935386 0.15269844 0.042051338 0.35616168 -0.21004379 0.10977755 -0.20336209
-0.06960332 -0.1048536 -0.019373396 0.04433791 0.046650585 -0.044371735 -0.046218693 0.0020499052
-0.1098473 -0.07721873 -0.08285783 -0.013258883 0.035142936 -0.08320585 0.0045899134 -0.0050510424
-0.035451036 0.007962235 -0.023481363 0.14360285 -0.21479535 0.058209926 0.009819611 0.029011749
-0.008053336 0.017850608 -0.019126352 0.14006267 -0.355179 -0.13065706 -0.092326224 -0.14910817
0.05821145 -0.05757779 -0.29933354 0.118114114 0.09404165 -0.082569 0.10058017 0.10506119
-0.0692327 0.065883584 0.01208523 0.08113348 -0.005737131 0.13223709 -0.060640946 -0.13460068
-0.016573004 0.07642775 0.09218332 0.17193219 -0.036896296 -0.11982638 -0.12327389 0.1765764
0.09696834 -0.08865548 0.006213948 0.105536945 0.06435393 -0.050198283 0.007292803 -0.03738625
0.19213426 -0.0075619468 -0.10078577 0.013696992 -0.030833906 0.13853589 -0.06536764 -0.054600865
0.008679886 -0.17632583 0.23083007 -0.00884382 -0.2407821 0.0040240875 0.076138295 -0.13562456
0.096649475 -0.057327904 0.07923045 0.0951578 -0.047710773 -0.033687893 0.082952715 0.056797065
0.15023933 0.09316309 0.027190525 -0.10565194 -0.02383215 -0.15425879 -0.017453207 -0.071963094
0.08064106 -0.03448771 0.08977495 -0.06140775 0.24443477 0.041816816 -0.086935654 0.1783559
-0.18135297 -0.09653465 0.005919372 -0.001565638 0.05022447 -0.09614007 -0.061206937 -0.13799894
-0.05608138 0.12434749 -0.030087916 0.037727088 -0.0142949615 -0.10809052 0.1459999 -0.13119492

model.4.bias f4 [256]
00000000: 6052 c3bd 39da b73b c5b1 163d bd78 e03c
00000010: 0d2f 07bd c11a debd 3797 ffbd f344 973d
00000020: b2c9 923c 2c6a ca3d 6490 b63c 5ff6 8fbd
00000030: bf87 ef3d 3504 72bc 6135 fdbd 4b38 cf3d
00000040: 2195 82bc 5c25 80ba acb6 d43b 2c75 02be
00000050: 1a3c 733d d751 96bd 9acc 283d e3a0 3bbd
00000060: 293c 9dbd b326 fbbd c43c af3c afce 95bd
00000070: 25df ca3d 8226 663c c011 b4bc e985 bc3d
00000080: a0e3 e0bd 7cce c13d 1546 953d 11c7 a93c
00000090: 8224 dc3c 12bb 8a3d 4ee9 9bbc d3eb 3ebd
000000a0: 91e0 77bd 5fa8 0a3d c01e 8cbd e19a d0bd
000000b0: e1f7 77bd bffa c2bc 18ae b13b 4e93 fd3d
000000c0: 15ee 93bd f170 813d b125 04be 7480 70bd
000000d0: 45c9 a8bc ec08 d23b b921 a8bd 947b fcbc
000000e0: 5ffe 39bd 5331 d23d a84b 013e a4c8 d73d
000000f0: 9e83 943d c6ef f73d 9722 e7bd 2c8b f03d
00000100: 6485 a73d acc3 9dbd 1d0b 8b3c 0852 a6bc
00000110: ecbe 903d 78e4 cabd 3d28 92bd b8df d93d
00000120: c37a 06bd 2f72 c9bc d086 d43d a5ba a8bd
00000130: 15a3 213d f60a 6fbd 46aa 713d 18e4 cb3d
00000140: 0ed3 6c3d 143d efbd e6d5 473d 38c9 c3bd
00000150: 5bb4 b93c 741f d1bd 3207 22bd fbff 44bd
00000160: 65e8 b9bd 0245 33bc 2a25 b33d c656 6dbd
00000170: 6dc6 f43d b2e2 37bc 7fdc 4bbd b118 d4bc
00000180: 433a b4bd 064c 3dbd eb14 debd be15 3f3d
00000190: f7af ba3d 368c 9cbd b82e a23d 7025 f0bd
000001a0: c7d7 313d 4875 213d baee aebd 2532 42bd
000001b0: eee7 833d 9bae cb3d 9945 07bd 29fc e5bd
000001c0: 23a1 d93d c36c 803d 98a0 853d 05b6 833c
000001d0: a77c eb3d abf6 863d 16aa 533d ba80 b0bd
000001e0: d835 84bd d750 ce3d 7931 cd3d 3242 a03c
000001f0: c3fd ab3d 0962 433d cf61 843d c8bc c4bd
00000200: bae0 3b3c a444 1b3d 0b01 ec3d 247f f7bc
00000210: 8bce 97bd 85c9 9bbd 00a9 863d a433 29bc
00000220: 2bcb db3a d70f a8bd e85e f03d e93b fe3c
00000230: 2016 9438 2d91 33bd 33a4 d9bd 9d79 b53c
00000240: 42d7 eebd d0f1 85bd a4f6 663d b13d cbbc
00000250: 1ceb 933d ff95 c93b 6d17 febd b73b 633d
00000260: b44a 30bc b6c0 d83d 06c7 ad3d 2c05 95bd
00000270: e8fe f43d be1c ee3d 9555 063d 793f e5bd
00000280: 6343 963d c3f9 fabd eb40 23bb f350 6cbd
00000290: 65af 1a3d 325d 5e3d 99bb 0abd 4bdb a13c
000002a0: 4301 62bc 9a8c b93d ba04 adbd c1e9 30bd
000002b0: 0795 afbd f6fd a63c 6601 d9bc 51fb 92bd
000002c0: 035c b3bd aa8e 84bd bfa7 c23c 99dd a33d
000002d0: 0f67 8a3d 5d25 ca3d 5b29 aebd 5263 2f3d
000002e0: 9de2 b8bb e0eb a9bc 549e 7abc dfc1 013d
000002f0: 2a73 033e 717f f2bb f8c9 f53a 3de1 f2bd
00000300: 7a69 193d 91f6 edbd 6b27 eebd d722 ed3c
00000310: 0922 a83d 5ad8 833d f6d5 ed3d 4bd2 ee3d
00000320: 40ca 223d c478 803d ea1e 56bd bfcd e2bd
00000330: 5ab4 573d 0a5e b73d aa60 ebbd 393c 0dbd
00000340: 59d0 c03c b73d b13d 0bea f33d c124 31bd
00000350: 40ff ec3b 76ff 36bd 13b6 ae3d f995 11bd
00000360: a493 ef3d 1d99 dbbd 1dc7 92bd bb18 bf3d
00000370: 1ca2 8d3c 5edc f13d bd23 d03c ed25 f33d
00000380: 133c b23d 2809 acbc 11bf f83c 5ca0 9c3d
00000390: 2e3d df3d 3a5a 24bb 71a1 9cbc 0b57 e83d
000003a0: e3f8 f7bd a2c5 ca3d 3299 c73d 7638 c9bd
000003b0: 5cd5 ad3d 4eee b0bd 37c2 823b 68c2 fc3b
000003c0: 459c b2bd 487e b1bd 1fc2 a9bd 8329 ffbc
000003d0: 94e3 e8bd 876b cbbd f1d2 2f3d 2c1d 1bbd
000003e0: b3df e9bd e4c0 4ebd 8ff6 e23d 32cf d83d
000003f0: dbbe 163d ffa0 c73d 7dd0 883d 246f 7b3d
-0.09537196 0.005610731 0.036790628 0.027401322 -0.033003855 -0.10844947 -0.12480014 0.07386198
0.017918441 0.09883532 0.022285648 -0.070294134 0.116958134 -0.014771511 -0.12363697 0.10118159
-0.01594025 -0.0009776759 0.0064915027 -0.1274001 0.05938349 -0.073398285 0.04121075 -0.04580773
-0.0767749 -0.12263241 0.02139128 -0.073148124 0.09905843 0.014047267 -0.02198112 0.09205229
-0.10980916 0.09463212 0.07288758 0.020724805 0.026872877 0.06773962 -0.019032147 -0.04661162
-0.060516898 0.033851977 -0.068418026 -0.10185791 -0.06053913 -0.023801206 0.005422365 0.12381612
-0.07223145 0.0632037 -0.12905003 -0.058716252 -0.020603785 0.006409755 -0.08209557 -0.030820645
-0.045408603 0.10263314 0.12626517 0.10536316 0.072516665 0.1210628 -0.11285894 0.11745295
0.08179739 -0.07703337 0.016973073 -0.020302787 0.070676655 -0.09906858 -0.07136581 0.10638374
-0.03283192 -0.02459058 0.10377276 -0.082387246 0.039462168 -0.058360063 0.059000276 0.09955615
0.057818465 -0.116815716 0.048787974 -0.09559864 0.022669008 -0.10211077 -0.039557643 -0.048095684
-0.09077529 -0.010941746 0.08747323 -0.05794408 0.11951909 -0.011223482 -0.04977083 -0.02589068
-0.08800175 -0.04621508 -0.108438335 0.046651594 0.09115594 -0.076439306 0.07919067 -0.11725891
0.043418672 0.03941849 -0.08541627 -0.047411103 0.064407215 0.09945413 -0.033025358 -0.11229736
0.106264375 0.06270745 0.065247715 0.016078005 0.11498385 0.06590017 0.05167588 -0.08618303
-0.064555824 0.10074013 0.10019202 0.019562814 0.083980106 0.047700915 0.06463968 -0.0960632
0.011467153 0.037907258 0.115236364 -0.030211993 -0.07412442 -0.07606796 0.06575203 -0.0103272535
0.0016768923 -0.08206146 0.11736852 0.031034427 7.061311e-05 -0.043839622 -0.10627022 0.022152716
-0.11662151 -0.06540263 0.05638756 -0.02480969 0.07222578 0.006151914 -0.12406812 0.05547687
-0.010759998 0.10583632 0.08485226 -0.07276377 0.11962682 0.11626576 0.03279646 -0.11193747
0.07337072 -0.122546695 -0.002491052 -0.057694387 0.037764926 0.054288097 -0.033870313 0.019757887
-0.013794246 0.09060021 -0.08448167 -0.043191675 -0.085733466 0.02038477 -0.026489925 -0.07176841
-0.08757784 -0.064725235 0.023761628 0.08001251 0.06757938 0.09870408 -0.08503982 0.04281933
-0.005642249 -0.020742357 -0.015296537 0.03167903 0.128369 -0.007400446 0.0018752208 -0.11859367
0.037454106 -0.116192944 -0.11628612 0.028947277 0.08209617 0.0643775 0.116130754 0.11661204
0.039743662 0.06273034 -0.052275576 -0.11074399 0.05266223 0.089534834 -0.114930466 -0.03448126
0.023536848 0.08654349 0.119098745 -0.043247942 0.0072325766 -0.04467722 0.08530822 -0.035543416
0.11698082 -0.107225634 -0.07166884 0.09330889 0.017289214 0.1180961 0.025407666 0.11872468
0.087028645 -0.02100046 0.030364545 0.076477736 0.10900341 -0.0025078193 -0.01911995 0.11344727
-0.12108018 0.09900977 0.097460166 -0.09825222 0.08487961 -0.08639203 0.0039904374 0.0077136047
-0.08721212 -0.08666664 -0.08288979 -0.031147724 -0.11371532 -0.099326186 0.04292578 -0.037869617
-0.1141962 -0.050476924 0.110821836 0.10586394 0.036803108 0.097475044 0.06680391 0.06138529

model.5.weight f4 [256]
00000000: 9e30 633f 005f 6e3f 1e36 863f 8d93 723f
00000010: 9e46 703f 7eec 863f d66c 803f ceb8 873f
00000020: 1b70 7a3f 4a1b 843f cc3f 563f 7407 5e3f
00000030: 6136 623f abac 6f3f cdaf 663f f7cc 643f
00000040: 0267 823f 04e4 833f bf80 803f abc3 8d3f
00000050: 5676 6e3f fc91 6c3f 1e72 813f 00ab 923f
00000060: 04fb 823f 44ec 4d3f 8154 853f 80c8 783f
00000070: c6f0 483f 484b 6f3f 2ad3 7d3f 3bcf 9c3f
00000080: 642e 953f 14a8 8a3f ed70 803f c3ef 5d3f
00000090: ae0f 803f 4d68 823f dd33 703f 765f 833f
000000a0: b01a 783f 5f1f 5a3f 13b0 873f 6f8b 3b3f
000000b0: 40f7 813f c97b 643f c769 823f f1a5 913f
000000c0: 8775 793f 09f4 7a3f 1a09 733f 0c6a 7f3f
000000d0: 370f 8e3f 1772 6f3f 010e 6f3f 6e8b 7c3f
000000e0: f44a 823f 82c3 933f 23cf 823f 3507 6a3f
000000f0: 9fc8 773f 9a19 6c3f c25c 853f 2d83 893f
00000100: 517f 863f 7ce4 6d3f c622 923f ba22 6e3f
00000110: 80c7 893f d4cd 953f e79b 703f 22d6 4d3f
00000120: ae2f 563f 3b0c 8b3f 5653 7a3f 5963 7b3f
00000130: 853b 863f d46d 813f 8dce 643f 81a0 763f
00000140: 4142 883f 4e28 9a3f eead 8b3f 1796 883f
00000150: 621b 903f bd57 5b3f 3417 713f 3167 6e3f
00000160: c124 763f b6a1 413f c2e4 813f 2b94 773f
00000170: 2632 893f 418f 8b3f 4953 973f f6c1 603f
00000180: f95a 6c3f fae9 843f f1ba 7e3f 491d 713f
00000190: c65f 773f 1c3f 843f 28e5 6b3f 96fa 813f
000001a0: e550 733f 4ae5 4d3f 5210 703f ad5c 6e3f
000001b0: 2678 843f 5e65 803f ea24 7b3f b1b0 813f
000001c0: 3c2a ac3f 3032 743f 57b8 6f3f 67e6 6f3f
000001d0: e61c 993f bcc5 7c3f ef82 843f a06a 883f
000001e0: e813 803f ae13 863f 9d2d 743f 7ae7 973f
000001f0: 17d1 923f 5999 7d3f ce21 783f ada0 6a3f
00000200: 8010 823f f09b 9c3f 9035 6a3f 49f1 753f
00000210: 8f16 8e3f 3bae 8b3f 6dcf 5a3f 8fb3 833f
00000220: 7a02 6b3f 1802 913f 784b a43f 00ed 923f
00000230: 6a43 513f 79ed 6b3f 5d30 5c3f 23a7 563f
00000240: 9f0a 8b3f e4b4 843f d3fe 5f3f 327a 823f
00000250: e860 723f 8c7e 653f 2702 813f 6fd7 6b3f
00000260: 653a 6a3f 2020 8d3f 570e 683f 5f55 8b3f
00000270: a20a 763f 5d03 933f 7e5d 643f 0dc5 583f
00000280: dd05 823f 3a44 913f c501 793f 4f23 6f3f
00000290: 757f 7f3f b8b6 5e3f 3ba1 733f 0657 853f
000002a0: b818 843f 8322 833f e12a 813f 8017 873f
000002b0: eaca 6e3f e063 6f3f 1a2c 7e3f 04bd 833f
000002c0: e670 633f fb09 9a3f a71a 893f 00a6 6b3f
000002d0: 557d 843f 388c 893f 7ddf 8a3f c9ca 9c3f
000002e0: 700b 4d3f 8273 913f 26f2 843f dae2 823f
000002f0: bc72 813f 3537 6b3f 7cd2 743f 5dca 6d3f
00000300: cb17 823f 1987 723f 1990 873f 8d6d 6e3f
00000310: 1edc 7c3f 1e19 8d3f 6fe9 733f 6378 753f
00000320: 6c06 883f 37d4 5c3f b0e7 943f be74 903f
00000330: 04ae 6c3f d69d 5e3f 8653 8d3f c3f2 773f
00000340: 4158 833f 8ec6 7d3f b413 673f 2936 7f3f
00000350: 3fc0 823f 71d2 733f 512e 8b3f 894c a13f
00000360: 622d 973f b19b 743f 8ef2 5e3f cf61 733f
00000370: 8626 803f 1450 853f 9e8b 823f 0a19 843f
00000380: e11f 893f 2657 783f 2bc0 6d3f ae04 5c3f
00000390: 2cfe 933f 16dd 693f e13f 7f3f 7447 823f
000003a0: d63b 553f 7d51 683f 7243 6e3f a64e 8e3f
000003b0: 4d40 823f 21b6 753f 1d2a 823f 62d5 6c3f
000003c0: ab68 833f 7b38 883f afad 7b3f 9158 643f
000003d0: ec56 8d3f e392 813f 8825 7f3f b6ce 993f
000003e0: a4a9 713f 8097 803f dec7 893f 4aab 793f
000003f0: 64d2 6f3f 66a1 833f 869b 803f b73d 533f
0.8874606 0.9311371 1.0485265 0.94756395 0.93857753 1.0540922 1.0033214 1.0603273
0.9782731 1.0320828 0.83691096 0.8673012 0.88364226 0.93622845 0.90112 0.8937525
1.0187685 1.030396 1.003929 1.1075338 0.93149316 0.92410254 1.0112951 1.1458435
1.0232854 0.8043864 1.0416414 0.9718094 0.7849239 0.93474245 0.99150336 1.2250742
1.1654782 1.0832543 1.0034462 0.8669397 1.0004785 1.018808 0.9382914 1.0263507
0.9691572 0.8520412 1.0600609 0.73259634 1.015358 0.8925138 1.0188531 1.1378766
0.9744496 0.9802862 0.9493576 0.9977119 1.1098393 0.9353346 0.93380743 0.9865025
1.0179124 1.1544039 1.0219463 0.9141725 0.967905 0.92226565 1.0418932 1.0743157
1.0507604 0.92926764 1.1416862 0.9302174 1.0764008 1.1703439 0.9398789 0.80404866
0.83666503 1.0863107 0.9778341 0.9819847 1.0486914 1.0111642 0.8937767 0.9633866
1.0645219 1.204355 1.0912454 1.0670804 1.1258357 0.85680753 0.9417603 0.9312621
0.9614983 0.75637376 1.0147936 0.9671046 1.0718429 1.0903093 1.1822292 0.8779596
0.92326313 1.0383904 0.99504 0.9418531 0.96630514 1.033176 0.9214654 1.0154598
0.9504531 0.8042799 0.937749 0.9311016 1.0349166 1.0030935 0.981032 1.0132047
1.3450389 0.9538908 0.93640655 0.9371094 1.1961944 0.9873922 1.0352458 1.0657539
1.0006075 1.0474756 0.953821 1.1867516 1.1470059 0.99062115 0.9692658 0.9165142
1.0161285 1.2235088 0.9148798 0.96071297 1.1100634 1.0912546 0.85472757 1.0289172
0.91800654 1.1328764 1.2835531 1.1478577 0.8174349 0.9215923 0.86011297 0.8384878
1.0862616 1.0367703 0.87498206 1.0193541 0.9467912 0.8964622 1.0078782 0.921256
0.91495353 1.1025429 0.9064688 1.0885428 0.96109974 1.1485401 0.8920516 0.84675676
1.0158039 1.1348946 0.97268325 0.9341325 0.9980386 0.86997557 0.95167893 1.0417182
1.0320044 1.0244907 1.0091211 1.0554047 0.9327837 0.9351177 0.99286044 1.0292058
0.88844144 1.2034296 1.0711259 0.9205017 1.0350748 1.0745916 1.0849453 1.2249385
0.8009558 1.1363375 1.0386398 1.022548 1.0113139 0.91881114 0.95633674 0.92886907
1.0163511 0.9473739 1.059085 0.9313591 0.9877337 1.102329 0.95278066 0.9588682
1.062696 0.86261314 1.1633205 1.1285627 0.92453027 0.8695959 1.1041114 0.968548
1.0261308 0.99131095 0.9026444 0.99692017 1.0214919 0.95242983 1.087351 1.2601482
1.1810725 0.95550066 0.8708886 0.9507112 1.0011756 1.0415063 1.0198858 1.0320141
1.0712854 0.9700798 0.9287135 0.8594464 1.1561942 0.91352975 0.99706846 1.0178056
0.8329443 0.9074934 0.93071663 1.1117752 1.0175873 0.9598103 1.0169102 0.92513096
1.0266317 1.0642236 0.98311895 0.8919764 1.1042151 1.0122951 0.99666643 1.2016208
0.94399476 1.0046234 1.076412 0.9752699 0.93680406 1.028363 1.0047462 0.82516044

model.5.bias f4 [256]
00000000: 82e0 813c 8574 8ebd 3ccd 8b3d 4338 a6bc
00000010: 91e9 75be cb6a 4ebd c6fe efbc 47da 773d
00000020: 98cf e7bd 5ad0 623e c3f6 f8bd 415e 07be
00000030: 17f5 a5bd 891e c6bd a7df 4abd 0066 573c
00000040: a794 9bbd 6a5b 6ebd b51d 49bd d91c a73d
00000050: 92bf 97bc 8369 e8bd 108b 4fbd 6dc2 d93d
00000060: ab01 c03d e375 c4bd 5f47 103e 6ae1 15be
00000070: 5b6b 1fbe bd14 f03d 21ad a5bd 04f9 093e
00000080: 5836 39bc 50c9 383d 3174 af3d 6d53 48bd
00000090: db98 ecbc 4e94 883d 5e1e 55be 5d98 1fbe
000000a0: ca05 a2bd cd7c 24be 65d2 203e 0bdb 0ebe
000000b0: 4ed7 a23d 42d5 e6bc d26a 73bc dd6a 973c
000000c0: cb4a 5dbe 82b0 a3bc d447 aebc 323f 533d
000000d0: 36e7 253c b9d1 06bd 5b88 82bd 7bed 4abd
000000e0: 4234 cabd 9ee7 96bd 6207 9e3d ea2a a1bd
000000f0: a03d da3d 8ac8 95bc 8f6d ff3d 58b9 fa3c
00000100: 2d9c 523c 1b3f 78bd 9533 cf3d e8d5 0bbe
00000110: 1273 f8bc 17a2 7f3c 0251 86bd 84a0 05be
00000120: a72f 8ebd eb39 893d f9ec 2f3d 212a 13bd
00000130: 2977 00bd 398d a83d fc55 7b3d 4bbb 8ebd
00000140: 4473 69bc fd99 863d e988 39be d230 b73c
00000150: 3a26 163d 1d1c ecbd b43c 1abe c202 adbb
00000160: 5cf2 1c3d 8654 00be c011 13bb 50fa dcbc
00000170: 8cef 9e3b acfb a93c f8a6 9f3d bc67 03be
00000180: 116f 01bc 171a 0bbe c941 22bc aed9 6b3c
00000190: 607f debd 37b5 7e3d 4ff1 8fbd 5408 ea3c
000001a0: 8f9c a9bc b99d c6bd 2843 f3bd 3685 b3bd
000001b0: d629 6ebc 8242 d43d ee58 ccbc 53bb 063c
000001c0: 314a b63c 54ea bbbd 07ea 99bc 0b4a 97bd
000001d0: 6493 bb3d e813 313d 8bdf 16be 5cfd 3abd
000001e0: 35fb 3dbe 8e9e 05bd 0d7b e8bd 741a a53d
000001f0: 0744 9cbc b204 e53b 2117 353d 2883 4bbe
00000200: 24cc 283d e605 fd3d b763 99bd 2590 8cbc
00000210: 9c0f 5e3c bb5a f7bc 685a 40be 9070 eb3c
00000220: 1dca adbb 08f7 dd3c 25f4 a73d d862 393e
00000230: 45ee 0ebe e1d6 02be b717 55be 710a 0cbe
00000240: b0b2 44bd dd80 f73d 3c76 ffbd 99a7 2bbc
00000250: d0b4 8bbd b5bd 71bd d3a7 f3bc b8a3 35bd
00000260: dcec 50bc 9a84 dfbd dfec 7ebd 2f69 fabc
00000270: b5ac 60bd 27c8 603d 5a99 75bd e569 d0bd
00000280: ef52 293e 8960 543d e221 293d 8763 953c
00000290: 2c00 dbbd f231 54be e397 53bd e1d4 003e
000002a0: b00c 8c3d 173b cbbd f5dc 0d3e a4a2 403b
000002b0: ca90 0ebe 5069 55bd 9d89 89bd 98c8 89bd
000002c0: d5be a8bd a6b1 c63c eeee 91ba 2fea 553d
000002d0: dfb6 583c c126 4c3e e6f9 13bb 7563 923e
000002e0: 9f0e 27be 697f 5ebd df84 7ebc d7b1 aabc
000002f0: da31 3d3c 2837 90bd 60cb 8abd a17f 22be
00000300: 5c37 733d a3f0 43bd 8590 a2bc 59a4 113d
00000310: cc79 fb3c 6237 6f3c c406 9bbc 3235 76bd
00000320: 5f73 28bd 117d 1fbe 3774 ef3d b3bc f63d
00000330: c985 31bb 26cb 65bd 2a03 bfbd 1462 c7bd
00000340: 5041 e0bb a240 8f3d 3412 06be a3f1 873d
00000350: cc61 45bd f3c2 a8bd 8dc9 713d 61dc c03d
00000360: 0135 23bd 1161 67bc 15b7 f2bd 72fc b13d
00000370: acec 213d 3bf1 43bd 383c acbd 49ce 3c3d
00000380: 5592 c03c bbdf d7bd 1104 4dbd 3458 92bd
00000390: c1d1 983d c2d3 da3c 1717 93bd 1bda 86bd
000003a0: af7c d6bc 9330 21be 539b f33c 31d1 4fbd
000003b0: ee3e 19bd b63b e6bb 88d3 bb3b fdec 44bd
000003c0: 01d8 d9bc f42e b83d d3c4 72bb c4ee 94bc
000003d0: 1111 9d3d 4fd5 823d 7536 2c3e b858 a63d
000003e0: f1c4 cebc 450f a93d dc37 813d 21df 03bd
000003f0: 6740 e7bd f011 3fbd f3c0 73bd 4e07 f7bd
0.015854124 -0.06955818 0.06826255 -0.0202905 -0.2401488 -0.050394814 -0.02929629 0.0605109
-0.11318892 0.22149792 -0.12156441 -0.13219549 -0.08103388 -0.09673793 -0.049529698 0.013146877
-0.075967126 -0.058192648 -0.049100596 0.08159799 -0.018523965 -0.1134825 -0.05066973 0.10632787
0.09375318 -0.095927976 0.14089726 -0.1463677 -0.15568297 0.117227055 -0.08089662 0.13473898
-0.0113044605 0.04511386 0.085670836 -0.048907686 -0.02888148 0.06668912 -0.20812365 -0.15585466
-0.079112604 -0.16063233 0.15705259 -0.13950746 0.07951222 -0.028177861 -0.014857011 0.018483574
-0.21610563 -0.019981626 -0.021274485 0.05157394 0.010125926 -0.03291485 -0.06373664 -0.049542885
-0.09873249 -0.07368396 0.07716252 -0.07869513 0.10656285 -0.018284101 0.124720685 0.030605957
0.012854618 -0.060607057 0.1011726 -0.13655818 -0.030328307 0.01560261 -0.0655842 -0.13049513
-0.06942683 0.067005 0.042950604 -0.03592885 -0.03136364 0.08230061 0.061361298 -0.06969317
-0.014248673 0.0657234 -0.18118633 0.022362147 0.03665755 -0.115288 -0.15062219 -0.00527987
0.03831707 -0.12532243 -0.0022441 -0.026974827 0.0048503336 0.02074989 0.07795519 -0.1283254
-0.007900015 -0.13584171 -0.00990338 0.014395161 -0.108641386 0.06218454 -0.07028448 0.028568424
-0.020704536 -0.09698052 -0.118780434 -0.08765642 -0.014536342 0.10364248 -0.024944749 0.0082233725
0.022252174 -0.09175554 -0.01878835 -0.073871695 0.09158972 0.043231875 -0.14733712 -0.04565178
-0.18552859 -0.032621913 -0.11351595 0.08061686 -0.019075407 0.006989085 0.04421151 -0.19874251
0.04121031 0.12354641 -0.07489722 -0.017158577 0.013553526 -0.03019463 -0.18784487 0.028740197
-0.005303635 0.027095333 0.08200864 0.18104112 -0.1395808 -0.12777282 -0.20809828 -0.13675858
-0.048021972 0.120851256 -0.12473723 -0.01047697 -0.068215966 -0.05901881 -0.02974311 -0.044345587
-0.012751784 -0.109139636 -0.062237617 -0.030567734 -0.054852206 0.05487838 -0.0599607 -0.10176448
0.16535543 0.051849876 0.04129208 0.018235935 -0.10693392 -0.20722178 -0.051658522 0.12581207
0.068383574 -0.0992338 0.1385382 0.0029393816 -0.1392242 -0.052102387 -0.06715701 -0.06727713
-0.08239523 0.024254631 -0.0011133829 0.052225288 0.013227194 0.19936658 -0.002257937 0.28591505
-0.16314171 -0.054320727 -0.015534609 -0.020836754 0.01154753 -0.0704177 -0.06777072 -0.15868999
0.059378967 -0.04783691 -0.019844303 0.035557125 0.030697726 0.014600607 -0.018924125 -0.060109325
-0.04112565 -0.15575053 0.11692088 0.1204771 -0.0027087799 -0.05610194 -0.09326775 -0.09735504
-0.0068437234 0.069947496 -0.13092881 0.066378854 -0.04818897 -0.082403086 0.059030104 0.09417034
-0.03984547 -0.0141222635 -0.118513264 0.08690728 0.03953235 -0.047837477 -0.08409923 0.046095166
0.023507277 -0.1054072 -0.050052706 -0.0714573 0.074618824 0.026712302 -0.071821384 -0.06584569
-0.0261825 -0.15741186 0.02973715 -0.05073661 -0.03741353 -0.007026161 0.0057320036 -0.048077572
-0.026592257 0.089933306 -0.0037043586 -0.018180259 0.07669271 0.06388342 0.16817649 0.081223905
-0.025240393 0.082548656 0.063094825 -0.032195214 -0.11291581 -0.046647966 -0.059510183 -0.1206194

model.5.running_mean f4 [256]
00000000: b6bf ccbf 5fa6 0bbf 6638 ddbd 244a a73d
00000010: 9508 923f 82f1 a03e a94e e73d f8c3 c4bd
00000020: 7243 123f aef1 93bf 413c 55bf a0b8 c43c
00000030: bfe7 16bf b903 ff3e bb9e 6cbf ab48 5cbe
00000040: 8fbb 2fbe f736 803e 3fb5 bdbe 8d50 603d
00000050: f378 6ebe f655 7bbe a40d 5dbe 003b 033f
00000060: ed0e a2bf 357b 99be f26f d63d 02d2 b2bd
00000070: 544d 4bbd 1ec7 77bf 3032 1f3f d3a4 733f
00000080: 0064 193f 0432 9d3f f946 88bf f3f7 6bbf
00000090: 1805 47be c414 283f 368b 08bd d976 5f3f
000000a0: 2977 373f d965 51be afa4 1e3f cb2f 9bbf
000000b0: 8719 5dbe 7328 a4bf 1ae3 7a3d 0222 563f
000000c0: aa91 fa3e 0f98 8cbe 62ba 143f 973c 4ebf
000000d0: ad15 7b3f ec0d 523d 2901 c33d a5d6 45be
000000e0: a899 913f c014 953f b167 92bf 1077 90be
000000f0: 3437 f1be 2412 52bd deaa 0c3e f212 713e
00000100: 40b1 ec3e ed99 31bf eba4 983e f67d a6be
00000110: e864 12bd a1c9 c63e 16eb f43e ed1f f1bc
00000120: 5522 14be 806f 3f3f cf7d da3d 5435 69bf
00000130: 2c95 8b3e b423 d8be e9e9 96bf 227f 9abe
00000140: fa09 5a3f 786e 323f e59c 6d3f c85e 4bbe
00000150: 0002 fc3e bd97 c23d 2caf 343f 9169 c43d
00000160: 38e2 f7be 004f 8abf 44ea f63b 7162 b4bd
00000170: 05df c23e 10c7 af3f 7696 c93e 37da f63e
00000180: 29ab 1bbf aeda 503f 217f 0b3f 8c01 0dbf
00000190: bd46 c53e f883 5e3f ff43 00bd b1bf db3c
000001a0: 0497 1dbe 069b 89bf e78d 0bbf 8aed 5abf
000001b0: 00b5 713e 9199 e3be 2eb0 8e3e ec8b 103f
000001c0: 4c02 603f 88f3 0cbf 4377 6a3e f488 363d
000001d0: 2845 8c3f f1c4 18be 5ad6 1abd 66ec 1e3e
000001e0: 540b 1e3f e908 f53f 5dec 8f3f 139f a63e
000001f0: 3b98 943f 0999 8fbf a0f8 b4bf d5ea 123f
00000200: 7c6b c4bf bc39 923f 009c 0fbf 8079 11bf
00000210: 8eff 793f 1f1e 093f 5a66 01bf e57d 07bf
00000220: a3de de3d 3ca8 c3be 72e2 c43f 85a8 223f
00000230: c898 eebe 95c0 cb3e 933e e23e 8b91 4dbf
00000240: 363d 743f d729 4e3e f6ea 363f 0ca7 363f
00000250: a1fb 0cbf 1735 22bf 6801 f33e c313 f9be
00000260: 9d55 04bf d143 ad3f 2080 44be d362 5a3f
00000270: bcd3 8c3e 8cb3 013f 5ac2 a93f 151a 7ebe
00000280: 13ba fabe c9c2 2c3f 6f3d 17bf 8cfe afbe
00000290: e7b9 7c3d cbb5 08bf e439 85be 91d3 41bf
000002a0: 6469 a0bf 257e 153f 4fd7 81bf 96a8 4e3f
000002b0: fa5f 883f 05a8 c53e f9ae 063f c05e 0c3c
000002c0: 07c7 dfbe 1e48 a73f 8286 3c3f d8b3 2e3e
000002d0: c913 3abf cea4 edbe 8a9b 933f 8758 a4bd
000002e0: 2731 aabe 555e fd3e cde9 343f 73eb 023f
000002f0: 13eb d03e 4cc5 4f3e 9fd8 4c3f c753 083f
00000300: c1c6 f5bd 1639 23bf 4c1d 4f3f 1b4d 46bf
00000310: 2270 103f e617 8a3f 143c e13d 2af4 073e
00000320: 8fc9 693f 00ca 5b3e 0a1e 243f 674b 0a3f
00000330: a381 9dbe 25c2 41bd 5be6 ce3e 54d3 853d
00000340: c356 9e3e 8808 a43e cb22 8b3f 1771 b6bf
00000350: 7738 9a3f dcc8 293f d3a1 f6be c5e9 1a3f
00000360: 6ad3 8c3f cd0e 493e d1d0 38be f4e9 b1be
00000370: e009 5f3e bb23 293f 0938 4e3f 4bb1 ad3e
00000380: b715 413f cc73 473f 2210 babe c580 283f
00000390: 8ad9 893f 66bb 9dbf 009b d3b9 78f9 8a3f
000003a0: 5edc 22bf 7a08 8a3e e486 38bf ca83 3a3f
000003b0: f18c 383f 2d37 9fbf 3f49 2bbe 9ee8 033f
000003c0: 1c23 b4be 4bc1 12bf 6f91 823d 9ebb 65bf
000003d0: 521d b13e 78d2 58bf b4e6 1ebf c792 843f
000003e0: 8895 ecbd fbdd 06bf 12ef 033e 35f9 62be
000003f0: f8b1 a93e 9a13 4e3f b00e 753f e18a 96be
-1.5996006 -0.5455074 -0.10801773 0.08168438 1.1408869 0.31434256 0.112943 -0.096076906
0.57134163 -1.155813 -0.83295065 0.024013817 -0.58947366 0.49807528 -0.92429703 -0.21512096
-0.17161392 0.25041935 -0.37052342 0.05476432 -0.23288326 -0.2454451 -0.21587235 0.512619
-1.2660805 -0.29976812 0.104705706 -0.08731462 -0.049634293 -0.96788204 0.62185955 0.95173377
0.5991821 1.2280889 -1.0646659 -0.92175215 -0.19435537 0.65656686 -0.033335887 0.8729072
0.716662 -0.20449008 0.6197004 -1.212396 -0.21591769 -1.2824844 0.061251737 0.8364564
0.48939258 -0.27459762 0.580969 -0.805612 0.9807995 0.05128281 0.09521706 -0.19320162
1.1375017 1.1646957 -1.1437894 -0.28215837 -0.4711243 -0.05128683 0.13737056 0.23542383
0.4622898 -0.693755 0.29813322 -0.32517976 -0.035740763 0.38825706 0.47835606 -0.029434169
-0.14466222 0.7477951 0.10668527 -0.91097 0.27262247 -0.4221474 -1.1790134 -0.3017512
0.85171473 0.6969981 0.9281753 -0.19860375 0.49220276 0.09501598 0.7057979 0.09590448
-0.4841478 -1.0805359 0.007535251 -0.08807839 0.38060775 1.3732624 0.39372605 0.4821336
-0.60808045 0.8158368 0.5449086 -0.55080485 0.38530532 0.8692012 -0.031314846 0.026824804
-0.15389639 -1.0750434 -0.545134 -0.85518706 0.23604202 -0.444531 0.2786879 0.56463504
0.87503505 -0.550591 0.22897057 0.044564202 1.0958605 -0.14918877 -0.037802078 0.15519866
0.61736035 1.9143344 1.1244007 0.3254324 1.1608957 -1.1218578 -1.4138374 0.57389575
-1.5345302 1.1423869 -0.5609741 -0.5682602 0.9765557 0.53561586 -0.505468 -0.52926475
0.10882308 -0.3821429 1.5381606 0.6353839 -0.46600938 0.39795366 0.44188365 -0.80300206
0.954059 0.20133148 0.7145227 0.71348643 -0.55071455 -0.6336226 0.4746201 -0.4864789
-0.51693135 1.3536321 -0.19189501 0.85307044 0.2750529 0.5066459 1.3262436 -0.24814637
-0.48970088 0.6748472 -0.59078115 -0.3437389 0.061700728 -0.53402394 -0.2602073 -0.7571345
-1.2532163 0.58395606 -1.0143832 0.8072599 1.065429 0.3860475 0.5261074 0.008567512
-0.43706533 1.3068883 0.7364274 0.17060792 -0.7268644 -0.46414798 1.1531842 -0.08024698
-0.33240625 0.49486032 0.7066925 0.51140517 0.40804347 0.20290107 0.8001804 0.53252834
-0.120008 -0.6375898 0.8090408 -0.77461404 0.564211 1.0788543 0.10997787 0.13276735
0.9132318 0.21463776 0.64108336 0.54021305 -0.30762967 -0.04730429 0.40410122 0.06534448
0.3092557 0.3203776 1.0869993 -1.4253262 1.2048482 0.6632211 -0.48170337 0.60512954
1.1002018 0.19634552 -0.18048407 -0.34748805 0.21781111 0.66070145 0.8055425 0.33924326
0.7542376 0.77911067 -0.36340433 0.65821487 1.0769513 -1.2322814 -0.0004036054 1.0857382
-0.63617504 0.26959592 -0.72080827 0.72857344 0.7209006 -1.2438713 -0.1672716 0.5152682
-0.35183036 -0.5732619 0.063753955 -0.89739406 0.34592682 -0.8469615 -0.62070775 1.0357293
-0.11551958 -0.52682465 0.12884167 -0.22165377 0.33143592 0.8049866 0.95725536 -0.2940283
