best_models/best_model_rnn_search_1_features_70.pt (torch, 38048 bytes, 5 tensors)

rnn.weight_ih_l0 f4 [64, 70]
00000000: 21c3 28bd 5bd4 f8bc 77cc adbc 4020 0cbb
00000010: 0545 73bd 99e4 953d f00e 3b3d e46c 393d
00000020: 3928 fdba 7ad6 983d a97f b03d 3aec 04bc
00000030: fd7c febc 162f f5bd ac15 b43a d618 e3bd
00000040: e1c2 f1bc abce aebd fcae a03d 626b 003d
00000050: c844 513c ef07 c1bd 47eb 183d 01b0 12bd
00000060: 7b9a f9bd 5435 e03c 86b8 053a d501 d7bd
00000070: c47c e9bd 7f2c 17bd afc1 983d 8e9b e83d
00000080: 6768 b3bd 8784 e93d 6d87 f13d 5537 69bc
00000090: 398c 54bd 27da 073d 206a 21bd a15d f23d
000000a0: ae3f 95bd f114 a4bc 6b3b 9dbd da95 50bd
000000b0: 9e67 ef3d c616 963d 34c4 c33b 572f bf3c
000000c0: d597 bcbd baee dbbd 7c95 e1bd 9fd8 2bbd
000000d0: 69ac 01bc f60a c63d 2118 1b3c b088 9bbd
000000e0: a0c7 ebbd 45f4 b53d 8c6a f33c 6ef3 20bd
000000f0: 0b74 be3d 7bb8 06be d815 c23d 3e9c 173d
00000100: 2aac 893c e0c0 87bd 22ea a03d f7a4 543c
00000110: ea38 e53d e6e7 61bc fb6d b2bd 56ea f03d
00000120: fc6a c4bc 41d5 1ebc 6729 5fbd 37e7 443d
00000130: 37db f93d 3f24 503c 0b28 4f3c d808 89bd
00000140: 6329 b23d 51aa 17bc 54fb 12be 593a 30bc
00000150: 82a3 1bbb eabe ff3c 461f d9bd e8df 68bc
00000160: a3a3 14bd fc10 f53c c241 ed3d a9d5 a03c
00000170: 7757 ee3d a2ac 72bd 3f7e e33a e604 893c
00000180: 84ba 3bbd c6ef b63d ac1c c0bd 5ae1 de3d
00000190: bd2e acbd af8b c13d bbd7 28bc 9ca3 253d
000001a0: e4ad 0abe 033d db3d be32 f1bb d7da 653d
000001b0: 3f39 f03c 4a0c e23c 60ee 7d3d 6008 6bbd
000001c0: e57f 4e3d 83ac 8cbd 73f2 afbd 5d6e 8b3d
000001d0: ca98 5cbd 1904 96bd 7ae5 cbbd ed13 dbbd
000001e0: 8b11 f1bd 9167 ee3d 7634 ccbc cd1f 78bd
000001f0: 571c 7fbd 8014 cebd 11c8 e13d c6be 17bd
00000200: 951a 5cbd 4670 9ebd c992 f33d 9791 e7bd
00000210: c188 7e3c 7a81 f6bc 6470 acbd 4013 7d3d
00000220: a9cf f2bb 8c4c 01bb 71e5 da3c 285c 35bd
00000230: d943 d13d 6fbb f4bd f444 17bc 8425 cebd
00000240: 1533 c03d ccdb 1dbd 0591 113d 68fa 1fbd
00000250: c637 003e 7147 66bd 4b85 babd d187 af3c
00000260: 9499 c33d cabd f6bd 2497 973d 29d9 063e
00000270: 2485 b4bc a920 cebb c849 b13c 42de cabd
00000280: 6acb af3d 53ab ce3c 605b b13d 1e30 253c
00000290: f725 12bd 9e95 da3d be89 94bc 17c5 8dbd
000002a0: e05f fb3c 16af d03d d42f 183d b0a9 003e
000002b0: 869a dc3d c757 ad3d 92da adbd d996 b5bd
000002c0: 9bc7 84bd 7ea7 763c 9c56 1b3d 8cc0 df3c
000002d0: 070b e73d 9b5a 28bd 829b 6fbd fa90 d83d
000002e0: e5fa ebbd 56d7 0bbc b571 91bd 5904 c5bd
000002f0: 5454 203c 348b c03d b039 e23d 613b 18bb
00000300: 6459 583d 1cfc 5f3d 9ef0 b33d ac68 adbd
00000310: 72dc c43a 3285 07bb e1e3 70bd df02 f9bd
00000320: 3992 3ebd fa8f 983d 9617 98bd 678c 7e3d
00000330: b623 84bd 4619 89bd 487a e73b be11 7f3d
00000340: 8a9a f93d 3c62 4a3d ba0b 5bbb 1ece a83d
00000350: c409 84bc 3bf6 c0bd b3d2 91bd ca55 293d
00000360: 3277 75bd 9e39 fa3d 24c8 103b 2d9b e03c
00000370: 6c49 523d 0002 bbbd 9109 88bd 5467 20bd
00000380: 4624 9a3c 7792 13bd d882 033e 24c4 0bbc
00000390: 3ae9 553d a28d 4e38 73dd a6bd f655 b1bd
000003a0: 3660 833d 4a60 493d 28f5 db3d f851 52bb
000003b0: d4d7 c23d d12e 40bc ced4 103d fa7b 8f3d
000003c0: ed78 dbbd 5e16 9abc 86be afbd b829 853d
000003d0: bbc2 953d f236 b63d 9b1f febd d867 c6bd
000003e0: d60a 7b3d e508 babd f5a1 38bb b1b0 083d
000003f0: 32cb c53d 45fe 2bbd 6840 b4bd b64b d1bd
-0.041201714 -0.030374696 -0.02121566 -0.0021381527 -0.059391994 0.07318992 0.045668542 0.04526986
-0.0019314355 0.07462783 0.08618099 -0.008112961 -0.031065458 -0.119718716 0.0013739369 -0.110887215
-0.02951187 -0.085355125 0.078458756 0.03135241 0.012772746 -0.09425341 0.037333753 -0.03581238
-0.12187668 0.027369179 0.00051010435 -0.10498396 -0.1140075 -0.03690767 0.07458817 0.11357795
-0.087601475 0.11402231 0.117934085 -0.014234384 -0.05189154 0.03316703 -0.03940785 0.118342645
-0.072875366 -0.020029517 -0.07677349 -0.05092416 0.11689685 0.073285624 0.005974317 0.023338003
-0.09208647 -0.10738893 -0.1101484 -0.041954633 -0.007914641 0.096700594 0.009466202 -0.075944304
-0.11512685 0.08884481 0.029713891 -0.039294653 0.09299477 -0.13156311 0.094768226 0.03701424
0.016805727 -0.06628585 0.07857157 0.012978784 0.11192496 -0.013788199 -0.08712383 0.11763446
-0.023976795 -0.009694398 -0.054482844 0.048072066 0.12200015 0.012703954 0.012643824 -0.0669114
0.086993 -0.009256915 -0.14353687 -0.010756099 -0.0023748581 0.031218965 -0.10601668 -0.01421354
-0.03628887 0.029915325 0.11584808 0.019633131 0.11637776 -0.059246667 0.001735635 0.016725969
-0.045832172 0.08932452 -0.09380469 0.10882826 -0.08407352 0.09450471 -0.01030534 0.040439233
-0.13542897 0.107049964 -0.0073607853 0.056116905 0.029324172 0.02759375 0.06199491 -0.057381034
0.05041494 -0.068688415 -0.085911654 0.068081595 -0.05385665 -0.07325 -0.099558786 -0.1069716
-0.11770924 0.116408475 -0.02492736 -0.060577203 -0.062282886 -0.10062504 0.11024488 -0.03704717
-0.053736288 -0.07736258 0.118932314 -0.11307066 0.015535534 -0.030091036 -0.08419874 0.061785936
-0.007410009 -0.0019729463 0.026720734 -0.04427734 0.10218019 -0.119498126 -0.009232748 -0.10065749
0.09384743 -0.038539693 0.035538692 -0.039057165 0.12521276 -0.056220476 -0.09107455 0.021427067
0.09550777 -0.12047918 0.07401875 0.13168778 -0.022036143 -0.0062905145 0.021641627 -0.099056736
0.0858372 0.025228178 0.086600065 0.010082273 -0.035680737 0.106730685 -0.018132087 -0.069223575
0.030685365 0.10189645 0.037154987 0.1256473 0.107716605 0.08464008 -0.084889546 -0.088666625
-0.06483384 0.015054582 0.037924394 0.027313493 0.112814 -0.041102033 -0.058497913 0.10574527
-0.11522464 -0.008535227 -0.07101766 -0.0961997 0.00978573 0.09401551 0.11046159 -0.0023228752
0.052819625 0.05468379 0.087861285 -0.0846723 0.0015019311 -0.0020678756 -0.058811072 -0.12158751
-0.046526168 0.07449336 -0.07426374 0.062145617 -0.06452124 -0.06694274 0.0070641376 0.06227278
0.12187679 0.04941009 -0.0033423738 0.08242439 -0.016117938 -0.09421965 -0.07120266 0.04134158
-0.059928127 0.12218021 0.002209195 0.027417744 0.05133955 -0.09131241 -0.0664245 -0.03916104
0.018816125 -0.03602835 0.12842882 -0.00853065 0.052224375 4.9246133e-05 -0.08147707 -0.08658974
0.06414835 0.049164094 0.10740119 -0.0032092314 0.09513822 -0.011729912 0.035359196 0.070060685
-0.10716424 -0.018809494 -0.08581261 0.06502098 0.073125325 0.08897199 -0.12408372 -0.096877754
0.06128963 -0.09083728 -0.0028172706 0.03337163 0.09657897 -0.041990537 -0.08801347 -0.10219519

rnn.weight_hh_l0 f4 [64, 64]
00000000: 5c7d 323d 2275 d1bd e0b4 7cbd e819 353d
00000010: 0078 a73b 2ab4 9dbd 8095 273b 00ed afbc
00000020: c0cd 713c a098 b9bd 3693 99bd 8853 11bd
00000030: 8e38 86bd 465b 81bd d46d 26bd 80e4 60bc
00000040: e0d3 8f3d 4a94 e13d ac8c 713d bc89 a0bd
00000050: e097 a83b d491 9bbd 5e82 ef3d 4433 a23d
00000060: c821 d1bc 20bd 05bc d884 e33d 50ce 993c
00000070: 682e b9bc c2d2 dcbd e0bd afbc c868 4d3d
00000080: d8d1 8c3d d03d f8bc 00b9 963b 78cb 803c
00000090: 9a95 ae3d a842 e13c 00f6 ee3a 92cf e5bd
000000a0: a023 2dbc e004 a93c 4ca1 153d cc07 193d
000000b0: 48e4 68bd 8acf 90bd 1e26 e2bd 641c 7cbd
000000c0: a496 22bd 166c 8c3d 34ef 4e3d da89 febd
000000d0: 6c46 11bd 5872 05bd 80ad 4ebb 748b d4bd
000000e0: 6038 b83d 4058 4d3d bcbc 4a3d a2db e3bd
000000f0: a844 88bd 00ac b9ba 82af c8bd 7028 673d
00000100: 6efd e33d c42b 063d 986b 213d a02d 82bc
00000110: 7441 e2bd 6039 febd 1044 dd3c 4cd4 3bbd
00000120: 2c8b 70bd f0e6 523c 56e1 883d e4ac 39bd
00000130: ac12 09bd 6a54 a0bd 10de 04bc c2e1 cdbd
00000140: 94ea b23d 9c65 62bd d067 9d3c 2c8b e6bd
00000150: 1811 42bd c0a5 cebd 80c8 81bc 182c cbbd
00000160: a841 35bd ca6d cd3d 908a be3d 1813 4dbd
00000170: 8033 6c3c 7026 d6bc 18c9 0a3d dc94 dcbd
00000180: 12a1 ab3d 2470 eabd 241a 75bd ac61 bdbd
00000190: 54a1 91bd 004a deba 840c 933d 4c76 50bd
000001a0: 44f8 bcbd d844 433d 368e e2bd 0861 9ebc
000001b0: 10eb 203c e0e1 67bd 40bf d1bb 0e4a d0bd
000001c0: 3034 e83d 8444 1f3d a887 453d 485b ff3d
000001d0: 7a66 d7bd f4d3 65bd 4e29 933d bc98 a23d
000001e0: b21f f43d b0d1 7dbd dc79 7c3d 1c08 d83d
000001f0: 50f4 cabd 10ed 0b3c 88d3 0d3d 380c d63c
00000200: aedd 993d 60bb 92bc cc2d 513d 5871 57bd
00000210: 10de aabd a009 a3bc ae97 953d 4042 cebd
00000220: b4d0 dfbd c818 e7bc 788c d73d f0b2 863d
00000230: a0fb b0bb 943b 743d 9eee 953d f846 f3bc
00000240: 70c6 5a3d 52db d03d c8ed a13c 3474 5a3d
00000250: 7491 4ebd f8cc efbc c251 96bd d4a0 bf3d
00000260: dc8b 193d 903e cc3d 3c47 ca3d f28a e13d
00000270: a061 83bc 8074 b8ba 7aee f03d 520f b1bd
00000280: 9ec8 e6bd 7498 053d 5420 663d 9a20 f8bd
00000290: 5ebf b33d 4810 143d 7e3f bfbd bce7 69bd
000002a0: 5082 77bd 5cf7 63bd 48ca e13c 8039 f23c
000002b0: c003 a8bc 46de bfbd 944d 553d 007b aa3b
000002c0: b292 a33d f65a e43d 40bf 723d bc95 19bd
000002d0: 34b0 d43d e0f6 3ebd bc6d bfbd 0810 883d
000002e0: 0072 8d3a 24d0 c1bd c4e8 45bd 90f6 98bd
000002f0: fcaf 78bd f2c3 b03d a6ec fc3d e024 eabd
00000300: b087 a5bc ee52 e5bd aef4 e6bd e88b fc3c
00000310: 30ea 953c 3480 773d 84ad 723d 488c cf3d
00000320: 82b4 abbd 88c3 a93c 782b 373d ec35 43bd
00000330: 5081 383c 4094 cf3c a008 acbb f2c1 dfbd
00000340: 6025 e33b 2233 d63d 0891 85bc 603f 503d
00000350: f080 cf3c 64a1 f1bd 542d 82bd 4045 b43d
00000360: 3018 86bd 5030 853c a089 8a3b 40e4 d6bb
00000370: d879 3c3d be48 f8bd c449 eabd 265d de3d
00000380: c837 0fbd 00ed 663c 566b fd3d 62e9 d63d
00000390: 5619 97bd 58ab aa3d 5651 c33d e892 69bd
000003a0: 6085 7abd 20a0 0a3c 9861 14bd 8e51 a9bd
000003b0: 007e 7ebb a6fb f03d 0087 e2bc 802e f23a
000003c0: e05e afbc 04b2 0abd 2833 8abd 20c8 3fbc
000003d0: 0493 babd d6be d5bd a221 f23d 00d7 30bb
000003e0: 3085 5ebd 18dc 793d 74af 45bd 0011 493b
000003f0: 46b2 e73d 4c7b 3dbd 406a 7d3d 56cd 9e3d
0.043576583 -0.102274194 -0.061695933 0.04421416 0.0051107407 -0.07700379 0.0025571287 -0.021475315
0.014758527 -0.09062314 -0.074987814 -0.035480052 -0.06553756 -0.06316237 -0.040632084 -0.013726354
0.07022834 0.11014612 0.058972046 -0.07838771 0.005145058 -0.07596174 0.116947874 0.079199344
-0.025528803 -0.008162767 0.11109322 0.018775135 -0.022605136 -0.10782386 -0.021452844 0.050148755
0.06875962 -0.030302912 0.0045996904 0.015722021 0.08524628 0.027497604 0.0018231273 -0.112212315
-0.010567576 0.020632207 0.036530778 0.03736095 -0.05685833 -0.07070835 -0.110424265 -0.061550513
-0.039694443 0.06856553 0.05052109 -0.12428637 -0.03546755 -0.03257975 -0.003153652 -0.10378161
0.08995128 0.05013299 0.049496397 -0.11125876 -0.0665372 -0.001416564 -0.097991005 0.05643505
0.11132322 0.032756582 0.03940925 -0.015890896 -0.110476404 -0.12413287 0.027009994 -0.04585676
-0.058726475 0.012872443 0.066836044 -0.045330897 -0.033465073 -0.07828601 -0.008109584 -0.100528255
0.087361485 -0.055272684 0.01921454 -0.11257014 -0.047379583 -0.10090208 -0.015842676 -0.099205196
-0.044252068 0.10030706 0.093037724 -0.050067037 0.014416575 -0.026141375 0.033883184 -0.1077058
0.08380331 -0.114471704 -0.059839383 -0.09247145 -0.07110849 -0.001695931 0.071801215 -0.050894067
-0.092270404 0.047673076 -0.11062281 -0.019333377 0.009821668 -0.056611896 -0.0064009726 -0.10170375
0.11338079 0.0388837 0.048225075 0.124685824 -0.10517593 -0.056110337 0.071856126 0.07939288
0.11920108 -0.06196755 0.06163965 0.10548422 -0.0990988 0.008540407 0.03462556 0.026128873
0.07512985 -0.017911613 0.051069066 -0.052598327 -0.08343136 -0.01990205 0.07304321 -0.1007123
-0.10928479 -0.028210059 0.10524839 0.06577098 -0.00540109 0.05962713 0.07320903 -0.029696926
0.0534119 0.10198082 0.019766703 0.053333476 -0.050431684 -0.029272541 -0.07339813 0.093568474
0.037486896 0.0997287 0.09876868 0.1101283 -0.016037762 -0.0014072806 0.11764236 -0.086455
-0.112687334 0.032616094 0.056183174 -0.12115593 0.08776735 0.03614834 -0.09338282 -0.057105765
-0.06042701 -0.055655822 0.027562276 0.029568434 -0.0205096 -0.09368567 0.052075937 0.005202651
0.07986964 0.11150162 0.05926442 -0.037496313 0.103851706 -0.046622157 -0.09347102 0.06643683
0.0010791421 -0.09463528 -0.048317686 -0.07468903 -0.060714707 0.086311236 0.123498246 -0.114328146
-0.020206302 -0.11197458 -0.11277138 0.030828431 0.018300146 0.060425 0.05924751 0.101341784
-0.083840385 0.02072312 0.04471919 -0.047658846 0.011261299 0.025339246 -0.0052500516 -0.10925664
0.0069319457 0.104589716 -0.016304508 0.05084169 0.025330037 -0.11798361 -0.06356302 0.08802271
-0.06547582 0.016258389 0.004227832 -0.0065579712 0.046014637 -0.121232495 -0.11439851 0.108576104
-0.034965307 0.014094591 0.12373988 0.10493733 -0.07377879 0.083334625 0.09536998 -0.057024866
-0.061162353 0.008461028 -0.036225885 -0.082675084 -0.0038832426 0.11766748 -0.027652264 0.0018476993
-0.021407545 -0.033861175 -0.067480385 -0.011705428 -0.09110072 -0.1043679 0.11822821 -0.0026983619
-0.054326236 0.061000913 -0.04826303 0.0030680299 0.113133 -0.046260163 0.061868906 0.077540085

rnn.bias_ih_l0 f4 [64]
00000000: 4eb7 e0bc 808b 563c 4a00 eabd 50bf 88bd
00000010: ab0f 863d d0b6 7abd 7010 5f3d e875 a2bd
00000020: cefd 3cbd a6ab 993d 1e94 64bc 5a9d cb3d
00000030: 3d87 d9bd 331b f93d f086 bd3d 76df 0a3d
00000040: ba3e 243c 0809 0cbd c7f9 d9bd b346 8bbd
00000050: 8ef2 fa3c 92be a83d 4109 d4bc 1447 313c
00000060: 692f c33c 8604 c33c 422e f6bd afbc 8f3d
00000070: 2ba7 853d e383 e9bd 5aba 2fbc 9517 5a3c
00000080: 5941 983c 439a 3f3d 0d32 983d ff61 adbb
00000090: f607 173d dd5c 1c3d 187c 2abd e708 abbb
000000a0: 6432 50bd cc19 263d 2bf4 6cbc 2de7 5abc
000000b0: 788f c3bd 1b87 683c 363e 9cbd 158a 05bc
000000c0: 4c4f 593d 2b5f cbbd eeea 2c3c 80b8 94bd
000000d0: a6dd 9e3d 3ce3 b1bd 8659 bdbd f776 873c
000000e0: 6e91 fdbd b5b5 cabd 512d f2bd 8f90 8bbb
000000f0: b7bc 8abd 9e45 be3d 35a5 d5b8 0989 d43d
-0.027431156 0.013094783 -0.114258364 -0.06677115 0.06545957 -0.0612095 0.054459035 -0.07932645
-0.046140485 0.075034425 -0.0139513295 0.09942122 -0.10621498 0.12163391 0.09254253 0.033904515
0.010024721 -0.0341883 -0.10643344 -0.06800594 0.030633237 0.082394734 -0.025883319 0.010820169
0.023826318 0.023805868 -0.12020542 0.070184104 0.065260254 -0.114021085 -0.010725582 0.013311286
0.018585848 0.046777975 0.074314214 -0.005291223 0.036872827 0.0381745 -0.04162225 -0.005219567
-0.050829306 0.040551946 -0.014462511 -0.013360781 -0.09548849 0.014192368 -0.07629053 -0.008150597
0.05305414 -0.09930261 0.0105540585 -0.07261753 0.0775712 -0.0868592 -0.09245591 0.016536219
-0.12381254 -0.09897939 -0.1182505 -0.004259176 -0.06774276 0.09290622 -0.00010187404 0.103777

rnn.bias_hh_l0 f4 [64]
00000000: 213c fa3d 9e37 923d 856b 4abd 8ac5 c73d
00000010: b37a a73d 03fc a9bd b431 033c c247 9f3d
00000020: d04e b83d d2c9 b3bd adeb 2dbd 68d4 a43d
00000030: f17d 823d bbe4 abbd 9029 c0bd 58f4 723d
00000040: 53f4 7abc 86bc 79bd e392 e4bd 816c 633d
00000050: bd65 77bb 90e8 f5bd 45d3 d9bd ddbe b43d
00000060: f3d4 dabd 0704 10bd c240 e43d 1352 b0bc
00000070: 99f9 1e3d 2fb4 abbd 8848 95bc 0c06 e13d
00000080: 6aa4 b53c 0bcf 6cbb 50a8 f4bb ea86 f7bd
00000090: 3e52 2fbd b972 4d3d 9e60 b9bc cc38 e83d
000000a0: 9a04 d7bd c3d7 ddbc e362 80bc a732 e33c
000000b0: ec1e e0bc 492a bb3d f5bd e23c db43 abbd
000000c0: 21d6 e3bd a24a 17bd 6595 f93d 9044 c93d
000000d0: 967c 893d 484a b5bd 83a2 05bc ca8b f2bb
000000e0: 062b ec3d 2784 933d 5b28 9bbd 6bb4 a53c
000000f0: 452a bf3d 9aa7 d7bd 5f31 1ebd 2422 09bd
0.122185 0.071395144 -0.049418945 0.097544745 0.081777 -0.083000205 0.008007456 0.077773586
0.08999407 -0.087787285 -0.042461086 0.08048326 0.06371678 -0.08393236 -0.093829274 0.059315056
-0.0153170405 -0.060970806 -0.11160829 0.0555234 -0.003774985 -0.120072484 -0.106359996 0.08825467
-0.10685148 -0.03516009 0.11145164 -0.021523511 0.038812254 -0.08383977 -0.018223062 0.109874815
0.022173125 -0.003613415 -0.0074663535 -0.1208628 -0.04280304 0.050158236 -0.022629078 0.11338958
-0.104989246 -0.027080422 -0.015672153 0.027734114 -0.027358495 0.09138925 0.02767847 -0.08362552
-0.11124826 -0.03693641 0.12186698 0.098275304 0.06713216 -0.08852059 -0.008156422 -0.007401918
0.115316436 0.072029404 -0.075760566 0.020227632 0.09334234 -0.10530014 -0.038621303 -0.033479825

fc.weight f4 [1, 64]
00000000: 8722 84bd 0d13 fe3c ae19 eabc bf15 88bd
00000010: aa10 513d e936 453d 83c6 bd3b 6afa b23c
00000020: c4de 74bc 8277 323d e47d 943b b590 243c
00000030: 6fd4 143c c819 023d c640 a83d 82e6 503d
00000040: 427a 7abb 80e0 31bd 7716 47bd 755f da3c
00000050: a7c5 b1bd ebd7 9f3c bc5e c83d 9d32 533b
00000060: 032e bd3d 2c15 0abd 5fb4 8dbc 225a fcbc
00000070: d2ce e7bb bb71 89bd 9030 6b3c 09cd 9bbd
00000080: 950b 983b 7d19 a4bd 35c8 e0ba 05f7 063d
00000090: 1da6 a4bb 3271 2dbd e646 f93c 59f0 d03d
000000a0: 32d8 4e3d b0b1 8a3a d170 4b3d e71d ffbb
000000b0: b1f2 07bd 01c2 863d 707c 14bb f749 9fbd
000000c0: cd7d a2bb b424 5c3d 1f00 a8bd 2cec a83d
000000d0: b2da 2f3c 621a 80ba 63c4 0aba e319 61bb
000000e0: 72c4 873d db92 043d 68c9 65bd 907d 66bd
000000f0: 36ae 8abb 17a5 92bc 83f3 913c f7de fabb
-0.06451898 0.031014943 -0.028576698 -0.06644773 0.051041283 0.04814807 0.0057914867 0.021847922
-0.01494569 0.043571003 0.004531609 0.0100442665 0.009083851 0.03176287 0.082154796 0.05100108
-0.0038219844 -0.04342699 -0.04860541 0.026656846 -0.08680277 0.019512137 0.09783694 0.0032226213
0.09237292 -0.033711597 -0.017297922 -0.030804697 -0.0070742154 -0.067111455 0.01435484 -0.07607467
0.0046400526 -0.08012674 -0.001714951 0.03295042 -0.005024685 -0.04234428 0.030429315 0.10202093
0.05049915 0.001058152 0.049668137 -0.007785547 -0.033190433 0.06579972 -0.0022657178 -0.077777795
-0.0049588443 0.05374594 -0.08203148 0.08248171 0.010733293 -0.0009773488 -0.0005293546 -0.0034347705
0.06629266 0.032366615 -0.05610028 -0.05627209 -0.0042321933 -0.017900987 0.01781631 -0.007655974
