best_models/best_model_lstm_search_2_features_70.pt (torch, 142506 bytes, 5 tensors)

lstm.weight_ih_l0 f4 [256, 70]
0	0xbe077548	-0.13228333
1	0x3bbcd230	0.005762361
2	0xbe1a894f	-0.15091442
3	0xbd5f78ce	-0.054558568
4	0x3c86144a	0.016367096
5	0xbe2e0c02	-0.16996768
6	0xbd97f775	-0.074202456
7	0xbd23f833	-0.040031623
8	0xbd56c086	-0.0524297
9	0x3d02232f	0.031771835
10	0xbde282f9	-0.11060137
11	0x3c845b76	0.016156893
12	0x3d18d353	0.03731091
13	0xbdbb48cf	-0.091447465
14	0xbe6fd96f	-0.23422788
15	0xbe14cd05	-0.14531334
16	0xbe3773db	-0.17915289
17	0x3d3725bb	0.044713717
18	0xbb5c2b4d	-0.0033595145
19	0xbd22f6e9	-0.039786253
20	0xbdad09c2	-0.08449127
21	0xbb63e683	-0.0034774847
22	0xbe522aa4	-0.20524079
23	0x3cd07bfc	0.025449745
24	0xbd88413f	-0.0665307
25	0xbe3df2f0	-0.18549705
26	0x3dbc892d	0.09205852
27	0xbe1ebd3d	-0.15501876
28	0x3d1e3ba2	0.03863109
29	0xbe4ee825	-0.20205744
30	0xbda63b3b	-0.08116766
31	0xbd8fae6d	-0.07015691
32	0xbe032903	-0.12808613
33	0x3d0236de	0.031790607
34	0xbe12f82a	-0.1435248
35	0xbcf40580	-0.029787779
36	0xbe1351b2	-0.14386633
37	0xbdb5be5b	-0.08874198
38	0xbdc2bff5	-0.09509269
39	0xbdf59667	-0.119915776
40	0x3d9b0baf	0.07570588
41	0x3caa0aa4	0.020757027
42	0x3d0c3f4d	0.034240056
43	0x3d111feb	0.03543083
44	0x3d3a665b	0.04550777
45	0xbdea3077	-0.11435025
46	0xbaf73628	-0.0018860744
47	0xbde7d512	-0.11319937
48	0xbd964292	-0.07336916
49	0xbe9f6edf	-0.31139275
50	0xbe1d659b	-0.1537079
51	0x3ddee54b	0.10883578
52	0xbda2f787	-0.07957368
53	0xbd1d3f8e	-0.03839069
54	0xbe100162	-0.14063028
55	0xbdb9e3aa	-0.090766266
56	0xbcc92a5d	-0.024556333
57	0x3c24bae9	0.0100543285
58	0x3d8f9b13	0.07012
59	0xbbddf582	-0.0067736516
60	0x3d2e9dee	0.042631082
61	0x3d1ef5d0	0.038808644
62	0xbd3d92bb	-0.04628251
63	0xbd991939	-0.07475514
64	0xbd633003	-0.05546571
65	0xbca8143a	-0.020517457
66	0xbe3bce09	-0.18340315
67	0xbe31000c	-0.17285174
68	0xbe562c46	-0.20915326
69	0xbd898351	-0.067145
70	0xbdaf820b	-0.085697256
71	0xbd74dfc7	-0.059783723
72	0x3dd8a810	0.105789304
73	0xbc2be289	-0.010491022
74	0x3ca003f5	0.019533137
75	0x3a9f9c88	0.0012177387
76	0xbccff7f1	-0.025386782
77	0x3d17fb0e	0.03710466
78	0x3d450797	0.04810294
79	0x3d76e859	0.060280178
80	0xbe1ea408	-0.1549226
81	0x3d80557f	0.06266307
82	0x3c5d228f	0.013497009
83	0xbdc69e51	-0.09698165
84	0xbcf2ec9b	-0.029653838
85	0xbe1ad84b	-0.15121572
86	0xbdf3e456	-0.11908786
87	0xbdc0d48c	-0.0941554
88	0x3c45ad3a	0.012065226
89	0xbe0992de	-0.13434932
90	0xbdb652d3	-0.08902516
91	0x3cce7756	0.025203388
92	0xbe08d522	-0.13362554
93	0x3d42b4cf	0.047535714
94	0x3d3cb49f	0.04607069
95	0xbd37618b	-0.04477076
96	0xbcba51f2	-0.022744153
97	0x3c9b6fa5	0.018974135
98	0xbd4a39ad	-0.04937141
99	0xbdf79966	-0.12089805
100	0x3db29b24	0.08720997
101	0xbe1908d2	-0.14944771
102	0xbdfc841d	-0.12329886
103	0x3c8c3d86	0.01711918
104	0xbdc4554a	-0.0958658
105	0xbd326921	-0.04355729
106	0xbe053ee1	-0.13012268
107	0xbdbacb29	-0.09120781
108	0xbe349f51	-0.176389
109	0xbdd5f213	-0.104465626
110	0xbdfd7ffd	-0.123779275
111	0xbe365294	-0.17804939
112	0xbd8a25e6	-0.0674551
113	0x3c593857	0.013258061
114	0x3d84b7b1	0.06480349
115	0x3d92c090	0.07165635
116	0xbd96c8eb	-0.07362541
117	0xbd898cca	-0.067163065
118	0x3d973550	0.073832154
119	0x3ca601b5	0.020264486
120	0xbc9fbf5a	-0.019500423
121	0x3cadf6b8	0.021235809
122	0xbde1698c	-0.110064596
123	0xbddfb71a	-0.10923596
124	0xbdd352c0	-0.10318518
125	0x3d9b6d9f	0.07589268
126	0xbb942350	-0.004520811
127	0xbd9a1b93	-0.075247906
128	0x3db97024	0.09054592
129	0x3dc013b1	0.09378756
130	0xbdf79b55	-0.12090174
131	0xbd52cf41	-0.051467184
132	0xbe0ac013	-0.13549833
133	0xbd99500e	-0.07485972
134	0xbd810ca3	-0.063012384
135	0xbe14fe35	-0.14550097
136	0x3da0d1f6	0.07852547
137	0xbe1d0a5b	-0.15335982
138	0xbdd3fd5b	-0.10351058
139	0xbe119d13	-0.14220075
140	0xbe691ec7	-0.22765647
141	0xbd8d0bc6	-0.06887011
142	0x3d7f0033	0.06225605
143	0xbd68fe45	-0.056883115
144	0xbdfb632e	-0.122747764
145	0x3d141ee1	0.03616226
146	0x3b806e27	0.003919381
147	0x3c2dcec5	0.01060838
148	0xbdf97ddb	-0.12182208
149	0x3c9daa3d	0.019246215
150	0x3b937bae	0.0045008278
151	0xbdd2ad46	-0.102869555
152	0x3d799fd4	0.06094344
153	0xbc97bb54	-0.018521942
154	0x3c35bce1	0.0110923955
155	0xbda4768a	-0.08030422
156	0xbe3ed091	-0.1863425
157	0xbe520498	-0.20509565
158	0xbcf4da3b	-0.029889217
159	0xbd8b033a	-0.06787725
160	0xbc1421d8	-0.009041272
161	0xbca888bd	-0.020573014
162	0xbe401a76	-0.18760094
163	0xbdfc4aff	-0.12318992
164	0xbe338755	-0.17532094
165	0xbe4064fd	-0.18788524
166	0x3dd5e5ac	0.10444197
167	0xbe3257dd	-0.1741633
168	0xbd9fab7c	-0.0779638
169	0xbcb9a999	-0.022663878
170	0xbd7ecd69	-0.062207613
171	0x3c8934b4	0.016748764
172	0xbe1c4fcd	-0.15264817
173	0xbd995a1f	-0.07487892
174	0x3d01c0f3	0.03167815
175	0x3d1d169f	0.03835165
176	0xbdab3cf0	-0.08361232
177	0xbcbb7d12	-0.022886787
178	0x3bfe4b76	0.0077604605
179	0xbe2fccdf	-0.17167996
180	0xbe13e565	-0.14442976
181	0xbdb5906c	-0.08865437
182	0xbc18b3b7	-0.009320191
183	0x3d299821	0.041404847
184	0xbd6bccfe	-0.057568543
185	0xbe18f955	-0.14938863
186	0xbd0fcca7	-0.03510728
187	0xbe33027b	-0.17481415
188	0xbe02e3b2	-0.12782171
189	0xbd63bf88	-0.05560258
190	0x3c390b1d	0.0112941535
191	0xbd173cbe	-0.036923163
192	0xbe37284e	-0.17886469
193	0xbd853b9d	-0.06505511
194	0xbe3e04ab	-0.18556468
195	0xbe097153	-0.13422136
196	0xbc9bee71	-0.019034596
197	0xbdbf2412	-0.09333052
198	0xbe5be7c9	-0.21475138
199	0xbd1de0f9	-0.03854463
200	0xbdf832c4	-0.12119058
201	0xbe10a07f	-0.14123724
202	0xbd0d4bfe	-0.0344963
203	0xbe20d798	-0.15707242
204	0xbc427c30	-0.011870429
205	0xbe3e0b42	-0.18558982
206	0xbe2d3d6d	-0.16917963
207	0xbe3afa36	-0.1825951
208	0xbe387e30	-0.18016887
209	0xbe0e3e8c	-0.13891047
210	0xbc365362	-0.011128278
211	0xbccbe8dd	-0.024891311
212	0xbd224038	-0.039612025
213	0xbd2989f7	-0.04139134
214	0xbdd3b365	-0.10336951
215	0xbd8ce7d0	-0.06880152
216	0x3cf1322d	0.029442871
217	0xbe09f566	-0.13472518
218	0xbe2157ea	-0.15756193
219	0xbd984ff8	-0.07437128
220	0xbd32f0a0	-0.04368651
221	0xbe2955a8	-0.16536582
222	0x3dd85213	0.105625294
223	0x3bfab5be	0.00765106
224	0xbe24cc4d	-0.1609356
225	0x3bcce46f	0.0062528173
226	0xbe51df12	-0.20495251
227	0xbdbead5d	-0.0931041
228	0xbd10e11f	-0.035370942
229	0x3d32116d	0.04347365
230	0x3cbc9c23	0.02302367
231	0xbdf3f95d	-0.11912797
232	0x3d19cdac	0.03754966
233	0xbdaa149f	-0.083047144
234	0xbe1093d7	-0.14118896
235	0xbdb7ad7c	-0.089686364
236	0xbc5a17c4	-0.01331133
237	0xbd7817aa	-0.060569443
238	0x3d1f08ce	0.038826756
239	0xbe62d9c5	-0.22153385
240	0xbe055d44	-0.1302386
241	0x3b4fe252	0.003172059
242	0xbe04d89b	-0.12973253
243	0xbe17777a	-0.1479167
244	0xbde10ee2	-0.10989167
245	0xbdc49f31	-0.09600676
246	0xbda50834	-0.08058205
247	0xbe286e08	-0.16448224
248	0xbc2e2bd4	-0.010630567
249	0xbddd0fb8	-0.10794014
250	0xbce9a428	-0.028520659
251	0xbdde5ac4	-0.10857156
252	0xbe1f2aff	-0.15543745
253	0xbd54f174	-0.05198808
254	0xbc63c6cd	-0.013902378
255	0xbc25235f	-0.010079234

lstm.weight_hh_l0 f4 [256, 64]
0	0x3de930be	0.1138625
1	0xbdeed22e	-0.11661182
2	0xbdc10632	-0.0942501
3	0x3d7e34d0	0.062062085
4	0xbd12d3d8	-0.03584656
5	0x3c5d34a0	0.013501316
6	0xbd483bc0	-0.048885107
7	0x3ca886d8	0.020572111
8	0x3dc17124	0.09445408
9	0x3cd558a0	0.026043236
10	0xbd6e3f70	-0.058165967
11	0xbd40ddd0	-0.047086537
12	0xbd1004b4	-0.035160735
13	0x3c1cb7e0	0.009565324
14	0xbdd74ed8	-0.10513085
15	0xbdea818c	-0.1145049
16	0xbd34ffec	-0.04418938
17	0xbd80d4d4	-0.06290594
18	0x3d42c1b4	0.04754801
19	0x3cdd0ee8	0.026984647
20	0xbd315a8c	-0.043299243
21	0xbdd843be	-0.10559796
22	0x3defcb48	0.11708695
23	0x3c73bce0	0.014876574
24	0x3dde7bc2	0.10863449
25	0xbd1481e4	-0.036256686
26	0x3dbd5a8a	0.092457846
27	0x3dbc492e	0.091936454
28	0xbdb037cc	-0.086043924
29	0xbd194bf4	-0.03742595
30	0xbcbc5df8	-0.022994027
31	0x3d644db0	0.05573815
32	0xbde2e6f6	-0.110792086
33	0xbd667ad4	-0.05626948
34	0x3dcf43ea	0.101203755
35	0x3cb3d758	0.02195327
36	0xbd65a360	-0.05606401
37	0xbdcf1534	-0.10111466
38	0xbdb3161e	-0.08744453
39	0xbdd3abf2	-0.1033553
40	0x3d99bb56	0.075064346
41	0x3df1a87c	0.11799714
42	0xbdb9e1b0	-0.090762496
43	0xbd83fa26	-0.064441964
44	0x3d517bb8	0.051143378
45	0xbd03abe0	-0.032146335
46	0xbdf93b3a	-0.121695
47	0x3ce088b0	0.027408928
48	0x3d3eeb48	0.0466111
49	0xbddc8a4c	-0.107685655
50	0x3dff67b6	0.12470953
51	0x3dbf7e64	0.09350279
52	0xbc6cd0a0	-0.014454037
53	0x3da1c974	0.07899752
54	0x3b9989c0	0.0046856105
55	0x3db7634c	0.08954486
56	0x3b380e00	0.0028084517
57	0x3ce3c078	0.027801737
58	0x3ce85868	0.028362468
59	0x3da7d5b2	0.08195056
60	0xbc7994e0	-0.0152332485
61	0x3c281250	0.010258272
62	0x3d981352	0.0742556
63	0xbdff2f40	-0.12460184
64	0x3d1134c0	0.035450697
65	0x3d0de4ac	0.034641907
66	0x3dda99b4	0.10673848
67	0xbd8d87f4	-0.069106966
68	0xbdea0466	-0.1142662
69	0xbb97e960	-0.0046359748
70	0xbd9aeff0	-0.07565296
71	0xbdbbbf5e	-0.0916736
72	0x3d2bf158	0.04197821
73	0x3da5df4c	0.08099231
74	0x3d33a250	0.043855965
75	0xbb25ab00	-0.0025278926
76	0x3dcccb66	0.09999733
77	0xbce985f8	-0.028506264
78	0xbdc41d30	-0.095758796
79	0x3d89f882	0.06736852
80	0xbc946660	-0.018115222
81	0xbd0992f4	-0.03358741
82	0x3dfe0c5c	0.12404701
83	0xbd9aba34	-0.07555047
84	0xbde8904e	-0.11355649
85	0x3df9c47e	0.12195681
86	0xbdf5ea56	-0.12007587
87	0xbd70aa68	-0.058756262
88	0x3cecd110	0.028908283
89	0x3d7b8160	0.06140268
90	0x3d01c5b4	0.031682685
91	0xbdb76f38	-0.0895676
92	0xbdf26e14	-0.11837402
93	0x3df12292	0.11774172
94	0xbd91659c	-0.070994586
95	0xbda7c744	-0.08192304
96	0xbdb61d86	-0.0889235
97	0x3d73f880	0.05956316
98	0xbd6794ac	-0.05653827
99	0x3dcb2360	0.099188566
100	0xbd10c400	-0.03534317
101	0x3daebf6e	0.08532606
102	0x3ca22f70	0.01979801
103	0xbbde79e0	-0.006789431
104	0xbdfbcd34	-0.12294999
105	0x3db629f2	0.08894719
106	0xbd13d784	-0.036094204
107	0xbd9ca022	-0.076477304
108	0xbd7dbe54	-0.06194909
109	0x3bae4720	0.0053185374
110	0x3da0b886	0.07847695
111	0xbcdfcd08	-0.027319446
112	0xbccc76a8	-0.024958923
113	0xbd1a3a28	-0.03765312
114	0xbd26a44c	-0.04068403
115	0xbd5a503c	-0.053299174
116	0xbd2de078	-0.0424504
117	0x3de2cb08	0.110738814
118	0x3d810822	0.06300379
119	0x3dfb5394	0.12271801
120	0xbbc3b520	-0.0059725195
121	0xbd3cc874	-0.046089604
122	0xbdcb64cc	-0.09931335
123	0x3d8d4ba8	0.06899196
124	0xbd8fa338	-0.070135534
125	0x3c563bb0	0.013075754
126	0xbd05b0d8	-0.032639354
127	0x3dcc0c4a	0.099632815
128	0xbdecefac	-0.11569151
129	0x3dabc206	0.083866164
130	0xbd08bab4	-0.03338118
131	0x3d885c82	0.066582695
132	0xbd8f4ffe	-0.06997679
133	0x3ce27dc8	0.027647868
134	0xbcd6eaa0	-0.026234925
135	0xbced5540	-0.028971314
136	0x3d227184	0.03965904
137	0x3d13c1fc	0.03607367
138	0xbd6ce854	-0.057838753
139	0x3df468a4	0.11934021
140	0xbbaf1220	-0.005342737
141	0xba8c2380	-0.0010691732
142	0x3ddd6f18	0.10812205
143	0xbdc72d46	-0.09725432
144	0x3d8c6b0c	0.06856355
145	0x3cf9db80	0.030500174
146	0x3d1305fc	0.03589438
147	0x3d97986c	0.07402119
148	0x3c33d500	0.010976076
149	0x3d2ba970	0.041909635
150	0xbdb87f5a	-0.090086654
151	0x3d2f973c	0.042868838
152	0x3d7675c0	0.06017089
153	0xbd54b81c	-0.051933393
154	0xbd87cb9a	-0.06630631
155	0x3dce6e3a	0.10079618
156	0x3db85cf0	0.090021014
157	0x3bba3ee0	0.005683765
158	0xbcb5df90	-0.02220133
159	0x3def1074	0.1167306
160	0xbd2f65a4	-0.04282154
161	0x3c975d20	0.018477023
162	0x3d18bf90	0.037292063
163	0xbd9a9154	-0.075472504
164	0x3d98395e	0.07432817
165	0x3c9203e0	0.017824113
166	0xbd961e56	-0.07330005
167	0x3d950070	0.07275474
168	0xbd50ea38	-0.05100462
169	0x3dd48ec6	0.10378794
170	0x3d55fac4	0.0522411
171	0x3d138d78	0.036023587
172	0xbd32c174	-0.043641523
173	0xbd4722a0	-0.048617005
174	0xbdbad81a	-0.09123249
175	0xbd6bb3b0	-0.05754441
176	0x3d361d80	0.044461727
177	0x3d6bb998	0.057550043
178	0xbd980f98	-0.07424849
179	0xbdf62d58	-0.120203674
180	0x3dd02162	0.10162617
181	0xbdf34f86	-0.11880402
182	0xbdea77fc	-0.114486665
183	0xbc396dd0	-0.011317685
184	0xbdd857de	-0.10563634
185	0x3dad7eec	0.08471474
186	0x3db2eb3c	0.08736274
187	0xbd7fae00	-0.0624218
188	0x3c92a918	0.017902896
189	0xbd436bb0	-0.04771012
190	0x3d3678b0	0.04454869
191	0xbdd8cab0	-0.105855346
192	0xbde5c362	-0.11218907
193	0x3c5be760	0.013421863
194	0xbd269280	-0.040667057
195	0xbd6ad2dc	-0.057329997
196	0x3dd419c8	0.1035648
197	0xbd25e2ac	-0.040499374
198	0x3d7d4730	0.061835468
199	0xbd464bd4	-0.04841216
200	0x3c4f8b50	0.012667492
201	0x3cda8320	0.026673853
202	0xbdaf2196	-0.08551328
203	0xbdefcaa0	-0.117085695
204	0xbd215bb8	-0.03939411
205	0xbd9d33d6	-0.076759025
206	0x3de756fc	0.11295888
207	0xbd0e2834	-0.03470631
208	0x3c65f2a0	0.014034897
209	0xbd4f7918	-0.050652593
210	0xbd9fe53c	-0.07807395
211	0xbd77c970	-0.06049484
212	0xbd0c287c	-0.034218296
213	0xbc151750	-0.009099796
214	0xbd0a5058	-0.033768028
215	0x3dabbf0c	0.08386049
216	0x3dacb5cc	0.084331125
217	0xbcd87630	-0.026423544
218	0x3d350f9c	0.04420434
219	0x3d534d8c	0.051587626
220	0xbc087f00	-0.00833106
221	0x3d1eb7f4	0.03874965
222	0x3dcffc46	0.10155539
223	0x3cf8da18	0.030377433
224	0x3d62f67c	0.055410847
225	0xbde462d0	-0.111516595
226	0x3da95a2a	0.082691506
227	0xbdaf474a	-0.08558519
228	0x3d7f5f64	0.06234683
229	0xbd965356	-0.07340114
230	0x3c5f7650	0.013639048
231	0xbdc8779a	-0.09788437
232	0xbddb94e6	-0.107217595
233	0xbd6b1fe8	-0.057403475
234	0xbd730974	-0.059335187
235	0x3df2a344	0.11847547
236	0x3da29ea0	0.079404116
237	0xbbc62200	-0.0060465336
238	0xbd32bc0c	-0.043636367
239	0xbdfa189c	-0.12211725
240	0xbd7cae78	-0.061689824
241	0xbdbc8c4c	-0.09206447
242	0xbd02020c	-0.031740233
243	0xbd63e490	-0.055637896
244	0xbdc2e9d0	-0.095172524
245	0xbdc9b332	-0.09848632
246	0xbd1a6c88	-0.03770116
247	0x3db24f0c	0.08706483
248	0x3d378634	0.04480572
249	0x3d05f664	0.03270568
250	0xbdded490	-0.10880387
251	0xbdce2d70	-0.1006726
252	0xbc90bf98	-0.017669484
253	0xbd6f3b3c	-0.0584061
254	0x3c73ddf0	0.014884457
255	0x3ba0b920	0.004904881

lstm.bias_ih_l0 f4 [256]
0	0xbe0f787d	-0.14010806
1	0xbde484ee	-0.11158167
2	0xbdced7c0	-0.10099745
3	0xbe0084af	-0.12550615
4	0xbe153572	-0.14571169
5	0xbd3b8f1b	-0.045790773
6	0xbc9c0676	-0.01904605
7	0xbe26166a	-0.16219488
8	0xbcaca8ce	-0.021076586
9	0xbdd3de4e	-0.10345136
10	0xbd186817	-0.037208643
11	0xbd87efbf	-0.06637525
12	0xbe167735	-0.14693911
13	0xbe1042b2	-0.14087942
14	0xbbc8fc4c	-0.0061335918
15	0xbcf016e8	-0.029307798
16	0x3da15ca9	0.07879002
17	0xbdb9e07e	-0.090760216
18	0xbdcc202b	-0.09967073
19	0xbcda33c7	-0.026636017
20	0xbdc90c4b	-0.09816798
21	0xbe0b0c62	-0.13578942
22	0xbe08fb64	-0.13377148
23	0xbc845d59	-0.016157793
24	0x3c020998	0.007936858
25	0xbe092310	-0.13392282
26	0xbe240dc9	-0.16020884
27	0xb9861a47	-0.0002557805
28	0xbb663c1e	-0.0035131047
29	0xbe0947a8	-0.13406241
30	0xbe0049ab	-0.12528102
31	0x3cd343da	0.02578919
32	0xbe27f917	-0.16403614
33	0xbdb38efa	-0.08767505
34	0x3d5641ef	0.052308973
35	0xbe158474	-0.14601308
36	0xbe10b39f	-0.1413102
37	0xbdf1232b	-0.11774286
38	0x3c12c8d4	0.008959014
39	0xbe0c0f15	-0.13677628
40	0xbe274e92	-0.16338566
41	0xbe116075	-0.14196952
42	0x3d8ebaa5	0.06969193
43	0x3d09876a	0.033576407
44	0x3d5e7677	0.054312196
45	0x3c9b4c2d	0.018957222
46	0xbdac08ea	-0.08400138
47	0xbcc324c9	-0.023821251
48	0xbd812b84	-0.06307128
49	0xbe235d42	-0.15953544
50	0xbd93b34b	-0.07211932
51	0xbd5c5a01	-0.053796772
52	0x3cdeda78	0.027203783
53	0xbe24e0cf	-0.16101383
54	0xbe2c19f5	-0.16806777
55	0x3c1bd8f2	0.009512173
56	0xbd6995bb	-0.05702756
57	0xbd1d0169	-0.038331423
58	0x3d3d5d17	0.046231356
59	0xbd98101c	-0.074249476
60	0xbdcf335c	-0.10117218
61	0xbd5c055b	-0.053716045
62	0xbe166276	-0.14685997
63	0x3daf035d	0.08545563
64	0xbbcebce0	-0.0063091367
65	0x3cf3fd48	0.02978386
66	0x3deedd48	0.116633
67	0x3da70676	0.08155529
68	0xbdf7bebe	-0.12096928
69	0x3cdfb930	0.027309984
70	0x3d9cc400	0.076545715
71	0xbd9f5626	-0.077801034
72	0xbdbd5b22	-0.09245898
73	0xbdba7fdc	-0.091064185
74	0xbd21cb14	-0.03950031
75	0xbda2c36a	-0.079474285
76	0xbdbe27c8	-0.092849314
77	0xbd80cf02	-0.062894836
78	0x3daeacfc	0.08529088
79	0x3d8e9e60	0.069638014
80	0xbdcaf8c2	-0.09910728
81	0xbd755754	-0.059897736
82	0xbdb4068e	-0.08790313
83	0x3c3ece10	0.011645809
84	0x3dcaec72	0.099083796
85	0xbc1c7410	-0.009549156
86	0xbd9f00ba	-0.077638105
87	0x3db43f0c	0.08801088
88	0xbba65dc0	-0.005077094
89	0x3dd48874	0.10377589
90	0xbd3a22ec	-0.04544346
91	0xbdff0236	-0.124515936
92	0xbde0d3b2	-0.10977878
93	0xbca03bf0	-0.01955983
94	0xbd287984	-0.04113151
95	0xbdba3d48	-0.0909372
96	0xbd8a0744	-0.06739667
97	0x3d5a49f8	0.0532932
98	0x3d749cec	0.059719965
99	0xbd9cc452	-0.07654633
100	0x3da5d1da	0.08096667
101	0x3cd82660	0.026385486
102	0xbdd40160	-0.10351825
103	0xbdd82a98	-0.10554999
104	0x3c986ce8	0.018606618
105	0x3dfe2542	0.1240945
106	0xbdf770a4	-0.12082031
107	0xbc6a8d90	-0.014315978
108	0xbdd37bba	-0.10326333
109	0xbdfcfd00	-0.123529434
110	0x3d82dcaa	0.063897446
111	0x3d295d88	0.041348964
112	0xbddbce9c	-0.10732767
113	0x3dbad862	0.09123303
114	0x3c5188d0	0.012788966
115	0x3dcba90a	0.09944351
116	0xbde58a4e	-0.1120802
117	0xbd54c1d0	-0.051942647
118	0x3d6e5c68	0.058193594
119	0x3aaa3800	0.001298666
120	0xbc6864d0	-0.014184192
121	0xbd2de84c	-0.042457864
122	0xbdf4bd38	-0.11950153
123	0xbcc73e28	-0.02432163
124	0xbc97cc68	-0.018530086
125	0xbdaec1ca	-0.08533056
126	0xbcb1a3b0	-0.021684498
127	0x3d77f1e0	0.060533404
128	0xbc4280eb	-0.011871557
129	0xbb2d3835	-0.0026431207
130	0x3d90b25f	0.070652716
131	0xbdc166a2	-0.09443404
132	0xbcbdec21	-0.023183884
133	0xbc50437c	-0.012711402
134	0xbdf18a40	-0.11793947
135	0xbdc08cd5	-0.094018616
136	0x3d8298f6	0.06376831
137	0xbca1ecde	-0.019766267
138	0xbcea9868	-0.028637126
139	0xbd9ad716	-0.07560556
140	0x3d382c3e	0.044964068
141	0xbd9a8cf2	-0.075464144
142	0x3cf9540d	0.030435586
143	0x3d2b26d6	0.041785084
144	0x3d6abe60	0.057310462
145	0xbd6b0fd4	-0.05738814
146	0xbcbd74e6	-0.02312703
147	0x3d18f977	0.037347283
148	0x3de751f6	0.1129493
149	0x3aaa7e96	0.0013007696
150	0x3d97b8aa	0.07408269
151	0xbdc2918f	-0.09500419
152	0xbdcab7c7	-0.09898334
153	0xbdcbf541	-0.09958888
154	0x3db49a6a	0.08818515
155	0x3d57d457	0.052692737
156	0x3d989c26	0.07451658
157	0xbb3023b0	-0.002687674
158	0x3da5cd9d	0.08095858
159	0x3d4e714c	0.050401017
160	0xbccb7082	-0.024833921
161	0xbdc53cb2	-0.09630717
162	0x3d313bb9	0.043269847
163	0xbdbbdaa3	-0.09172561
164	0xbd913f29	-0.07092125
165	0x3cf9472a	0.030429441
166	0xbd0461c5	-0.032319803
167	0x39addf64	0.0003316357
168	0xbdcae15d	-0.09906266
169	0xbb05e5a1	-0.002043106
170	0x3da884a5	0.08228425
171	0x3db2f6b0	0.08738458
172	0x3da9a4b8	0.08283371
173	0x3dc3e0db	0.09564372
174	0x3d6028d3	0.054726433
175	0xbd6f20c0	-0.058380842
176	0x3d39f87d	0.045402993
177	0xbd4ef3e7	-0.050525572
178	0x3daecf93	0.085356854
179	0x3d81d518	0.063394725
180	0x3cc99e38	0.024611577
181	0x3cfc9e8c	0.03083732
182	0x3df0ff08	0.11767393
183	0x3db496d0	0.08817828
184	0xbdf4b59b	-0.11948701
185	0x3dc9dcec	0.09856591
186	0xbc432f1e	-0.011913089
187	0x3ced6887	0.028980507
188	0xbd08a88e	-0.03336387
189	0xbd82fe94	-0.06396213
190	0x3de18b2e	0.110128745
191	0x3c8860e5	0.016647765
192	0xbdffb8ed	-0.12486444
193	0xbddbe5dd	-0.10737202
194	0xbe2b6273	-0.16736774
195	0xbd87c656	-0.066296265
196	0xbe45adb8	-0.1930455
197	0xbe22d115	-0.15900071
198	0xbd8a02f5	-0.06738845
199	0xbdd0575c	-0.101729125
200	0xbe20548b	-0.1565725
201	0xbe670ce0	-0.22563505
202	0xbe22c183	-0.15894131
203	0xbe594e40	-0.21221256
204	0xbe34577d	-0.17611499
205	0xbce8e35a	-0.028428722
206	0xbdc39055	-0.095490135
207	0xbdc89f0a	-0.09795959
208	0xbe147a8d	-0.14499874
209	0x3bfa64d3	0.0076414137
210	0xbda15133	-0.07876816
211	0x3bb4458e	0.0055014556
212	0xbcd0812b	-0.025452217
213	0xbcafee4f	-0.02147594
214	0xbe6acff5	-0.22930892
215	0x3b8fb46a	0.0043855207
216	0xbe4f8213	-0.20264463
217	0xbd95ec04	-0.07320407
218	0xbd57d189	-0.052690063
219	0xbddcf533	-0.107889555
220	0xbe35aa91	-0.17740847
221	0xbddca7c0	-0.10774183
222	0xbe45b171	-0.1930597
223	0x3cd924d1	0.026506813
224	0xbbbbf07e	-0.005735456
225	0x3d72574d	0.059165288
226	0xbdd8c0ee	-0.105836734
227	0xbd9abd83	-0.07555678
228	0xbd765bbf	-0.06014609
229	0xbdcf811f	-0.1013205
230	0xbce59139	-0.02802335
231	0xbe186015	-0.14880402
232	0xbe16571b	-0.14681666
233	0xbe2309e4	-0.15921742
234	0x3c525a57	0.0128389215
235	0xbe1cd57d	-0.15315814
236	0x3d0115e1	0.031515006
237	0xbd54924b	-0.05189733
238	0xbe3060c7	-0.17224418
239	0x3d97f9a7	0.07420664
240	0xbd5553e8	-0.052081972
241	0xbc187444	-0.009305064
242	0xbdc1bcd6	-0.09459846
243	0xbd8ef8e9	-0.069810696
244	0xbe262606	-0.16225442
245	0x3bc8112d	0.006105563
246	0xbe0e5982	-0.13901332
247	0xbd80a947	-0.06282287
248	0xbcdd57c6	-0.027019393
249	0xbe5beec5	-0.21477802
250	0xbe1c0f2d	-0.15240164
251	0xbdbfd94d	-0.09367619
252	0xbdcfc8d9	-0.101457305
253	0xbdba6463	-0.091011785
254	0xbe6ad955	-0.22934468
255	0xbdf95be9	-0.121757336

lstm.bias_hh_l0 f4 [256]
0	0xb9816c78	-0.00024685613
1	0xbddad68c	-0.10685453
2	0xbe42326a	-0.18964544
3	0xbe2df64c	-0.16988486
4	0xbe3e6ff6	-0.18597397
5	0xbe154676	-0.1457766
6	0xbe5e446a	-0.21705785
7	0xbe2f2cc4	-0.1710692
8	0xbe32e040	-0.17468357
9	0x39bd455d	0.0003610057
10	0xbdf90aa8	-0.12160236
11	0xbe22fc71	-0.15916611
12	0xbe0f890b	-0.14017121
13	0xbe57193c	-0.2100572
14	0xbe30c45e	-0.17262408
15	0xbb97e9cb	-0.0046360246
16	0xbe0b15d6	-0.13582548
17	0xbe3372a5	-0.17524202
18	0xba81a289	-0.0009890358
19	0xbe332bc4	-0.17497164
20	0xbe2c73dc	-0.16841072
21	0x3c968d0b	0.018377801
22	0xbd63b148	-0.05558899
23	0x3c9a1593	0.018809116
24	0xbe155b39	-0.1458558
25	0xbe56eb6d	-0.20988245
26	0xbe83a32a	-0.25710422
27	0x3b71b5d5	0.0036882062
28	0xbc1ac0fd	-0.009445426
29	0xbd151e48	-0.03640583
30	0xbc9990b5	-0.01874576
31	0xbe4168f3	-0.18887691
32	0x3d69a2d1	0.05704004
33	0xbd5371ee	-0.051622324
34	0xbde6d5ad	-0.11271224
35	0xbde644ec	-0.112436146
36	0x3ccccc2a	0.024999697
37	0xbb8af93f	-0.004241138
38	0xbd809d7c	-0.06280038
39	0xbc66da0c	-0.014090072
40	0xbe1cf946	-0.15329465
41	0xbd845b4d	-0.06462727
42	0xbd1d3303	-0.038378727
43	0xbd8e8c23	-0.06960323
44	0x3ce6f85b	0.028194597
45	0xbd6b6f64	-0.057479277
46	0xbd73d3fc	-0.059528336
47	0xbdd5dd01	-0.10442544
48	0xbdac2c25	-0.084068574
49	0xbe1e7926	-0.15475902
50	0xbc65c20f	-0.014023318
51	0xbdb9ffad	-0.090819694
52	0xbd0733ec	-0.0330085
53	0xbe21f882	-0.15817454
54	0xbe1e53a8	-0.154616
55	0xbda9b7bf	-0.08287
56	0xbd81f7ac	-0.06346068
57	0xbe79b95a	-0.24387112
58	0x3ce223fa	0.027605046
59	0xbd9a9716	-0.075483486
60	0xbb8ea17c	-0.0043527465
61	0xbbff9e57	-0.007800858
62	0xbe009104	-0.12555319
63	0xbd468d95	-0.048474867
64	0xbbf140e0	-0.00736247
65	0xbd4cb1dc	-0.049974307
66	0xbdd4d3f0	-0.10391986
67	0x3dbf8274	0.09351054
68	0x3dd486c0	0.10377264
69	0xbddbdcf6	-0.10735504
70	0x3bee19c0	0.0072662532
71	0xbde3ab64	-0.111166745
72	0x3cd303e0	0.025758684
73	0xbda0f506	-0.078592345
74	0x3c6e6990	0.014551535
75	0x3d7b5fbc	0.061370596
76	0xbda303f4	-0.079597384
77	0xbdb462c0	-0.088078976
78	0xbde39656	-0.11112659
79	0xbc0583a0	-0.008149058
80	0x3a9e4480	0.0012074858
81	0x3d1fead4	0.03904231
82	0x3de4a476	0.11164181
83	0x3dd34046	0.103149936
84	0xbd05c2f4	-0.032656625
85	0x3d1d7bd8	0.038448185
86	0x3d157380	0.036487103
87	0x3d1e4df0	0.038648546
88	0x3ac59f00	0.0015077293
89	0x3bd50e20	0.006501928
90	0xbd700810	-0.05860144
91	0x3d22ab60	0.039714217
92	0xbdd69350	-0.104773164
93	0x3d2f61e8	0.04281798
94	0x3d1f9acc	0.038965985
95	0x3d3733f4	0.04472728
96	0xbdc12b42	-0.09432079
97	0xbde642a6	-0.11243181
98	0xbd7e0998	-0.062020868
99	0x3c4f9e60	0.012672037
100	0x3d07cbdc	0.0331534
101	0x3d1e5f4c	0.0386651
102	0x3b61ec00	0.0034472942
103	0x3dbaa348	0.09113175
104	0x3dd0c2ec	0.101934284
105	0xbdcccedc	-0.10000393
106	0xbd642464	-0.055698767
107	0xbd194ff0	-0.03742975
108	0xbd460398	-0.04834327
109	0xbd3038f0	-0.04302305
110	0x3dc4be8a	0.09606655
111	0x3d766cac	0.06016223
112	0xbde0f722	-0.10984637
113	0x3d5ff20c	0.054674193
114	0x3d2f70a0	0.042832017
115	0x3d00ad90	0.031415522
116	0xbda14c2e	-0.07875858
117	0xbde66026	-0.112488076
118	0xbdb534b8	-0.08847946
119	0x3da6f9b6	0.08153097
120	0x3d9c00e4	0.076173574
121	0x3df29088	0.118439734
122	0xbac0cb00	-0.0014708936
123	0x3de4544e	0.11148892
124	0x3c536080	0.012901425
125	0x3d608de0	0.054822803
126	0xbdc859de	-0.09782766
127	0x3cfc7ab0	0.03082022
128	0x3c530fe7	0.012882209
129	0x3d9912e2	0.07474305
130	0x3d63cf39	0.055617545
131	0x3d191bae	0.037379913
132	0xbdb6d8c6	-0.08928065
133	0x3d4a2d49	0.049359594
134	0xbd70ff4d	-0.058837224
135	0x3de2bf73	0.11071672
136	0x3d38903c	0.045059428
137	0x3d94ed0f	0.07271778
138	0xbd27d9ce	-0.0409792
139	0x3d45cac7	0.048289087
140	0x3c167f18	0.009185575
141	0x3dc12436	0.09430735
142	0x3ccc1b8c	0.02491548
143	0xbd5fe0fa	-0.054657914
144	0xbbf7d764	-0.0075635184
145	0xbda02eea	-0.07821448
146	0x3cf0c914	0.029392757
147	0xbc2da015	-0.010597249
148	0xbe02048d	-0.12697048
149	0x3d2f33ae	0.042773895
150	0xbd1fbc51	-0.038997952
151	0xbb92cbcb	-0.0044798604
152	0x3c747dfb	0.014922614
153	0x3ddeb7d7	0.108749084
154	0x3d068e90	0.032850802
155	0x3d39a1d7	0.045320358
156	0xbdc9f8bc	-0.098618954
157	0xbdaf4222	-0.08557536
158	0xbd5d3c96	-0.054012857
159	0xbbf135a2	-0.00736113
160	0xbd948de9	-0.0725363
161	0xbcf5e4dd	-0.030016357
162	0xbce0dc2b	-0.027448734
163	0xbe003230	-0.12519145
164	0x3df6949d	0.120400645
165	0xbd802121	-0.06256319
166	0x3d86bdc5	0.065791644
167	0x3cc69051	0.024238737
168	0x3c05cb98	0.008166216
169	0xbd71d898	-0.05904445
170	0x3d9066d1	0.07050861
171	0xbd4458ad	-0.04793613
172	0x3d9d302a	0.07675202
173	0xbd3585d6	-0.04431709
174	0x3ded1e1a	0.11578007
175	0xbd3e9323	-0.04652704
176	0xbbfecf88	-0.0077762045
177	0x3dcb15af	0.09916245
178	0xbda01213	-0.078159474
179	0x3d024f0e	0.031813674
180	0xbc56caed	-0.013109905
181	0xbcf2d283	-0.029641395
182	0xbdd97c4f	-0.10619413
183	0x3cefda09	0.029278772
184	0xbde09072	-0.10965051
185	0xbdad3d38	-0.08458942
186	0xbd761e75	-0.06008764
187	0xbcacdb46	-0.021100651
188	0x3cb01c1a	0.021497775
189	0x3cf9bb42	0.0304848
190	0xbdcdf54e	-0.10056554
191	0x3d19dbc4	0.0375631
192	0xbe56724d	-0.2094204
193	0x3cde4746	0.027133595
194	0xbe4c9ba1	-0.19981243
195	0xbd94f686	-0.07273583
196	0xbdd07e47	-0.101803355
197	0xbd3c1d08	-0.045926124
198	0xbe2d41fb	-0.16919701
199	0x3bb4d843	0.0055189445
200	0x3d409c1c	0.047023878
201	0xbdb8b768	-0.09019357
202	0xbe323f37	-0.17406927
203	0xbe5c4e5c	-0.21514267
204	0xbe431efb	-0.19054787
205	0xbd87ae67	-0.066250615
206	0xbd6620d3	-0.056183647
207	0xbdcf4028	-0.10119659
208	0xbe010369	-0.12598957
209	0x3c3f1466	0.011662578
210	0x3cc52cc4	0.024069197
211	0xbda6fe2e	-0.0815395
212	0x3a576eec	0.0008218128
213	0xbe17f65b	-0.14840071
214	0xbc26a3a7	-0.010170854
215	0x3d5e1bff	0.054225918
216	0xbe3250ef	-0.17413686
217	0xbddd52ab	-0.10806783
218	0xbd2e9f48	-0.04263237
219	0xbd2aac3f	-0.041668173
220	0xbddf836c	-0.109137386
221	0x3d156a05	0.03647806
222	0xbe467c87	-0.19383441
223	0xbdb3a9e4	-0.087726384
224	0xbd683cb1	-0.056698505
225	0xbc9ebafd	-0.019376272
226	0xbe11d4cc	-0.14241332
227	0x3d2bc6a9	0.041937504
228	0xbc9bc328	-0.019013956
229	0x3d2ba46b	0.041904848
230	0x3d780be6	0.060558222
231	0x3d95b11a	0.0730917
232	0xbe0053a5	-0.12531908
233	0xbc651772	-0.013982641
234	0x3cf37fc9	0.029724019
235	0xbb78d363	-0.0037967793
236	0xbdcfd98a	-0.10148914
237	0xbe08f8a9	-0.13376106
238	0xbe25ac0d	-0.16178913
239	0xbe1ab1e7	-0.15106927
240	0xbe132ee6	-0.14373359
241	0xbe2cbe4b	-0.16869466
242	0xbcf2a402	-0.02961922
243	0xbdb26a85	-0.08711723
244	0xbe2babcb	-0.16764753
245	0xbd0ea840	-0.034828424
246	0xbe134c03	-0.14384465
247	0xbcb61126	-0.022224974
248	0xbda44b51	-0.08022178
249	0xbdcb1d7a	-0.099177316
250	0xbe51dc13	-0.20494108
251	0xbd241b1b	-0.040064912
252	0xbe413381	-0.18867303
253	0xbe2a9496	-0.16658244
254	0xbdb6ca70	-0.08925331
255	0xbb95ca1f	-0.004571214

fc.weight f4 [1, 64]
0	0x3d03e90b	0.03220467
1	0xba2ba16d	-0.00065471866
2	0x3aa472de	0.001254644
3	0xbc8e161c	-0.017344527
4	0xba85f264	-0.0010219333
5	0xbcd11b91	-0.02552584
6	0x3c34d47a	0.0110369865
7	0xbb845a43	-0.0040390803
8	0x3cb7cdee	0.022437062
9	0xbc058e16	-0.008151552
10	0xbd1db7d3	-0.038505387
11	0xbbdd0c3a	-0.0067458423
12	0x3cbb9255	0.022896925
13	0xb9981df0	-0.00029014004
14	0x3d0ef9b0	0.03490609
15	0xbbc0339b	-0.005865527
16	0xb94ed68e	-0.00019725619
17	0xbc1f6db9	-0.00973075
18	0xbd07e1c6	-0.0331743
19	0xbbb20a61	-0.005433366
20	0x3cefc4d3	0.029268658
21	0x3a049f14	0.0005059105
22	0xba9b95eb	-0.001187024
23	0x3cb9857d	0.02264666
24	0xbc2dd13a	-0.0106089655
25	0xbd18c797	-0.03729972
26	0xbbaa3926	-0.005194801
27	0x3aad4d00	0.00132218
28	0xbd07a15a	-0.03311286
29	0xbb1231d7	-0.002230754
30	0x3c977b63	0.018491453
31	0x3cc9920c	0.024605773
32	0xbb71263a	-0.0036796466
33	0x3da13158	0.0787074
34	0xbc215788	-0.009847529
35	0x3cec72d7	0.028863354
36	0xbbcc0b94	-0.006226966
37	0x3c9a7906	0.018856537
38	0xbb32a8a6	-0.0027261167
39	0xbb19d69a	-0.002347386
40	0x3d1be49d	0.03805982
41	0x3c493c71	0.012282477
42	0xbbe66dcd	-0.0070321322
43	0xbb863529	-0.0040956927
44	0x39fcac73	0.0004819367
45	0x3bf7bc8a	0.0075603174
46	0xb92e305c	-0.00016611948
47	0x3b8d86d5	0.0043190517
48	0xbbf32794	-0.0074204896
49	0x3c1abea8	0.00944487
50	0x3d822715	0.063551106
51	0xbd1f25ff	-0.038854595
52	0x3c9de287	0.019273056
53	0xbbc1ca3c	-0.005914001
54	0x3bb9a298	0.0056651346
55	0x3d09e94f	0.033669766
56	0x3d8f71e3	0.07004144
57	0xbb78bb72	-0.0037953523
58	0xbb87b539	-0.0041414765
59	0x3c46c134	0.012131024
60	0x3b852894	0.004063675
61	0xbcce0f97	-0.025153918
62	0x3bc9f9cd	0.006163812
63	0xbbe2b80b	-0.0069189123
