best_models/best_model_lstm_search_8_features_70.pt (torch, 30762 bytes, 5 tensors)

lstm.weight_ih_l0 f4 [128, 20]
000000 c0 e1 03 3d 95 77 db bd ec 88 ab 3b 97 80 96 bd
       0.032197714 -0.10716168 0.005234828 -0.07348745
000010 5f b1 6c 3d 1f df 24 3d aa e4 18 be d7 1f 5e be
       0.05778634 0.040251847 -0.14930978 -0.21691833
000020 9a 91 f6 3c 3c 6d 20 bd 62 34 14 bd d1 83 44 be
       0.030098725 -0.039166674 -0.03618277 -0.19190909
000030 1c 44 44 3e 81 b7 75 bd 6c b8 9f bd df 6f 59 3d
       0.19166607 -0.059989456 -0.077988476 0.053085204
000040 59 fe 24 be cb 92 5c bc 96 2a ce bc ac 44 50 3d
       -0.16112651 -0.013462733 -0.025166791 0.05084674
000050 bc 3e ca bd f5 5c 6b bd 99 ad e2 3d ab a6 ab bd
       -0.09875247 -0.057461698 0.110682674 -0.08381399
000060 32 6e 39 3d f6 bb 1d 3c ca 87 14 bd 2e f5 5d bc
       0.045271106 0.009627333 -0.03626231 -0.013547225
000070 20 85 ff bd f5 02 93 3c b3 c9 ab 3d dd fb 75 bd
       -0.124765635 0.017945746 0.083880804 -0.06005465
000080 00 5c 56 bd fd 13 ba 3c 7f 1d a3 bd 74 de fa 3d
       -0.05233383 0.02271461 -0.0796461 0.12249461
000090 32 40 e1 3d 6e a2 f6 bd 85 ec 2e be c3 78 69 be
       0.109985724 -0.120427 -0.17082413 -0.22799973
0000a0 58 f8 ad 3c d2 09 4e bd 4c 50 2e 3e ae 7e 03 3e
       0.021236584 -0.050302334 0.17022818 0.12841293
0000b0 3c a8 14 be 22 9b c7 3d 78 39 be bd 50 81 29 3d
       -0.14517301 0.09746386 -0.09288305 0.041383088
0000c0 3f 37 84 3d d9 2c cb 3b 53 cb 70 3d 28 12 d4 bd
       0.0645585 0.0062004146 0.058787655 -0.103550255
0000d0 7b d7 d0 3d 9a e7 23 3d 77 67 10 3e f2 ab cd 3d
       0.1019735 0.040015794 0.14101969 0.100425616
0000e0 a2 bf 1f bd ff 83 89 bc 6e 3f 95 3d cf 0b 87 be
       -0.039001115 -0.016786573 0.07287489 -0.26376197
0000f0 5d 14 21 be af f3 2f 3e 97 77 b1 bd 33 cc 52 3d
       -0.15730424 0.17182802 -0.08665388 0.05146427
000100 17 fe 54 bd 38 ae e6 3d 8e cb b7 bd 40 e1 e6 3d
       -0.05200013 0.11263698 -0.08974372 0.11273432
000110 49 4b a4 3d c6 ac 29 3d 13 31 e5 bd 81 bd 8c bd
       0.08022172 0.041424535 -0.11191001 -0.068720825
000120 a7 70 78 3c 60 2c c5 3d 95 aa e6 bd 77 d2 a9 3c
       0.015163577 0.096276045 -0.11263005 0.02073024
000130 5c 5c 5c 3d 19 41 be 3d 48 05 ce bd bd 5a 01 3d
       0.05379902 0.0928976 -0.10059601 0.031580675
000140 43 87 e6 bd 2d 00 3f be b6 68 8f 3d af a2 d2 bd
       -0.11256268 -0.18652411 0.07002394 -0.10284936
000150 58 e2 30 be 82 50 73 3d e8 d1 82 bd d8 75 14 be
       -0.17273843 0.05940295 -0.06387693 -0.14498079
000160 ea a1 e9 bd 47 b2 28 be 3e 95 6b bd 9d cb 5d bd
       -0.11407836 -0.16474257 -0.057515375 -0.05414926
000170 12 36 33 be f5 0e 4e be 2c bc 82 3d bd 05 01 bc
       -0.17501095 -0.20122893 0.06383547 -0.007874903
000180 b8 24 5e be c7 ab 48 be 19 92 ad bd 00 72 91 3c
       -0.21693695 -0.19596778 -0.084751315 0.017754555
000190 a2 83 4e be c5 d2 8e bd 86 99 90 bc d8 ba ba bd
       -0.20167401 -0.06973795 -0.01765133 -0.09117669
0001a0 c1 00 87 bd bf e9 1f bd cb ff 20 3d ec 0b b0 bc
       -0.06591941 -0.039041277 0.039306443 -0.02149006
0001b0 1a 12 b7 bd a9 79 e1 bd c8 fa 4b 3d 0d 32 ad bd
       -0.089389995 -0.11009533 0.04979971 -0.08456812
0001c0 4a 76 b0 3c 78 46 11 3d 57 4b 57 3d 04 84 b2 3d
       0.02154078 0.035467595 0.052562084 0.08716586
0001d0 22 22 0c 3e 5b 50 4a bd 0e 8a cc bd c7 92 7e bd
       0.13684896 -0.04939304 -0.09987269 -0.062151697
0001e0 2b 17 31 be 40 d7 a1 bd 67 d5 5c bb 5d f4 6f bd
       -0.17293994 -0.07902384 -0.0033696534 -0.058582652
0001f0 44 70 05 3e 37 79 b7 bc 62 d5 50 3d 83 6e f7 3d
       0.13031107 -0.022396667 0.050984748 0.12081625
000200 2c cd 15 3d 30 77 19 3d 12 ab 30 be 69 26 b1 3d
       0.03657262 0.03746718 -0.17252758 0.08649904
000210 eb e0 fa 3d a7 95 24 3e 9e f1 ee 3d 69 e6 8a 3d
       0.12249931 0.16072713 0.116671786 0.067822285
000220 a5 3e 94 bd e0 03 2c 3e 43 1b 19 be e7 81 ed 3c
       -0.07238511 0.16798353 -0.14951806 0.028992606
000230 db b3 2a be 5b c4 67 be 44 31 0d be de c2 69 bd
       -0.16670172 -0.22633497 -0.13788325 -0.057070605
000240 b4 33 bf bd bf 0d 3e be 25 ff a9 3d a8 da 2b 3c
       -0.093360335 -0.18559931 0.08300618 0.010489143
000250 15 04 52 be 61 cb f2 3d ef d1 1c bd f3 cf 08 be
       -0.2050937 0.11855198 -0.038286146 -0.13360576
000260 e9 37 0a 3d 2b 56 d6 3d 92 15 af bc ef f0 30 be
       0.033744726 0.10465654 -0.02137259 -0.17279409
000270 22 de 3e be d8 5e a7 3d 37 1b e1 3d d7 46 b6 3b
       -0.18639424 0.08172387 0.10991519 0.005562644
000280 50 f4 be 3c 94 f3 12 be e5 ae 12 be 4e 83 d5 3c
       0.023309857 -0.1435073 -0.1432453 0.026063588
000290 de 19 c1 3d e9 9f 9e bc 2f 47 2b be fa 73 bc bd
       0.09428762 -0.01936336 -0.16726373 -0.09201808
0002a0 f0 cf 8e bd 02 2e 08 be 3a b4 79 3d 37 63 be 3c
       -0.06973255 -0.132988 0.060962893 0.023240669
0002b0 46 70 04 be b2 67 f0 3c 70 90 1a 3e 2d 9e 10 3d
       -0.12933454 0.02934632 0.15094161 0.0353071
0002c0 ef 96 07 3e 6c 13 ec 3d 4d 22 34 3e 48 5f f3 bd
       0.1324117 0.11527142 0.1759121 -0.11883408
0002d0 6a 15 16 be 10 4d 47 be a0 29 9e 3d b4 16 14 3d
       -0.14656606 -0.19462991 0.07722783 0.036154464
0002e0 c6 c4 60 bd ce cb fc 3d 4f 71 06 be ac 55 a3 bb
       -0.054875158 0.1234356 -0.13129161 -0.004984578
0002f0 93 9b f0 bd 28 c7 a0 bd ad 5d 4d bd 8d 8b d4 3d
       -0.117484234 -0.07850486 -0.050138164 0.1037818
000300 cc 1f 76 3d 6f 84 4e bd e6 a3 93 3d 5b 8e 24 bd
       0.060088918 -0.050419267 0.072089955 -0.040174823
000310 20 86 61 b9 af fc 07 be f9 ed 0e be 85 f4 cf bd
       -0.00021507638 -0.13279985 -0.13957967 -0.1015406
000320 0d 3c 5c be ea df af 3b 7b d8 ae bd c8 fb 68 be
       -0.21507283 0.005367269 -0.08537384 -0.22752297
000330 42 1f e9 ba b4 66 d5 3c 48 5e da bd 80 1b e6 3d
       -0.0017785805 0.02604995 -0.10662514 0.11235714
000340 61 9d cd bd df c1 e9 bd 25 a5 eb bd bb 24 ce bd
       -0.10039783 -0.11413931 -0.11506108 -0.100655995
000350 90 7f 33 3d 8b 21 d8 bd 94 af ee bc 9a 7c 00 3d
       0.043822825 -0.10553273 -0.029136457 0.03136883
000360 78 ae d4 bd 8e 1b 5d be ab 60 8e 3d 92 cd c5 bd
       -0.1038484 -0.21592543 0.06952032 -0.0965835
000370 59 5a 41 3d 88 13 b9 3d c9 49 34 3e e2 ae d6 3c
       0.047205303 0.090369284 0.17606272 0.026206437
000380 12 b2 c8 3d a2 c9 44 3b c4 b9 85 3d 19 a6 f0 bd
       0.09799589 0.003002741 0.065295726 -0.117504306
000390 0b e0 11 be 50 62 75 bd 70 6d 86 be 0c d0 5d be
       -0.14245622 -0.05990821 -0.2625537 -0.21661395
0003a0 43 02 0e bc 88 aa 00 3d 25 e5 e6 bd f0 d3 e3 bd
       -0.008667531 0.03141263 -0.112741746 -0.11124408
0003b0 ee a5 0f be c6 f7 15 be 20 ce f0 3d 8a e3 31 3d
       -0.14028141 -0.146453 0.11758065 0.04342989
0003c0 4b 60 11 3e 3c 31 cd bd 19 94 62 3d 85 59 cf bc
       0.14196889 -0.10019156 0.05531702 -0.02531124
0003d0 d9 24 65 bd 2a 44 83 bd 05 10 b2 3d bf 80 41 be
       -0.055943344 -0.06409486 0.08694462 -0.18896769
0003e0 18 8e d2 bd 61 ea 3d 3d d5 5a c6 3d 9e 79 ab 3d
       -0.102810085 0.0463661 0.096852936 0.08372806
0003f0 00 68 17 bd a2 4b b1 bd 49 58 86 be 0d e1 5b be
       -0.036964417 -0.08657004 -0.2623923 -0.21472569

lstm.weight_hh_l0 f4 [128, 32]
000000 21 39 09 3e 90 61 a4 3c f7 9c c8 bd d2 32 d3 3d
       0.13400699 0.020066053 -0.09795564 0.103124276
000010 15 ab 33 3e 66 a1 ff 3d a0 ee 90 3b a0 86 97 bc
       0.17545731 0.12481956 0.0044229776 -0.018496811
000020 2c 4b 5f 3d 28 64 23 3d 0a e5 a5 3d 34 eb 29 3d
       0.05451505 0.03989044 0.08100326 0.041484073
000030 30 d9 01 be ce 4e c9 bd 2c 2f 43 3d 80 e2 10 be
       -0.12680507 -0.09829484 0.04765241 -0.14148903
000040 c6 40 e6 bd c0 54 cf bc 14 68 40 3d 75 11 33 be
       -0.11242823 -0.025308967 0.046974257 -0.17487128
000050 d3 ec b9 bd d4 89 04 bd 0c 5a 17 bd 9d 1e 31 be
       -0.09078374 -0.032358006 -0.03695111 -0.17296834
000060 e8 86 c3 bd 76 2a 0e be 2c c2 50 bd a0 95 1e 3c
       -0.09547216 -0.13883385 -0.050966427 0.009679228
000070 2c 33 35 bd e8 85 15 bd 90 8f 5f 3c 53 2a b3 bd
       -0.044238254 -0.036504656 0.013645068 -0.08748307
000080 44 6c 3c 3d ac 4c 19 3d a4 a0 08 3d 8f 64 b6 bd
       0.046001688 0.037426636 0.033356324 -0.08905899
000090 ec 0d 2d 3d 9b bb 0c 3e 28 ad 59 3d c0 79 e2 bd
       0.042249605 0.13743441 0.05314365 -0.11058378
0000a0 b8 ea 39 3d 76 1a b9 bd 62 bc 25 be a9 e7 2b 3e
       0.04538986 -0.0903825 -0.16185144 0.1678759
0000b0 05 8f 24 be a2 a6 d7 3d 95 c8 83 bd 17 b6 28 3e
       -0.16070183 0.105298296 -0.06434742 0.16475712
0000c0 a6 34 fd 3d 42 93 a9 3d f3 63 e9 bd 05 4e 12 be
       0.123635575 0.0828004 -0.11396017 -0.14287575
0000d0 b2 24 fb 3d 47 35 bb bd 38 3f cc 3c f9 e2 19 be
       0.122628585 -0.09141021 0.024932489 -0.1502799
0000e0 f1 aa 03 be 65 e4 2e be 60 2d 1b bd 34 2d 64 3d
       -0.12858178 -0.17079313 -0.03788507 0.05570717
0000f0 6d 6d 11 be d9 73 28 3e 73 c4 c0 bd aa 93 76 bd
       -0.14201899 0.16450442 -0.0941247 -0.060199417
000100 af 2a 0a 3e 96 65 e7 3d 4a 79 10 be e3 a5 23 3e
       0.13492845 0.11298673 -0.14108768 0.1598125
000110 9b 85 d3 bd 88 68 4f 3d 30 77 07 3c 2b 9e 08 3e
       -0.103282176 0.0506368 0.008268163 0.13341586
000120 a8 3f 1d bd e4 13 31 be c0 5f 5d bc a3 4d 05 be
       -0.038390785 -0.17292744 -0.013511598 -0.13017897
000130 f8 63 9a 3c 50 2f 7b 3d d9 54 a3 bd 70 55 09 bc
       0.018846497 0.061324418 -0.07975168 -0.008382186
000140 f2 6e a3 bd 00 b4 55 39 f4 12 8c bd 6e ce e8 3d
       -0.079801455 0.00020380318 -0.068395525 0.11367498
000150 29 5b 89 bd 9c ae 02 bd d6 fc 99 3d b0 f6 f9 bd
       -0.067068405 -0.0319048 0.07518928 -0.12205255
000160 62 a3 d5 3d 00 1c 8c 3d fa 0d ec 3d 80 9f cb 3b
       0.104315534 0.06841278 0.11526103 0.0062140822
000170 69 4e ab bd 08 81 62 3d 81 32 8d bd 40 2e 3a bc
       -0.08364565 0.055298835 -0.068943985 -0.011363566
000180 a7 38 05 3e a4 a8 35 3d 29 88 83 bd ee 93 c7 3d
       0.13009892 0.04435028 -0.06422455 0.09745012
000190 00 36 4b 3d f2 7c 8c 3d 83 9b ae bd 78 33 41 3d
       0.049612045 0.06859769 -0.08525755 0.047168225
0001a0 99 eb 34 be 84 a2 86 bd 56 23 11 be 22 f7 ed 3d
       -0.17667998 -0.06573966 -0.14173636 0.116194025
0001b0 b7 89 32 3e 80 d1 df 3a e6 07 2f be 78 9b ca 3c
       0.17435347 0.0017075986 -0.17092857 0.024732336
0001c0 57 ff 1f 3e 90 06 3d 3c ac c5 2e 3d c8 72 db 3c
       0.15624748 0.011537209 0.042668983 0.02678813
0001d0 b4 69 5d bd 12 bf d5 bd 60 c8 b6 3b ee ac ec 3d
       -0.054055884 -0.104368344 0.005578086 0.11556421
0001e0 d2 d4 e8 3d 27 69 14 3e f8 ce 69 3d e0 6a 89 bb
       0.11368717 0.14493237 0.057082146 -0.0041936487
0001f0 dc 2f 54 3d fd a0 29 3e 44 bf 32 be 00 7e 9e bc
       0.051803455 0.16565318 -0.17455775 -0.01934719
000200 d8 61 06 bd f8 75 2d bd 39 78 e9 bd c6 7b 13 be
       -0.032808155 -0.042348832 -0.11399884 -0.14402685
000210 66 37 e2 3d d7 1f 07 be d2 87 bb 3d 7d 43 01 3e
       0.11045723 -0.1319574 0.09156765 0.12623401
000220 88 76 cb 3c f0 bb 64 bc c2 31 dd 3d 53 8c 2f be
       0.024836794 -0.013960823 0.10800506 -0.17143373
000230 90 ff 85 bd ac bc 14 be e1 5c 1a 3e ba c6 b0 3d
       -0.06542885 -0.14525098 0.15074493 0.08631654
000240 e7 a8 22 3e be e2 cf 3d 40 aa 54 bd bc f5 11 3d
       0.15884744 0.101506695 -0.051920176 0.03563474
000250 d6 40 1c be 91 78 17 3e 90 a8 ae 3c a7 ca b9 bd
       -0.15259108 0.14792086 0.021320611 -0.09071856
000260 80 de 6f 3c 30 43 07 3c e8 d7 ce 3c 18 24 88 bc
       0.0146404505 0.008255765 0.025249436 -0.016618773
000270 b6 a6 f8 3d 03 56 1e 3e 6b ed 2e be 3e c0 60 bd
       0.121411726 0.15462498 -0.17082755 -0.054870836
000280 b0 d4 8c bd 20 f1 f5 3b 2c b7 85 bd c2 b1 73 bd
       -0.068765044 0.007505551 -0.06529078 -0.059495695
000290 60 38 25 be 22 68 c5 3d 6c 8a e4 bd dc 57 8d bd
       -0.16134787 0.096390024 -0.111592144 -0.069015235
0002a0 1e 3f c2 3d eb a7 e9 bd dd b6 05 3e c6 60 21 be
       0.09484695 -0.11408981 0.13058038 -0.15759572
0002b0 1d 36 1a 3e 94 94 6f 3d 33 33 32 3e 5a d9 e4 3d
       0.15059705 0.058491305 0.17402343 0.11174269
0002c0 08 2b 37 3d 20 d0 ac 3c 40 5e 70 bb 66 11 ff 3d
       0.044718772 0.021095335 -0.003667727 0.1245449
0002d0 00 47 e5 bb e6 57 04 be ee 38 b8 3d 46 4c 07 be
       -0.0069969893 -0.12924156 0.089952335 -0.1321269
0002e0 a2 ff ba 3d 05 9d 00 3e 28 67 87 3c b7 75 eb bd
       0.09130789 0.12559898 0.01652868 -0.11497062
0002f0 c9 46 11 3e 83 df 0c 3e b0 6e 0b 3d a2 fe c9 3d
       0.14187159 0.13757138 0.034041107 0.098630205
000300 27 0b 0c be 78 87 c9 3c 30 33 48 bc 10 fb 1e bd
       -0.1367613 0.02460073 -0.012219235 -0.03881365
000310 0c f9 23 be 89 9f 33 be c5 f9 27 be d8 c8 82 3c
       -0.16012973 -0.17541327 -0.16403873 0.01596491
000320 1a 0c cd 3d 54 8d 4a bd ef d3 26 be 01 3c 26 be
       0.10012074 -0.049451187 -0.16291784 -0.16233827
000330 25 57 11 3e 5d 15 32 3e 70 26 b9 3c ca 01 db 3d
       0.14193399 0.17390962 0.022601336 0.106937006
000340 c0 84 82 3b 62 c2 cf 3d f6 0e 86 3d b0 a2 b8 bc
       0.00398311 0.101444975 0.06545822 -0.022538513
000350 15 0c 8e bd 53 40 0e 3e 92 8b f8 3d 54 85 90 3d
       -0.06935898 0.13891725 0.12135996 0.0705668
000360 a9 c9 06 be b8 98 85 bc 59 48 91 bd bd 6e 1f be
       -0.13162865 -0.016308174 -0.07093877 -0.15569587
000370 aa 0f 9e bd e0 8f a9 3b f6 6c d5 3d 90 3d 19 bc
       -0.077178314 0.005174622 0.10421173 -0.009353057
000380 de c9 95 3d c0 c6 0d bd 00 2c 85 bc 2a ca e9 3d
       0.07313894 -0.03461337 -0.016256332 0.11415513
000390 a0 7a f8 3b d0 47 4d 3c 5c 61 89 bd 16 92 ac bd
       0.0075829774 0.012529328 -0.06708023 -0.08426301
0003a0 07 59 98 bd 70 27 fc 3c b0 b2 43 3c 4f e1 28 3e
       -0.074388556 0.030780524 0.011944458 0.16492198
0003b0 89 47 d3 bd 66 dc d6 3d 80 df e8 ba 4f f1 9e bd
       -0.103163786 0.104912564 -0.0017766804 -0.0776087
0003c0 a9 af 33 3e 88 24 3b bd ba 58 d7 bd eb c5 06 3e
       0.17547478 -0.045689136 -0.1051497 0.13161437
0003d0 a0 91 8b 3c 74 6b 2e 3d df a4 0b be 60 ee b0 3c
       0.017037213 0.042582944 -0.13637112 0.021598041
0003e0 3b 8e d8 bd 13 1d 0a be 98 83 12 3d 44 9e 24 bd
       -0.10574003 -0.13487653 0.03577003 -0.040189996
0003f0 d7 a5 dd bd 80 da c8 ba 33 75 f7 bd c0 ab f7 bc
       -0.10822647 -0.0015323907 -0.12082901 -0.030233264

lstm.bias_ih_l0 f4 [128]
000000 63 88 1f bd 50 52 9d 3d 92 f4 ca bd 95 58 a3 3d
       -0.038948428 0.076817155 -0.09909929 0.0797588
000010 82 8d 61 3c d4 a2 50 be a7 a1 f4 bd 74 7d a7 3c
       0.013766648 -0.20374614 -0.11944895 0.020445563
000020 32 66 a7 3d 4e 98 1e bd d3 d9 95 bd e6 03 23 be
       0.08173789 -0.038719468 -0.07316937 -0.15919456
000030 16 2b 75 be 42 3e 0f be c7 1b c8 bd 48 c3 87 bd
       -0.23942217 -0.13988593 -0.09770923 -0.06629044
000040 1b 48 4e be 94 14 0e 3d 4d b5 33 3d d4 ab e8 bd
       -0.20144694 0.034687594 0.043874074 -0.113608986
000050 f3 c2 06 be 22 ab 5f 3d 62 fe 0b be c6 17 12 be
       -0.13160305 0.054606564 -0.13671258 -0.14266881
000060 4c 22 d6 bd 44 6d 5d be e7 fc 0b be ab 3a 05 be
       -0.1045576 -0.21623713 -0.13670693 -0.13010661
000070 e5 ba 6f 3d ce dd 3e be f8 42 e7 bd c5 32 64 be
       0.058527846 -0.186393 -0.1129207 -0.22284992
000080 ef e4 1f 3e d2 c8 e1 bd ec 83 2c bd 25 96 0c 3e
       0.15614675 -0.110246316 -0.042117998 0.1372915
000090 8a 14 a5 3d d0 1c ab bc c0 f4 71 3b 40 d5 3c 3d
       0.08060558 -0.020887762 0.0036919564 0.04610181
0000a0 d6 97 de bd 3f 89 0b 3e c0 e8 08 bb 1a 32 19 be
       -0.10868804 0.13626574 -0.0020890683 -0.14960518
0000b0 a0 05 12 bd c5 aa 07 be e0 30 12 3c 28 c3 4c bd
       -0.035649896 -0.13248737 0.0089227855 -0.049990803
0000c0 32 9e 97 3d 40 95 59 bb 57 85 26 3e 33 39 2d 3e
       0.0740322 -0.0033200532 0.16261803 0.16916351
0000d0 aa f0 a0 3d 80 ca 76 bb c4 28 15 3d d0 bf 55 3c
       0.07858403 -0.003765732 0.03641583 0.01304622
0000e0 56 8b e7 3d f7 8d 01 3e bd ad b3 bd 6c 87 0c 3d
       0.11305873 0.12651812 -0.08773372 0.034308836
0000f0 16 27 9b 3d 0c bc eb bd d6 53 5f bd 70 06 0b bc
       0.075758144 -0.115104765 -0.05452331 -0.008485422
000100 ae 1a ac bd dc 7f 50 3d 2d d1 98 bc 3b b7 a5 3d
       -0.08403526 0.050903186 -0.01865443 0.08091589
000110 27 f9 df bc a0 b3 1e 3e d5 59 c2 bd fd 01 83 bd
       -0.027340485 0.15498209 -0.0948979 -0.063968636
000120 71 33 0c be 58 3b 97 bd 9e 99 d6 bc f1 f8 96 3d
       -0.13691498 -0.07384366 -0.026196297 0.073717006
000130 c6 d5 a9 bd 94 6a 11 3b f4 a0 e8 bd 1f 28 fa bd
       -0.08292727 0.002218877 -0.11358824 -0.12214684
000140 ec c3 d4 3d 29 34 59 3d ca de 32 3e 60 4d dc bd
       0.10388932 0.05302826 0.174678 -0.107569456
000150 09 79 9d bd 3a 7f 57 3d 8f e6 4b 3d e1 7d 43 bd
       -0.07689101 0.052611567 0.049780425 -0.04772747
000160 b3 3e 05 3b af 60 c4 3c 82 5a e2 3c 60 c8 01 be
       0.002033156 0.023971884 0.027631048 -0.12674093
000170 bb f0 5f bd 42 f9 13 3e d9 f3 5c 3d 9a ee 41 bd
       -0.054672938 0.14450553 0.05394349 -0.04734669
000180 3f a3 e3 bd 6f 61 6e bd ee 1a 9b bd 8f 1d de 3b
       -0.11115121 -0.05819839 -0.07573496 0.006778426
000190 a3 5b 29 be 3f 97 2a be a3 7a c0 3c 77 16 af bc
       -0.16538863 -0.16659258 0.023495978 -0.021373017
0001a0 f8 d3 2c 3d 66 05 ae bd 4a 32 be 3d 5e 47 0d be
       0.042194337 -0.084971234 0.092869356 -0.13796756
0001b0 67 f5 40 3c 94 50 4d bc ac 0e 2f be 05 9a 9e 3d
       0.0117772585 -0.012531418 -0.1709544 0.07744221
0001c0 3d 5e 13 bc c1 49 04 be 86 3d 82 bb b6 2d 0b be
       -0.008994636 -0.1291876 -0.0039746193 -0.13591656
0001d0 be 0b 9a bd 5d 0a 5c bd fa a0 8d 3c 20 7d 9d 3d
       -0.07521771 -0.05372082 0.017288674 0.07689881
0001e0 db ea 6c bd c8 4f 70 be 36 8d 2a 3d bc 45 ca bd
       -0.057841163 -0.23467934 0.041638575 -0.09876582
0001f0 1f 4d e2 bd 35 8b 94 bd c2 1f 38 be 17 50 61 be
       -0.11049866 -0.07253114 -0.17980865 -0.22003208

lstm.bias_hh_l0 f4 [128]
000000 e1 28 f2 bd 66 96 9b bd be fe ce bd 8f 8c 0b 3e
       -0.11824203 -0.075970456 -0.10107182 0.13627838
000010 88 a9 c8 bd b6 72 0d be 95 c1 1e 3d 34 99 99 3d
       -0.097979605 -0.1381329 0.038758833 0.07499924
000020 f8 b4 fc 3d 5a 03 22 be af 95 c6 3c 67 4c 31 bc
       0.123392045 -0.15821591 0.024241297 -0.010821438
000030 a4 c5 8c 3d f6 55 53 be cd c4 15 be 56 89 b8 3d
       0.068736345 -0.2063826 -0.14625855 0.0901057
000040 d7 84 50 bd 9c 35 8c 3c 02 b3 e7 3d 07 7f 7f 3d
       -0.050907936 0.017115407 0.1131344 0.062377002
000050 66 cf 26 3d ce 98 06 3e be 5d 4d 3d d4 39 05 bd
       0.040725134 0.13144228 0.050138228 -0.032525852
000060 70 ec 2a bc 94 5e 45 be cb 51 ab 3d c7 9f 85 be
       -0.010432348 -0.1927436 0.0836521 -0.26098463
000070 1d 15 8f be f6 d3 32 be 19 79 92 bd 9a 05 96 bd
       -0.27945796 -0.17463669 -0.07152004 -0.07325287
000080 ad 22 11 be a0 40 e0 bb 90 d2 0e be 4d 67 ad bd
       -0.14173384 -0.0068436414 -0.1394751 -0.08466969
000090 74 d0 4d bd 16 a9 d5 3d 5c 8f b8 bd 2b 7d 15 3e
       -0.050247625 0.10432641 -0.09011719 0.14598529
0000a0 7f 38 28 3e 50 0c d6 bc e6 3d 97 3d 30 c2 cc bd
       0.16427802 -0.026128918 0.07384853 -0.09997976
0000b0 38 1c 2b bd b0 e7 35 bd 30 2c 88 bc 31 17 8f bd
       -0.04177496 -0.044410408 -0.016622633 -0.06986845
0000c0 07 6e 06 3e b0 a2 c0 bd 6c ec 7c bd e1 18 1c 3e
       0.1312791 -0.0940603 -0.061748907 0.15243866
0000d0 26 d8 a3 bd fc 3b 25 be 02 e6 99 3d b8 e1 e3 bc
       -0.080002114 -0.16136163 0.07514574 -0.027817592
0000e0 2d 6e 31 3e 62 7b be 3d b0 dd a9 bc 68 b1 d3 bc
       0.17327185 0.09300877 -0.020735592 -0.02584143
0000f0 06 9e e2 3d 7d fa 20 3e 0e fa a3 bd 21 71 24 3e
       0.11065297 0.15720554 -0.080066785 0.1605878
000100 be ee 0c 3e e2 e3 35 3d ba 8a 0b 3e 37 f3 0a 3c
       0.13762948 0.04440678 0.13627139 0.0084808385
000110 d1 54 2a 3e 58 d5 1e be aa 55 1b 3e 03 c7 9a bd
       0.16633917 -0.15511072 0.15169397 -0.0755749
000120 80 24 be 3d 26 eb 2a bc 23 82 b2 bc ab 4d 48 3d
       0.092843056 -0.01043204 -0.02179057 0.048902195
000130 62 5b 89 3d ff d8 08 bb 4f e0 38 be 0b d2 d3 3d
       0.06706883 -0.0020881293 -0.18054317 0.10342797
000140 76 8c c4 3c ff e1 14 be a7 a9 f3 bc ba 90 c7 3d
       0.023992758 -0.14539336 -0.029743982 0.09744401
000150 4c 4b 7d 3d 2c c8 05 be b0 c5 31 3d c6 4f dd 3c
       0.061839387 -0.13064641 0.04340142 0.027015578
000160 58 64 27 3b 84 e2 88 3d 2b 3c dc bc 62 1d 0e 3e
       0.0025541987 0.066838294 -0.02688416 0.13878396
000170 ea d8 cd bd 0f cd 15 3d 31 6c 74 bd 36 06 09 3e
       -0.10051139 0.036572512 -0.059673492 0.13381276
000180 36 ec f3 3c dd f0 7d bd bf 98 39 be 70 e7 82 bd
       0.02977572 -0.061997283 -0.18124674 -0.063917994
000190 3f e8 1b be 69 ea c4 3d 4b 55 bb 3d 7a f8 9e 3d
       -0.15225314 0.09615023 0.09147128 0.07762237
0001a0 cb e6 bf bc 09 fe 8f bc c6 5a 47 be a7 1e 3c 3d
       -0.02342548 -0.017577188 -0.19468221 0.04592767
0001b0 04 24 af bd 99 f7 33 be 10 3c 01 be 1c 68 0e 3d
       -0.08551791 -0.1757492 -0.12620568 0.034767255
0001c0 9d d4 a5 bd 6d ce 48 bd 4d 3f 2f be c9 b1 44 be
       -0.080971934 -0.049024988 -0.17113991 -0.19208445
0001d0 43 cf 53 bd 4f 3d 37 3d 20 45 d2 bd 38 7f 09 3d
       -0.051711332 0.044736203 -0.10267091 0.03356859
0001e0 5c 39 db bb b6 a7 2e bc 41 d3 4b be 36 12 f8 bd
       -0.0066901874 -0.010660103 -0.19904806 -0.121128485
0001f0 04 87 9a 3c 5e 24 92 3d 49 fa b7 bc 29 09 71 be
       0.018863209 0.07135843 -0.022458212 -0.2353865

fc.weight f4 [1, 32]
000000 fb ad ba 3b b9 78 87 bc 3c 10 84 bd 51 bc 27 3d
       0.0056970096 -0.016537057 -0.06448409 0.040951077
000010 2f f9 fc 3b 47 a7 40 bd a0 2d c1 3c cd 9c 60 3c
       0.0077201347 -0.047034528 0.023581326 0.013709259
000020 65 b3 bf bd 15 52 b0 3c d6 38 b9 bd 4a d6 c2 ba
       -0.09360389 0.021523515 -0.09044044 -0.0014864889
000030 b6 61 5a ba 29 dc a3 bc 42 67 bc bd 40 a7 eb 3c
       -0.00083306 -0.020002441 -0.09199382 0.028766274
000040 ae d8 dd 3c 24 9e 0d be d9 d6 80 3d 34 cc 4b bc
       0.02708086 -0.13829857 0.06290979 -0.012438823
000050 4d 64 13 3c 65 5e 95 bc 5c 80 dd bd 7d 46 f4 b8
       0.008996082 -0.018233487 -0.10815498 -0.00011647956
000060 13 62 27 3d 66 93 10 3c da 93 40 3c d0 ac 87 3d
       0.040865015 0.008824205 0.011754001 0.06624758
000070 07 b0 39 bd 4e 75 cf 3c 44 d6 3a 3c a8 b6 ae bb
       -0.04533389 0.02532449 0.011403624 -0.005331833
