best_models/best_model_rnn_search_4_features_20.pt (torch, 10016 bytes, 5 tensors)

rnn.weight_ih_l0 f4 [32, 20]
0	0x3e0a6088	0.13513386
1	0xbd64297c	-0.055703625
2	0x3dfb03d6	0.12256591
3	0x3e290536	0.16505894
4	0x3e0836d0	0.1330216
5	0x3e00020a	0.12500778
6	0xbd70a5cc	-0.058751866
7	0xbe305a75	-0.17222007
8	0xbd2e65fc	-0.04257773
9	0x3e2c391f	0.16818665
10	0x3cd6b05a	0.026207138
11	0x3dbe3731	0.09287871
12	0x3d818445	0.063240565
13	0x3e00a273	0.1256197
14	0x3cf69c52	0.030103836
15	0xbe0fc161	-0.14038612
16	0xbd68311e	-0.056687467
17	0xbdf73058	-0.12069768
18	0xbd9198c3	-0.07109215
19	0x3d85c9ce	0.06532632
20	0xbd36cd1f	-0.044629212
21	0xbdf091d8	-0.117465675
22	0xbdb475b0	-0.088115096
23	0x3e373463	0.17891078
24	0x3cd68500	0.026186466
25	0xbe2f40c9	-0.17114557
26	0xbde2315c	-0.11044571
27	0x3e11eda5	0.1425081
28	0x3dbc40e0	0.091920614
29	0x3d4b0f85	0.049575347
30	0x3dd08ddb	0.10183307
31	0xbdd40aa5	-0.10353593
32	0xbdd685b2	-0.10474719
33	0x3d8a51f7	0.06753915
34	0x3dddac1b	0.10823842
35	0xbe327fe6	-0.17431602
36	0x3c65a770	0.014016971
37	0x3cf89d26	0.030348372
38	0x3c54c930	0.01298742
39	0xbccd2f89	-0.02504708
40	0x3d9d2e08	0.076747954
41	0x3c6a16c0	0.014287651
42	0xbc61896e	-0.013765676
43	0x3d691f7b	0.056914788
44	0xbd94e618	-0.072704494
45	0xbd780a8f	-0.060556944
46	0xbdf015c7	-0.11722904
47	0xbd986a53	-0.07442155
48	0xbe335f4b	-0.1751682
49	0xbdf4ac53	-0.11946931
50	0x3a48654d	0.00076444895
51	0xbdce2832	-0.100662604
52	0xbd840c74	-0.06447688
53	0x3dd4e976	0.10396092
54	0xbd04d149	-0.032426152
55	0xbe06fdc1	-0.13182737
56	0xbd7878ff	-0.060662266
57	0xbd789394	-0.060687616
58	0xbe007c48	-0.1254741
59	0xbd2acc50	-0.041698754
60	0xbdce08ea	-0.10060294
61	0x3e12ba28	0.14328825
62	0x3d358ed5	0.04432567
63	0x3dceb2ca	0.10092695
64	0xbbd2867a	-0.0064247223
65	0xbdf695d2	-0.12040295
66	0xbdccab84	-0.099936515
67	0x3de21e75	0.110409655
68	0xbcaa5831	-0.020794006
69	0x3d047dd4	0.03234656
70	0x3d22af25	0.039717812
71	0x3ddd3d9d	0.108027674
72	0xbdf604ff	-0.12012672
73	0xbdf26fa7	-0.11837702
74	0xbc90b3a6	-0.017663788
75	0x3e1fc0c3	0.15600877
76	0x3d6fd8af	0.058556255
77	0x3cb5c0ac	0.0221866
78	0xbcd86bad	-0.026418531
79	0x3c72bda0	0.014815718
80	0xbcffed74	-0.031241156
81	0xbd6c4d7f	-0.057691094
82	0x3dcdae3e	0.10043
83	0xbe2fc6de	-0.17165706
84	0x3d8a5a93	0.06755557
85	0xbdee728e	-0.11642943
86	0x3d7cbedf	0.061705466
87	0xbd9a4f39	-0.07534642
88	0xbd006749	-0.0313485
89	0x3dbda3f4	0.09259787
90	0x3e00cc21	0.12577869
91	0x3d472bc5	0.048625726
92	0xbd941d36	-0.07232134
93	0xbddc343e	-0.10752152
94	0xbd1d1322	-0.038348325
95	0x3d807fb5	0.06274358
96	0xbe26c724	-0.16286904
97	0x3d9db1d4	0.07699934
98	0x3db11140	0.08645868
99	0x3e28e09a	0.16491929
100	0x3d263306	0.040576003
101	0xbccbf7cf	-0.024898438
102	0xbdc39e55	-0.09551684
103	0xbceb32db	-0.028710773
104	0xbe1e5427	-0.15461789
105	0xbc0d30f4	-0.008617628
106	0xbcecb81f	-0.02889639
107	0xbcc72184	-0.024307974
108	0xbd788bf7	-0.060680356
109	0xbd702319	-0.05862722
110	0x3dfafd00	0.12255287
111	0x3e396085	0.18103226
112	0xbe22a0df	-0.1588168
113	0xbd188f66	-0.03724613
114	0xbe20d6a0	-0.15706873
115	0x3d76dc32	0.06026859
116	0xbe0a579f	-0.13509987
117	0x3d476591	0.048680846
118	0x3e0f9cce	0.1402466
119	0x3c061e28	0.008185901
120	0x3c27e0a0	0.010246426
121	0xbd8bd9b3	-0.06828632
122	0xbdbc17ae	-0.09184204
123	0x3de243b6	0.11048071
124	0xbe1d1520	-0.1534009
125	0x3dc734bb	0.097268544
126	0x3d72968a	0.059225596
127	0x3dea4690	0.1143924
128	0x3daa717b	0.08322426
129	0xbd8e380a	-0.06944282
130	0x3e160f5d	0.14654298
131	0xbda1c745	-0.07899336
132	0xbdc0409c	-0.09387323
133	0x3e27a157	0.1637014
134	0xbe0a50aa	-0.13507333
135	0x3d2d6a60	0.042337775
136	0xbdba49d4	-0.09096113
137	0xbe1e733d	-0.15473647
138	0x3e2a8314	0.16651565
139	0xbce85b9a	-0.028363992
140	0xbe34460c	-0.17604846
141	0x3dd628fa	0.104570344
142	0xbd88096f	-0.06642424
143	0x3e012149	0.12610354
144	0x3dd476b0	0.103742
145	0xbe03f6e9	-0.12887157
146	0x3e3b5bbe	0.18296716
147	0x3da5815f	0.08081316
148	0xbda8fb5f	-0.0825107
149	0x3dbc8aef	0.09206187
150	0x3da140e0	0.07873702
151	0x3d679e00	0.056547165
152	0xbda4e9de	-0.08052419
153	0xbe260520	-0.16212893
154	0x3c5c69c6	0.013452953
155	0xbccd17f6	-0.02503584
156	0x3e168caa	0.14702097
157	0x3d3f7dc2	0.04675079
158	0x3de90145	0.11377195
159	0xbb78152b	-0.0037854414
160	0x3ded96d4	0.11601034
161	0xbd34d79d	-0.044150937
162	0x3e29ba32	0.16574934
163	0x3d91b789	0.07115085
164	0xbdfc00a6	-0.12304811
165	0xbe21123b	-0.1572961
166	0x3bf406f9	0.0074471203
167	0xbd2c2363	-0.042025935
168	0xbdf7b2b9	-0.120946355
169	0xbe063ceb	-0.13109176
170	0xbe149069	-0.14508213
171	0x3dd088ab	0.10182317
172	0xbbe87d53	-0.007095018
173	0xbdc0da6c	-0.09416661
174	0xbcc663b4	-0.024217464
175	0xbd8d8d17	-0.069116764
176	0x3e101490	0.14070344
177	0xbd9ad2ee	-0.07559763
178	0x3dce252d	0.100656845
179	0xbe101d9d	-0.14073797
180	0xbdebb0fe	-0.11508368
181	0xbdbdef4c	-0.09274158
182	0xbcfa9433	-0.030588245
183	0x3d8715ac	0.065959305
184	0xbd88f348	-0.06687027
185	0x3daa6d18	0.08321589
186	0xbe0eb409	-0.13935865
187	0x3d5c81ef	0.05383485
188	0xbd9147a5	-0.07093743
189	0x3c70f257	0.014706216
190	0xbd966bfc	-0.07344815
191	0x3e04e2ca	0.12977138
192	0xbe1416e6	-0.1446186
193	0x3e24576b	0.16048972
194	0xbd269cc6	-0.040676855
195	0x3decae50	0.11556685
196	0xbe1b6473	-0.15175037
197	0xbd145c8c	-0.036221072
198	0xbca27504	-0.019831188
199	0x3df4b003	0.11947634
200	0xbe176173	-0.14783268
201	0x3b8d6dfe	0.0043160906
202	0x3df5c04f	0.119995706
203	0x3ca46543	0.020067817
204	0xbd80f6a2	-0.062970415
205	0x3dc5565b	0.096356116
206	0xbe08ccb7	-0.13359343
207	0x3dcf5f8c	0.10125646
208	0x3ccbc163	0.024872487
209	0x3d61ae1e	0.05509769
210	0xbdffe432	-0.12494697
211	0x3e14f40c	0.14546221
212	0x3e27f3bf	0.16401576
213	0xbd33ddf8	-0.043912858
214	0x3dde56aa	0.108563736
215	0x3d72e27f	0.059298035
216	0x3e399574	0.18123418
217	0x3e047c11	0.12937953
218	0x3d31b0f1	0.043381635
219	0xbc144558	-0.009049736
220	0xbdd09d80	-0.10186291
221	0xbe21b122	-0.15790227
222	0x3d6244a4	0.055241242
223	0x3dc87330	0.09787595
224	0x3da4c546	0.080454394
225	0x3d708a53	0.058725666
226	0xbdcfdf12	-0.10149969
227	0xbd5d4722	-0.054022916
228	0xbdc62f17	-0.096769504
229	0x3cf691c4	0.030098803
230	0x3dd1ec85	0.10250191
231	0x3bda9401	0.0066704755
232	0x3dd6e954	0.104937226
233	0xbcda9826	-0.026683878
234	0xbd795d92	-0.06088025
235	0xbe04a87f	-0.12954901
236	0xbdb4c82f	-0.088272445
237	0x3e13150c	0.14363497
238	0xbe13c590	-0.14430833
239	0x3c9513ae	0.01819786
240	0x3dd46498	0.10370749
241	0xbdd747c3	-0.10511734
242	0xbd8f7860	-0.070053816
243	0x3d45e548	0.048314363
244	0xbe060d0e	-0.13090917
245	0xbdf19ced	-0.11797509
246	0x3decf09e	0.115693316
247	0x3cf3d6ee	0.029765572
248	0xbd951c84	-0.072808295
249	0xbd3d719b	-0.04625092
250	0xbdb6fe37	-0.089352064
251	0xbe163d44	-0.14671808
252	0xbdd36a3a	-0.103229955
253	0xbdc69e41	-0.09698153
254	0x3d3b6019	0.045745943
255	0xbbb25769	-0.005442549

rnn.weight_hh_l0 f4 [32, 32]
0	0xbdc6bd95	-0.09704129
1	0xbe0786b9	-0.13234986
2	0xbdfad912	-0.12248434
3	0x3e1c342f	0.15254281
4	0x3c49d760	0.012319416
5	0xbd39d488	-0.0453687
6	0x3e337a7b	0.17527191
7	0x3e19e6a9	0.15029396
8	0xba060200	-0.00051119924
9	0x3ddac0de	0.10681318
10	0x3d956cac	0.07296118
11	0x3e081bed	0.13291903
12	0x3dc9266e	0.09821783
13	0x3df2db16	0.118581936
14	0x3e19274b	0.14956395
15	0x3d9b4eb2	0.07583369
16	0xbcfa0580	-0.0305202
17	0x3dc62f96	0.09677045
18	0xbc9b12b0	-0.01892981
19	0x3dc498c2	0.09599449
20	0x3dfd111a	0.123567775
21	0x3cc67f50	0.02423063
22	0x3db43d32	0.088007346
23	0xbe1ed1a5	-0.1550966
24	0x3dc3a81a	0.09553547
25	0x3de55906	0.111986205
26	0xbd5cb678	-0.053884953
27	0x3c235b90	0.009970561
28	0x3e0061c7	0.12537299
29	0x3d501714	0.05080326
30	0x3dcbaaea	0.09944709
31	0xbcb0d308	-0.021585003
32	0x3e18c84b	0.14920156
33	0xbe148ecc	-0.14507598
34	0xbe2afd2c	-0.1669814
35	0x3e0342f3	0.12818508
36	0xbd844f19	-0.06460399
37	0xbbe0f3e0	-0.0068650097
38	0xbc19db00	-0.009390593
39	0xbbc58320	-0.006027594
40	0xbe30523c	-0.1721887
41	0xbdadb8c3	-0.08482506
42	0x3d4483e4	0.047977343
43	0x3e145de7	0.14488946
44	0x3db1e8de	0.08686994
45	0x3e2cf173	0.1688898
46	0xbdfd1602	-0.12357713
47	0xbe11ad0c	-0.14226168
48	0x3dcf7656	0.10129993
49	0x3e34d803	0.17660527
50	0xbd91c285	-0.0711718
51	0x3e01bfc5	0.1267081
52	0xbc86f898	-0.01647596
53	0xbe219cb1	-0.1578243
54	0x3d16cbc8	0.036815435
55	0x3cec9be8	0.028882936
56	0xbbaf68a0	-0.0053530484
57	0xbda02e4b	-0.0782133
58	0xbdd53b6d	-0.10411725
59	0x3db1afee	0.08676134
60	0x3d27fc5c	0.041012153
61	0xbdc98be7	-0.098411374
62	0x3d4169d4	0.047220066
63	0x3d3445c8	0.04401186
64	0xbe2b816e	-0.16748592
65	0x3e28beed	0.16479082
66	0xbccc0750	-0.02490583
67	0xbe04f979	-0.12985791
68	0xbdd916b4	-0.106000334
69	0x3e13d30d	0.14435978
70	0x3d8c587e	0.06852816
71	0x3c9894e0	0.018625677
72	0xbcdb4380	-0.026765585
73	0xbc3e5ad0	-0.011618331
74	0xbd90cd96	-0.070704624
75	0xbdd335b7	-0.1031298
76	0xbe0e0301	-0.13868333
77	0x3c53c200	0.012924671
78	0x3dc8261a	0.09772892
79	0xbe0810c0	-0.1328764
80	0x3dea647a	0.11444946
81	0xbe1c43b4	-0.15260202
82	0x3dc801fe	0.09766005
83	0x3d8810fc	0.066438645
84	0xbd9e7553	-0.077372216
85	0xbd264950	-0.04059726
86	0x3d275d74	0.04086061
87	0xbd232a98	-0.039835542
88	0x3d7bef20	0.061507344
89	0x3e1254a7	0.14290105
90	0x3c9c1628	0.019053534
91	0xbe286127	-0.1644331
92	0x3e0094af	0.12556718
93	0x3d83c808	0.06434637
94	0xbbef3380	-0.0072998405
95	0x3dddb22e	0.10825001
96	0xbe0b05a0	-0.13576365
97	0xbd75716c	-0.05992262
98	0x3dc0d3f6	0.09415428
99	0x3d91526c	0.07095799
100	0xbdb4eb5a	-0.08833952
101	0x3e31dbd9	0.17369021
102	0xbdc42256	-0.095768616
103	0xbe2785ad	-0.16359587
104	0x3e347be1	0.17625381
105	0xbe1f5bdb	-0.15562384
106	0xbcdd31b0	-0.027001232
107	0x3dee276a	0.116286114
108	0x3df570b2	0.119843856
109	0x3d947c48	0.07250267
110	0xbd922c3c	-0.07137343
111	0x3d00e200	0.03146553
112	0x3dd1dd16	0.10247247
113	0x3bf18a40	0.007371217
114	0xbe2298e1	-0.15878631
115	0xbda3e9d1	-0.08003581
116	0x3d1a73c8	0.037708074
117	0x3e0f1863	0.13974147
118	0xbd9e1024	-0.07717922
119	0x3d855502	0.065103546
120	0x3d9d1f1e	0.07671951
121	0x3e1770f5	0.14789183
122	0x3e2c2731	0.16811825
123	0xbde741ee	-0.11291872
124	0x3e01926d	0.12653513
125	0x3c487e90	0.012237206
126	0x3e1122d7	0.14173447
127	0x3e2e2805	0.17007454
128	0xbd841caa	-0.0645078
129	0x3d84e8e0	0.0648973
130	0xbe165c67	-0.14683686
131	0x3ce80048	0.028320447
132	0x3e05df57	0.13073479
133	0x3d55e664	0.05222167
134	0x3de9c7da	0.11415072
135	0xbe34953a	-0.1763505
136	0xbc7b38e0	-0.015333384
137	0xbc981fd0	-0.018569857
138	0xbc789c60	-0.015174001
139	0xbc4df7b0	-0.01257126
140	0x39f07400	0.00045862794
141	0x3de99d12	0.11406912
142	0xbda66765	-0.0812519
143	0x3d8e5db6	0.06951468
144	0xbe0ea60a	-0.13930526
145	0x3c7c91f0	0.015415654
146	0x3d901f68	0.0703724
147	0x3d528408	0.051395446
148	0xbd4f9c04	-0.050685897
149	0xbb64b180	-0.0034895837
150	0x3ca0c308	0.019624248
151	0xbdf35273	-0.1188096
152	0xbdcde856	-0.1005408
153	0xbd5fb0de	-0.054612033
154	0xbda0d3b3	-0.078528784
155	0xbe278f76	-0.1636332
156	0xbe23b6e4	-0.15987736
157	0xbd96cc21	-0.07363153
158	0x3da0cfe6	0.078521535
159	0x3d18c104	0.03729345
160	0xbdebba84	-0.115101844
161	0xbd8cd831	-0.06877173
162	0x3cda5f80	0.026656866
163	0x3e314f85	0.1731549
164	0x3df07f76	0.11743061
165	0x3c1d3170	0.009594306
166	0x3e038d01	0.12846757
167	0xbde9a90e	-0.11409198
168	0xbd970cf6	-0.07375519
169	0xbd813c7d	-0.06310365
170	0x3b8098a0	0.0039244443
171	0xbc5f4520	-0.0136273205
172	0x3e28d19b	0.16486208
173	0xbe042353	-0.129041
174	0xbe186781	-0.14883234
175	0xbd30c9c0	-0.043161154
176	0x3cf5f740	0.030025125
177	0x3df3512a	0.11880715
178	0x3e27e09f	0.1639428
179	0x3d357b3c	0.04430698
180	0xbd3a118c	-0.04542689
181	0xbe15be56	-0.14623389
182	0x3e07e83b	0.13272183
183	0xbe18aec0	-0.14910412
184	0x3e06310d	0.13104649
185	0xbe01593a	-0.12631693
186	0x3d02b264	0.031908408
187	0xbe186d16	-0.14885363
188	0x3e2fe8af	0.17178605
189	0x3e187857	0.14889656
190	0x3da29212	0.07938017
191	0x3ce079b8	0.02740179
192	0x3e26bc7d	0.1628284
193	0xbd92b83e	-0.07164048
194	0xbda06fe0	-0.078338385
195	0x3c1972b0	0.009365723
196	0x3e27a073	0.163698
197	0x3dd0267e	0.10163592
198	0xbe1889c0	-0.14896297
199	0x3e0a4441	0.135026
200	0x3d77dd64	0.06051387
201	0xbe1db5e8	-0.15401423
202	0xbe1a9c40	-0.15098667
203	0x3e32e67b	0.17470734
204	0xbd7de624	-0.061987057
205	0x3d24470c	0.040106818
206	0xbe0808fb	-0.13284676
207	0xbc504f50	-0.012714222
208	0x3d840ed8	0.06448144
209	0x3daaba46	0.0833631
210	0x3dfc9ae2	0.12334229
211	0xbe1393bd	-0.14411826
212	0x3c491420	0.012272865
213	0x3db05e72	0.08611764
214	0xbdef3542	-0.1168008
215	0x3dd9618e	0.1061431
216	0x3ddb1792	0.10697855
217	0x3cf89eb0	0.030349106
218	0x3d649604	0.05580713
219	0xbe2366e1	-0.15957214
220	0xbe19e0b2	-0.1502712
221	0xbda93532	-0.08262099
222	0xbd2391e8	-0.03993407
223	0xbe2d08e3	-0.16897921
224	0xbe207e38	-0.15673149
225	0xbdb5ec6d	-0.08882985
226	0xbd80f238	-0.062961996
227	0x3d4859d4	0.04891379
228	0x3dcec146	0.10095458
229	0xbe1d8730	-0.15383601
230	0xbd0eeadc	-0.034891948
231	0x3e106593	0.14101247
232	0x3deabd9e	0.11461948
233	0x3dc7e06a	0.097596005
234	0xbd126c04	-0.035747543
235	0xbdfbd90c	-0.12297258
236	0x3e23ee4b	0.1600887
237	0x3d6fe954	0.05857213
238	0x3d7da64c	0.06192617
239	0xbe0a0eff	-0.13482283
240	0xbe30a5f0	-0.172508
241	0xbdb9be5b	-0.090695105
242	0x3db92632	0.09040488
243	0xbdc475cc	-0.095927805
244	0x3daa4fe2	0.08316018
245	0x3debdcc6	0.115167186
246	0x3e2fd9c7	0.17172919
247	0x3c1f9480	0.009739995
248	0xbd72898a	-0.0592132
249	0x3df60ea6	0.12014513
250	0x3d91a4be	0.071115
251	0x3dfb23fa	0.12262721
252	0x3e0b608b	0.13611047
253	0x3d99a39a	0.07501908
254	0x3d0f14f8	0.034932107
255	0xbdc75f96	-0.097350284

rnn.bias_ih_l0 f4 [32]
0	0xbdb52bff	-0.08846282
1	0x3da83256	0.08212726
2	0xbdec2317	-0.1153013
3	0x3e091c62	0.13389733
4	0x3ce19f64	0.027541824
5	0x3e09d182	0.13458827
6	0xbd36068b	-0.044439834
7	0xbe04cfca	-0.1296989
8	0x3e07f594	0.13277274
9	0x3c404006	0.011734014
10	0xbdc9a11f	-0.098451845
11	0x399f7b2c	0.00030418613
12	0xbcbe70ef	-0.02324721
13	0xbdf893da	-0.121375754
14	0xbdfe45d8	-0.124156654
15	0xbdced2ff	-0.10098838
16	0xbe1301f2	-0.14356211
17	0xbcc412d9	-0.023934769
18	0x3d59015e	0.05297982
19	0xbd110289	-0.03540281
20	0x3d937eb4	0.07201901
21	0xbd9b07d0	-0.075698495
22	0xbdaced8c	-0.08443746
23	0xbc53f6bb	-0.012937243
24	0x3e1f4ffe	0.15557858
25	0xbe115288	-0.1419164
26	0x3e1f0401	0.15528871
27	0xbd9d7252	-0.076878205
28	0x3c255c72	0.010092841
29	0xbe0638ef	-0.13107656
30	0xbd845f65	-0.064635076
31	0x3c39dab7	0.01134365

rnn.bias_hh_l0 f4 [32]
0	0x3d732d30	0.059369266
1	0xbe073de2	-0.132072
2	0xbcea8b8b	-0.028630992
3	0xbce0dae2	-0.027448121
4	0x3d0924ab	0.033482235
5	0xbc3b0bfc	-0.0114164315
6	0xbe2ede84	-0.1707707
7	0x3e0d8f10	0.13824105
8	0xbdb73013	-0.08944716
9	0x3e2d6d4d	0.16936226
10	0x3c6aaa7b	0.014322872
11	0xbd1bc6a3	-0.03803123
12	0x3d205759	0.0391458
13	0x3c137660	0.009000391
14	0x3deedd65	0.116633214
15	0x3e38dc0c	0.18052691
16	0x3d22d582	0.0397544
17	0x3dead670	0.11466682
18	0xbd1f3f1e	-0.038878553
19	0x3d072aa3	0.032999646
20	0x3e102f82	0.14080623
21	0x3dc96a88	0.09834772
22	0xbdadf111	-0.084932454
23	0xbd6c4dad	-0.057691265
24	0xbd22057b	-0.039556008
25	0x3d42f8bf	0.047600504
26	0xbdba4a80	-0.09096241
27	0x3ce343a5	0.027742216
28	0x3df24742	0.118299976
29	0xbe207cfe	-0.1567268
30	0xbd0707a8	-0.032966286
31	0x3ca4fafa	0.020139206

fc.weight f4 [1, 32]
0	0x3d1592a5	0.036516804
1	0x3c711864	0.014715288
2	0xbdf6d5d9	-0.12052507
3	0x3d8728f3	0.06599607
4	0xbce41658	-0.027842686
5	0x3d831d94	0.06402126
6	0xbd44126f	-0.047869142
7	0xbe0a4d77	-0.13506113
8	0x3d445522	0.04793275
9	0x3d890f5b	0.06692382
10	0xbd222397	-0.039584722
11	0x3bcb2e77	0.0062006074
12	0xbd2b6659	-0.041845653
13	0x3e061eb2	0.13097647
14	0x38af4e0c	8.3591876e-05
15	0x3de4252a	0.11139901
16	0xbe1151ba	-0.14191332
17	0xbdec7356	-0.11545436
18	0x3cb9b430	0.022668928
19	0x3bdfb204	0.006826641
20	0xbdade2bc	-0.08490512
21	0xbcec3b26	-0.028836798
22	0xbae2a529	-0.0017291653
23	0xbe08c1b8	-0.13355148
24	0xbe151f62	-0.14562753
25	0x3db563a6	0.08856897
26	0xbdd27e58	-0.102780044
27	0x3de13782	0.109969154
28	0xbcf4c060	-0.029876888
29	0x3d17b594	0.0370384
30	0x3e08db1a	0.1336483
31	0x3e16612d	0.14685507
