best_models/best_model_rnn_search_1_features_50.pt (torch, 10016 bytes, 5 tensors)

rnn.weight_ih_l0 f4 [32, 20]
0	0xbe1a8d58	-0.15092981
1	0xbdbf7de8	-0.093501866
2	0xbdf4f76c	-0.119612545
3	0xbdef27b3	-0.11677494
4	0x3e123c85	0.14280899
5	0x3e0a4eaa	0.1350657
6	0x3dbabf01	0.09118462
7	0x3dadb8e2	0.08482529
8	0xbd3615c5	-0.044454355
9	0xbcff61c8	-0.031174555
10	0xbe1a1dab	-0.1505038
11	0x3d96f960	0.07371783
12	0xbb50a865	-0.0031838652
13	0x3d92a3ed	0.071601726
14	0x3e1fc2fb	0.15601723
15	0x3ddd3052	0.10800232
16	0xbd103798	-0.03520927
17	0x3d5ae0e2	0.05343712
18	0xbdf4f085	-0.11959938
19	0xbe14ab27	-0.14518414
20	0x3bd60756	0.006531636
21	0x3cc79443	0.024362689
22	0xbddc5874	-0.107590586
23	0x3d34511c	0.044022664
24	0x3de659b1	0.11247576
25	0xbe2fe855	-0.17178471
26	0xbd8d28ce	-0.068925485
27	0xbdad07b2	-0.084487334
28	0xbcf732eb	-0.030175647
29	0x3dbf2923	0.09334018
30	0x3e218b27	0.15775739
31	0xbcc929b4	-0.024556018
32	0x3d96159b	0.0732834
33	0x3dedeb1e	0.11617111
34	0xbbaae370	-0.005215101
35	0x3e17b26f	0.14814161
36	0xbd30b62d	-0.043142486
37	0x3d5ec02c	0.054382488
38	0xbe082051	-0.13293578
39	0xbc9c7cca	-0.019102473
40	0xbceaeb99	-0.028676795
41	0x3d1257cd	0.035728265
42	0x3d773198	0.06035003
43	0xbe07bf4b	-0.13256566
44	0xbe1b695f	-0.15176915
45	0xbdafff9c	-0.085936755
46	0x3e2545a6	0.1613985
47	0xbdb32898	-0.08747977
48	0xbe0bde37	-0.13658987
49	0x3e413f2c	0.18871754
50	0xbcee7600	-0.029109001
51	0xbd302483	-0.04300357
52	0x3d05ecc9	0.03269652
53	0x3cb5f4ad	0.022211397
54	0xbc31ef5f	-0.010860293
55	0x3ce34b64	0.02774591
56	0xbdcadcb9	-0.09905381
57	0xbd68f789	-0.056876693
58	0xbbd5daa6	-0.006526309
59	0x3e0ea60a	0.13930526
60	0x3e0b63ce	0.13612291
61	0x3df5c2fe	0.120000824
62	0xbe173912	-0.14767864
63	0xbda806c6	-0.08204417
64	0xbe04b156	-0.12958273
65	0xbd8e0b9c	-0.06935808
66	0x3d68616f	0.056733545
67	0x3d1daca8	0.038494736
68	0x3ded77dd	0.11595128
69	0xbe2998a2	-0.16562131
70	0x3e00adbf	0.12566279
71	0x3ddcc220	0.10779214
72	0xbe31c521	-0.17360355
73	0x3d9c88c4	0.076432735
74	0x3d8f0996	0.0698425
75	0x3bc571ee	0.0060255444
76	0xbdcf15be	-0.10111569
77	0x3d08a678	0.033361882
78	0xbd1a61cc	-0.037690923
79	0x3dbdf06b	0.09274372
80	0x3d67940c	0.056537673
81	0x3c5dc5ce	0.01353593
82	0x3db1f712	0.08689703
83	0x3d32115c	0.043473586
84	0xbd2f860a	-0.04285244
85	0xbe3651d4	-0.17804652
86	0xbe0c991d	-0.13730283
87	0x3c44d5a1	0.012013824
88	0xbdcc2e67	-0.09969788
89	0xbd85bac6	-0.06529765
90	0xbe0803ef	-0.1328275
91	0xbc3f43c5	-0.011673872
92	0xbd18a410	-0.037265837
93	0x3e358cdd	0.17729516
94	0xbe1831dd	-0.14862771
95	0x3c9412cd	0.018075371
96	0x3e0993c7	0.13435279
97	0x3db2bba5	0.087271966
98	0xbd7a7209	-0.06114391
99	0xbc9299ac	-0.017895542
100	0xbddaac3b	-0.106773816
101	0xbcd39b48	-0.02583088
102	0x3e25a316	0.16175494
103	0xbe304f69	-0.17217793
104	0xbd61b1fb	-0.055101376
105	0xbd83f544	-0.06443265
106	0x3e0d4552	0.13795975
107	0xbe2550e3	-0.16144137
108	0x3d81056a	0.06299861
109	0x3a72eddb	0.00092670106
110	0x3cd4b19c	0.025963597
111	0x3d9aa7e2	0.07551552
112	0x3d51c6e9	0.051215086
113	0xbd6e0e2c	-0.058118984
114	0x3d819940	0.06328058
115	0x3d18dd3d	0.037320364
116	0x3d4ac9b1	0.049508754
117	0xbd97ffcb	-0.074218355
118	0xbe289c36	-0.1646584
119	0xbde81478	-0.11332029
120	0xbdfb2139	-0.12262196
121	0x3dbdcda6	0.0926774
122	0xbc8ff328	-0.017572
123	0x3dc50dda	0.096217826
124	0x3e42e1c5	0.19031437
125	0xbde046ae	-0.10950981
126	0xbd808dbc	-0.06277034
127	0xbcfeb0ce	-0.031090166
128	0xbe09f127	-0.13470899
129	0x3de5ddb7	0.112239294
130	0x3e407152	0.18793228
131	0x3c186e78	0.009303682
132	0xbd87fd03	-0.06640055
133	0x3e256a87	0.16153918
134	0x3e2f4a17	0.17118107
135	0x3e1fa580	0.15590477
136	0x3d08d570	0.033406675
137	0x3e242bb8	0.16032302
138	0x3d820250	0.06348097
139	0xbdacfdd8	-0.08446854
140	0x3de01355	0.10941187
141	0xbde03fcf	-0.109496705
142	0x3dc35fa0	0.095397234
143	0xbdaa3a89	-0.08311946
144	0xbde562da	-0.11200495
145	0x3db9912d	0.09060893
146	0xbe2e72e5	-0.17036016
147	0x3e1a8623	0.15090232
148	0x3e0f002a	0.13964906
149	0x3d167b7c	0.036738858
150	0xbd6e21f9	-0.058137868
151	0x3dda5281	0.106602676
152	0xbdca2d67	-0.09871941
153	0x3d506f4f	0.050887402
154	0xbcabbc1e	-0.020963725
155	0x3e1ee9f4	0.15518934
156	0xbe383b3c	-0.17991346
157	0xbdc415dc	-0.09574482
158	0xbd02109d	-0.031754125
159	0x3d856249	0.06512887
160	0x3c48e66e	0.01226197
161	0xbe0b8486	-0.13624772
162	0xbe111708	-0.14168942
163	0xbd024cf5	-0.031811673
164	0x3e259ab2	0.16172293
165	0x3d8d6c99	0.06905479
166	0x3e0ee553	0.13954668
167	0xbe29cacd	-0.16581269
168	0x3e281599	0.16414489
169	0x3e029946	0.12753782
170	0xbe1e29fa	-0.154457
171	0xbde5fc74	-0.11229792
172	0x3de703cf	0.11280023
173	0xbd9a1b76	-0.07524769
174	0xbe1b1477	-0.15144525
175	0xbe30c368	-0.17262042
176	0x3e26deff	0.16296004
177	0xbe004146	-0.125249
178	0x3dd82a17	0.10554903
179	0x3df5ffdf	0.12011694
180	0xbb2f7cba	-0.0026777224
181	0xbd0056c4	-0.031332746
182	0x3c3e5db3	0.011619019
183	0xbdab7c28	-0.0837329
184	0xbb3b7684	-0.0028604576
185	0x3cd27793	0.025691783
186	0x3cda0ddb	0.026617935
187	0xbe2bf479	-0.16792478
188	0xba0dfcf4	-0.0005416416
189	0xbd87a738	-0.06623691
190	0xbda68618	-0.08131045
191	0x3da6934e	0.08133565
192	0x3e067f85	0.13134582
193	0xbd438bcc	-0.047740743
194	0x3c8f1c36	0.017469507
195	0xbe1cee42	-0.15325263
196	0x3dc79f00	0.09747124
197	0x3cbacee8	0.022803739
198	0x3dcf9810	0.101364255
199	0xbe0faf05	-0.14031608
200	0xbcf7d62f	-0.030253498
201	0xbd1309d3	-0.03589804
202	0xbc411e05	-0.011786942
203	0x3d3e3ce3	0.046444785
204	0xbdf8d0e7	-0.1214922
205	0xbdb07aa3	-0.08617141
206	0x3c34756b	0.011014323
207	0x3e27d99f	0.1639161
208	0x3da92124	0.08258274
209	0xbd7515f4	-0.05983539
210	0xbd130fef	-0.035903867
211	0x3c7d2b9c	0.015452292
212	0xbdd17a5f	-0.102284186
213	0x3cf720f4	0.03016708
214	0xbd2278a6	-0.03966584
215	0x3d58125f	0.052751895
216	0x3cfb9ae4	0.030713506
217	0x3dc9b929	0.098497696
218	0xbd3fd589	-0.046834502
219	0xbcb9d81a	-0.022686053
220	0xbdde3d42	-0.10851528
221	0xbe39004b	-0.18066518
222	0x3e1a43cb	0.15064923
223	0x3dc20c9d	0.09475062
224	0x3db40fbe	0.08792065
225	0x3e1539e8	0.1457287
226	0x3e08e8a0	0.1336999
227	0x3d264d80	0.040601254
228	0x3d31fd4a	0.043454446
229	0x3e0d6c51	0.1381085
230	0x3dceb89a	0.10093804
231	0x3d9c7032	0.07638587
232	0xbd7a7c41	-0.061153654
233	0xbe149bfb	-0.14512627
234	0x3d8c2972	0.068438426
235	0x3dc0582e	0.09391819
236	0xbd48d7ec	-0.049034044
237	0xbd3dd779	-0.04634807
238	0xbd032307	-0.032015827
239	0xbe1dc508	-0.15407193
240	0xbadee57a	-0.0017005645
241	0xbc85fb0e	-0.016355064
242	0xbd891c39	-0.06694836
243	0xbd60dbd1	-0.054897133
244	0xbe152bf3	-0.14567547
245	0x3d1a55d1	0.037679497
246	0x3de75227	0.11294966
247	0x3e176fb4	0.14788705
248	0xbc9749e0	-0.018467844
249	0x3e08b6fe	0.13351056
250	0x3e12e3ce	0.14344713
251	0x3e21f9eb	0.15817992
252	0xbdb0367b	-0.08604141
253	0xbde795c9	-0.11307866
254	0x3d3b40df	0.045716163
255	0x3d8d1315	0.06888405

rnn.weight_hh_l0 f4 [32, 32]
0	0xbe088c0d	-0.13334675
1	0xbd3bdb10	-0.04586321
2	0xbe14a86a	-0.1451737
3	0xbd1276b0	-0.03575772
4	0xbceb6e48	-0.02873911
5	0x3dedb466	0.11606674
6	0x3cc46250	0.02397266
7	0x3e331715	0.17489274
8	0x3dd98fc2	0.10623123
9	0x3d219af4	0.039454415
10	0x3cd2ba88	0.02572371
11	0xbe1c3737	-0.15255438
12	0xbd9ab537	-0.07554095
13	0xbe16a37a	-0.14710799
14	0xbcfe9280	-0.031075716
15	0x3d8f5486	0.069985434
16	0x3dd9cd52	0.10634865
17	0xbc2438c0	-0.010023296
18	0x3e0519f5	0.12998183
19	0xbb282840	-0.0025658756
20	0xbc02f050	-0.007991865
21	0xbd318978	-0.04334399
22	0x3e14e2ad	0.14539595
23	0x3d89bf38	0.06725925
24	0xbd6f674a	-0.058448114
25	0xbe285da5	-0.16441973
26	0xbd15b614	-0.036550596
27	0xbe03269e	-0.128077
28	0xbe27706e	-0.16351482
29	0x3e1d8b2f	0.15385126
30	0xbe28b3ef	-0.16474889
31	0xbe3502fa	-0.17676917
32	0xbdebd3f8	-0.11515039
33	0xbc912230	-0.017716497
34	0x3e324dff	0.17412566
35	0xbe078c18	-0.13237035
36	0x3dfec4be	0.12439869
37	0x3b4248c0	0.0029645413
38	0xbe04c49a	-0.12965623
39	0xbd4a78a8	-0.049431473
40	0x3e2df083	0.16986279
41	0x3bc35140	0.0059606135
42	0xbd122548	-0.035680085
43	0xbda64051	-0.08117736
44	0x3da273fe	0.0793228
45	0x3d8061f6	0.062686846
46	0x3d452828	0.048134
47	0x3e051065	0.12994535
48	0xbcf48020	-0.029846251
49	0x3ddf3e3e	0.10900544
50	0xbddbde32	-0.1073574
51	0x3d2435e0	0.04009044
52	0xbe03d2a2	-0.12873319
53	0xbdd83bc4	-0.105582744
54	0xbdf25d86	-0.118342444
55	0xbd97e3c2	-0.07416488
56	0xbe1ca1b6	-0.15296063
57	0xbd957df7	-0.072994165
58	0xbdb25843	-0.08708241
59	0xbb235f00	-0.002492845
60	0xbde53e6d	-0.111935474
61	0xbdd0214d	-0.101626016
62	0x3b08e200	0.002088666
63	0xbdbc4041	-0.09191943
64	0xbd8cbb52	-0.06871666
65	0xbd9f5673	-0.07780161
66	0x3d68be20	0.056821942
67	0x3e1c5365	0.15266187
68	0xbdb4d059	-0.08828802
69	0x3dfb0dd2	0.122584954
70	0x3db8a86e	0.090165004
71	0xbda4a0fa	-0.08038516
72	0x3d2d53f0	0.042316377
73	0xbdb3a8b9	-0.08772416
74	0xbdd59b10	-0.104299664
75	0x3d6d85dc	0.057988986
76	0xbe02cab7	-0.12772642
77	0x3d7e13f8	0.062030762
78	0xbd19c87c	-0.037544712
79	0xbdcca136	-0.09991686
80	0xbdd1a146	-0.102358386
81	0xbcc2de70	-0.023787707
82	0xbd659224	-0.056047574
83	0x3e2517c7	0.16122352
84	0x3d93baee	0.072133884
85	0x3dbb0202	0.09131242
86	0xbdc00829	-0.093765564
87	0x3dc868b6	0.09785597
88	0xbe0631be	-0.13104913
89	0xbe0c4757	-0.13699089
90	0x3e2da24f	0.16956447
91	0x3c4a4f80	0.012348056
92	0xbd81ed98	-0.063441455
93	0xbe2a7abb	-0.1664838
94	0x3d8f222a	0.06988938
95	0x3de0663e	0.10957001
96	0xbe09c740	-0.13454914
97	0xbde51eb5	-0.111874975
98	0x3dd8cd46	0.10586028
99	0x3dc0a34e	0.09406148
100	0x3e31ea55	0.17374547
101	0xbe1eb887	-0.15500079
102	0xbde531f4	-0.111911684
103	0xbd9f9cfe	-0.07793616
104	0x3dfa0a46	0.12208991
105	0x3b8548e0	0.0040675253
106	0x3d84e970	0.06489837
107	0x3d932452	0.07184662
108	0xbe28e3e6	-0.16493186
109	0xbcb6c1e8	-0.022309259
110	0x3c1bb350	0.009503201
111	0x3d937a74	0.072010905
112	0x3d5e3790	0.054252207
113	0x3c8d35a0	0.017237484
114	0xbd7d586e	-0.06185191
115	0x3dc65a66	0.09685211
116	0xbe32b48f	-0.1745169
117	0x3dcf56fa	0.10124011
118	0xbd2f357c	-0.042775616
119	0x3e2f969b	0.17147295
120	0x3e058759	0.13039912
121	0x3d8cda20	0.068775415
122	0xbd25a438	-0.040439814
123	0x3bfba660	0.0076797456
124	0x3d713578	0.058888882
125	0xbd99e70d	-0.075147726
126	0xbc8574e0	-0.016291082
127	0xbcdc9560	-0.026926696
128	0x3b8a1a20	0.00421454
129	0xbe1db5fe	-0.15401456
130	0xbdc08bce	-0.09401666
131	0xbdfa0842	-0.12208606
132	0x3e191285	0.14948471
133	0x3c678110	0.014129892
134	0x3ddf9702	0.10917474
135	0xbd25215c	-0.040315017
136	0xbd5e46a0	-0.054266572
137	0xbcbdc6b0	-0.02316603
138	0xbd9b3f3f	-0.075804226
139	0xbe1bdc77	-0.1522082
140	0xbe18a8eb	-0.14908187
141	0xbde22ea7	-0.110440545
142	0x3daa4f72	0.08315934
143	0xbe17dbab	-0.1482989
144	0xbb19fe80	-0.002349764
145	0x3e2fc4e3	0.1716495
146	0xbe02a926	-0.12759838
147	0x3d8d4012	0.06896986
148	0xbde7d0a7	-0.11319094
149	0xbd940e1b	-0.07229253
150	0xbdfa1f6a	-0.12213023
151	0x3e224547	0.1584674
152	0x3de25a7a	0.11052413
153	0x3d253ae4	0.040339366
154	0xbdad5d4b	-0.0846506
155	0x3e32bfbf	0.17455958
156	0xbd6015da	-0.05470834
157	0x3e07f305	0.13276298
158	0xbe1f2c32	-0.15544203
159	0x3dbe493e	0.092913136
160	0x3e094e3b	0.13408749
161	0xbd841912	-0.06450094
162	0xbe1cd6e9	-0.15316357
163	0xbd9beb29	-0.076132126
164	0x3d16a758	0.036780685
165	0xbd454354	-0.048159912
166	0x3d378ea0	0.044813752
167	0x3d8af5c4	0.06785157
168	0xbd3ff43c	-0.04686378
169	0x3daf312a	0.08554299
170	0x3d907b0a	0.07054718
171	0x3e241ca3	0.16026549
172	0x3e270f9f	0.16314553
173	0xbdc9ffa0	-0.0986321
174	0x3e1fc271	0.15601517
175	0x3e306227	0.17224942
176	0x3da071e6	0.078342244
177	0x3d7b67a4	0.061378136
178	0xbcfdc070	-0.03097555
179	0x3d8f140a	0.06986244
180	0x3d9b5372	0.07584275
181	0xbdb46f24	-0.08810261
182	0xbd3425d0	-0.043981373
183	0xbd080edc	-0.033217296
184	0xbe0b9994	-0.13632804
185	0x3d808408	0.06275183
186	0xbcede2e8	-0.029038861
187	0x3de4c322	0.11170031
188	0x3ce4b550	0.027918488
189	0x3d67ff6c	0.056640074
190	0xbdbad632	-0.09122886
191	0xbe2e61b9	-0.17029466
192	0x3e2aec81	0.16691782
193	0xbd92d7b2	-0.07170047
194	0x3dc6069a	0.09669228
195	0xbddd08ce	-0.10792695
196	0x3e1f13c3	0.15534882
197	0x3d1a9134	0.037736133
198	0x3e0f790f	0.14011024
199	0xbde7ce96	-0.113187
200	0x3e1120fd	0.1417274
201	0x3dc29726	0.095014855
202	0x3e28b463	0.16475062
203	0xbe06010f	-0.13086341
204	0xbd79d048	-0.060989648
205	0x3e2d41df	0.16919659
206	0x3e0449d3	0.12918787
207	0x3d06b698	0.03288898
208	0xbe1ff44a	-0.15620533
209	0xbe281388	-0.164137
210	0xbe1b3a53	-0.15158968
211	0x3d0ee0b4	0.034882262
212	0xbe1fac4d	-0.15593071
213	0xbd24de18	-0.040250868
214	0x3d9d89f2	0.076923266
215	0xbd9be589	-0.0761214
216	0x3e0d68c1	0.13809492
217	0xbdf5a350	-0.1199404
218	0x3ad33400	0.001611352
219	0x3d8a051a	0.06739254
220	0x3dcb5b16	0.09929483
221	0x3e09062b	0.13381259
222	0x3dda2602	0.10651781
223	0x3c9100b0	0.017700523
224	0xbe09651f	-0.13417481
225	0xbc18af20	-0.009319097
226	0x3d003578	0.03130099
227	0x3d2428c4	0.04007794
228	0x3d6db628	0.058035046
229	0xbdf8af44	-0.12142804
230	0x3da266b2	0.07929744
231	0xbdfacbc8	-0.122458994
232	0x3af6bb00	0.0018824041
233	0x3df58fa6	0.119902894
234	0xbdb0e4e8	-0.086374104
235	0x3d990ee2	0.07473542
236	0xbbf6f4a0	-0.007536486
237	0xbdf95ad9	-0.12175531
238	0x3b576d00	0.0032871366
239	0x3e066909	0.13126005
240	0x3e1b47d1	0.15164115
241	0x3c580d00	0.013186693
242	0xbddf58dd	-0.10905621
243	0x3db6bed2	0.08923115
244	0xbd6882b4	-0.056765273
245	0xbdcc19cf	-0.0996586
246	0x3d71edc8	0.059064656
247	0xbd2fd03c	-0.042923197
248	0x3c771fe0	0.015083283
249	0xbdb875b5	-0.09006826
250	0x3dce2b62	0.10066868
251	0x3d87a340	0.06622934
252	0x3b95f3a0	0.0045761615
253	0x3df16a3a	0.11787839
254	0xbded66a5	-0.115918435
255	0x3d1ff314	0.039050177

rnn.bias_ih_l0 f4 [32]
0	0xbe13e6ba	-0.14443484
1	0xbe0544ff	-0.13014601
2	0xbdd2ed65	-0.10299186
3	0xbd2a43c9	-0.04156855
4	0xbe3278bb	-0.17428868
5	0xbdf5c320	-0.12000108
6	0xbd21cc89	-0.0395017
7	0xbe22ecba	-0.15910617
8	0xbc937721	-0.018001141
9	0x3dce5145	0.10074095
10	0x3ca15e60	0.019698322
11	0x3dd20c43	0.10256245
12	0xbab6dfd0	-0.0013952199
13	0xbe3b9102	-0.18317035
14	0xb947effe	-0.00019067523
15	0xbe0b9f20	-0.1363492
16	0x3d2b1225	0.04176535
17	0x3e23ec1a	0.16008034
18	0xbe199726	-0.14999065
19	0x3e166d12	0.14690045
20	0x3d8b6e15	0.06808106
21	0x3b811cda	0.003940207
22	0xbde93acd	-0.113881685
23	0x3b20e4f3	0.0024550527
24	0xbc9025ae	-0.017596092
25	0x3d773436	0.060352527
26	0xbdb109bd	-0.086444356
27	0x3d1b7806	0.03795626
28	0x3d86ee13	0.06588378
29	0xbd8d689f	-0.069047205
30	0xbd718fbc	-0.058974966
31	0xbdedccc2	-0.1161132

rnn.bias_hh_l0 f4 [32]
0	0xbe20a256	-0.15686926
1	0x3dc185e5	0.094493665
2	0x3d6a11b4	0.05714579
3	0xbd519edb	-0.051176887
4	0x3d8d763b	0.06907316
5	0x3d3bd74f	0.04585963
6	0xbd4e12ad	-0.05031078
7	0xbd9e9818	-0.07743853
8	0x3d05550f	0.03255182
9	0x3defe2b9	0.11713166
10	0x3c48df3a	0.012260253
11	0x3d6ccc98	0.057812303
12	0xbd881030	-0.066437125
13	0x3d6a2734	0.057166293
14	0xbe060845	-0.13089092
15	0x3dd88de7	0.10573941
16	0xbcae21fd	-0.021256441
17	0xbe1cc6a2	-0.15310147
18	0x3e2ce4ea	0.16884199
19	0xbdbd3134	-0.092379004
20	0xbe19bcd6	-0.15013441
21	0xbd8097f4	-0.06278983
22	0x3de3a45f	0.11115336
23	0x3e328af8	0.17435825
24	0x3e3d2a9a	0.18473282
25	0x3d8460e7	0.06463795
26	0x3e00b25b	0.12568037
27	0x3d4a5ae2	0.04940308
28	0xbbdaa999	-0.0066730496
29	0x3dd6f2f4	0.104955584
30	0x3d74895c	0.05970131
31	0xbe1e41ab	-0.15454738

fc.weight f4 [1, 32]
0	0xbd4f7e73	-0.0506577
1	0xbe03222b	-0.12806003
2	0x3d8dda95	0.06926457
3	0xbd33fff2	-0.04394526
4	0xbde999c4	-0.114062816
5	0xbd9e45c4	-0.077281505
6	0x3d174379	0.03692958
7	0xbd84c6dd	-0.06483243
8	0x3d810fec	0.06301865
9	0x3dec1fe5	0.11529521
10	0x3e1b1ad0	0.15146947
11	0xbb6ed81e	-0.0036444734
12	0x3d7a0ebd	0.06104921
13	0xbe245741	-0.1604891
14	0xbe0a3555	-0.13496907
15	0xbcb52f11	-0.02211717
16	0xbd23fd63	-0.04003657
17	0x3dbe2479	0.092843
18	0x3df23ea4	0.11828354
19	0xbc728577	-0.014802328
20	0x3db58dae	0.08864914
21	0xbde18dbe	-0.11013363
22	0xbe0df7f5	-0.1386412
23	0x3dad94a4	0.084756166
24	0x3db0075e	0.08595155
25	0xbca3effd	-0.020011896
26	0xbce22cdd	-0.027609283
27	0x3e0c8bc1	0.13725187
28	0xbccf666a	-0.02531739
29	0x3dd3fc94	0.1035091
30	0x3e17cbcf	0.1482384
31	0xbd11b37d	-0.035571564
