best_models/best_model_lstm_search_9_features_50.pt (torch, 91306 bytes, 5 tensors)

lstm.weight_ih_l0 f4 [256, 20]
0	0xbcc07f10	-0.023498088
1	0xbd24ed58	-0.04026541
2	0xbe106d9e	-0.14104316
3	0xbdaced20	-0.084436655
4	0xbd3f2a12	-0.04667098
5	0x3dcb7cde	0.09935926
6	0x3db90851	0.09034789
7	0x3de07d3c	0.109613866
8	0x3ddb2967	0.10701256
9	0x3da2f95e	0.07957719
10	0x3c8c48a3	0.01712448
11	0xbe28547b	-0.16438477
12	0xbe03ad26	-0.1285902
13	0xbe1b2532	-0.15150908
14	0xbd87eff9	-0.06637568
15	0xbd3ca6ae	-0.046057396
16	0xbab0a494	-0.0013476782
17	0x3dc68753	0.0969378
18	0xbda2dd81	-0.07952405
19	0x3d32c0ef	0.043641027
20	0x3d26c7eb	0.040718
21	0xbdf748be	-0.12074421
22	0x3d9d5c6e	0.07683645
23	0xbd0c95c5	-0.03432252
24	0x3dab2821	0.08357263
25	0x3dbdf0a8	0.09274417
26	0xbc3e55a9	-0.011617103
27	0xbddeab74	-0.10872546
28	0xbe01a04a	-0.12658802
29	0xbdc48561	-0.095957525
30	0x3dac528e	0.084141836
31	0xbd696be1	-0.056987647
32	0xbcb35ebd	-0.02189576
33	0xbdb0ec2a	-0.08638795
34	0xbcc4bf7f	-0.024017094
35	0x3dc9d705	0.09855465
36	0xbdb2303a	-0.08700605
37	0xbc69ca1e	-0.01426938
38	0xbd979dc8	-0.07403141
39	0xbe0ea8a6	-0.13931522
40	0xbc006924	-0.0078375675
41	0xbdb0716f	-0.08615386
42	0x3d7710cb	0.06031875
43	0x3c9b8aaf	0.018987028
44	0xbdd7bc0b	-0.10533913
45	0x3c3f35e3	0.011670562
46	0x3cef5fc0	0.029220462
47	0xbde39862	-0.11113049
48	0xbd37c754	-0.04486783
49	0x3da1f1e8	0.07907468
50	0xbd847ce4	-0.064691335
51	0xbdf016d9	-0.11723108
52	0xbe037e87	-0.12841235
53	0xbd8164e6	-0.06318073
54	0xbe20407b	-0.15649597
55	0x3db6b5ed	0.08921418
56	0x3dc5e8f1	0.09663571
57	0xbd9034e6	-0.070413396
58	0xbd5d23d9	-0.053989265
59	0x3cc59449	0.02411856
60	0x3d564c98	0.05231914
61	0x3daa948d	0.08329115
62	0xbdd38dd9	-0.1032979
63	0x3da3d25f	0.079991095
64	0x3cc3a633	0.02388296
65	0xbdc86c88	-0.09786326
66	0x3d2ea0ce	0.042633824
67	0x3dc38139	0.09546132
68	0x3d3c75fa	0.04601095
69	0x3c9679c0	0.018368602
70	0xbd8db50f	-0.069193
71	0xbd8737f8	-0.06602472
72	0xbd59afad	-0.053146053
73	0xbda64377	-0.08118337
74	0x3db2366f	0.08701789
75	0x3e146559	0.14491786
76	0x3ded058d	0.11573324
77	0x3d96b73b	0.07359167
78	0x3dcb8c2e	0.099388465
79	0xbd2a333d	-0.04155277
80	0xbdcd83c5	-0.10034899
81	0x3dcd1754	0.10014215
82	0x3dc8c9d3	0.0980412
83	0x3ccffa7a	0.025387991
84	0xbdc3e872	-0.0956582
85	0xbdb2868d	-0.0871707
86	0x3c705e66	0.014670944
87	0x3df366c6	0.11884837
88	0x3dd23429	0.10263855
89	0x3dc85e62	0.09783627
90	0x3ca09d67	0.019606305
91	0xbda38eed	-0.07986245
92	0x3c9360ce	0.017990496
93	0xbd0bbdf8	-0.034116715
94	0x3d4d44e5	0.05011453
95	0x3d8e8965	0.069598
96	0x3d17706a	0.03697244
97	0xbc899977	-0.01679681
98	0x3c0f7494	0.008755822
99	0x3c02dc78	0.007987134
100	0xbd1bdfaf	-0.03805512
101	0xbd619d2a	-0.055081524
102	0x3d026457	0.031833973
103	0xbda79fea	-0.08184798
104	0x3e1822d5	0.14857037
105	0x3d9ceac3	0.07661965
106	0xbda15fe1	-0.078796156
107	0xbaf183f1	-0.0018426162
108	0x3de8cd7d	0.11367319
109	0x3bed95e3	0.007250534
110	0x3ad3c70a	0.0016157341
111	0x3ce99bf1	0.028516741
112	0xbdacc402	-0.08435823
113	0x3ce2e4c0	0.027696967
114	0x3d5e0131	0.054200355
115	0xbdc160d9	-0.094423
116	0x3d02a885	0.031898994
117	0x3db34571	0.08753479
118	0xbdadb46d	-0.08481679
119	0x3de2bd26	0.110712335
120	0x3d16edaa	0.036847748
121	0x3ce6fcd3	0.028196728
122	0x3d7a7092	0.06114251
123	0xbd77b8c2	-0.060478933
124	0xbdfdc848	-0.12391716
125	0xbd82c778	-0.06385702
126	0xbdd56216	-0.10419099
127	0x3d90b8cd	0.07066498
128	0x3d7e3660	0.062063575
129	0x3da80855	0.08204714
130	0x3d25af46	0.040450357
131	0xbc0b71ea	-0.008511046
132	0xbda2217e	-0.079165444
133	0xbd8f92a9	-0.07010395
134	0xbe199593	-0.14998464
135	0x3d9ced99	0.07662506
136	0xbe238734	-0.15969545
137	0xbdd3780d	-0.10325632
138	0xbd63cc57	-0.055614796
139	0x3c265ff1	0.01015471
140	0x3d4223b3	0.047397327
141	0xbdd51833	-0.10405006
142	0x3cd0de88	0.025496736
143	0x3d0d35cb	0.03447513
144	0xbe160a5b	-0.14652388
145	0xbe2f701d	-0.17132612
146	0xbc000bc4	-0.007815305
147	0xbc9240dd	-0.017853195
148	0xbcd5aafa	-0.026082505
149	0x3a909505	0.0011030739
150	0x3d86c3b6	0.06580298
151	0x3cb3fa61	0.021969976
152	0xbe2a451b	-0.16627924
153	0xbc9e9a9e	-0.019360837
154	0x3d9cba82	0.07652761
155	0x3db6219d	0.0889313
156	0xbd964c7a	-0.073388055
157	0xbd3e6b30	-0.04648894
158	0x3d1fc497	0.039005842
159	0xbd03658f	-0.032079276
160	0xbd885b1d	-0.066580035
161	0x3de5a5ff	0.11213302
162	0x3d8ffb6e	0.07030378
163	0x3df8a3e5	0.121406354
164	0xbd77efd1	-0.06053144
165	0x3e07837f	0.13233756
166	0xbc8a036f	-0.01684734
167	0x3dcf9edc	0.10137722
168	0x3c3e47ed	0.011613828
169	0xbd679421	-0.05653775
170	0x3dec4715	0.11536995
171	0x3c0bc772	0.008531438
172	0x3d9060ff	0.070497505
173	0x3dca5e2b	0.09881242
174	0x3df7d73a	0.12101598
175	0xbcce883b	-0.025211444
176	0x3da035b7	0.07822745
177	0xbdad9a82	-0.08476736
178	0xbd1d8183	-0.03845359
179	0xbd3721e1	-0.044710044
180	0xbda6e42d	-0.0814899
181	0xbc7eecea	-0.015559414
182	0x3ba78297	0.005112003
183	0xbdd00247	-0.10156684
184	0x3d43c5bb	0.047795992
185	0xbd31301e	-0.04325878
186	0xbe034313	-0.12818556
187	0xbddf9b8b	-0.10918339
188	0xbdb3eac5	-0.08785013
189	0x3d7ff200	0.06248665
190	0xbdca3ebc	-0.09875247
191	0xbde2bfee	-0.11071764
192	0xbd96b211	-0.07358182
193	0xbd5b8aa5	-0.05359902
194	0x399f7f03	0.00030421474
195	0xbd9124df	-0.07087111
196	0xbdf25b7a	-0.11833854
197	0x3dd36a30	0.10322988
198	0xbdb3c189	-0.08777148
199	0xbd0a8dc4	-0.033826604
200	0x3cdeb2b5	0.027184824
201	0xbdcaeba9	-0.0990823
202	0x3868adc5	5.5474946e-05
203	0xbdb4f02c	-0.08834872
204	0xbc837dd1	-0.016051205
205	0x3d92ec04	0.07173923
206	0xbcb3527c	-0.021889918
207	0x3df22fc9	0.118255205
208	0xbaa3ab61	-0.0012486988
209	0x3d0b8515	0.034062464
210	0xbd8c09a2	-0.06837775
211	0xbd81090f	-0.06300556
212	0x3d17c79b	0.037055593
213	0xbba30b72	-0.0049757296
214	0xbd8605aa	-0.06544049
215	0xbda6bd28	-0.081415474
216	0x3dad2d73	0.084559344
217	0xbcf4d796	-0.029887956
218	0xbd3d2353	-0.046176266
219	0x3d8ebb24	0.06969288
220	0xbdcae00c	-0.09906015
221	0xbc1ca247	-0.009560174
222	0x3d609c8b	0.05483679
223	0xbd624b35	-0.055247504
224	0x3d4dd004	0.050247207
225	0x3b95fa91	0.004576989
226	0xbb93ec4e	-0.0045142537
227	0x3dab5ef8	0.08367723
228	0x3ce364a6	0.027757954
229	0x3d1a6a0c	0.03769879
230	0x3dd3843e	0.103279576
231	0xbdcd0ad1	-0.10011829
232	0x3da93479	0.082619615
233	0xbdf51540	-0.11966944
234	0xbc3d9ff9	-0.011573785
235	0xbd7fe0b1	-0.06247014
236	0x3d21cde0	0.03950298
237	0xbcfdd81b	-0.030986836
238	0xbe18ad46	-0.14909849
239	0xbd96937d	-0.0735235
240	0xbde7e496	-0.11322896
241	0xbd90f4a3	-0.07077911
242	0x3ca6932e	0.020333853
243	0xbd685535	-0.056721885
244	0xbdb348f6	-0.087541506
245	0xbddb5476	-0.10709469
246	0xbd43fc55	-0.047848064
247	0x3de07a34	0.109608084
248	0xbd58cece	-0.0529316
249	0xbdae2ab9	-0.085042424
250	0xbde3bfc1	-0.111205585
251	0xbd57f555	-0.0527242
252	0xbd976cda	-0.07393809
253	0x3d4a7bb7	0.04943439
254	0xbd4af8dd	-0.04955374
255	0x3d99865f	0.074963324

lstm.weight_hh_l0 f4 [256, 64]
0	0x3cdcc520	0.026949465
1	0xbd9b67de	-0.075881705
2	0xbd767344	-0.06016852
3	0xbd22ce7c	-0.0397477
4	0xbc3b9ad0	-0.011450484
5	0xbd44341c	-0.047901258
6	0x3d3cb55c	0.046071395
7	0x3b2c3240	0.0026275069
8	0xbc89afc8	-0.016807452
9	0xbd2804f8	-0.041020364
10	0x3cb24810	0.021762878
11	0x3d59a534	0.053136066
12	0x3d756e5c	0.0599197
13	0x3dcdb9b4	0.10045186
14	0x3cd5c948	0.026096955
15	0xbd607380	-0.05479765
16	0xbd226ff0	-0.039657533
17	0x3d0c2560	0.03421533
18	0xbdf94a50	-0.12172377
19	0xbd84bba4	-0.06481102
20	0xbdcb12c4	-0.09915689
21	0x3dc10396	0.09424512
22	0xbcc75f58	-0.024337456
23	0xbc9a2820	-0.018817961
24	0xbcde3308	-0.027123943
25	0x3db55348	0.08853775
26	0xbaf87c80	-0.0018958002
27	0xbdf09cac	-0.11748633
28	0xbdcca50e	-0.09992419
29	0xbc177330	-0.009243771
30	0x3d04e80c	0.03244786
31	0x3d6b2028	0.057403713
32	0xbbf9fd20	-0.007629052
33	0x3d3ca298	0.0460535
34	0xbdfeebd4	-0.124473244
35	0xbdfd352a	-0.12363656
36	0xbd9ae946	-0.075640246
37	0xbdcd8b76	-0.10036366
38	0x3d3f2030	0.046661556
39	0x3bee74e0	0.007277116
40	0xbdd39374	-0.10330859
41	0x3da9f17e	0.08298014
42	0x3cfcb6d0	0.03084889
43	0xbced6368	-0.028978065
44	0x3d9c6d50	0.07638037
45	0x3db76506	0.089548156
46	0xbdf3fc62	-0.119133726
47	0xbdc5276c	-0.0962666
48	0xbc946348	-0.018113747
49	0xbd9c6b42	-0.07637645
50	0x3b728100	0.003700316
51	0xbdf0b4de	-0.11753248
52	0x3ca2e138	0.019882783
53	0x3d151224	0.036394253
54	0x3d1cbf74	0.03826852
55	0xbc7d9450	-0.015477255
56	0x3cea7f98	0.028625295
57	0xbdbc7082	-0.09201147
58	0x3ca14898	0.019687936
59	0x3d6285b0	0.055303276
60	0x3d94fc90	0.07274735
61	0x3dc97b34	0.09837952
62	0x3bb3d400	0.005487919
63	0xbdd6d4e6	-0.10489826
64	0x3d739c18	0.059475034
65	0x3c3cc400	0.011521339
66	0x3cb559c8	0.022137538
67	0x3c0061c0	0.007835805
68	0x3ca0d6a8	0.019633606
69	0x3db1fcde	0.08690809
70	0xbd1ca498	-0.038242906
71	0x3d97b4c8	0.07407528
72	0x3dd4d32e	0.10391842
73	0x3ddff04a	0.109345034
74	0xbdc9a802	-0.09846498
75	0x3d8da114	0.06915489
76	0xbd806cb8	-0.062707365
77	0xbdd1fb4e	-0.10253011
78	0xbd8aabd0	-0.06771052
79	0xbc8d1808	-0.017223373
80	0xbcd231b8	-0.025658473
81	0xbbb37f60	-0.005477831
82	0xbd0d2ef4	-0.034468606
83	0x3bb08440	0.005386859
84	0x3d27df50	0.04098445
85	0x3db2edd6	0.0873677
86	0xbdc5c736	-0.09657137
87	0x3d8045a4	0.06263283
88	0x3b8243e0	0.0039753765
89	0x3c21a920	0.009866983
90	0xbdb15390	-0.086585164
91	0xbd9f732c	-0.07785639
92	0x3de5559a	0.11197968
93	0x3d102cc0	0.035198927
94	0x3dfc8bae	0.12331329
95	0x3dbdb1b8	0.09262413
96	0x3ccbc948	0.024876252
97	0x3ddd9640	0.108196735
98	0x3d70375c	0.058646545
99	0x3d92465e	0.07142328
100	0x3dae123e	0.08499573
101	0xbde4a65e	-0.111645445
102	0xbd235e34	-0.03988476
103	0xbd8a8dc0	-0.06765318
104	0xbd9ac0de	-0.07556318
105	0xbd8eaf8e	-0.06967078
106	0xbcc77600	-0.024348259
107	0xbd6c89fc	-0.05774878
108	0xbd531afc	-0.051539406
109	0xbdf0db8a	-0.11760624
110	0xbd9fa318	-0.077947795
111	0x3dcd1a84	0.10014823
112	0x3dc8fd78	0.0981397
113	0x3dd92660	0.106030226
114	0xbd9a7200	-0.07541275
115	0x3d80357a	0.062602
116	0x3db9b032	0.0906681
117	0xbd834974	-0.064104944
118	0xbdb35f00	-0.08758354
119	0xbdec2b6e	-0.11531721
120	0xbdd3be9a	-0.10339089
121	0x3dfe0386	0.12403016
122	0xbda55788	-0.08073336
123	0xbcc13248	-0.023583546
124	0xbd6b6310	-0.05746752
125	0xbd443be8	-0.047908694
126	0x3db7a2f8	0.08966631
127	0xbde71ae8	-0.11284429
128	0x3d4f8df8	0.0506725
129	0x3df7970e	0.12089358
130	0x3d487414	0.048938826
131	0x3ce85ae8	0.02836366
132	0x3dcdcb46	0.10048537
133	0x3d0cdc4c	0.03438978
134	0x3d3ef3bc	0.046619162
135	0x3dda948a	0.10672863
136	0xbd5e2acc	-0.054240033
137	0x3dd7fd0e	0.10546313
138	0x3d13bea4	0.03607048
139	0x3dbdde38	0.092709005
140	0xbd418ec0	-0.047255278
141	0x3c8eb728	0.01742132
142	0xbdefb8e0	-0.11705184
143	0x3d64fa6c	0.055902883
144	0x3d8a5b4a	0.06755693
145	0xbdbabf06	-0.09118466
146	0xbdaaca4a	-0.08339365
147	0xbdb7a6e0	-0.08967376
148	0xbcdc4bb8	-0.026891574
149	0x3d800f38	0.06252903
150	0xbd268090	-0.04064995
151	0x3db1d786	0.08683686
152	0x3df33c04	0.118766814
153	0xbc1e3790	-0.009656802
154	0xbd8843d8	-0.06653565
155	0xbc6899e0	-0.014196843
156	0x3c8d3f38	0.01724206
157	0x3d46387c	0.04839371
158	0x3d40ab18	0.047038168
159	0x3ce62430	0.028093427
160	0x3ddecd3e	0.108789906
161	0x3d9be9e6	0.07612972
162	0xbd808136	-0.06274645
163	0x3d6e80c4	0.05822827
164	0x3df0f686	0.117657706
165	0x3dc3334c	0.095312685
166	0xbd0406c0	-0.032233
167	0xbdecbff8	-0.11560053
168	0x3d407b14	0.046992376
169	0x3d06a680	0.03287363
170	0xbd5a2e64	-0.053266898
171	0xbd27dcb4	-0.040981963
172	0xbd3710fc	-0.044693932
173	0x3daeacc4	0.08529046
174	0x3cbf6ba0	0.02336675
175	0xbd2c2f88	-0.042037517
176	0xbd844360	-0.06458163
177	0x3d5a4d70	0.053296506
178	0xbd5dfca4	-0.054196015
179	0xbd985728	-0.07438499
180	0x3de8b30a	0.11362274
181	0xbd9dacaa	-0.07698949
182	0x3dc85a0c	0.097828
183	0xbb8cb6c0	-0.0042942464
184	0x3dcf3f16	0.101194546
185	0xbdcec320	-0.10095811
186	0x3d8d0ca2	0.06887175
187	0x3db25834	0.0870823
188	0x3d2f0838	0.042732447
189	0xbdda4172	-0.10657014
190	0x3deb50f6	0.114900514
191	0xbbfa9bc0	-0.0076479614
192	0x3c7775c0	0.015103757
193	0xbda85f34	-0.082212836
194	0x3ccd4748	0.025058404
195	0x3d3e7b8c	0.046504542
196	0xbdf886ee	-0.12135111
197	0x3dbc0c8e	0.09182082
198	0xbde6c9b0	-0.112689376
199	0xbca3f018	-0.020011947
200	0xbd8b875e	-0.068129286
201	0x3d47478c	0.048652217
202	0x3df9c1ca	0.121951655
203	0xbd4e7510	-0.05040461
204	0x3d95350e	0.0728551
205	0x3d8a9122	0.06765963
206	0x3df0e708	0.11762816
207	0x3c101330	0.008793637
208	0x3b5ee280	0.0034009516
209	0x3d6cd5c0	0.057821035
210	0x3bdee800	0.006802559
211	0x3dd59280	0.10428333
212	0x3d34cf78	0.04414317
213	0x3d878c72	0.06618585
214	0xbd087eb4	-0.03332396
215	0x3cef7a08	0.029232994
216	0xbdf7608c	-0.12078962
217	0x3dc466b8	0.095899045
218	0x3d452908	0.048134834
219	0xbda29cec	-0.07940087
220	0x3dd28bd0	0.10280573
221	0xbd6f150c	-0.05836968
222	0x3d58ce44	0.052931085
223	0xbd9023c8	-0.07038075
224	0xbddea6b6	-0.10871641
225	0xbdc38964	-0.095476896
226	0x3d385598	0.045003504
227	0xbcbd1c20	-0.0230847
228	0xbcf5ecc8	-0.030020133
229	0xbdaa4344	-0.08313611
230	0x3b05d180	0.0020419061
231	0x3dc60fea	0.09671004
232	0xbd8f3c5c	-0.069939345
233	0x3be0de00	0.006862402
234	0x3d6b0f84	0.057387844
235	0xbdddb4de	-0.10825513
236	0xbdb56b20	-0.08858323
237	0xbcc5f1e0	-0.024163187
238	0xbd924788	-0.0714255
239	0xbd702c00	-0.05863571
240	0x3cc81540	0.024424195
241	0xbc14cd60	-0.009082168
242	0x3dba8c2a	0.091087654
243	0x3d166658	0.036718696
244	0xbd883a2e	-0.06651722
245	0xbde84f68	-0.113432705
246	0xbcfeac68	-0.03108807
247	0xbd277838	-0.040886134
248	0x3dfe2b4e	0.124106035
249	0x395bcc00	0.00020961463
250	0x3dc36fec	0.09542832
251	0x3da86a10	0.08223355
252	0x3d8b65c0	0.06806517
253	0x3c462240	0.012093127
254	0xbb843360	-0.0040344447
255	0xbd47e8b8	-0.048805922

lstm.bias_ih_l0 f4 [256]
0	0xbe0859b9	-0.13315476
1	0xbd8d6f4c	-0.06905994
2	0xbdd2a28a	-0.10284908
3	0x3db10917	0.08644312
4	0x3cbb9d89	0.022902267
5	0x3dd73c8f	0.105095975
6	0xbd0213ff	-0.03175735
7	0x3d9b89fd	0.075946786
8	0xba45dea0	-0.00075481273
9	0x3d876e84	0.06612876
10	0xbd1852b0	-0.037188232
11	0xbd1006d2	-0.035162754
12	0xbddcade4	-0.107753545
13	0xbbf29cbb	-0.0074039376
14	0xbe050eaf	-0.12993883
15	0xbe1b7aad	-0.15183516
16	0xbc99f7e4	-0.018794961
17	0xbdaea786	-0.08528046
18	0x3db1903e	0.0867009
19	0xbd967793	-0.07347026
20	0x3d84f00f	0.064911
21	0xbd989ca9	-0.074517556
22	0x3d0bdb72	0.034144826
23	0x3cc58b74	0.024114348
24	0x3d4042c6	0.04693868
25	0xbdc267af	-0.09492432
26	0x3da1c77a	0.07899375
27	0xbd83e316	-0.064397976
28	0xbdcb6b72	-0.09932603
29	0xbce672ba	-0.028130878
30	0xbc6b288f	-0.014352932
31	0xbdfc67a6	-0.12324457
32	0x3db49a67	0.088185124
33	0xbdb5c070	-0.08874595
34	0xbc0a6307	-0.0084464615
35	0x3d2c58fa	0.042077042
36	0x3b29b7ce	0.002589691
37	0x3bd87921	0.0066062366
38	0x3d584dd8	0.052808613
39	0x3dae6a48	0.08516365
40	0x3d983335	0.07431642
41	0xbd2fe9eb	-0.04294769
42	0xbd7ac12e	-0.061219387
43	0xbc6e9ef5	-0.0145642655
44	0xbd69ad03	-0.057049762
45	0xbce28d45	-0.027655253
46	0x3d8690b3	0.06570568
47	0x3e0faad9	0.14030017
48	0xbd881763	-0.06645086
49	0xbd7ac474	-0.06122251
50	0x3b8c2e2c	0.004277965
51	0xbd7f6ed2	-0.062361546
52	0xbe1ac78e	-0.15115187
53	0xba6cd8ba	-0.00090349803
54	0x3dab867b	0.083752595
55	0xbd89ef71	-0.06735123
56	0x3d02ba05	0.031915683
57	0x3d705ec5	0.05868413
58	0x3d7f32f2	0.062304445
59	0xbd87f73b	-0.06638952
60	0xbb9a5f46	-0.0047110645
61	0xbc1890ec	-0.009311896
62	0xbdc75093	-0.09732165
63	0xbe0b9fbf	-0.13635157
64	0xbcc4d418	-0.024026915
65	0xbd962978	-0.07332128
66	0xbdcd8cfa	-0.10036655
67	0x3d52e0c8	0.0514839
68	0xbdd3eb92	-0.10347666
69	0x3c8b8ed8	0.017035887
70	0xbde15be4	-0.11003855
71	0x3ccb8fd0	0.024848849
72	0x3d520020	0.05126965
73	0x3dda03ec	0.10645279
74	0xbd8585d0	-0.06519663
75	0xbd9656ae	-0.073407516
76	0x3d88d4d0	0.06681216
77	0xbcd1bc80	-0.02560258
78	0xbc510520	-0.01275757
79	0x3da6ad42	0.08138515
80	0xbd938c0e	-0.07204448
81	0xbcf5fa40	-0.030026555
82	0xbdd7c360	-0.10535312
83	0xbc08d800	-0.00835228
84	0xbd392e84	-0.045210376
85	0x3d8af7fa	0.06785579
86	0xbc540b00	-0.012942076
87	0x3d12d370	0.035846174
88	0x3dd5c6e2	0.104383245
89	0xbd4482d4	-0.04797633
90	0xbd1ec7fc	-0.03876494
91	0xbc0f0640	-0.008729517
92	0xbd0aabdc	-0.033855304
93	0x3d86f842	0.0659032
94	0xbd049450	-0.032368004
95	0x3d53bce0	0.051693797
96	0xbda4370c	-0.08018312
97	0x3d744284	0.059633747
98	0x3d363f44	0.04449393
99	0x3dec61ae	0.115420684
100	0x3cf4e150	0.029892594
101	0x3d8b95e0	0.06815696
102	0xbd4c2e84	-0.04984905
103	0xbca99b88	-0.020704046
104	0xbcb1db40	-0.021710992
105	0x3dac7404	0.08420566
106	0x3dc68698	0.096936405
107	0xbbdfec80	-0.006833613
108	0x3d829d80	0.06377697
109	0x3bab3980	0.0052253604
110	0xbdf5d074	-0.1200265
111	0xbd48ccfc	-0.049023613
112	0xbdb403a0	-0.08789754
113	0xbdd711c2	-0.10501434
114	0x3d8f547c	0.06998536
115	0x3d6067e4	0.054786578
116	0xbde2d464	-0.110756665
117	0xbda7b5a8	-0.08188945
118	0x3dfb0476	0.1225671
119	0xbc5e1b70	-0.013556346
120	0xbbbc5660	-0.0057476014
121	0x3deb1b4e	0.11479817
122	0xbdb0d24c	-0.08633861
123	0x3c873280	0.016503572
124	0xbd0e8f24	-0.03480448
125	0xbda54fbc	-0.08071849
126	0x3d0bf5fc	0.034170136
127	0xbdb50f72	-0.088408366
128	0xbcd50916	-0.02600531
129	0x3c624cf3	0.013812291
130	0xbcb3080a	-0.02185442
131	0x3dcdf65c	0.10056755
132	0xbd89e246	-0.06732611
133	0xbe0d7b10	-0.13816476
134	0x3d8eb86d	0.0696877
135	0x3c2ebc12	0.010664957
136	0x3e014a6b	0.12626044
137	0x3d7df351	0.061999623
138	0xbdb7788c	-0.08958539
139	0xbd2d51d6	-0.042314373
140	0x3ddaf5a6	0.10691385
141	0x3dc27d71	0.09496582
142	0x3d153fa4	0.036437646
143	0xbd487bb2	-0.04894609
144	0x3b9b93a2	0.004747824
145	0xbdad94ad	-0.08475623
146	0xbcc06906	-0.02348758
147	0xbd281fcb	-0.041045945
148	0xb916ac90	-0.000143694
149	0xbd17733a	-0.036975123
150	0xbd7f99b6	-0.06240245
151	0xbe007ffe	-0.12548825
152	0x3d9b9ff5	0.07598869
153	0xbb1570c4	-0.002280281
154	0x3e169fea	0.1470944
155	0xbdc5d188	-0.096591055
156	0xbd88f7ac	-0.06687865
157	0x3d48f10c	0.049058005
158	0x3c123173	0.008922922
159	0xbe000434	-0.12501603
160	0xbc6588e4	-0.014009688
161	0xbdf397ca	-0.11894186
162	0x3d319747	0.04335716
163	0x3dcedafc	0.10100362
164	0x3d851b3c	0.06499335
165	0xbd935723	-0.071943544
166	0x3ddc1e0c	0.107479185
167	0x3d0b0f70	0.03395027
168	0x3dab057a	0.08350654
169	0x3cd3779a	0.025813866
170	0x3da72ad4	0.08162466
171	0x3ded0824	0.11573818
172	0xbdf8914a	-0.12137087
173	0xbd91e708	-0.07124144
174	0x3d9f525c	0.07779381
175	0xbe04075f	-0.12893437
176	0x3e068268	0.13135684
177	0xbdcf2960	-0.101153135
178	0xbdd618b8	-0.104539335
179	0xbda472ac	-0.080296844
180	0x3d441299	0.0478693
181	0x3db95da9	0.090510674
182	0xbc24aabe	-0.010050474
183	0x3ce05aea	0.027387101
184	0x3d81d9e2	0.06340386
185	0xbdc625d1	-0.09675182
186	0x3cdabfd9	0.026702808
187	0x3d34cb41	0.04413915
188	0xbd9ffe35	-0.07812158
189	0x3dd3068e	0.103039846
190	0x3dedc93a	0.116106465
191	0x3d92bd23	0.07164981
192	0x3cb358cc	0.021892928
193	0xbd0473c1	-0.032336954
194	0x3d9960b3	0.07489147
195	0xbb470ff5	-0.0030374501
196	0x3d201b24	0.039088383
197	0x3d47eb9d	0.048808683
198	0x3c65b40f	0.01401998
199	0x3cbc76b6	0.023005825
200	0xbd68c822	-0.056831487
201	0xbd8ba5a2	-0.06818701
202	0x3da77950	0.081774354
203	0xbdf84ad0	-0.12123644
204	0x3b63ef8a	0.0034780228
205	0x3d1ab831	0.037773315
206	0xbddd9af5	-0.10820571
207	0xbd97170a	-0.07377441
208	0x3d206d83	0.03916694
209	0x3dda4b59	0.10658903
210	0xbdc79453	-0.097450875
211	0x3d7fb8ba	0.06243203
212	0xbdd9059c	-0.10596773
213	0xbd9dd005	-0.07705692
214	0x3c907372	0.017633174
215	0x3affe5fd	0.0019523498
216	0x3cc1bd7e	0.023649927
217	0x3d12a4ec	0.035801813
218	0xbd0cc9b2	-0.03437204
219	0x3e075df6	0.13219437
220	0x3d1dc5e4	0.0385188
221	0xbd92e079	-0.07171721
222	0xbdabe1ac	-0.08392653
223	0x3cf205d4	0.029543795
224	0xbdc0b37b	-0.09409233
225	0xbdb24796	-0.0870506
226	0xbde1b98b	-0.11021718
227	0xbdb8c401	-0.0902176
228	0xbdd51e9b	-0.10406228
229	0xbdf55a22	-0.11980082
230	0x3d845782	0.06462003
231	0xba1df5d1	-0.0006025704
232	0xbcf092b8	-0.029366836
233	0x3dc1fa34	0.094715506
234	0x3cdfebeb	0.027334174
235	0xbd763d5f	-0.06011712
236	0x3a97ac8f	0.0011571812
237	0xbd942d54	-0.07235208
238	0xbc902de8	-0.017600015
239	0xbdb61357	-0.088904075
240	0x3d8b578a	0.06803806
241	0x3dedee51	0.11617721
242	0x3dc7bda4	0.09752968
243	0xbd138b68	-0.03602162
244	0x3c7d6621	0.015466244
245	0x391d1e6e	0.00014984023
246	0x3e0088cd	0.12552185
247	0xbdbfee4a	-0.09371622
248	0x3da426b4	0.080151945
249	0xbdb78383	-0.08960631
250	0xbdbddbda	-0.09270449
251	0x3c9435a2	0.01809198
252	0xbe0a2c27	-0.13493405
253	0xbd930d76	-0.07180302
254	0x3d9fed1e	0.078088984
255	0xbd4f47d9	-0.05060563

lstm.bias_hh_l0 f4 [256]
0	0xbdbd6fad	-0.09249816
1	0xbd4d9982	-0.050195225
2	0xbe2bef30	-0.16790462
3	0xbda59221	-0.080845125
4	0xbc38177a	-0.011236066
5	0xbd70e866	-0.058815382
6	0xbdda76e4	-0.10667208
7	0x3bcec004	0.006309511
8	0x3da5568d	0.08073149
9	0x3dc4cc3e	0.096092686
10	0xbdf4a23b	-0.119450055
11	0xbd008a10	-0.031381667
12	0x3dcc4732	0.09974517
13	0x3d9b19b0	0.07573259
14	0x3dcc4981	0.09974957
15	0xbd9790c3	-0.07400658
16	0x3d45e834	0.04831715
17	0x3d74220f	0.059602793
18	0xbda10312	-0.07861914
19	0x3d27feeb	0.041014593
20	0x3cf56cb2	0.029959057
21	0x3c27e8f5	0.010248412
22	0x3c3d400f	0.011550917
23	0x3dd6a75b	0.10481139
24	0xbdf2dc22	-0.11858393
25	0x3cf43b08	0.029813305
26	0x3cbf4416	0.023347896
27	0x3d0b6062	0.034027465
28	0xbdda8a32	-0.1067089
29	0x3d93e045	0.072205104
30	0xbd22b865	-0.039726634
31	0xbc29a795	-0.010354896
32	0xbd420a00	-0.047372818
33	0x3e0d5210	0.13800836
34	0x3cbbe74a	0.022937436
35	0xbe114b3c	-0.14188856
36	0x3d9c1162	0.07620503
37	0xbe16748d	-0.14692898
38	0x3d7351ee	0.059404306
39	0x3db67982	0.089098945
40	0xbe0a935d	-0.13532777
41	0x3c9a040f	0.018800763
42	0x3c9bfc0b	0.019041082
43	0xbd85090b	-0.064958654
44	0x3e02b9f6	0.12766251
45	0xbd842ac8	-0.064534724
46	0x3d96cd41	0.07363368
47	0x3defeeb4	0.11715451
48	0xbd375868	-0.044762045
49	0x3da24755	0.07923762
50	0x3dbe4833	0.09291115
51	0xbd19f919	-0.037591074
52	0xbdabf9f5	-0.08397285
53	0xbe1d3744	-0.15353113
54	0xbd7577cd	-0.059928704
55	0x3c826874	0.015918948
56	0xbe15c30e	-0.14625189
57	0x3d58cf4d	0.052932072
58	0x3d84e2e0	0.064885855
59	0xbddb278e	-0.10700904
60	0xbde1407f	-0.1099863
61	0x3d6a239e	0.057162873
62	0xbd3091cf	-0.043107804
63	0xbe20c1b3	-0.1569889
64	0x3d8d6184	0.06903365
65	0x3d67a778	0.056556195
66	0x3dc162f0	0.09442699
67	0x3dd033ce	0.10166131
68	0xbd9d7044	-0.076874286
69	0x3d8b692c	0.06807169
70	0x3d2df684	0.042471424
71	0xbd6aebf4	-0.05735393
72	0xbde0383c	-0.10948226
73	0x3ce7d4a0	0.02829963
74	0xbd15ef28	-0.03660503
75	0x3d080d54	0.033215836
76	0xbdaed64a	-0.08536966
77	0xbddcfd8e	-0.10790549
78	0xbd87dabc	-0.06633517
79	0xbdc8e14e	-0.098085985
80	0xbde6f234	-0.11276665
81	0xbd697ea4	-0.05700554
82	0xbd4138f0	-0.04717344
83	0xbd80783c	-0.06272933
84	0x3db82ff6	0.08993523
85	0xbca37310	-0.019952327
86	0xbd0897c0	-0.033347845
87	0xbcb58188	-0.022156492
88	0x3de8f262	0.11374356
89	0x3da3af34	0.07992402
90	0xbcc45948	-0.023968354
91	0xbde15d5e	-0.110041365
92	0x3d8416d2	0.06449665
93	0xbc3b15d0	-0.011418775
94	0x3d96067e	0.07325457
95	0x3c489dc0	0.012244642
96	0xbdad133e	-0.08450936
97	0x3cb4eb68	0.022084907
98	0x3c2dcd90	0.010608092
99	0xbd085424	-0.033283368
100	0x3cfa3b18	0.030545756
101	0xbcb760b0	-0.022384971
102	0x3c0a0c20	0.008425742
103	0xbd6f8618	-0.05847749
104	0x3d4562d8	0.048189968
105	0xbde59e9c	-0.11211893
106	0x3d9305ce	0.071788415
107	0x3dee484c	0.11634883
108	0x3d063988	0.03276971
109	0x3c578060	0.013153166
110	0xbd823a9e	-0.063588366
111	0x3d2eec64	0.04270591
112	0x3c881ef0	0.016616315
113	0xbdb48fa8	-0.08816463
114	0x3d8157fe	0.06315611
115	0x3da5f0a6	0.08102541
116	0x3df8d854	0.12150636
117	0x3d4fff58	0.050780624
118	0x3cf5cfd0	0.03000632
119	0xbddc6a32	-0.10762443
120	0x3d91b3fe	0.07114409
121	0x3d6fe250	0.058565438
122	0x3d58bb5c	0.052913055
123	0xbd6ffd94	-0.05859144
124	0x3cf1fcd0	0.029539496
125	0xbd5b6554	-0.05356343
126	0xbb823d80	-0.0039746165
127	0x3daccada	0.08437128
128	0x3ce3a414	0.0277882
129	0x3daa6853	0.083206795
130	0x3d494b16	0.049143873
131	0x3c48e87c	0.01226246
132	0x3d6890e6	0.05677881
133	0xbdd8030d	-0.10547457
134	0xbda09f15	-0.078428425
135	0xbb1734c3	-0.002307222
136	0x3dc35b14	0.09538856
137	0x3d3cb14e	0.04606753
138	0xbd81564e	-0.063152894
139	0x3db577f4	0.0886077
140	0xbdc3b78e	-0.09556495
141	0x3ddd2155	0.10797373
142	0x3dd604c4	0.10450128
143	0x3d2a1b16	0.041529737
144	0x3d99e73c	0.075148076
145	0xbd9cfbf3	-0.07665243
146	0x3d484e3b	0.04890273
147	0xbaa647f2	-0.0012686236
148	0x3d842255	0.06451861
149	0xbdd52264	-0.1040695
150	0x3d5f11ee	0.05446046
151	0xbcdb2b90	-0.02675417
152	0xbdf59cf1	-0.11992825
153	0xbd9d71d0	-0.07687724
154	0x3dcd0a5e	0.10011743
155	0xbdf2427a	-0.11829086
156	0xbafddc57	-0.0019368035
157	0x3d53dbdd	0.05172335
158	0x3d9d11da	0.076694205
159	0x3dc7be1d	0.09753058
160	0xbe177019	-0.14788856
161	0x3d3bb716	0.0458289
162	0xbd9573af	-0.072974555
163	0xbd0e04f5	-0.034672696
164	0x3ca44776	0.020053606
165	0x3d19deff	0.03756618
166	0x3e0d3281	0.13788797
167	0x3dcbb044	0.099457294
168	0xbe169f4f	-0.14709209
169	0x3d329929	0.043603096
170	0xbdb9bc66	-0.09069137
171	0xbc1d8ba1	-0.00961581
172	0xbdb52ec5	-0.08846811
173	0x3d970a5a	0.07375021
174	0xbd195408	-0.037433654
175	0xbd8fb338	-0.07016605
176	0xbd409fe7	-0.047027495
177	0xbd856e76	-0.065152094
178	0xbdb65362	-0.08902623
179	0xbd404c01	-0.046947483
180	0xbcfb7d60	-0.030699432
181	0xbd22e10f	-0.039765414
182	0x3df973c8	0.12180287
183	0x3db6edbb	0.08932062
184	0xbd2d1be6	-0.042262934
185	0xbe097b8d	-0.13426037
186	0xbcdbcdb8	-0.026831493
187	0x3c43828c	0.01193298
188	0xbd71f114	-0.0590678
189	0xbd86583b	-0.065597974
190	0x3d9474cf	0.07248842
191	0xbda0926b	-0.07840427
192	0x3cbcfbb2	0.023069236
193	0xbe15567a	-0.1458377
194	0xbb73fc55	-0.003722926
195	0xbd9ef391	-0.077613
196	0xbd635dac	-0.055509254
197	0xbcfe89ec	-0.031071626
198	0xbe27f051	-0.16400267
199	0xbdc96d06	-0.09835248
200	0x3de292f5	0.11063186
201	0x3d8c37e5	0.068465985
202	0xbe146ba6	-0.1449419
203	0xbde141e4	-0.10998896
204	0xbddedd88	-0.108820975
205	0xbc63b6a9	-0.01389853
206	0xbd9ecd9f	-0.07754063
207	0xbd327081	-0.043564323
208	0xbdb25a25	-0.087086
209	0xbda0980f	-0.07841503
210	0xbd88004e	-0.06640683
211	0xbd8779b9	-0.06615014
212	0xbdac5fa6	-0.08416681
213	0xbd45439b	-0.048160177
214	0x3c028b52	0.007967787
215	0x3cad5bbe	0.02116191
216	0xbd953428	-0.07285339
217	0xbc95dbfe	-0.018293377
218	0xbd8d5c7f	-0.06902408
219	0x3db9d488	0.0907374
220	0x3ca18ba4	0.019719906
221	0x3d792a95	0.060831625
222	0xbca38c01	-0.01996422
223	0x3d230ef7	0.039809193
224	0xbd9eb941	-0.07750178
225	0x3da0d4fa	0.07853122
226	0x3d092ff9	0.033493016
227	0xbde6a75b	-0.11262389
228	0x3c7bff0d	0.015380633
229	0x3da4ec06	0.080528304
230	0xbdc8f1bb	-0.098117314
231	0xbdc2cae9	-0.09511358
232	0x3dc8592d	0.09782634
233	0x3d04900a	0.03236393
234	0xbdfcbe79	-0.12341017
235	0xbdc438a1	-0.095811136
236	0x3c883a17	0.016629262
237	0xbdb2c01f	-0.087280504
238	0xbe0bc1e5	-0.13648184
239	0x3cb0af05	0.02156783
240	0xbafdcbe4	-0.0019363132
241	0x3d04601f	0.03231823
242	0x3d8bffe0	0.06835914
243	0x3bd8e9a1	0.0066196476
244	0xbdb5bd04	-0.088739425
245	0xbe1438f0	-0.14474845
246	0x3d2da6dc	0.042395458
247	0xbc44878d	-0.011995208
248	0xbdb3b43a	-0.0877461
249	0x3ddb05d5	0.10694472
250	0xbc895b0a	-0.016767044
251	0xbe2279c7	-0.15866767
252	0xbda170ee	-0.07882868
253	0xbd1e7d74	-0.03869386
254	0xbcac3860	-0.021022975
255	0x3db0b27f	0.086277954

fc.weight f4 [1, 64]
0	0xbd0709cd	-0.03296833
1	0xbcb63cc7	-0.022245778
2	0xbd46cd19	-0.04853544
3	0x3d3a1f07	0.045439746
4	0xbda374f5	-0.07981292
5	0xbd89f388	-0.06735903
6	0x3cada3c1	0.021196248
7	0xbcc0d637	-0.023539646
8	0x3d9e0561	0.0771587
9	0x3c36f9d4	0.011167962
10	0x3d6cb6ba	0.05779145
11	0xb9a0cd29	-0.00030670434
12	0x3c83054a	0.015993733
13	0x3df7e03d	0.12103317
14	0x3c27d6aa	0.010244051
15	0xbd4785ea	-0.048711695
16	0x3d7f47fa	0.0623245
17	0xbdaaedbf	-0.08346128
18	0xbc962661	-0.018328847
19	0xbb3dcaad	-0.0028959916
20	0x3daaa9a7	0.0833314
21	0xbd76cc58	-0.06025347
22	0xb9aaf4dd	-0.00032607364
23	0xbde31374	-0.11087695
24	0xbc975286	-0.018471967
25	0x3d72cd66	0.059277914
26	0x3d88506b	0.066559635
27	0xbd4c8b76	-0.049937688
28	0x3c1a5f51	0.009422139
29	0x3d63f67c	0.055654988
30	0x3cdac6af	0.026706068
31	0xbdb0a904	-0.08625987
32	0xbdbef6b7	-0.09324401
33	0xbd66f747	-0.056388166
34	0xbdb379db	-0.087634765
35	0xbcbf7fbc	-0.023376338
36	0x3d46b2e4	0.048510447
37	0xbd7fa805	-0.062416095
38	0x3e0873ca	0.1332542
39	0x3de09d62	0.109675184
40	0xbd649607	-0.05580714
41	0x3c4096a6	0.011754667
42	0x3c2f5d1e	0.010703353
43	0x3d160959	0.03663001
44	0xbdd79bb2	-0.105277434
45	0xbd31a568	-0.043370634
46	0xbcdb958d	-0.02680471
47	0xbd30e585	-0.043187637
48	0x3d61e5f9	0.05515096
49	0xbcc5fcbf	-0.02416837
50	0xbdc5ef13	-0.096647404
51	0x3d5f4b07	0.05451491
52	0xbcd8c008	-0.026458755
53	0x3bc0944d	0.005877054
54	0x3df4303d	0.11923263
55	0x3d70cac5	0.058787126
56	0xbcd3af28	-0.025840357
57	0xbdbc3815	-0.09190384
58	0xba86ca70	-0.001028372
59	0xbcef3e65	-0.029204557
60	0x3d88ba01	0.066761024
61	0x3b4ac589	0.0030940494
62	0x3dc92371	0.09821213
63	0xbd7a49db	-0.06110559
