best_models/best_model_lstm_search_10_features_20.pt (torch, 91316 bytes, 5 tensors)

lstm.weight_ih_l0 f4 [256, 20]
-0.044734996 -0.11764152 0.020155704 0.02658204 -0.023048177 -0.053240668 -0.12690485 -0.04614735
0.06864878 -0.09599023 0.076584026 0.07598893 -0.061972547 0.024019575 -0.08288243 -0.12142532
-0.11171108 -0.061482396 0.05469367 0.033256877 0.02468673 -0.09294261 0.07021188 -0.14389893
-0.08984883 -0.062613785 -0.048143897 -0.0115307635 -0.15106153 0.03337351 -0.1545948 -0.15281439
0.006799391 -0.039763223 -0.028593794 0.005983776 0.0067614955 -0.12943625 -0.053317092 -0.13591544
-0.15298247 -0.1507284 -0.0020906092 -0.105745725 0.091246866 -0.011953212 -0.083368205 -0.010855021
-0.01982066 0.06960741 -0.10225484 0.022119438 -0.0032285955 0.018724862 -0.04101355 -0.021050848
0.005338046 -0.11492704 0.03496516 -0.08223377 0.050536726 -0.0877765 -0.039343417 -0.065334864
0.02028252 0.0066007017 0.06665788 -0.19646156 -0.120683424 0.11179263 -0.12738106 0.00049735804
0.07778327 -0.059492033 0.12025512 -0.04327004 -0.15972862 0.007382375 0.079438366 0.05157098
-0.025448272 -0.14663309 -0.108723156 -0.108459 0.025222784 0.05252555 -0.038232908 -0.17169169
0.017066779 0.07934514 -0.026945962 -0.17490083 -0.093759164 -0.025390731 -0.046421606 -0.15556374
-0.034472834 -0.022460649 -0.17966376 0.06348237 -0.18236378 -0.06858589 -0.0189683 -0.082121
-0.10344749 0.06084461 -0.0189723 -0.1610219 -0.090714976 -0.07384683 -0.06407173 -0.05696867
-0.008040401 -0.096805625 -0.12400585 -0.013303653 -0.07799677 -0.07146526 -0.069990195 -0.028344259
-0.0062351795 0.05324468 -0.108634956 -0.13554828 -0.12580453 -0.10153419 0.01147867 -0.03060365
-0.063485645 0.017585704 -0.07382617 0.05890408 -0.07909202 0.033089593 -0.0017138994 -0.04725271
-0.034565542 -0.08304063 -0.097439386 0.058055587 0.07614594 -0.029250707 0.061319556 -0.021276593
-0.11878872 -0.0644182 -0.085948735 -0.11578052 0.0118603 -0.16210726 0.12147074 -0.12229384
-0.08588459 0.0007919066 -0.1039094 -0.15153421 -0.02211475 0.023588184 0.027425662 -0.076606624
0.08865477 -0.11883141 0.020486422 -0.03513644 0.049112923 0.10928422 -0.08971717 0.008616453
-0.05652304 -0.029255152 -0.07172217 0.034282923 -0.09954638 0.025847461 -0.028988456 -0.04877451
-0.03878062 0.017088575 -0.112807 -0.15459767 -0.062442433 -0.07647089 -0.087387845 0.042040296
0.03004358 0.026098868 0.017714014 -0.05389567 0.021222375 -0.006181956 -0.14433499 -0.15939458
0.051636275 -0.09700638 -0.12171822 -0.030852927 -0.12144848 -0.050511707 -0.1853525 -0.010975466
-0.09232153 -0.075018026 0.07359433 0.10711723 0.08982501 -0.0363391 0.071687065 -0.008179976
-0.13440245 -0.07152621 -0.12607363 0.07899414 -0.07121287 0.007870266 -0.12817909 -0.11099045
-0.057823863 0.0101671545 -0.043838065 -0.09317276 0.029905267 -0.12870488 0.024186658 0.103505746
-0.13286269 -0.13791154 -0.056279603 -0.06104091 -0.083476655 -0.05197015 -0.05188691 0.045490004
0.009619764 -0.176009 -0.04680781 -0.12479697 0.009577908 0.056407504 -0.06335871 -0.19004722
0.02623503 -0.08121255 -0.1837242 -0.05205521 -0.08014291 0.0056797247 -0.0853381 -0.1155266
0.042110033 -0.0504433 -0.14851256 -0.08915247 -0.033068124 0.021642786 -0.09505457 0.039843194
00000000: 0b3c 37bd 0aee f0bd 931d a53c 94c2 d93c
00000010: 88cf bcbc e312 5abd 58f3 01be 0105 3dbd
00000020: bb97 8c3d 8796 c4bd 16d8 9c3d 16a0 9b3d
00000030: edd6 7dbd b3c4 c43c 43be a9bd d7ad f8bd
00000040: c7c8 e4bd f7d4 7bbd 7806 603d 5d38 083d
00000050: d33b ca3c b258 bebd 3fcb 8f3d 3e5a 13be
00000060: aa02 b8bd a83b 80bd 8932 45bd 87eb 3cbc
00000070: e0af 1abe a9b2 083d 194e 1ebe 607b 1cbe
00000080: 6dcd de3b c3de 22bd 883d eabc 8d13 c43b
00000090: 898f dd3b f08a 04be 0663 5abd 6b2d 0bbe
000000a0: 70a7 1cbe 8c58 1abe 9a02 09bb 3791 d8bd
000000b0: a3df ba3d 68d7 43bc f3bc aabd 42d9 31bc
000000c0: f05e a2bc 548e 8e3d fc6a d1bd d333 b53c
000000d0: d896 53bb e264 993c d3fd 27bd d472 acbc
000000e0: c6ea ae3b de5e ebbd a137 0f3d 2e6a a8bd
000000f0: 99ff 4e3d 2ac4 b3bd 9026 21bd 49ce 85bd
00000100: 8727 a63c b34a d83b ed83 883d 382d 49be
00000110: df28 f7bd 89f3 e43d 2e70 02be 2261 023a
00000120: d64c 9f3d ebad 73bd 5148 f63d ed3b 31bd
00000130: e68f 23be dae7 f13b 95b0 a23d 183c 533d
00000140: e578 d0bc fc26 16be 3faa debd c11f debd
00000150: 03a0 ce3c 0825 573d 1c9a 1cbd f2cf 2fbe
00000160: a1cf 8b3c b47f a23d c7bd dcbc 3419 33be
00000170: ce04 c0bd 3900 d0bc 9524 3ebd 1a4c 1fbe
00000180: 6333 0dbd 65ff b7bc c7f9 37be 0b03 823d
00000190: 92bd 3abe c276 8cbd 6963 9bbc 0e2f a8bd
000001a0: 47dc d3bd 3338 793d cc6b 9bbc ede2 24be
000001b0: c6c8 b9bd 023d 97bd 0a38 83bd fb57 69bd
000001c0: e3bb 03bc 0742 c6bd c7f6 fdbd 91f7 59bc
000001d0: c5bc 9fbd 615c 92bd 0557 8fbd 3832 e8bc
000001e0: 7a50 ccbb 1817 5a3d 017c debd 2bcd 0abe
000001f0: e7d2 00be 28f1 cfbd 0811 3c3c 81b4 fabc
00000200: c304 82bd e50f 903c 2d32 97bd 6845 713d
00000210: fffa a1bd f488 073d eca4 e0ba 0f8c 41bd
00000220: 9994 0dbd 3511 aabd 4d8e c7bd b2cb 6d3d
00000230: 67f2 9b3d 2e9f efbc 372a 7b3d 404c aebc
00000240: 8047 f3bd b0ed 83bd e405 b0bd 561e edbd
00000250: b451 423c 72ff 25be a7c5 f83d 3175 fabd
00000260: 43e4 afbd f497 4f3a 74ce d4bd c92b 1bbe
00000270: fe29 b5bc 023c c13c c8ab e03c efe3 9cbd
00000280: a290 b53d e25d f3bd 24d3 a73c 3aeb 0fbd
00000290: a22a 493d 68d0 df3d a3bd b7bd 062c 0d3c
000002a0: b484 67bd 80a8 efbc 13e3 92bd 406c 0c3d
000002b0: f9de cbbd 0ebe d33c 3379 edbc c8c7 47bd
000002c0: 6dd8 1ebd 57fd 8b3c 5b07 e7bd da4e 1ebe
000002d0: a3c3 7fbd c59c 9cbd 66f8 b2bd 7232 2c3d
000002e0: f41d f63c 4bcd d53c fb1c 913c b5c1 5cbd
000002f0: 8cda ad3c 0192 cabb 8dcc 13be 5538 23be
00000300: 8f80 533d 48ab c6bd 6747 f9bd 47bf fcbc
00000310: fbb9 f8bd 5de5 4ebd 0ccd 3dbe 71d2 33bc
00000320: 1213 bdbd 0da3 99bd a0b8 963d 4760 db3d
00000330: 2df6 b73d 4fd8 14bd abd0 923d 4e05 06bc
00000340: cca0 09be 557c 92bd 7219 01be aec7 a13d
00000350: 0ed8 91bd 4af2 003c 6141 03be f64e e3bd
00000360: b7d8 6cbd 2394 263c 8b8f 33bd 5cd1 bebd
00000370: e4fb f43c 36cb 03be 1923 c63c d2fa d33d
00000380: 280d 08be af38 0dbe 7185 66bd 0906 7abd
00000390: cff5 aabd a7de 54bd 5e87 54bd ba53 3a3d
000003a0: 379c 1d3c b43b 34be 8cb9 3fbd 8e95 ffbd
000003b0: a8ec 1c3c 8e0b 673d 36c2 81bd bd9b 42be
000003c0: d8ea d63c c452 a6bd 3222 3cbe d837 55bd
000003d0: f721 a4bd fc1c ba3b bec5 aebd 3699 ecbd
000003e0: 927b 2c3d a29d 4ebd ad13 18be 9295 b6bd
000003f0: 7172 07bd 364c b13c f8ab c2bd 9e32 233d

lstm.weight_hh_l0 f4 [256, 64]
-0.015005529 0.06826174 0.013840541 0.09472841 -0.075925335 -0.111367926 -0.094102934 -0.06592888
-0.04407607 -0.09225422 -0.057608306 0.011087224 0.11184381 -0.012055412 0.07481925 -0.034540296
0.079459 -0.06333384 0.046874613 -0.02459906 0.05804476 -0.048477486 0.05860418 0.010872334
0.040930077 -0.05096425 -0.074711785 0.069242805 -0.03894466 0.11476521 0.1223385 0.05602199
-0.014580369 -0.07880515 -0.11156832 0.09826134 0.017874345 -0.050427765 -0.062576145 0.04277131
-0.11002374 -0.11781843 -0.0633703 0.060658693 0.019130468 -0.02292344 0.025496215 0.1070534
-0.064813584 0.08469841 0.124523014 0.09245862 -0.03147097 -0.072823465 0.085053414 0.07189627
-0.006934583 0.019119814 0.0745897 -0.06959593 -0.0024251342 0.025544003 -0.058928758 -0.07547751
-0.081515804 0.05941157 -0.051420555 0.124395415 0.032027632 0.0885921 -0.12279016 -0.049565658
-0.027967632 -0.053497463 0.11651194 -0.02067174 -0.02409181 0.074220225 0.04199864 -0.120670676
0.093110666 -0.04274808 0.049162805 0.031641662 -0.015336782 -0.11665045 -0.06104003 0.028490797
0.045140043 0.078060836 0.029479876 -0.098939 0.052247137 0.11960612 0.014168158 0.00085376203
-0.022278681 0.016798541 -0.09072076 0.10555142 -0.040158346 0.08675656 -0.10120593 -0.009308562
0.10624568 0.03373833 0.12083097 0.08740774 -0.07138884 -0.07081571 -0.059888184 -0.11716573
-0.010320231 0.004046425 0.033136442 0.08254826 -0.04714237 -0.05667083 -0.0996248 0.029947788
0.062266752 0.05740115 -0.06024617 -0.06602053 0.099194646 -0.11493282 -0.008498982 0.047320664
0.031084657 0.07093935 0.039972976 -0.090803266 0.006762922 0.108621925 0.04706502 -0.08667855
0.078359485 -0.06811568 -0.077941224 -0.08494611 0.10306528 -0.019742027 0.05452472 -0.053591758
0.10694894 -0.023271546 -0.08478235 0.10441148 0.017027244 0.08849397 0.09002091 0.03844984
0.014851242 0.09883523 0.06675324 -0.092288435 0.030706033 0.0011451542 0.1146896 -0.04229614
0.036014512 0.06782448 0.08448285 0.085388765 0.07507263 0.007055491 -0.110259965 0.100612745
-0.043414176 0.026849732 0.08014186 -0.023673087 0.029108241 0.091855705 0.032942712 0.0581899
0.10145563 0.020730779 0.05701089 -0.08534984 0.027095497 0.021295875 -0.08293125 0.06499584
-0.04716614 0.018948555 -0.06777604 0.120342135 -0.064412475 0.08809963 0.024970293 0.08862561
0.02826184 -0.121565565 -0.10466722 0.06453678 -0.052292794 0.020405605 0.076462895 0.09364802
0.0009506941 -0.052411214 0.09642242 0.059283406 -0.10193963 -0.0899522 0.057441562 -0.10450533
0.06988637 0.0624156 -0.09906833 0.02412951 0.029465348 0.11141296 -0.023924023 -0.019279867
-0.029106721 -0.12015572 0.025349066 0.053316206 -0.08904399 -0.03918749 0.12354684 0.058666125
-0.10249974 0.10425891 -0.12414646 -0.06486854 -0.033892304 -0.0968491 0.049426064 -0.11912221
-0.0664338 -0.029613867 -0.051867157 -0.0492633 -0.051773667 -0.041224048 -0.1132202 -0.10916825
0.038389534 -0.10729203 0.096516624 -0.11740036 0.021511257 -0.056587383 -0.09371975 -0.05634451
0.06406316 0.033058047 0.1155459 -0.103091 -0.080188915 -0.087642 0.11877921 -0.04903099
00000000: c0d9 75bc d0cc 8b3d 70c3 623c f800 c23d
00000010: be7e 9bbd de14 e4bd 0ab9 c0bd b805 87bd
00000020: 1c89 34bd c8ef bcbd b0f6 6bbd 30a7 353c
00000030: 5e0e e53d 1084 45bc d63a 993d 207a 0dbd
00000040: 66bb a23d 2cb5 81bd 98ff 3f3d f883 c9bc
00000050: 58c0 6d3d 5490 46bd f00a 703d e021 323c
00000060: 4ca6 273d e4bf 50bd 7e02 99bd 2ccf 8d3d
00000070: 7084 1fbd 060a eb3d 9c8c fa3d 5077 653d
00000080: 80e2 6ebc 9864 a1bd ee7d e4bd 3e3d c93d
00000090: 386d 923c 588d 4ebd ec27 80bd f830 2f3d
000000a0: 2054 e1bd ca4a f1bd 4ac8 81bd 4075 783d
000000b0: 80b7 9c3c f0c9 bbbc 70dd d03c d03e db3d
000000c0: fcbc 84bd 5c76 ad3d ec05 ff3d f25a bd3d
000000d0: b4e7 00bd 7824 95bd 7c30 ae3d 5a3e 933d
000000e0: 803b e3bb 28a1 9c3c 7cc2 983d 5088 8ebd
000000f0: 00ef 1ebb a841 d13c 485f 71bd f493 9abd
00000100: c2f1 a6bd 8c59 733d 5c9e 52bd 06c3 fe3d
00000110: 682f 033d c66f b53d 6879 fbbd 5c05 4bbd
00000120: 601c e5bc 2820 5bbd d09d ee3d c857 a9bc
00000130: 305c c5bc c600 983d c406 2c3d 3022 f7bd
00000140: ceb0 be3d 9c18 2fbd f05e 493d b09a 013d
00000150: 2047 7bbc 6ee6 eebd 1c05 7abd 8865 e93c
00000160: c4e4 383d 5cde 9f3d c87f f13c 88a0 cabd
00000170: 1801 563d 0ef4 f43d 9021 683c 00cf 5f3a
00000180: c881 b6bc 189d 893c cecb b9bd 582b d83d
00000190: 147d 24bd 6cad b13d 0e45 cfbd f082 18bc
000001a0: 5697 d93d 3431 0a3d 3a76 f73d d402 b33d
000001b0: 5034 92bd d407 91bd 504d 75bd 96f4 efbd
000001c0: 3016 29bc e097 843b 14ba 073d 100f a93d
000001d0: 5c18 41bd ac1f 68bd 1608 ccbd 1055 f53c
000001e0: 6c0b 7f3d 781d 6b3d b0c4 76bd c635 87bd
000001f0: 9026 cb3d e661 ebbd 503f 0bbc 50d3 413d
00000200: 40a5 fe3c a648 913d b4ba 233d 10f7 b9bd
00000210: 809b dd3b 2c75 de3d 40c7 403d 8684 b1bd
00000220: f07a a03d 3c80 8bbd a69f 9fbd 3af8 adbd
00000230: e413 d33d 08ba a1bc 5055 5f3d 0883 5bbd
00000240: 0c08 db3d f8a3 bebc 5ea2 adbd b0d5 d53d
00000250: b87c 8b3c 543c b53d e25c b83d 947d 1d3d
00000260: a052 733c 206a ca3d ecb5 883d b801 bdbd
00000270: 388b fb3c 0019 963a 62e2 ea3d b83e 2dbd
00000280: f483 133d 90e7 8a3d 5805 ad3d 4ee0 ae3d
00000290: aebf 993d c031 e73b facf e1bd 0e0e ce3d
000002a0: 10d3 31bd f8f3 db3c 6a21 a43d 10ee c1bc
000002b0: 6874 ee3c d81e bc3d f0ee 063d 8858 6e3d
000002c0: f8c7 cf3d 98d3 a93c 4084 693d e6cb aebd
000002d0: 60f7 dd3c b074 ae3c dcd7 a9bd 8a1c 853d
000002e0: 4831 41bd 003a 9b3c 2ace 8abd f075 f63d
000002f0: b0ea 83bd 946d b43d 808e cc3c 5881 b53d
00000300: 6085 e73c 5ef7 f8bd c45b d6bd dc2b 843d
00000310: f830 56bd a829 a73c 9498 9c3d 88ca bf3d
00000320: 0038 793a 24ad 56bd 1e79 c53d 28d3 723d
00000330: bac5 d0bd dc38 b8bd d847 6b3d e406 d6bd
00000340: 9620 8f3d 80a7 7f3d 56e4 cabd 40ab c53c
00000350: 5061 f13c 7a2c e43d 50fc c3bc d0f0 9dbc
00000360: 3871 eebc 3414 f6bd d8a8 cf3c 1862 5a3d
00000370: b25c b6bd 1083 20bd 2006 fd3d e44b 703d
00000380: 62eb d1bd b285 d53d 8040 febd ccd9 84bd
00000390: a8d2 0abd d258 c6bd fc72 4a3d 58f6 f3bd
000003a0: 720e 88bd c898 f2bc a872 54bd 50c8 49bd
000003b0: a010 54bd 8cda 28bd fedf e7bd 9a93 dfbd
000003c0: 583e 1d3d ecbb dbbd 82aa c53d 9a6f f0bd
000003d0: 6038 b03c 2cc8 67bd 24f0 bfbd 80c9 66bd
000003e0: 8c33 833d e067 073d 54a3 ec3d 6021 d3bd
000003f0: 163a a4bd a67d b3bd 8442 f33d b8d4 48bd

lstm.bias_ih_l0 f4 [256]
-0.112326466 -0.047734976 -0.16817966 0.032621723 -0.19833246 0.0027413305 -0.015462631 -0.025804788
-0.010467364 -0.17933722 0.016359387 -0.10263008 -0.046212953 -0.064875826 0.08386006 0.123104244
0.03040051 -0.0135848215 -0.06902134 0.11383851 -0.115682885 0.09053841 -0.05764887 -0.16830918
-0.1519541 -0.16247681 -0.11869901 -0.18564649 0.02869599 0.09893187 -0.1202754 -0.08404204
-0.046861976 -0.04887605 -0.080468796 -0.13285834 -0.059779145 0.07167951 -0.014910693 -0.12765636
-0.08442706 -0.05593975 -0.12810065 -0.034903068 -0.09423016 0.013878711 -0.109835476 0.022413997
-0.039083805 0.044900812 0.064543374 -0.15996444 -0.023832617 0.019054584 -0.050855547 -0.072056495
-0.09225149 0.044805095 -0.062287554 0.029833406 0.07059598 -0.1681322 -0.004207986 -0.058196463
-0.02351129 -0.053845465 0.0014264733 0.042757988 0.09082097 0.03433664 0.0069577694 0.0062423795
0.014030442 0.102878794 0.05012694 0.09583627 -0.001648277 -0.045661435 0.095795885 0.08638592
-0.07542279 0.050149024 -0.1147805 -0.112564385 0.034272105 -0.0040242076 -0.092147574 -0.07893416
0.056382015 0.10314055 0.08350213 -0.052598163 -0.08336206 -0.050310433 -0.12392472 -0.027917534
-0.03740515 0.12301597 0.018189818 0.043001965 0.06778945 -0.010826886 -0.11114153 -0.057739183
-0.09400433 0.10761993 0.04337728 -0.039193243 0.114155754 0.03774385 0.06966436 0.057068378
0.013388902 -0.060974464 0.0144247115 -0.047969654 0.06668584 -0.058568284 -0.011173397 0.0076874197
-0.118776605 -0.02717726 0.11656697 -0.023575649 0.011654034 -0.09710914 0.105339974 -0.11281791
0.111613646 -0.06064902 -0.055823177 -0.048254095 0.07294636 0.05761884 0.040355086 -0.07449557
0.10631425 0.06591461 -0.11396944 0.09513753 0.015779087 0.00857139 0.10856018 -0.103456505
-0.028550265 -0.053679317 -0.076471604 -0.0038013472 -0.036621258 -0.075230114 -0.04569735 0.047577254
0.12545924 0.04749912 0.022303756 -0.01066817 0.039309014 -0.07345517 -0.030451199 -0.034060724
0.080588676 -0.0011957145 -0.07040724 -0.0076985913 -0.062351383 -0.07077571 0.0389738 0.06709261
0.11147982 0.079075634 -0.111123726 0.043435417 0.04463887 -0.0032639005 -0.044536863 0.016066793
0.03674691 -0.11119839 -0.022297865 0.010036218 -0.055721894 0.13236429 0.04071563 0.042317875
-0.038458053 0.1480967 -0.06516047 0.0735403 -0.145823 -0.06891924 -0.039911777 -0.10117996
-0.061144944 -0.099077016 0.0069521507 -0.027439855 -0.104380794 -0.15207408 0.089483246 0.121780984
-0.13890931 -0.13584754 -0.022695726 -0.20542505 -0.14582272 0.07504541 -0.1166751 -0.047147594
-0.06642033 -0.12008708 0.02849207 -0.02608498 0.0005436525 -0.07851545 -0.1647322 -0.15150666
-0.02001905 -0.13499194 0.029585473 -0.21722531 -0.04397255 0.064091824 -0.12449613 -0.015163181
-0.13939908 0.06543333 -0.06354271 -0.017335523 -0.16315621 -0.115344286 -0.02596588 0.086283274
0.06380564 -0.014144455 0.044012744 -0.119944744 0.044523183 -0.15875027 -0.032380685 0.039255366
-0.0034716218 0.05010019 0.015868168 -0.07893506 -0.11248542 -0.033855304 -0.0399859 0.06270548
0.02977557 -0.052905682 -0.028479468 -0.15253265 -0.054184664 -0.09715663 -0.11184924 -0.19610643
00000000: 6b0b e6bd c085 43bd 4a37 2cbe 5b9e 053d
00000010: aa17 4bbe e5a7 333b fa56 7dbc 9064 d3bc
00000020: 4f7f 2bbc 2da4 37be 1f04 863c b82f d2bd
00000030: cb49 3dbd 9edd 84bd d3be ab3d 141e fc3d
00000040: 7e0a f93c df92 5ebc 0f5b 8dbd 2a24 e93d
00000050: 26eb ecbd 346c b93d 3921 6cbd 3e59 2cbe
00000060: db99 1bbe 5260 26be 7718 f3bd 1d1a 3ebe
00000070: da13 eb3c cb9c ca3d f352 f6bd 3c1e acbd
00000080: 58f2 3fbd 4132 48bd d3cc a4bd 040c 08be
00000090: fada 74bd b5cc 923d fb4b 74bc 59b8 02be
000000a0: 18e8 acbd 1421 65bd d12c 03be 85f6 0ebd
000000b0: befb c0bd 8863 633c 6cf1 e0bd 8f9d b73c
000000c0: 5716 20bd eae9 373d 512f 843d b8cd 23be
000000d0: 9f3c c3bc 5c18 9c3c e84d 50bd 5b92 93bd
000000e0: 59ee bcbd 8c85 373d 3c21 7fbd 3065 f43c
000000f0: a094 903d d92a 2cbe 25e3 89bb 6a5f 6ebd
00000100: c09a c0bc 108d 5cbd 80f8 ba3a 0023 2f3d
00000110: 5800 ba3d 94a4 0c3d 00fe e33b e08c cc3b
00000120: f0df 653c 1eb2 d23d e851 4d3d ce45 c43d
00000130: 000b d8ba 7c07 3bbd a230 c43d 1aeb b03d
00000140: 4477 9abd 1069 4d3d 0a12 ebbd 2888 e6bd
00000150: e860 0c3d 80dd 83bb deb7 bcbd 3ca8 a1bd
00000160: d4f0 663d 5a3b d33d 2a03 ab3d 2c71 57bd
00000170: bab9 aabd 5012 4ebd 3ecc fdbd 50b3 e4bc
00000180: 2436 19bd ccef fb3d d002 953c d422 303d
00000190: 32d5 8a3d 4063 31bc 2c9e e3bd ec7f 6cbd
000001a0: 5885 c0bd d667 dc3d 60ac 313d 1889 20bd
000001b0: 7eca e93d 4c99 1a3d 30ac 8e3d 88c0 693d
000001c0: 205d 5b3c 5cc0 79bd a055 6c3c d47b 44bd
000001d0: 9692 883d 4ce5 6fbd a010 37bc c0e6 fb3b
000001e0: 2641 f3bd d8a2 debc aaba ee3d b821 c1bc
000001f0: 90f0 3e3c 28e1 c6bd 7cbc d73d 140d e7bd
00000200: b295 e43d 1b6b 78bd d8a6 64bd 16a6 45bd
00000210: e764 953d bc01 6c3d 604b 253d 2291 98bd
00000220: 49bb d93d 3dfe 863d cf68 e9bd 77d7 c23d
00000230: 2543 813c 046f 0c3c cd54 de3d 01e1 d3bd
00000240: 3fe2 e9bc d8de 5bbd 259d 9cbd 0620 79bb
00000250: 2c00 16bd 3f12 9abd 252d 3bbd 5ee0 423d
00000260: 6378 003e 708e 423d 5eb6 b63c 8cc9 2ebc
00000270: 7d02 213d aa6f 96bd cb74 f9bc 4283 0bbd
00000280: ad0b a53d 85b9 9cba ac31 90bd 7744 fcbb
00000290: 2a64 7fbd dbf2 90bd fea2 1f3d da67 893d
000002a0: 884f e43d 68f2 a13d d694 e3bd 56e9 313d
000002b0: 3fd7 363d 2ae7 55bb 496c 36bd 829e 833c
000002c0: ee83 163d fbbb e3bd 03aa b6bc f36e 243c
000002d0: a43c 64bd 818a 073e 6fc5 263d 8255 2d3d
000002e0: 3186 1dbd a9a6 173e da72 85bd 4c9c 963d
000002f0: a052 15be 8825 8dbd 887a 23bd 7037 cfbd
00000300: 1f73 7abd e4e8 cabd dece e33b 8cc9 e0bc
00000310: 99c5 d5bd 4fb9 1bbe fe42 b73d 4f68 f93d
00000320: 3e3e 0ebe 9e1b 0bbe 63ec b9bc f25a 52be
00000330: 8d52 15be 68b1 993d 5bf3 eebd d61d 41bd
00000340: 6207 88bd 37f0 f5bd 3468 e93c 2bb0 d5bc
00000350: e783 0e3a b5cc a0bd 8faf 28be 9024 1bbe
00000360: fefe a3bc 543b 0abe 3c5d f23c 5070 5ebe
00000370: 901c 34bd 9342 833d d4f7 febd fe6e 78bc
00000380: a2be 0ebe e901 863d ae22 82bd 3a03 8ebc
00000390: 6c12 27be a039 ecbd 66b6 d4bc 49b5 b03d
000003a0: 88ac 823d 25be 67bc b546 343d 97a5 f5bd
000003b0: f15d 363d 6e8f 22be 9ca1 04bd 3cca 203d
000003c0: 2684 63bb db35 4d3d f6fd 813c b4a8 a1bd
000003d0: c25e e6bd dcab 0abd 41c8 23bd bb6b 803d
000003e0: e5eb f33c a1b3 58bd c64d e9bc 8531 1cbe
000003f0: bdf0 5dbd 0efa c6bd 3711 e5bd 20d0 48be

lstm.bias_hh_l0 f4 [256]
0.100269265 -0.062203545 0.01589578 -0.14676045 -0.09681604 -0.10778724 -0.07814084 0.092044994
-0.0739243 -0.15941907 -0.106344864 -0.028019004 -0.113960944 -0.14118849 -0.033461433 -0.08001134
-0.055935115 -0.21972863 -0.058393504 -0.10287747 -0.07168074 -0.07967039 -0.12046682 0.017574273
-0.16158484 -0.07110664 0.03701104 -0.09930182 -0.07862127 0.032479856 -0.17425852 0.088695794
0.06543199 0.0450744 -0.11724428 -0.08665809 -0.06827463 -0.135964 0.064861454 -0.034873962
-0.023179296 0.038720198 0.080599226 -0.055179384 -0.059609547 -0.19879755 -0.09075263 0.025716245
-0.13398458 -0.06009263 -0.0454206 -0.13201223 -0.07872171 -0.13904235 0.00023983739 -0.11336604
0.112527475 0.076373026 0.07646918 -0.14475942 -0.11618315 -0.13327742 -0.043408927 -0.017615782
-0.0034819841 0.08794242 0.09076819 -0.056319043 -0.07475501 -0.069011986 -0.10010876 -0.06466751
0.021211073 -0.0945164 0.08267695 0.04685372 -0.026007175 0.04265666 0.020131305 -0.045042247
-0.067087784 -0.09893264 0.09516834 -0.07160075 0.033554107 -0.050899982 -0.011353776 -0.08373794
0.09388156 -0.047599852 -0.0072493404 0.06834601 -0.061955288 0.05006875 0.033918038 -0.015896589
-0.085636675 0.065320686 0.039598048 -0.060640514 0.11774796 -0.11354488 -0.07933456 -0.0058289617
0.073748305 -0.114552125 -0.02038373 0.073454455 0.07018849 0.039616287 0.12082194 0.09728849
-0.019857466 -0.021625116 -0.080307946 0.013762906 -0.09748556 0.04256682 0.12378469 0.11591515
-0.05012977 -0.052580968 -0.10440591 0.081831515 0.040764913 0.1191528 0.020907402 -0.11261624
0.11635836 0.02608189 -0.06406285 0.12207587 0.012902566 0.0014464376 0.11684606 -0.11697653
0.07573105 -0.01506867 -0.0782791 0.025940007 -0.03396944 0.07847044 0.085295685 -0.11954706
-0.014340631 -0.07555957 0.118795745 0.145319 -0.072158955 -0.0051507014 0.021007968 0.022705339
-0.091155104 -0.040675685 -0.033898063 0.0025201016 -0.087148026 -0.020703888 0.060063984 -0.007199276
-0.022351824 0.08651647 0.0106136445 -0.119401 0.084782794 0.0103680175 -0.08142411 0.074306235
0.0046942183 -0.08999726 0.028828692 -0.0053973445 -0.09257857 0.023840826 0.035145957 -0.07893182
0.08738182 0.058299907 0.12860148 0.013797381 0.029392786 0.0036195198 -0.042832386 0.06355218
-0.14538245 0.036806922 -0.052002113 -0.039380327 -0.13493058 0.102978274 0.017995348 0.07547121
0.012228511 -0.14213216 -0.07979165 -0.0036749293 -0.20007473 -0.04696457 -0.010994685 0.06598213
0.0045731068 -0.16502249 -0.10377749 -0.16142383 -0.12201142 -0.07915993 -0.037992246 0.107673585
0.09133483 -0.22373599 -0.101789705 0.07613995 -0.038367193 0.07918442 -0.17486154 -0.05003792
-0.16955203 0.024179988 -0.13874379 -0.13621362 -0.09400319 0.06127016 -0.0781038 0.06868841
-0.09743728 0.07917891 -0.13924849 0.018311083 -0.15990886 -0.05517145 -0.056026824 -0.039584544
0.016388549 -0.06132813 0.0021296127 -0.07789996 0.03749871 -0.030642005 -0.1653975 -0.04400587
-0.1167508 0.020582812 -0.061882272 0.0035171642 -0.09408422 -0.055177175 -0.15551333 0.042839024
-0.008919553 -0.03891017 -0.12703003 -0.005538224 0.09620851 -0.0130397 -0.010986628 -0.17342764
00000000: f959 cd3d 25c9 7ebd de37 823c 5f48 16be
00000010: 7d47 c6bd 8ebf dcbd 4e08 a0bd 1682 bc3d
00000020: a065 97bd c13e 23be 56cb d9bd 1c88 e5bc
00000030: 5b64 e9bd b793 10be db0e 09bd fcdc a3bd
00000040: 381c 65bd 8b00 61be 072e 6fbd 6cb1 d2bd
00000050: 5acd 92bd 3b2a a3bd 4fb7 f6bd ecf7 8f3c
00000060: 7f76 25be 5ca0 91bd e398 173d c15e cbbd
00000070: 3004 a1bd 9909 053d d370 32be 24a6 b53d
00000080: 3501 863d ef9f 383d c51d f0bd cc79 b1bd
00000090: 92d3 8bbd 263a 0bbe 15d6 843d 00d8 0ebd
000000a0: 82e2 bdbc 1299 1e3d 3511 a53d c703 62bd
000000b0: 2429 74bd 9691 4bbe 84dc b9bd e0aa d23c
000000c0: 4133 09be b123 76bd f30a 3abd 372e 07be
000000d0: d938 a1bd 1e61 0ebe dc7c 7b39 742c e8bd
000000e0: ce74 e63d 7669 9c3d e09b 9c3d d03b 14be
000000f0: 6ef1 edbd e079 08be 8fcd 31bd f94e 90bc
00000100: 0032 64bb 281b b43d ace4 b93d ccae 66bd
00000110: 2819 99bd 2856 8dbd d205 cdbd 6670 84bd
00000120: d8c2 ad3c d091 c1bd 8852 a93d b0e9 3f3d
00000130: 000d d5bc c0b8 2e3d 68ea a43c 387e 38bd
00000140: 5265 89bd 329d cabd 9ee7 c23d 6aa3 92bd
00000150: 0870 093d 807c 50bd 3005 3abc cc7e abbd
00000160: fa44 c03d 10f8 42bd e08b edbb fef8 8b3d
00000170: d4c4 7dbd e414 4d3d a4ed 0a3d 9039 82bc
00000180: 4862 afbd dac6 853d 9031 223d 3062 78bd
00000190: d825 f13d 388a e8bd 287a a2bd e000 bfbb
000001a0: 5a09 973d 4e9a eabd c8fb a6bc 4a6f 963d
000001b0: fcbe 8f3d b044 223d 7e71 f73d 303f c73d
000001c0: 20ac a2bc 2827 b1bc 7e78 a4bd d07d 613c
000001d0: 82a6 c7bd 8c5a 2e3d d482 fd3d ec64 ed3d
000001e0: e054 4dbd 245f 57bd c4d2 d5bd 4897 a73d
000001f0: 1cf9 263d 6206 f43d 0046 ab3c 58a3 e6bd
00000200: 4b4d ee3d b0a9 d53c 6233 83bd ea02 fa3d
00000210: 4965 533c 6496 bd3a fd4c ef3d 6491 efbd
00000220: e118 9b3d 95e2 76bc cb50 a0bd 2380 d43c
00000230: 8a23 0bbd 1cb5 a03d 81af ae3d 17d5 f4bd
00000240: f7f4 6abc fabe 9abd 2f4b f33d 81ce 143e
00000250: 13c8 93bd 37c7 a8bb e718 ac3c 8c00 ba3c
00000260: 87af babd 8c9b 26bd b2d8 0abd 4a28 253b
00000270: aa7a b2bd 339b a9bc a705 763d e7e7 ebbb
00000280: 2c1b b7bc 8c2f b13d dae4 2d3c 8388 f4bd
00000290: 9aa2 ad3d 9ede 293c afc1 a6bd de2d 983d
000002a0: f5d1 993b 7c50 b8bd 262a ec3c 35dc b0bb
000002b0: d599 bdbd d64d c33c 35f5 0f3d 02a7 a1bd
000002c0: 3df5 b23d e2cb 6e3d 1bb0 033e 690e 623c
000002d0: 24c9 f03c 7735 6d3b 0371 2fbd a527 823d
000002e0: 23df 14be dbc2 163d 2b00 55bd 444d 21bd
000002f0: 3e2b 0abe 46e6 d23d fb6a 933c a690 9a3d
00000300: 185a 483c 188b 11be ce69 a3bd 15d7 70bb
00000310: 64e0 4cbe ec5d 40bd 0d23 34bc a421 873d
00000320: 00da 953b a8fb 28be 4b89 d4bd 4a4c 25be
00000330: 20e1 f9bd 9a1e a2bd c29d 1bbd f883 dc3d
00000340: c10d bb3d 0c1b 65be 1f77 d0bd 43ef 9b3d
00000350: eb26 1dbd 712b a23d e70e 33be 90f4 4cbd
00000360: 0c9f 2dbe 1c15 c63c da12 0ebe 957b 0bbe
00000370: bf84 c0bd 6bf6 7a3d e3f4 9fbd 82ac 8c3d
00000380: 328d c7bd 8d28 a23d 2897 0ebe 2001 963c
00000390: 26bf 23be 75fb 61bd 627c 65bd 6723 22bd
000003a0: 4741 863c 3533 7bbd f990 0b3b 048a 9fbd
000003b0: 3f98 193d f104 fbbc f65d 29be 803f 34bd
000003c0: 0b1b efbd 499d a83c 4478 7dbd 3980 663b
000003d0: 3aaf c0bd 7601 62bd e33e 1fbe f977 2f3d
000003e0: 5123 12bc 4560 1fbd 2914 02be fd79 b5bb
000003f0: f808 c53d 77a4 55bc 4201 34bc 0497 31be

fc.weight f4 [1, 64]
-0.02783269 -0.010401097 -0.008544708 -0.016974637 0.0067191687 0.0073007247 -0.07065723 0.108556636
-0.053622626 0.0032801696 0.069326766 0.0030803196 -0.046443954 -0.08829148 -0.07764571 0.12730534
-0.0011811629 0.0025336933 -0.029048862 -0.09735144 -0.00029176928 0.0029356538 0.0065208534 -0.0036292668
-0.039777514 0.003980269 0.0008253426 -0.0055531287 -0.0065211076 0.104225844 -0.02660836 0.08265701
-0.009799717 -0.06535734 -0.003733949 0.03871626 -0.000755535 0.057220925 0.021908674 -0.051786482
-0.074048065 -0.010820146 0.014634616 0.00085832895 0.001244227 -0.0038525297 -0.033931646 -0.0055450182
0.006036846 0.08242811 -0.020797282 0.005534843 0.044695765 -0.072580844 0.011722759 -0.10429677
0.10643525 -0.09850027 0.08095518 -0.028152863 0.059221633 -0.0032090927 -0.016341742 0.0074720276
00000000: 6201 e4bc 5d69 2abc 1aff 0bbc 650e 8bbc
00000010: 792c dc3b eb3a ef3b bdb4 90bd f152 de3d
00000020: 66a3 5bbd 1df8 563b 31fb 8d3d 30df 493b
00000030: 043c 3ebd 2ad2 b4bd b704 9fbd 555c 023e
00000040: 40d1 9aba 520c 263b e1f7 edbc 3160 c7bd
00000050: 9cf8 98b9 1964 403b e2ac d53b fed8 6dbb
00000060: bfed 22bd eb6c 823b ce5b 583a 05f7 b5bb
00000070: 04af d5bb 5c74 d53d c7f9 d9bc 1448 a93d
00000080: fe8e 20bc 12da 85bd 45b5 74bb f194 1e3d
00000090: 180f 46ba 7d60 6a3d d279 b33c 101e 54bd
000000a0: 83a6 97bd fb46 31bc 07c6 6f3c 7b01 613a
000000b0: 5515 a33a b97a 7cbb e9fb 0abd fcb2 b5bb
000000c0: bcd0 c53b 12d0 a83d 105f aabc a15d b53b
000000d0: e812 373d 44a5 94bd d110 403c 8c99 d5bd
000000e0: b9fa d93d 82ba c9bd d4cb a53d d5a0 e6bc
000000f0: 6292 723d a44f 52bb 1edf 85bc e9d7 f43b
