best_models/best_model_nn_search_8_features_all.pt (torch, 44304 bytes, 7 tensors)

model.0.weight f4 [32, 11]
000000 ee 93 93 be 7a 37 ba 3e 28 4c ab bd b8 33 17 3f
       -0.288238 0.3637045 -0.08364135 0.5906329
000010 81 23 99 3e 22 fc b8 bc d5 d8 c0 be 35 a3 88 bd
       0.299099 -0.022581164 -0.3766543 -0.06671754
000020 69 f8 a9 3d a0 8a cb be 48 98 dc 3c e0 2a 3a 3d
       0.082993336 -0.397542 0.026928082 0.045451045
000030 8b 13 40 3e 79 93 27 3e d9 6c 21 be da 2e 8a be
       0.18757455 0.1636485 -0.15764178 -0.2698887
000040 87 18 b8 be 0a 55 07 3c dd 1f f1 3d dd 54 f8 be
       -0.35956213 0.008260021 0.117736556 -0.48502246
000050 e5 bd 84 be 16 ce 3b be 84 cf 89 3c d4 bc 17 be
       -0.25926128 -0.18340334 0.016822584 -0.14818126
000060 fd 0f 89 bc e3 38 20 3e 43 64 cd 3e 5c 20 2a be
       -0.016731257 0.156467 0.40115556 -0.16613907
000070 1c 29 50 be 25 d7 fd bd 78 33 d5 3d 34 d1 b9 bd
       -0.20328182 -0.12394551 0.104102075 -0.090731055
000080 78 7c 40 3e 26 4b ed be fa ba 3f 3e 5e 24 84 3e
       0.18797481 -0.46346396 0.1872367 0.25808996
000090 4e 2d 40 3f 6c 71 9c 3e 2e 4a 81 bd 4b 21 bd 3d
       0.7506913 0.30555284 -0.06312977 0.09234866
0000a0 62 b7 94 be fb 56 23 3e 2f 15 d5 be fb ab 67 3d
       -0.2904616 0.15951149 -0.41617724 0.056560498
0000b0 14 af 63 bd 54 26 e3 bd be 0f 3c be 38 53 41 bd
       -0.05558689 -0.11091295 -0.1836538 -0.047198504
0000c0 78 c1 46 3e 44 f6 6c be 6c bb 7d 3e a6 39 0f 3e
       0.1940974 -0.23140818 0.24778527 0.13986835
0000d0 6e c8 5a be 7c 7f f8 3d 10 89 d7 3d 71 e8 50 be
       -0.2136552 0.12133691 0.105241895 -0.2040117
0000e0 36 d5 a2 be 72 f4 a1 bd 94 65 57 bf 14 cf 1f bf
       -0.31803292 -0.07907952 -0.8413937 -0.6242535
0000f0 af c0 15 3d dc 5c af be 87 6a 97 3c 74 a8 00 be
       0.03656071 -0.34250534 0.018483413 -0.1256426
000100 dd 44 ad be 18 91 02 bf b4 e2 9b bd 05 f2 21 3e
       -0.338416 -0.51002645 -0.076115996 0.1581498
000110 eb 84 53 3e 10 3e 11 3f 31 51 d1 3e d7 0e d9 bd
       0.20656173 0.56735325 0.40882257 -0.105985336
000120 cc 73 d7 bc 44 5b f4 bd 36 c8 9d 3d cc c6 b1 be
       -0.026300333 -0.1193147 0.07704203 -0.34721982
000130 d1 b1 53 bd 9f 87 25 be 28 39 2f bd 36 f7 8d be
       -0.05168325 -0.16165017 -0.042779118 -0.2772767
000140 d0 14 22 bd 0c a8 1c 3e c9 d6 1b be c8 78 86 3d
       -0.03957063 0.1529848 -0.15218653 0.06566006
000150 de 17 92 be 9f 11 2c be a4 68 f9 3d 20 f1 65 be
       -0.28533834 -0.16803597 0.12178162 -0.22455263
000160 c5 95 ca be 87 1d d1 be 3c 4a a1 be 45 22 f8 be
       -0.3956739 -0.4084284 -0.3150195 -0.48463646
000170 4f 5a 97 be 77 61 23 3c 04 86 c8 3d 47 ac 6c 3d
       -0.29561087 0.009971968 0.097911865 0.057781484
000180 ae e6 58 be 3e af 90 bd 2f 89 18 bf 8f 73 95 bd
       -0.21181747 -0.07064675 -0.59584326 -0.07297432
000190 63 19 0a be 55 de 33 be 47 55 f6 bc b4 9d 92 be
       -0.13486247 -0.17565282 -0.03006996 -0.28635943
0001a0 14 af f5 bc d0 e1 74 3a 8f ed f2 3d 65 a7 23 3d
       -0.02999071 0.000934151 0.11861717 0.03995456
0001b0 ba 38 22 3e 96 ef 94 3d 50 61 3e be a4 a9 27 3e
       0.15841952 0.0727226 -0.1859181 0.16373307
0001c0 e8 2a 0e 3d 6b 85 0a be ab db 86 be e8 c7 45 be
       0.034708887 -0.13527457 -0.26339468 -0.1931454
0001d0 d8 0f 84 3e 1e f7 1c 3e 20 da 0b 3e 90 07 4f 3d
       0.25793338 0.15328643 0.13657427 0.05054432
0001e0 6f b7 10 be 09 9e 94 3d bf c2 90 be c3 72 1c 3d
       -0.14132474 0.07256705 -0.2827358 0.038195383
0001f0 29 9e 65 be 2e 4a 46 bd 83 89 59 be 88 28 51 be
       -0.22423615 -0.048410587 -0.21243863 -0.20425618
000200 87 49 70 be 03 00 19 be 9b 22 88 3d 10 10 de 3d
       -0.23465548 -0.1494141 0.066472255 0.108429074
000210 14 bf 9b bd 82 a6 0f 3d d2 39 27 bd 44 da cc 3e
       -0.07604805 0.035070904 -0.040826626 0.40010273
000220 4d a6 f8 3e ff c8 95 bc 24 17 d2 be ce 26 63 be
       0.48564377 -0.018284319 -0.4103328 -0.22182772
000230 b1 4c 64 bd 0a 3d ab be ce 42 44 3e 08 84 96 be
       -0.0557372 -0.33445007 0.19166109 -0.29397607
000240 7a f1 7e 3e ba 4a 34 3e 5e 60 26 3f 55 f2 d1 3e
       0.24896803 0.17606631 0.64990795 0.41005197
000250 f0 a4 05 bd d3 3d ad 3b 58 84 cf be 57 a9 77 3e
       -0.032628 0.005286911 -0.40530658 0.24185692
000260 50 85 17 be e5 91 3a 3d 8c d9 88 bd 78 36 b9 be
       -0.14796948 0.045549292 -0.06682119 -0.3617437
000270 26 68 36 bd 08 29 16 3f 02 f1 12 3f 32 b2 d8 bc
       -0.044532917 0.5865636 0.57399 -0.026452158
000280 df 39 e5 bd 3e c7 bf bd 62 43 6e 3e c8 21 1c be
       -0.11192679 -0.09364174 0.23267892 -0.15247262
000290 a7 09 8d 3e d4 05 ed bd 60 54 32 be 43 28 85 3e
       0.27546427 -0.11573377 -0.17414999 0.2600728
0002a0 4c c3 04 3e b9 52 dd 3e ec b4 0a bd 42 0a b8 be
       0.12965125 0.43227175 -0.033863947 -0.35945326
0002b0 0e 0b 7d be 94 24 a9 bc b3 99 36 be ec ef fb 3e
       -0.24711248 -0.020647325 -0.17832069 0.49206483
0002c0 f8 9e ab bd 80 07 1f 3d b1 e2 8b be 5c b9 31 3e
       -0.0837993 0.038825512 -0.2732139 0.17355865
0002d0 b4 b9 c5 bd 7f 16 83 be 86 41 4c be 28 35 00 bd
       -0.09654561 -0.256031 -0.1994687 -0.031300694
0002e0 3c 97 9b 3d 69 a4 6f be 24 5d 35 be b7 ae 24 be
       0.07597205 -0.23402561 -0.17711312 -0.16082273
0002f0 ea e4 95 3d df 96 dc bd 14 19 26 3f ad 1c 12 3f
       0.073190525 -0.10770964 0.64882016 0.57075006
000300 1f f1 da bd 65 80 48 bd c5 4a 80 3d d8 e8 7b 3c
       -0.106905214 -0.04895057 0.06264261 0.0153753385
000310 9d e0 8f 3e 36 66 fb 3e 75 af 47 3d ed b3 76 be
       0.28101054 0.49101418 0.048751313 -0.24092074
000320 36 45 8b be 33 cd 08 3f 50 32 8d 3e 59 23 b0 bd
       -0.2720124 0.5343811 0.27577448 -0.08600492
000330 ae 3b 60 be ed 5f a1 3d f7 64 d0 3d 8e 70 74 be
       -0.21897766 0.078796245 0.101755075 -0.23871061
000340 b0 7e 4c be b9 41 3c be 5f 19 f9 3b 09 38 34 3e
       -0.19970202 -0.18384446 0.0076019014 0.175995
000350 c3 4b 34 3f 24 5c a5 3d 70 11 fb bc e8 ea a0 be
       0.70428103 0.08074215 -0.030647963 -0.3142922
000360 d8 25 c5 bd 6f 97 ac 3d e3 bb 1b be aa 34 93 3d
       -0.09626359 0.08427321 -0.15208392 0.07187779
000370 83 ca c4 3d 8f d7 4d be 29 7f 36 bd d6 35 9d be
       0.096089385 -0.2010176 -0.044554863 -0.30705136
000380 8b 86 54 bd cd f4 7f be 85 37 e9 bd 73 3d 5b be
       -0.051886123 -0.24995728 -0.11387543 -0.2141016
000390 11 e2 64 be 61 78 86 be 2d a4 ae be 1e e9 07 bd
       -0.22351862 -0.26263717 -0.3410963 -0.033181302
0003a0 6b 74 36 bd b9 47 60 be 39 50 03 3e 94 c1 79 3e
       -0.04454462 -0.2190236 0.12823571 0.2439025
0003b0 d0 d8 32 bd f8 cc aa bc b1 bf d3 3c e0 6e 14 3b
       -0.0436638 -0.02084969 0.025848242 0.0022649094
0003c0 f5 75 36 be 43 16 4e 3e b0 fe 34 bd f6 98 72 be
       -0.17818435 0.2012568 -0.0441882 -0.23691162
0003d0 70 88 3c 3d 87 fc 7e be 72 62 45 be fc 72 5b bd
       0.046028554 -0.24901019 -0.19275835 -0.053576455
0003e0 c2 1b 80 3e 80 4a 23 3d 6e d8 87 bd 92 7e 39 3e
       0.25021178 0.03986597 -0.066330776 0.18114689
0003f0 cf 3e 6e be b9 4e 81 be 13 59 54 be 8b 41 1a be
       -0.23266147 -0.25255373 -0.20737104 -0.15064065

model.0.bias f4 [32]
000000 82 65 84 3f 78 7f 80 bc c9 f3 6c 3f e2 79 c1 3f
       1.0343478 -0.015685782 0.92559487 1.5115321
000010 82 46 03 3e f6 67 42 bf e2 ed 9b 3f 28 9d f2 3d
       0.12819865 -0.7593988 1.2181971 0.118463814
000020 6e 79 8a be 0b b9 8c be 18 89 8f bd 6e a5 3d be
       -0.27045768 -0.27484927 -0.070085704 -0.18520138
000030 75 ae e4 3f 2f 29 ea 3f b6 be b9 3f 4b 16 51 3f
       1.786574 1.8293818 1.4511325 0.8167464
000040 0c 34 78 be e1 ba ac 3f b7 27 89 3f f9 db ad 3f
       -0.24238604 1.3494531 1.0715245 1.3582755
000050 a5 e4 24 3e f9 a8 6e 3e d0 df 2f 3d d6 d3 87 bf
       0.16102846 0.23306645 0.042938054 -1.0611522
000060 90 e4 89 be e2 e7 68 be 0b 13 ab 3f e6 b5 4f bf
       -0.26932192 -0.22744706 1.3365186 -0.8113693
000070 9a 23 90 3f 40 b1 f3 3f 30 15 82 bf 4b e9 ee 3f
       1.1260865 1.9038467 -1.0162716 1.8664945

model.3.weight f4 [32, 32]
000000 37 bb a8 3d 6b eb 47 be a2 89 2b 3c af ac 1b be
       0.082388334 -0.19523399 0.010469826 -0.15202592
000010 a4 be 1a 3d 5b 1f ad bb 28 dd 51 bd 48 a6 21 be
       0.037779465 -0.005283279 -0.0512363 -0.15786088
000020 c1 39 07 be 32 c1 da 3d c6 65 fb bd 33 36 ca bd
       -0.13205625 0.1068138 -0.12275271 -0.09873619
000030 49 a8 88 38 54 ab c4 3d 28 87 33 bd fc 6d 9f bd
       6.516331e-05 0.09602991 -0.043830067 -0.0778465
000040 c4 39 17 be d4 f6 c7 3c de fb c9 bd 38 cd a5 bd
       -0.1476813 0.024409689 -0.09862493 -0.08095783
000050 95 81 8e 3d ec 9c 32 bd 6c 42 20 be 69 ac 1b be
       0.069583096 -0.043606684 -0.15650338 -0.15202488
000060 6a aa a1 3d 48 5c 1c bd b3 c6 24 be 1b 53 fa bd
       0.07893832 -0.038173944 -0.16091423 -0.12222882
000070 e9 bf 1d 3d a2 d3 dd 3c b7 bb a4 bd 50 31 01 3e
       0.038513098 0.027078453 -0.08043616 0.12616467
000080 ed 7d 33 3e 22 b0 0b 3f 01 7d 82 3d f9 51 73 be
       0.17528506 0.5456563 0.06371499 -0.23761739
000090 ea 64 98 bd 99 56 eb bc a3 8b a0 3d 4c b5 0e 3d
       -0.07441123 -0.028727816 0.078391336 0.034840867
0000a0 b5 c3 c5 bd 99 6c aa bd 84 d1 76 3d 26 d3 b8 3d
       -0.09656469 -0.083214946 0.060258403 0.09024648
0000b0 71 43 eb bd 92 25 83 3d f8 a4 26 be a9 4a de bb
       -0.11487473 0.0640365 -0.16273868 -0.0067838025
0000c0 92 81 24 be e9 e0 60 3c f4 fb 14 be f0 a1 5a be
       -0.16065052 0.013725498 -0.14549237 -0.21350837
0000d0 74 f6 2c 3d 78 81 31 bd ec bd 5f bd 3a 05 3d be
       0.042227224 -0.04333636 -0.054624483 -0.18459025
0000e0 10 b2 28 bd 22 10 02 be ef 25 d8 bc f9 7b 80 3c
       -0.04118544 -0.12701467 -0.026385276 0.015684115
0000f0 ed 56 2d be d5 f9 8f 3c 8a 42 1f be d0 1a b3 3d
       -0.16927691 0.017575184 -0.15552726 0.087453485
000100 c3 9c 4d be 48 24 36 be b3 e7 01 3e c5 26 19 3e
       -0.20079331 -0.17787278 0.12686042 0.14956196
000110 2f 3a 08 3e 49 0d 07 3c aa bb 71 be 80 89 3d bc
       0.13303445 0.0082429135 -0.23606744 -0.011568427
000120 2c 4c 67 bc 19 b8 ef bc 15 7b d4 bd f6 98 ee bd
       -0.014117282 -0.02926259 -0.103750385 -0.11650269
000130 c4 63 07 3d 1e 47 61 bd 64 9f 0b bd 48 bd 93 3c
       0.03305413 -0.054999463 -0.034087554 0.018034592
000140 c8 76 4d bd 79 2e fc bc b3 d4 c6 3d f8 ba 10 bb
       -0.050162107 -0.030783879 0.09708538 -0.0022084098
000150 e1 6e ba bd 6f 26 88 3c c2 39 08 be 23 70 97 bd
       -0.0910318 0.016619889 -0.13303283 -0.07394435
000160 4f 9c 04 3e 6a 13 8f 3c a4 31 46 bd cf d7 07 be
       0.12950252 0.017465312 -0.048387185 -0.13265918
000170 fa 61 b4 3c 66 19 ef bc 21 94 2b be 3f 78 d1 3d
       0.022019375 -0.029186916 -0.16755725 0.10228013
000180 9c dc 02 3d a4 7f 21 bd d9 0c 0c 3e 1d 34 2f be
       0.03194867 -0.03942837 0.13676776 -0.17109723
000190 68 89 6a bd 48 0a 05 be a7 05 4d 3e cf a3 22 3e
       -0.057259947 -0.12992203 0.20021687 0.158828
0001a0 93 c3 0b be 66 16 8c 3d 28 2b 99 bc f7 85 1c bd
       -0.13648824 0.0684021 -0.018697336 -0.038213696
0001b0 7a 9d 13 3e df cb d2 bd c2 36 26 3d 84 ae 10 be
       0.14415541 -0.102927916 0.040579565 -0.14129072
0001c0 40 03 18 bc 1f 0f 75 3b 46 99 9c 3c 4e 3b 31 be
       -0.009278119 0.0037393046 0.019116055 -0.17307779
0001d0 f9 cd 15 be 9b 28 11 3d 41 18 03 be 8c 3b eb bd
       -0.14629354 0.035439115 -0.12802221 -0.11485967
0001e0 07 8c 18 3e e0 fb ec 3c 5d ea 39 be 06 3c 8f bb
       0.14897166 0.028928697 -0.18155809 -0.004371169
0001f0 5f e3 a3 bd c8 11 46 bd d3 ad e5 3c dd 52 d9 bc
       -0.08002352 -0.0483568 0.028036987 -0.02652877
000200 e8 d5 d3 bd 86 0f 53 be 27 98 35 3e 64 e7 ec bc
       -0.10343534 -0.2061139 0.17733823 -0.02891893
000210 6b 5c 27 be 67 f7 de bd 7a 2e ad 3b 61 29 29 be
       -0.16343848 -0.10887032 0.0052850815 -0.16519691
000220 96 21 e9 bd ed 4f 03 be 86 06 cd 3d c6 cb e3 3d
       -0.11383359 -0.12823458 0.1001101 0.11122851
000230 01 00 bd be aa d5 67 be 1f 69 46 be d0 86 8e be
       -0.36914065 -0.226401 -0.19376038 -0.2783723
000240 b9 f5 28 3e 0a 51 80 be 58 7a 3e be 22 dd 28 bd
       0.16499986 -0.25061828 -0.18601358 -0.041226514
000250 ef f8 1d 3e 8c 96 51 3d b1 c4 25 3e c0 22 0e bd
       0.15426992 0.051168963 0.16188313 -0.03470111
000260 76 18 b7 3d 66 4f b1 3d 67 77 49 3e b7 76 d9 3c
       0.089402124 0.08657722 0.19674455 0.026545865
000270 90 96 82 be 5d e0 22 be 83 28 68 be 60 66 ed bb
       -0.25505495 -0.159059 -0.22671704 -0.00724487
000280 aa cb 16 3e 37 1b 4f be 66 04 2a be 65 23 11 bd
       0.14726129 -0.20225225 -0.1660324 -0.035434145
000290 5f 41 06 be f5 91 1a be 9c 3b f0 bc ae fc 26 be
       -0.13110875 -0.1509474 -0.029325299 -0.16307327
0002a0 76 a2 d1 bd 6e 9c f8 3d 58 80 fc bd 4b ac 13 be
       -0.10236065 0.121392116 -0.12329167 -0.14421193
0002b0 f5 d0 1f be 7d 09 be 3d 9d 0d 9d bd ea 72 f2 3c
       -0.15607055 0.092791535 -0.07668612 0.02959581
0002c0 8b 1d 04 3e 31 a5 d4 3d e2 54 d0 3d 82 dd bb 3d
       0.12901895 0.1038307 0.1017244 0.09173109
0002d0 c3 68 3d 3d d5 62 a1 3d 07 57 2e 3e bf 04 65 bd
       0.046242487 0.07880179 0.17025386 -0.05591273
0002e0 a8 62 54 bd 89 1e ad bd d5 70 74 3d fe f1 18 be
       -0.0518519 -0.0845309 0.059677918 -0.14936063
0002f0 f6 da 7b 3d 4d f9 a7 3c 7a bb b4 3c be 9b 5e be
       0.061488114 0.020504618 0.022062052 -0.21739098
000300 00 0f 0b bd b7 4d 1f be 40 17 a1 bd 35 c3 80 bd
       -0.033949852 -0.1555699 -0.07865763 -0.06287233
000310 d6 e2 9c 3d 65 d6 b3 bd 8b da c7 bd e2 94 b7 3d
       0.07660453 -0.08781127 -0.09758481 0.08963944
000320 5e 41 f4 3d b2 72 ed 3d a0 e8 c4 3b ac fa 33 bd
       0.1192653 0.11594142 0.0060091764 -0.04394023
000330 5a 6e ad bd 96 0d 25 be e8 11 40 bd 5d c3 80 bd
       -0.084683135 -0.16118464 -0.046892077 -0.062872626
000340 23 bb 24 be 52 8c 42 be 80 fc a5 bb 02 05 34 be
       -0.16087012 -0.1899884 -0.0050655007 -0.17580035
000350 a0 77 5d bc 8a ef 2d be 45 07 2d 3e d3 9c 22 be
       -0.01351729 -0.16985908 0.16897304 -0.15880136
000360 1e 00 ab bd d4 2e 2b bd 5a 44 13 be f3 75 2a be
       -0.08349632 -0.041792706 -0.14381543 -0.16646557
000370 d1 ad ac bd 61 0c c3 bd ec 26 c6 bd c5 42 b1 be
       -0.0843159 -0.095238455 -0.096753925 -0.34621254
000380 74 bd 07 bd d0 75 15 be 62 31 66 be ca 3d 11 be
       -0.03313966 -0.14595723 -0.22479776 -0.14183727
000390 91 d2 99 bd 08 5a 8b 3c 33 05 bc 3d f7 f1 22 3e
       -0.075108655 0.017010704 0.09180679 0.15912615
0003a0 05 0d 34 3d 3f c0 87 3d 37 de ad bd b3 d2 be bd
       0.04395773 0.06628465 -0.0848965 -0.093175314
0003b0 a7 00 ba bd d6 fe e5 3d d5 c2 09 3e 74 27 09 be
       -0.09082156 0.11230247 0.13453229 -0.13393956
0003c0 cb 5d bb bd cf da 1c 3d 90 74 c7 3d 97 99 14 be
       -0.09148749 0.03829461 0.097390294 -0.14511715
0003d0 5c 5c f0 3d fe 93 7f bd c4 18 6e 3d 76 6f 34 be
       0.11736366 -0.062396996 0.058129087 -0.17620644
0003e0 bd 7f b6 bd a5 a3 1b be 42 d7 8b be 0d 11 21 bd
       -0.08911083 -0.15199144 -0.27312666 -0.0393229
0003f0 17 de 40 3d 65 73 e0 bd 89 eb 03 3d bf 4b a5 3c
       0.0470868 -0.1095951 0.032207046 0.02017772

model.3.bias f4 [32]
000000 ba ee a3 3f 7b 7c 8a 3e f0 39 db 3f 6b 8f 0c 40
       1.2807229 0.27048096 1.7127056 2.1962535
000010 58 ab 35 be 9a ad c3 3f db 00 a5 be 45 b6 d1 3f
       -0.17741144 1.5287354 -0.32227215 1.6383749
000020 1a a9 47 3e 43 12 66 be 66 20 9b 3f 13 83 ba 3f
       0.19498101 -0.22467904 1.2119262 1.4571251
000030 e6 f7 08 40 ad 8c 57 3f 21 39 eb 3f cb 4d 0b 40
       2.1401305 0.8419903 1.8376809 2.176623
000040 67 98 37 bc e7 2b e5 3e d9 3b 78 3f c8 e1 89 3f
       -0.011205769 0.44760057 0.9696632 1.0772028
000050 88 35 e4 3f c6 c4 0c 40 75 a6 06 40 e1 55 8c 3f
       1.7828836 2.19951 2.1039097 1.0963708
000060 79 1e fd 3e b0 d2 25 be ed 96 df 3f d1 b7 13 40
       0.4943731 -0.16193652 1.7467934 2.3080943
000070 85 15 43 be e1 66 27 3f 60 1b f1 3f aa 77 13 40
       -0.19051178 0.65391356 1.8836479 2.3041787

model.6.weight f4 [256, 32]
000000 2a b0 bf 3d ef f3 fc bb 9c 95 88 3e 9d dc f0 3d
       0.093597725 -0.007719509 0.26676643 0.11760829
000010 f3 6b 04 3d 83 06 54 bd ce 35 8f bd 08 88 c6 3d
       0.03232951 -0.051764023 -0.06992684 0.09693915
000020 16 15 fa 3d 46 3c 85 3d b6 77 97 bd f3 71 10 be
       0.12211053 0.06505637 -0.0739588 -0.14105968
000030 d8 c1 99 bd ba 8f d9 bd 65 4f 67 be 08 0f fb 3d
       -0.07507676 -0.10623117 -0.2258888 0.12258726
000040 b5 f6 53 bd 34 69 8a 3d b1 89 fc bc 53 8b ce 3d
       -0.05174895 0.06758347 -0.030827375 0.10085168
000050 1c 7a bf 3d 0e a7 9d 3d 09 43 72 3e 40 e0 77 3d
       0.093494624 0.07697879 0.23658384 0.060516596
000060 b5 01 a3 3d 5d 1f 2c be 8e d2 89 bd b0 81 23 3d
       0.0795931 -0.16808839 -0.06729613 0.0399186
000070 d9 d2 19 3e 90 ae 3a 3c f9 08 63 be 2a 81 66 3c
       0.15021838 0.011394158 -0.22171392 0.014068881
000080 d7 34 19 3e 81 39 7f 3d 5c 51 52 be 8b fb b7 3c
       0.14961563 0.0623107 -0.20538849 0.022458812
000090 67 8d 03 3d 0b 53 a8 3d fb d5 82 bd 92 d5 16 3e
       0.032117274 0.08218964 -0.0638847 0.14729908
0000a0 86 04 b3 bc 06 5c dd bd 4d 23 37 3e 51 8f 60 be
       -0.021852743 -0.10808568 0.1788456 -0.21929671
0000b0 71 f5 24 be 95 78 9f bd cb 3a a2 3d d6 ea dd 3d
       -0.16109253 -0.07786671 0.0792137 0.10835807
0000c0 1e b8 59 bc 69 a4 cc 3d fd e0 b5 3d 17 62 1f 3e
       -0.013288526 0.09992296 0.08880804 0.15564762
0000d0 d1 c2 01 3e 06 b7 af be 8b fc 49 3e 39 82 d5 3d
       0.12671973 -0.34319323 0.19725244 0.104252286
0000e0 a4 0d 81 3d 74 3d 87 3d 36 63 6b be 88 30 09 3d
       0.0630143 0.06603518 -0.22987065 0.03349355
0000f0 44 d3 cd 3e df 32 cb 3d 8d f9 0a be ec f0 ca 3d
       0.40200245 0.09921812 -0.13571759 0.099092335
000100 27 5a da 3d 02 2b 3f 3b 18 a4 0b be 09 8e 99 bd
       0.106617264 0.0029169922 -0.13636816 -0.07497794
000110 60 2f 24 3e 0d 9f 0a 3f 4b 89 87 3d 03 15 ab 3e
       0.16033697 0.5414894 0.066179834 0.33414468
000120 e1 11 cc bd d8 fb 14 3e 88 c7 61 be fd 37 2b be
       -0.09964348 0.14549196 -0.22048771 -0.16720577
000130 46 ac 1e 3f d3 64 07 3e 4a 98 96 3b 0b 04 02 be
       0.6198162 0.13222055 0.004595791 -0.12696855
000140 e4 ed 5a be 36 e5 0e 3e 36 30 13 be db 44 49 bc
       -0.2137981 0.13954625 -0.1437386 -0.012284483
000150 1e 23 58 be da ff 26 be 95 9d a7 bd 8e 09 c8 3e
       -0.21107146 -0.16308537 -0.08184353 0.3906979
000160 64 b7 37 3f ae ca fa 3d 39 c7 91 bd 48 7d 04 be
       0.71764207 0.12245689 -0.07118077 -0.12938416
000170 b2 8b 28 be e5 40 45 be 74 3d aa bd 45 ff 93 be
       -0.1645954 -0.19263037 -0.083125025 -0.28905693
000180 ac 3b 78 be 31 ea 44 be 9d 2d ca bd b1 11 b5 bd
       -0.24241513 -0.19229962 -0.09871981 -0.08841265
000190 f5 89 f0 bd a7 78 39 bc c8 7e 9b 3e 2d 42 09 be
       -0.11745063 -0.01132027 0.30370164 -0.1340415
0001a0 f8 1d 17 3d 39 62 10 3e 06 c1 5a 3d 83 da 0f 3d
       0.036893815 0.14099969 0.053406738 0.0351205
0001b0 26 b1 43 be 0f 40 ad 3d 2d 6a 3f 3d ce 31 bd bd
       -0.19110546 0.08459484 0.046732116 -0.09238015
0001c0 ce d7 2c be bb 80 5a be a0 b8 03 be 3b e1 83 3d
       -0.16879198 -0.2133817 -0.12863398 0.06439444
0001d0 dc ab dc 3d 0d 4b 63 3e d7 a2 1c be ad 68 6c 3d
       0.10774967 0.22196598 -0.15296493 0.057717014
0001e0 1c d8 ea bc fb 70 04 be 56 0d 43 3d 71 2a d9 3d
       -0.028667502 -0.12933724 0.04762014 0.10603798
0001f0 d6 57 7b 3d 5e 61 dd bb 30 2d d4 bc a7 91 18 be
       0.061363064 -0.006755992 -0.025900453 -0.14899312
000200 d3 e2 17 3e d1 77 c8 3a a8 1b 18 be 8b 59 f8 3d
       0.1483262 0.0015294497 -0.148543 0.12126454
000210 fa f2 60 3e 62 a7 e1 3b 6b cb 03 3e 8f a6 fa 3d
       0.21967688 0.0068864087 0.12870567 0.122388
000220 96 f8 df 3c 75 3b d4 bd 56 25 9a 3c a1 bf 47 bc
       0.027340215 -0.10362903 0.018816631 -0.012191684
000230 0b 0d 18 3e e0 36 64 3d c4 54 dd 3c d9 b5 9c bc
       0.14848725 0.055716395 0.027017958 -0.01912968
000240 ac c3 0b be f6 88 f4 bd a0 c9 80 bd 6e 57 21 3e
       -0.13648862 -0.11940186 -0.06288457 0.15756008
000250 f3 62 36 be bd d3 5e b9 a6 37 c3 3d 8b 00 0b 3f
       -0.17811184 -0.00021250448 0.095320985 0.54297704
000260 e7 8a e1 3d 23 76 ba 3d 59 2b 38 3e f3 b8 7f 3e
       0.11012822 0.09104564 0.17985286 0.24972896
000270 ee 3c f0 3d ce cb 5f 3e 40 69 ac 3d 2c bb 9a 3d
       0.117303714 0.21855089 0.08418512 0.075552315
000280 ad 56 46 3e 19 e1 f8 bd 2d cf cf bd 2f 10 6b bd
       0.19369002 -0.12152309 -0.101469375 -0.05738848
000290 be 47 6b be 61 aa 16 bd 7f fc dc 3d d3 f9 2d 3d
       -0.22976586 -0.03678358 0.10790347 0.04247458
0002a0 fb e3 38 bd cf 01 be 3c eb 3e 6c be f3 11 a3 bc
       -0.045139294 0.023194222 -0.23070876 -0.01990602
0002b0 dd ff 7c be 52 d3 16 bd e2 06 8e ba 09 07 77 3e
       -0.24706979 -0.036822625 -0.0010835791 0.24123777
0002c0 c4 1f 8e 3d 97 ee a4 3d cf f6 9e 3c 9f de fb 3d
       0.069396526 0.0805332 0.019404797 0.12298321
0002d0 7b 98 e6 3d ab 1c ad 3c d8 f3 ee 3d 7d f2 b4 3e
       0.11259552 0.021131834 0.11667603 0.35341254
0002e0 5c af fb bd 19 d1 66 3d 35 45 00 3d 9b f9 00 3e
       -0.122893065 0.056351755 0.031316 0.12595217
0002f0 c3 91 10 3e a9 69 c6 3d c1 a0 2f be c4 01 6a bd
       0.14118104 0.09688122 -0.17151166 -0.05713059
000300 be 4e 28 be 52 a8 55 3e c0 41 e5 bd 46 35 9c be
       -0.16436288 0.2086499 -0.111941814 -0.30509394
000310 45 e5 83 bd ec d7 6d 3e a6 c9 c2 3d 63 39 35 3e
       -0.06440214 0.23226899 0.09511118 0.17697673
000320 bf ff b4 bd 14 e3 1d be 48 e6 25 bd 01 3e 97 be
       -0.08837842 -0.15418655 -0.040502816 -0.29539493
000330 40 64 ee 3d 56 a3 4e be 24 a6 6d be 70 22 2d 3d
       0.11640215 -0.20179495 -0.23207909 0.04226917
000340 a9 a6 23 be a5 f4 7a be a5 96 60 bd 8d 93 d4 3d
       -0.15981545 -0.24507387 -0.054831166 0.103797056
000350 0d 1a 74 be 71 35 a3 3d 4a df 3b bd 7b 9f 92 be
       -0.23838063 0.079691775 -0.045867242 -0.286373
000360 0e f7 33 be 96 b8 c8 bd 85 5e 4c be 24 66 48 be
       -0.17574713 -0.09800832 -0.19957931 -0.19570214
000370 c6 32 b2 3d 08 20 a9 3c fa 05 0c be dd b9 aa be
       0.087010905 0.020645157 -0.13674155 -0.33344927
000380 48 d5 bd 3a 39 78 9c 3e 5f 76 47 bd 7d 07 ee bc
       0.0014483118 0.30560473 -0.04869687 -0.029056305
000390 74 6a 22 be b3 8d 05 be a2 e5 ca 3d 69 9d fb bc
       -0.15860921 -0.13042335 0.0990708 -0.030714707
0003a0 27 75 12 be ac 82 56 be 22 50 42 be 08 0e db be
       -0.14302503 -0.20948285 -0.1897588 -0.42784142
0003b0 50 a9 95 bd 75 6e b2 bc 04 be af bd e2 c5 39 be
       -0.073076844 -0.021781186 -0.085811645 -0.18141893
0003c0 87 2f 2c bc ff d5 1a bd e1 b0 9c 3b fb 4b 43 bd
       -0.010509378 -0.03780174 0.004781828 -0.047679882
0003d0 12 54 09 be a3 6f 5f bc 88 cc b5 3d 24 f0 86 be
       -0.13410977 -0.013637456 0.08876902 -0.26355088
0003e0 d7 24 13 be f2 b1 2c be 7f 11 ca bd 15 47 2f be
       -0.14369522 -0.16864756 -0.09866618 -0.1711696
0003f0 67 75 27 3e 09 a5 02 bd 27 95 5a bd 7c 45 14 3d
       0.16353379 -0.03189567 -0.0533649 0.036199078

model.6.bias f4 [256]
000000 1a 6c 1c 40 bd 11 cd 3f 36 b1 18 40 bc 02 2a 40
       2.444098 1.6021038 2.385816 2.656417
000010 eb 37 22 40 9d 7f e0 3f 96 51 d9 3e 00 23 a5 be
       2.534663 1.7538944 0.42445058 -0.32253265
000020 22 73 a4 3f 21 9a d7 3f 41 b5 2e 40 c9 6f 44 bd
       1.2847636 1.6843911 2.7298129 -0.04795817
000030 23 97 83 be 5a 1b 0d 40 eb 12 5b 40 29 3b 9f 3f
       -0.25701246 2.2047944 3.4230297 1.2439929
000040 cd 60 3e 40 92 66 41 40 46 95 94 3f b9 4b 6d be
       2.9746583 3.0218854 1.1608055 -0.23173417
000050 b3 98 4e 40 b8 7d 02 40 44 7a f7 3f 58 fc 27 40
       3.22807 2.0389233 1.9334188 2.6247768
000060 08 35 8d be af b2 3e 40 0c 33 b4 3f d2 ba c6 bc
       -0.27579522 2.979656 1.4078078 -0.024259005
000070 c5 98 48 40 c8 53 6e 3e f2 5a 02 40 8d ba cd 3f
       3.1343243 0.23274148 2.0368009 1.6072556
000080 e9 7e 60 40 78 83 1a 40 f8 64 6b 40 ef 63 0c 40
       3.507746 2.4142742 3.6780376 2.1935995
000090 a9 a9 b0 3d d1 55 4d 40 0d 6f 33 3e b0 99 46 3f
       0.0862611 3.2083628 0.17522831 0.7757826
0000a0 46 cf 00 40 ac ae ec 3f 6f 65 d4 3f e8 8c 21 3f
       2.012651 1.8490806 1.6593455 0.6310563
0000b0 6c 1c 06 3f 21 f4 32 40 6f 73 42 40 a2 9e 3c 40
       0.5238712 2.7961504 3.0382955 2.9471822
0000c0 03 62 0b 3f fb 20 3a 40 ed d7 cb 3d b9 0b 13 40
       0.5444643 2.908263 0.09953294 2.2975905
0000d0 1e 7b 85 40 3e 59 92 3f 12 22 25 40 4e 22 5b 3f
       4.171279 1.1433485 2.5802045 0.8559922
0000e0 52 c1 5c 40 a6 82 39 40 b4 b7 49 40 40 b7 b6 be
       3.4492993 2.8985991 3.1518373 -0.35686684
0000f0 37 47 f1 3f 54 95 39 40 98 9f 36 40 67 f3 87 3f
       1.8849858 2.8997393 2.8534908 1.0621156
000100 f4 8c 01 40 5c 38 25 40 bd b3 2f 40 7a 88 1c 40
       2.024228 2.581565 2.7453454 2.4458299
000110 81 ab a5 3f c5 52 1b be f0 42 cd 3f 13 b6 23 40
       1.2942964 -0.15168293 1.6036053 2.557988
000120 dc 8a 56 3c 6e fc c6 3f 9f 49 0e 40 59 6f e6 3f
       0.01309463 1.5545785 2.2232435 1.8002731
000130 ac 5b 3c 40 b7 f5 3c be c8 f7 8a 3d af 8f 7a be
       2.9430952 -0.18453108 0.06785542 -0.24468873
000140 db 0c 35 40 2d 0e d6 3f 13 b6 51 40 16 88 c6 be
       2.8289096 1.6723076 3.276738 -0.387757
000150 53 0b 19 40 cc 8d da 3f bb 3b 1e 3f 84 08 1d 40
       2.3913162 1.7074523 0.6180989 2.4536448
000160 c9 19 c1 be e8 aa 28 40 b9 e6 6a be f0 ef 26 40
       -0.37714985 2.6354313 -0.22939576 2.6083946
000170 7a 85 50 40 ec 8a 15 40 e8 e2 36 40 ac e3 46 40
       3.2581468 2.336604 2.8575993 3.107646
000180 b3 d9 35 40 ac a6 48 40 41 aa 39 40 2e 7f 2c 40
       2.8414123 3.1351728 2.9010165 2.6952624
000190 6b 14 50 40 15 5a e1 bd c9 1e 46 40 0e 3d b0 be
       3.2512462 -0.1100351 3.095629 -0.3442158
0001a0 7b 56 40 40 1b 4a 13 40 de 27 37 40 92 fd 8f bd
       3.0052783 2.301398 2.8618083 -0.070307866
0001b0 89 5f f5 3f 66 32 45 40 18 e4 a4 be ee 3c e9 3f
       1.916978 3.081201 -0.32205272 1.8221719
0001c0 27 f5 f8 3e 21 ba f7 3e 52 68 13 40 e5 82 21 be
       0.48624536 0.48384193 2.3032422 -0.15772589
0001d0 5b c1 e8 3f ae a4 19 40 17 7c 4f 40 c1 7e ee 3f
       1.8184007 2.4006763 3.2419488 1.8632432
0001e0 24 1e b9 3f 9a 2c 5f 3c a8 0a 3d 40 8a 81 c2 3f
       1.4462323 0.013621474 2.9537754 1.5195782
0001f0 55 4b 4f 40 07 c8 36 be c1 08 32 40 53 be 59 be
       3.238973 -0.17849742 2.7817843 -0.21264009
000200 28 00 ec 3f 9e 2a 7b 40 b0 3c ee be ec 91 b9 3e
       1.8437548 3.9244761 -0.46530676 0.36244142
000210 65 36 32 40 9c bc d3 3f b7 ac 3c 40 b8 14 47 40
       2.78457 1.6541934 2.9480417 3.1106396
000220 f3 0f ca 3e d2 2a 85 be 5e 4d a8 be 49 9e 4c 40
       0.39465293 -0.26009232 -0.32871526 3.197161
000230 f1 e6 1b 40 ba 47 26 40 7a 72 ad bd 69 ab 44 bf
       2.4359705 2.5981278 -0.084691 -0.7682405
000240 59 3a 11 be 38 6b 85 bd 1c d9 3f 3f e3 58 16 40
       -0.14182414 -0.06514591 0.7494066 2.3491752
000250 4c 88 43 40 16 94 d1 3e 38 27 76 40 00 b8 59 40
       3.055194 0.40933293 3.8461437 3.4018555
000260 2d a4 03 be ff 31 f1 3f 70 de 58 be 12 33 07 3f
       -0.12855597 1.8843383 -0.21178603 0.528123
000270 3b 77 10 3f cc ca 26 40 a5 ef d0 3f 73 6a 40 40
       0.5643193 2.6061277 1.6323134 3.0064971
000280 2f 75 d3 3e f4 5f 93 3f 4e 84 10 40 47 3e 34 40
       0.4130034 1.1513658 2.2580752 2.816301
000290 81 1a f4 3e 52 f5 28 40 0b 1c 07 40 9a d6 14 be
       0.4767647 2.6399732 2.1110866 -0.14534989
0002a0 2e 6b 52 be d7 56 af be 88 e4 3e 40 5a c5 12 3f
       -0.20548698 -0.3424594 2.9826984 0.57332385
0002b0 fd 83 89 3f 3c a4 4a 40 60 a7 83 be e3 12 e6 3f
       1.0743405 3.166274 -0.25713634 1.7974514
0002c0 bd 5f 0b 40 97 7f 3f 40 da 0a 1b 40 22 dd 24 40
       2.1777184 2.9921625 2.4225373 2.5759969
0002d0 3d 54 4f 40 04 67 43 40 49 3f 98 be f0 41 d1 3f
       3.2395165 3.0531626 -0.29735783 1.6348248
0002e0 2f cf 1a 40 c0 3c 31 40 63 f8 09 3f 32 90 32 40
       2.4188955 2.769333 0.53894633 2.790051
0002f0 e2 5c d5 3f cb bf 30 40 5f 08 44 40 de 88 25 40
       1.666897 2.761706 3.063011 2.5864787
000300 fa 1c 26 40 a9 db 5c 3d 36 33 fb 3c e3 46 39 40
       2.5955186 0.05392042 0.030664068 2.8949516
000310 08 ca 2e 40 74 b9 21 40 fe 03 bf 3f dc f8 6b 3f
       2.731081 2.5269442 1.4923093 0.92176604
000320 4b e4 67 be 6c 55 ff 3e 28 4f 87 3f bd b2 43 40
       -0.2264568 0.4986986 1.0571032 3.0577843
000330 a3 a7 04 40 f2 4a ac bd 82 8f 32 40 08 ab bf be
       2.0727317 -0.08412732 2.790009 -0.37435174
000340 f9 a0 21 3f 28 c8 07 40 3d 67 05 40 35 fb c5 3f
       0.6313625 2.1215916 2.0844262 1.5467287
000350 46 ee 25 40 ba 03 66 40 e4 8d 63 40 1a e0 00 3f
       2.592668 3.5939775 3.5555353 0.5034195
000360 89 25 35 be 11 92 2f 40 35 5f 32 40 9b c6 b3 3c
       -0.176901 2.7432902 2.787061 0.021945288
000370 29 92 f1 be be 1d 35 40 05 70 64 be 49 f8 45 40
       -0.47181824 2.8299403 -0.22308357 3.0932791
000380 81 9a 47 40 e7 78 d5 be da a9 e2 3f 59 86 a5 bd
       3.1188052 -0.41693804 1.7708085 -0.080822654
000390 20 41 c4 be 16 7a 2c 40 d8 bb 7c 3f e5 33 37 40
       -0.38330936 2.6949515 0.98724127 2.8625424
0003a0 f5 c7 49 40 97 f3 3e 40 93 c8 ea 3f eb fc 4a 40
       3.1528294 2.9836175 1.834246 3.171687
0003b0 45 04 f7 3f 4d 3c d3 be d6 40 67 40 60 19 e9 bd
       1.9298178 -0.41256943 3.6133323 -0.11381793
0003c0 52 d8 3a 40 36 dc 26 3f 10 b2 72 be 12 81 89 3f
       2.9194531 0.65179765 -0.23700738 1.0742514
0003d0 cb 79 16 40 33 c0 d9 be 16 82 4b 40 6a 32 06 3e
       2.3511837 -0.4252945 3.1798148 0.13105169
0003e0 c2 df f4 3c 4a 48 76 be 4c d3 94 3d e4 ba a7 3e
       0.029891852 -0.24051014 0.07266864 0.32759774
0003f0 44 f7 82 3d d2 d1 4e 40 31 51 57 40 71 92 19 40
       0.063948184 3.2315564 3.3643305 2.399563

model.9.weight f4 [1, 256]
000000 6c 78 5d 3d c8 3b 31 3e 97 44 71 3e 64 2a 22 3e
       0.05406992 0.17307961 0.23561321 0.15836483
000010 38 33 e6 3d 5e a1 4e 3d ab bd 1f 3d b8 2f 79 bc
       0.11240238 0.05044686 0.03899924 -0.015209131
000020 8b eb 0b 3d e7 eb c0 3d 59 34 03 3e 18 32 a2 3a
       0.03416018 0.09419995 0.12812938 0.0012374548
000030 43 e8 4b bc a7 8f 8e 3d 33 7f 4a 3e 3e b1 8e 3d
       -0.012445512 0.06960993 0.19775085 0.069674
000040 87 01 79 3e b3 66 1b 3e 6e 91 73 3d 8e 3a 28 3c
       0.24316989 0.15175895 0.059464864 0.010267867
000050 95 5d 2a 3e 96 56 b6 3d 3f a9 bd 3d e7 72 3b 3e
       0.16637261 0.08903234 0.09260797 0.1830555
000060 53 96 3f bd 38 fd 59 3e 06 d3 c2 3d cb 14 7c bb
       -0.04677422 0.21288002 0.09512906 -0.0038464542
000070 fa b8 14 3e b9 4c da 3c 45 24 f7 3d 64 8c 9a 3d
       0.14523688 0.026647912 0.12067465 0.07546309
000080 0a 14 57 3e 78 f1 01 3e 11 0c 53 3e b4 3b b4 3d
       0.21003738 0.1268977 0.20610072 0.0880045
000090 1f d4 86 3c 10 8c b8 3e c3 e4 45 bc 2e 09 da 3c
       0.01645857 0.3604436 -0.012078467 0.026615705
0000a0 3a 86 88 3e b6 d5 ac 3d 9d 5c 3e 3e 12 bd 3a 3d
       0.26664907 0.084391996 0.18590017 0.045590468
0000b0 af c3 42 3c 86 83 39 3e 58 e1 4d 3e 07 c8 45 3e
       0.011887475 0.18116578 0.20105493 0.19314586
0000c0 ed b4 de 3c 89 c2 1e 3e 44 88 77 bc 4b 37 32 3e
       0.027185882 0.15503897 -0.015108172 0.17403905
0000d0 b3 ac 4e 3e b5 a2 96 3d d5 5c f5 3d 28 df 27 3d
       0.20183067 0.07355253 0.11980597 0.040984303
0000e0 2d 61 94 3e 0e 42 45 3e b6 c7 49 3e 0f 82 d8 bc
       0.2898039 0.19263479 0.1970509 -0.026429204
0000f0 bf 58 e3 3d a2 55 76 3e 22 c2 1a 3e a5 2a 87 3d
       0.11100911 0.24056104 0.15113118 0.06599931
000100 9e 2f ea 3d c6 84 01 3e 17 8e 0f 3e 38 6e 8c 3e
       0.114348635 0.12648305 0.14019047 0.2742784
000110 bd 51 a4 3d 56 7c 70 bc 71 2e 71 3d 21 07 e9 3d
       0.08023403 -0.0146780815 0.05888218 0.11378313
000120 e7 ea b6 bc 4e e8 7e 3e 2b 21 9d 3d 72 23 aa 3d
       -0.022328807 0.24893305 0.07672342 0.08307542
000130 e9 8b 6c 3e 48 76 6c 3b c8 38 37 3c a2 6b cd 3b
       0.23100246 0.0036081243 0.011182971 0.0062689343
000140 33 0c 21 3e 09 aa a2 3d 67 5b 6f 3e e9 b9 ce 38
       0.1572731 0.07942588 0.23374711 9.857474e-05
000150 1f b0 a5 3e 27 ce 14 3e 3b 24 d2 3c d9 e2 f9 3d
       0.32360932 0.14531766 0.025652042 0.12201471
000160 b1 40 e7 bb bf ca de 3d 37 7c b8 bc 48 b6 19 3e
       -0.0070572724 0.108785145 -0.022520168 0.15010941
000170 fd 0b 7b 3e 6b de 11 3e 16 ee 41 3e d0 4b 56 3e
       0.24516292 0.14245002 0.18938479 0.20927358
000180 a7 56 fe 3d c9 5b 29 3e 6f 39 02 3e ab ea 84 3e
       0.124188714 0.1653892 0.12717222 0.25960287
000190 9e 97 98 3e a0 ff 8e bb 25 a5 39 3e cc 00 0c 3b
       0.29803175 -0.004363969 0.18129404 0.002136278
0001a0 28 a8 4a 3e 88 60 2a 3e 5d 36 4f 3e ab b7 97 3b
       0.19790709 0.16638386 0.20235582 0.004630049
0001b0 b2 f5 c8 3d 50 83 d5 3d 69 79 6a bc d6 40 90 3e
       0.09812488 0.104254365 -0.014311173 0.28174466
0001c0 d9 b4 85 3c 71 c3 31 3d 11 e4 13 3e 4b b8 67 39
       0.016321586 0.043399278 0.14442469 0.00022098531
0001d0 62 57 59 3d bf 0b 20 3e 53 c8 ad 3e 05 4c d5 3d
       0.05306185 0.15629481 0.33941898 0.1041489
0001e0 4e aa 65 3d 9f 61 83 bc 5f cb 40 3e 34 30 05 3e
       0.05607062 -0.01603776 0.1882758 0.1300667
0001f0 20 07 86 3e ea 6f 2a bc 04 54 07 3e 0d 53 2a 3a
       0.2617731 -0.010402659 0.13215643 0.0006497361
000200 67 a4 b7 3d 4a fd 5b 3e f5 34 83 bb d6 ee b1 3b
       0.08966904 0.21483341 -0.0040041157 0.005430083
000210 26 6f 05 3e 2b d2 a6 3d c0 e9 7a 3e e6 c8 1d 3e
       0.13030681 0.08145555 0.24503231 0.15408668
000220 d6 4c 6f 3a 66 34 01 bd f0 10 b7 bb 08 35 3c 3e
       0.0009128576 -0.03154411 -0.005586736 0.18379605
000230 cf 90 21 3e 4c f5 b5 3d cf a5 d9 bd f7 d8 36 bc
       0.15777896 0.08884677 -0.106273286 -0.011160127
000240 48 df 45 bc e0 6b 57 3c b6 fe 50 3d fb ee f1 3d
       -0.01207716 0.013148278 0.05102416 0.1181316
000250 6e 9d 29 3e 55 e4 5d 3c f9 6a 38 3e 33 2f 3e 3e
       0.16563961 0.013543208 0.18009557 0.18572693
000260 7a 1b ce 39 b5 22 78 3d ee 78 c7 bd fa 4b 05 3e
       0.00039311853 0.060579974 -0.097398624 0.13017264
000270 f1 fb cf 3c 44 39 0c 3e 89 a6 76 3d 46 52 f7 3d
       0.02538869 0.1369372 0.060217414 0.12076239
000280 07 bc 92 bb 89 f9 04 3d c0 2d d9 3d 7d de 6d 3e
       -0.004477981 0.032464538 0.10604429 0.23229404
000290 ac e4 4e 3d 11 6a 57 3e 3d 5f ee 3d c2 bb 96 3b
       0.050511047 0.21036555 0.11639259 0.004600019
0002a0 20 c2 1c 3c 2a dc 3c bb 18 ce 45 3e 68 a2 b9 3c
       0.009567767 -0.0028817751 0.193169 0.02266045
0002b0 5d 4d 85 3d fc 51 65 3e a2 11 d2 3b c8 da d6 3d
       0.065088965 0.22394556 0.0064107934 0.10490948
0002c0 e1 4a 0b 3e 3f 8a 47 3e c7 89 0d 3e d9 6b ae 3e
       0.13602783 0.1948633 0.13822089 0.34066656
0002d0 08 f5 9c 3e 08 a2 4b 3e c1 7d df 3b 10 f4 90 3d
       0.30655694 0.19886029 0.006820411 0.07077801
0002e0 85 d5 4d 3e a1 95 24 3e 4f 97 df 3c 52 38 89 3e
       0.20100982 0.16072704 0.02729383 0.2680078
0002f0 8b 07 1c 3e 51 b7 54 3e 07 a1 15 3e 02 92 63 3e
       0.15237252 0.20773055 0.14612208 0.22223666
000300 8b e0 23 3e e9 8d af bb 74 a0 8e 3b ad 46 4e 3e
       0.16003625 -0.005357493 0.0043526236 0.20144148
000310 ad b3 ff 3d c7 9c 1b 3e 1c fb 8e 3d 60 30 20 3d
       0.12485442 0.15196525 0.06981489 0.039108634
000320 70 d3 73 bd b9 20 19 3c de f0 e2 3d 71 91 e1 3d
       -0.059527814 0.009346181 0.11081098 0.11014069
000330 e1 37 ae 3d d1 b4 f7 bb 49 ff 30 3e df e1 07 bd
       0.08506752 -0.007559397 0.17284884 -0.03317439
000340 14 60 fc 3c 25 20 ff 3d 87 ca 1b 3e cd 85 2e 3e
       0.030807532 0.12457303 0.15213977 0.17043228
000350 ce 67 6c 3e e5 7f 5d 3e 6a cb 7d 3e 8b 16 b9 3c
       0.23086473 0.21630819 0.24784628 0.022593757
000360 78 fd e5 bb 23 5d 75 3e e9 0d 33 3e 84 00 22 3c
       -0.007018741 0.2396131 0.17485775 0.009887818
000370 6f ed ef bc 46 c7 4f 3e fc 36 ba bc eb 3c 75 3e
       -0.029288022 0.2029086 -0.022731297 0.2394902
000380 2b 70 3b 3e ac 0b 82 bd 1e 00 f0 3d 4b c4 94 bd
       0.18304507 -0.063498825 0.11718772 -0.072640024
000390 6c 93 43 bc 4f 12 87 3e 38 91 e6 3c 84 0f 02 3e
       -0.011937004 0.26381156 0.028145418 0.12701231
0003a0 c6 69 35 3e d8 0e 27 3e 29 d9 a3 3d 0d 3d 5c 3e
       0.1771613 0.16314256 0.080004044 0.21507664
0003b0 c3 4c 14 3e 39 64 9b bc 43 a2 a7 3e c1 53 8a bc
       0.14482407 -0.018968688 0.32740983 -0.01688564
0003c0 d8 fa 26 3e 60 67 28 3d a0 c3 a1 bc bb 56 1c 3d
       0.16306627 0.04111421 -0.019746602 0.03816865
0003d0 52 09 1a 3e 9e 9b fd ba 43 a7 06 3e 83 a4 82 bd
       0.15042618 -0.0019348746 0.13149743 -0.06379034
0003e0 20 4f ba 3c e9 9d 8a bb a8 7c 2c bc ca 7f a8 3d
       0.022742808 -0.00423025 -0.010527767 0.08227499
0003f0 64 b6 85 3a 68 0e 15 3e 43 cb 43 3e c4 51 8d 3e
       0.0010201451 0.14556277 0.19120507 0.27601445
