best_models/publisher/simple_lstm_best.pth (torch, 467426 bytes, 5 tensors)

weight_ih_l0 f4 [512, 96]
0	0xbd864783	-0.065566085
1	0xbcf1b82d	-0.029506767
2	0xbd9eabba	-0.07747598
3	0x3d17b5cb	0.037038606
4	0xbdb617bb	-0.08891245
5	0xbdcd8bfe	-0.10036467
6	0x3db01bdb	0.08599063
7	0xbe3720fb	-0.17883675
8	0xbdc80c2f	-0.09767949
9	0xbe8070ae	-0.25085968
10	0xbd2b0f15	-0.04176243
11	0x3e67a31f	0.2262082
12	0x3db1d242	0.086826816
13	0x3e023354	0.12714893
14	0x3e5c2f25	0.21502359
15	0x3e5c266d	0.21499033
16	0x3e8b7347	0.27236387
17	0x3e090fe8	0.13384974
18	0x3e4e905a	0.20172253
19	0x3d4273e3	0.0474738
20	0x3d1f4f8a	0.038894214
21	0x3d97fabd	0.074208714
22	0x3e3347fb	0.17507927
23	0x3da16455	0.07880465
24	0x3def08ac	0.11671576
25	0x3e46d232	0.1941612
26	0x3e25e9f8	0.16202533
27	0x3d85783c	0.065170735
28	0x3d88b6e6	0.0667551
29	0x3da16696	0.07880895
30	0x3def5e27	0.1168788
31	0x3e8acfb1	0.2711158
32	0x3e659172	0.22418764
33	0x3e3422bb	0.17591374
34	0x3e4fe961	0.2030387
35	0x3e600e41	0.21880437
36	0x3e499ab5	0.19687922
37	0x3e77e378	0.24207866
38	0x3e85596c	0.26044786
39	0x3e05af75	0.13055213
40	0x3e35ee0c	0.17766589
41	0x3e82f677	0.25578663
42	0x3e879ce8	0.26486897
43	0x3e8a27c6	0.2698347
44	0x3e4b0a60	0.19828176
45	0x3e80b458	0.2513759
46	0x3e3473d5	0.17622311
47	0x3e23a5b6	0.15981182
48	0x3e8926f1	0.26787522
49	0x3e3193ed	0.17341585
50	0x3e5befc8	0.21478188
51	0x3e41d73e	0.18929765
52	0x3e121625	0.1426626
53	0x3e9c50ba	0.3053034
54	0x3e7e509e	0.2483544
55	0x3e38540e	0.18000814
56	0x3e666371	0.22498871
57	0x3e762474	0.24037343
58	0x3e1e2940	0.15445423
59	0x3e780458	0.24220407
60	0x3e8c27e0	0.27374172
61	0x3e0cb605	0.1374131
62	0x3e57f406	0.21089181
63	0x3e88ae08	0.26695275
64	0x3e684d04	0.22685629
65	0x3e384a0b	0.17996995
66	0x3e48b1c7	0.19599067
67	0x3e4842e3	0.19556765
68	0x3e804b9c	0.25057685
69	0x3e9cd7e5	0.30633464
70	0x3e4b94b4	0.19880944
71	0x3e68e0dc	0.22742027
72	0x3e25fd7a	0.16209975
73	0x3e530084	0.20605665
74	0x3e7aa74d	0.24477883
75	0x3e34d115	0.17657883
76	0x3e5f2700	0.21792221
77	0x3e8dd4be	0.27701372
78	0x3e31f998	0.17380369
79	0x3e773a86	0.24143419
80	0x3e47634a	0.1947147
81	0x3e376973	0.1791132
82	0x3e4cadef	0.19988225
83	0x3ea0d42e	0.3141188
84	0x3e160dd9	0.1465372
85	0x3e809e41	0.25120738
86	0x3e95b286	0.29237765
87	0x3e345b5c	0.17612976
88	0x3e5becca	0.21477047
89	0x3e162abb	0.14664738
90	0x3e2c4b08	0.16825497
91	0x3e8f1efb	0.27953324
92	0x3e56a6cd	0.20962067
93	0x3e6cb386	0.23115358
94	0x3e343b45	0.17600735
95	0x3e45af8f	0.19305252
96	0xbe0cdb86	-0.13755617
97	0x3d74ab10	0.05973345
98	0xbdada7fe	-0.084793076
99	0xbd9c951b	-0.07645627
100	0xbd87b206	-0.06625752
101	0xbc8c9b9a	-0.01716404
102	0x3c94d8df	0.018169818
103	0xbdd08017	-0.10180681
104	0x3c1b3885	0.0094739245
105	0xbe5f9c0a	-0.21836868
106	0xbd94c106	-0.07263379
107	0x3e527f58	0.2055639
108	0x3e0a0d08	0.13481534
109	0x3dc4d539	0.096109815
110	0x3da51308	0.080602705
111	0x3d8907f7	0.06690972
112	0x3e3b2681	0.18276407
113	0x3de8d982	0.11369611
114	0x3e5711b6	0.2100285
115	0x3e3148b5	0.17312892
116	0x3e31b2b0	0.1735332
117	0x3e0f000d	0.13964863
118	0x3e058f73	0.13043003
119	0x3e44f068	0.19232333
120	0x3e0d385c	0.1379103
121	0x3e160121	0.14648868
122	0x3e10698d	0.14102764
123	0x3e694d95	0.22783501
124	0x3e1f8cb7	0.15581022
125	0x3e0d4240	0.13794804
126	0x3d927e2f	0.07152974
127	0x3e1b8142	0.15186027
128	0x3e780307	0.24219905
129	0x3e8d1ebe	0.27562517
130	0x3e801b6a	0.25020915
131	0x3e8ad277	0.27113697
132	0x3e552085	0.20813186
133	0x3e6d6026	0.23181209
134	0x3e7035a1	0.23457958
135	0x3e06a499	0.13148727
136	0x3e09d634	0.13460618
137	0x3e89fc4f	0.2695031
138	0x3e8a8f08	0.2706225
139	0x3e500678	0.20314968
140	0x3e1e34df	0.15449856
141	0x3e5e0c4d	0.2168438
142	0x3e172f3d	0.14764114
143	0x3e8f7c43	0.28024492
144	0x3e7a476b	0.24441306
145	0x3e137244	0.14399058
146	0x3e190317	0.14942585
147	0x3e4ec34f	0.20191692
148	0x3e0d9691	0.13826968
149	0x3e5d99f9	0.21640767
150	0x3e91d4af	0.28482577
151	0x3e4724cc	0.1944763
152	0x3e158159	0.14600123
153	0x3e92b921	0.28656867
154	0x3e450935	0.19241793
155	0x3e4967a1	0.19668438
156	0x3e503401	0.20332338
157	0x3e95e2f7	0.29274723
158	0x3e287126	0.16449413
159	0x3e081022	0.13287404
160	0x3e36eed2	0.1786454
161	0x3e4fc8c3	0.20291428
162	0x3e816091	0.25268987
163	0x3e727a72	0.23679522
164	0x3e83e2c9	0.2575896
165	0x3e87e3b9	0.26540926
166	0x3e8dbc7c	0.27682865
167	0x3e800ed4	0.25011313
168	0x3e791177	0.24323069
169	0x3e058299	0.130381
170	0x3e94bedb	0.2905186
171	0x3e9bb7a7	0.30413553
172	0x3e89aac7	0.26888105
173	0x3e07d128	0.1326338
174	0x3e7a52b1	0.24445607
175	0x3e2bf61f	0.16793106
176	0x3e91813f	0.2841892
177	0x3e6f1822	0.2334905
178	0x3e396e88	0.1810857
179	0x3e8263c6	0.25466746
180	0x3e3b98cc	0.18320006
181	0x3e7a58e2	0.24447969
182	0x3e2d2611	0.16909052
183	0x3e3a5311	0.1819575
184	0x3e095990	0.13413072
185	0x3e8fcf51	0.28087857
186	0x3e839ca2	0.2570544
187	0x3e903cf3	0.281715
188	0x3e627a7a	0.22117034
189	0x3e85e3df	0.26150414
190	0x3e93e80c	0.28887975
191	0x3e36f543	0.17866997
192	0xbd499cb1	-0.0492217
193	0x3c9a5338	0.01883851
194	0xbd4fd416	-0.05073937
195	0x3d045b48	0.032313615
196	0xbdce209c	-0.100648135
197	0xbd2d31fc	-0.042283997
198	0x3dbe4af0	0.09291637
199	0xbe0a2cc2	-0.13493636
200	0xbdab633c	-0.08368537
201	0xbe5bec89	-0.2147695
202	0x3cd9ee2f	0.026602833
203	0x3df7b2aa	0.12094624
204	0x3e6156c7	0.22005759
205	0x3e1ecaee	0.15507099
206	0x3e10e5b2	0.14150122
207	0x3e06e64e	0.13173792
208	0x3dfdd0c4	0.123933345
209	0x3e6449a5	0.22293718
210	0x3e4b0a06	0.19828042
211	0x3e3c3603	0.18379979
212	0x3df3266d	0.118725635
213	0x3d10be0f	0.035337504
214	0x3e2d8a60	0.16947317
215	0x3de6427a	0.11243148
216	0x3e318982	0.17337611
217	0x3e52992e	0.20566246
218	0x3e4f7095	0.2025779
219	0x3dcc8fe6	0.09988384
220	0x3de29e23	0.110653184
221	0x3e294545	0.1653033
222	0x3dbce133	0.09222641
223	0x3e9f2b0b	0.31087527
224	0x3e62ec2f	0.2216041
225	0x3e81b5dd	0.25334063
226	0x3e787cb4	0.2426632
227	0x3e0ba000	0.13635254
228	0x3e55ed8c	0.20891398
229	0x3e965b1e	0.29366392
230	0x3e50a8d2	0.203769
231	0x3e8eaa67	0.27864382
232	0x3e66058f	0.22463058
233	0x3df223a0	0.11823201
234	0x3e34d223	0.17658286
235	0x3e477d9c	0.1948151
236	0x3e1714b3	0.1475399
237	0x3e8492ab	0.2589315
238	0x3e02ccc0	0.12773418
239	0x3e9e2b09	0.30892208
240	0x3e0a8955	0.1352895
241	0x3de69081	0.11258031
242	0x3e965f79	0.29369715
243	0x3e98554c	0.29752576
244	0x3e26a6df	0.16274594
245	0x3e9d915c	0.30774963
246	0x3e083c15	0.1330417
247	0x3e6333aa	0.22187677
248	0x3e43d401	0.19123842
249	0x3e8cc9de	0.27497762
250	0x3e3f67c2	0.18691924
251	0x3e9a02f5	0.3008038
252	0x3e284aaa	0.16434732
253	0x3e666d03	0.22502522
254	0x3e5a5f63	0.2132545
255	0x3e2f7a0f	0.17136405

weight_hh_l0 f4 [512, 128]
0	0x3cc7e660	0.024401844
1	0x3d390fb2	0.045180984
2	0xbd2e3e0a	-0.042539634
3	0x3c8527ec	0.016254388
4	0xbc4d2118	-0.012520097
5	0xba3c2800	-0.00071775913
6	0xbd4dcd9f	-0.050244924
7	0x3d953521	0.07285524
8	0xbb2e4440	-0.0026590973
9	0xbd275679	-0.04085395
10	0x3d121ac6	0.035670064
11	0xbb10f8e0	-0.0022120997
12	0x3d3349e6	0.043771647
13	0xbd9f7f8f	-0.07788002
14	0xbda134f6	-0.078714296
15	0x3d869711	0.065717824
16	0xbccea298	-0.025224015
17	0xbcf6449a	-0.030062009
18	0xbd9899d1	-0.07451213
19	0xbb8ce960	-0.0043002814
20	0xbbfc6c60	-0.007703349
21	0xbd6452f3	-0.05574317
22	0xbd826dc6	-0.06368594
23	0x3d95f3d3	0.073218964
24	0xbd1fb1a7	-0.03898778
25	0x3d9e7a71	0.077381976
26	0x3d9cf9eb	0.076648556
27	0x3bd6feb0	0.006561123
28	0xbcb86584	-0.022509344
29	0xbd078243	-0.03308321
30	0x3d965b1f	0.07341599
31	0xbb9edb50	-0.0048479214
32	0x3a3edc80	0.0007280782
33	0x3c0ad868	0.008474447
34	0x3b864430	0.004097484
35	0x3d8522b9	0.065007634
36	0x3d45df1e	0.048308484
37	0x3db07eb1	0.086179145
38	0x3c6e7408	0.014554031
39	0x3da9e279	0.08295149
40	0x3d9c6f1b	0.07638379
41	0x3d1e20de	0.038605563
42	0x3c842c68	0.016134456
43	0xbcb2b1bc	-0.021813266
44	0x3b402120	0.002931662
45	0x3ca6d2c8	0.02036418
46	0x3c7d9e10	0.01547958
47	0x3da14bf1	0.07875813
48	0xbd0c3c9e	-0.034237497
49	0x3da84f5d	0.08218262
50	0xbd370304	-0.04468061
51	0x3d1b5256	0.03792032
52	0xbd0a6cae	-0.03379505
53	0x3d883bd9	0.0665204
54	0xbd803ac5	-0.062612094
55	0x3c91ca5c	0.017796688
56	0x3d4200fe	0.047364227
57	0x3d941451	0.072304375
58	0x3d842fbb	0.06454416
59	0xbcc06c7c	-0.02348923
60	0x3d90eab9	0.0707602
61	0x3d5617de	0.052268855
62	0xbd5dce47	-0.0541518
63	0xbd615c80	-0.055019855
64	0xbd4eb431	-0.050464813
65	0x3c6342f0	0.01387094
66	0xbd5bd7ee	-0.053672723
67	0x3c10f690	0.008847848
68	0x3cb223f0	0.021745652
69	0xbcdfd662	-0.027323905
70	0x3d991f35	0.074766554
71	0xbc645ef0	-0.0139386505
72	0xbbcfcf10	-0.0063418224
73	0x3c74b4e0	0.014935702
74	0x3cca8220	0.024720252
75	0x3c89263c	0.016741864
76	0x3b096a00	0.0020967722
77	0x3d090468	0.033451468
78	0xbd22b5a9	-0.039724026
79	0xbd2f5874	-0.042808965
80	0xbdabdebe	-0.08392094
81	0xbdab0c18	-0.08351916
82	0xbd9adb66	-0.07561378
83	0xbdb38710	-0.087659955
84	0x3d5819f2	0.05275912
85	0xbadf7bc0	-0.001705043
86	0x3d81f9db	0.06346484
87	0x3aa2dd80	0.0012425631
88	0xbd444463	-0.04791678
89	0xbd948263	-0.07251432
90	0x3d2fcefa	0.042921998
91	0x3d80cc1b	0.0628893
92	0xbc8f9780	-0.017528296
93	0xbdaa8626	-0.08326368
94	0x3d562dca	0.05228976
95	0x3ceab5f4	0.028651215
96	0xbd1faeed	-0.03898518
97	0x3d96f833	0.07371559
98	0xbd615cbe	-0.055020086
99	0x3bc8c380	0.006126821
100	0xbda50d59	-0.080591865
101	0x3cf79a34	0.030224897
102	0xbd08d21d	-0.033403505
103	0x3d02d682	0.03194285
104	0x3db3de05	0.08782581
105	0xbd7df6f4	-0.06200309
106	0xbd99c4b6	-0.07508223
107	0xbd16bc98	-0.03680095
108	0x3ceb45d0	0.028719813
109	0xbd3625a6	-0.044469498
110	0x3d73ddbe	0.05953764
111	0xbc9db2a0	-0.019250214
112	0x3d75eab2	0.060038276
113	0x3d144094	0.0361944
114	0xbda9a4d4	-0.082833916
115	0xbc4f88e0	-0.012666911
116	0xbd7b50e5	-0.061356444
117	0x3be915d0	0.007113196
118	0x3d817e1b	0.06322881
119	0x3db4929b	0.08817025
120	0x3d37cf52	0.04487545
121	0xbd3f2350	-0.046664536
122	0xbcc8d5ac	-0.02451595
123	0xbc92a42c	-0.017900549
124	0xbd82cb8a	-0.06386478
125	0xbcbe7724	-0.02325017
126	0x3da8093b	0.082048856
127	0xbbd39980	-0.0064575076
128	0xbd52961e	-0.051412694
129	0x3d9c2401	0.07624055
130	0x3bdcc020	0.0067367703
131	0x3cd8697c	0.026417486
132	0xbaec5fc0	-0.0018033907
133	0xbc6a4680	-0.014299035
134	0x3c5fa008	0.013648994
135	0xbd46e010	-0.048553526
136	0xbd48e208	-0.049043685
137	0xbd03fa01	-0.032220844
138	0xbd169699	-0.036764715
139	0xbbd638c0	-0.006537527
140	0xbd8a56b8	-0.067548215
141	0xbdad38d6	-0.08458106
142	0xbd936b74	-0.071982294
143	0x3c608cf0	0.013705477
144	0xbab4e840	-0.0013802126
145	0xbd147dcb	-0.036252778
146	0xbd0b9db2	-0.034085937
147	0x3d095a60	0.033533454
148	0x3d5247de	0.05133807
149	0xbcba1284	-0.022713907
150	0xbc350db0	-0.011050627
151	0xbd4b2db9	-0.04960415
152	0x3c8528e8	0.016254857
153	0xbc8ca30c	-0.01716759
154	0xbd33cd1d	-0.043896783
155	0x3d5f919a	0.054582216
156	0xbd2ba5fb	-0.04190634
157	0x3c04ba20	0.008101016
158	0x3d9d221f	0.07672524
159	0x3d96782f	0.07347142
160	0x3ca9c080	0.020721674
161	0xbd1bd872	-0.038048215
162	0xbda243e2	-0.07923104
163	0x3c8d3fd4	0.01724235
164	0x3db427fb	0.08796688
165	0xbd996123	-0.074892305
166	0x3b969dd0	0.0045964494
167	0x3b446ce0	0.002997212
168	0x3ca3fb28	0.020017222
169	0x3d46afbe	0.048507445
170	0xbd4a76d9	-0.04942975
171	0xbd70449f	-0.058659192
172	0xbd9488f4	-0.07252684
173	0xbd4338c2	-0.04766155
174	0xbd1648eb	-0.036690634
175	0xbd76d61f	-0.060262796
176	0x3d61bfb6	0.05511447
177	0xbd07f579	-0.033193085
178	0x3c105e08	0.008811481
179	0x3d074c2a	0.03303162
180	0x3da2ebc7	0.07955127
181	0xbc804a68	-0.01566048
182	0xbc6a6038	-0.014305167
183	0x3d759dee	0.059965067
184	0xbb892370	-0.0041851327
185	0xbd881920	-0.06645417
186	0xbdb2ee4e	-0.08736859
187	0xbbceec20	-0.0063147694
188	0x3d38835e	0.045047157
189	0x3d913e03	0.07091906
190	0xba57c800	-0.00082314014
191	0xbd2db89e	-0.042412393
192	0xbd899589	-0.06717975
193	0xbd1c98ab	-0.038231533
194	0x3b9a1310	0.0047019795
195	0xbdb024af	-0.08600747
196	0x3d4e02e2	0.050295718
197	0x3d8acd55	0.06777445
198	0x3c98c7c0	0.018649936
199	0xbc216300	-0.009850264
200	0xbda4dfa0	-0.080504656
201	0x3d92f08b	0.07174786
202	0xbdaff694	-0.08591953
203	0xbd9be5c4	-0.07612184
204	0xbd708654	-0.058721855
205	0x3c9bb58c	0.019007467
206	0x3d149e34	0.036283687
207	0xbdb42322	-0.087957636
208	0x3c832a00	0.016011238
209	0x3d203966	0.03911724
210	0x3cc18364	0.023622222
211	0x3c5d3f20	0.01350382
212	0x3bbffd50	0.0058590546
213	0xbcd053a0	-0.0254305
214	0x3d3c7a66	0.046015166
215	0xbd62fa74	-0.055414632
216	0xbd3186d9	-0.04334149
217	0x3cc198e4	0.023632474
218	0x3d8086d5	0.06275717
219	0xbd4cde19	-0.050016496
220	0xbd5f2229	-0.054475937
221	0x3da10401	0.07862092
222	0x3d99249f	0.07477688
223	0xbdac6521	-0.08417726
224	0x3d927ab1	0.07152308
225	0xbcdfdd36	-0.027327161
226	0xbd7f2766	-0.062293433
227	0xbc9119f0	-0.017712563
228	0x3c665c68	0.014060117
229	0xbd202cb1	-0.03910512
230	0x3d7a15aa	0.061055817
231	0x3c64aea8	0.013957657
232	0xbd85673b	-0.0651383
233	0xbc027998	-0.0079635605
234	0x3d878513	0.06617179
235	0xbd4066bd	-0.04697298
236	0xbd80eb94	-0.06294933
237	0xbb225040	-0.002476707
238	0x3d46a3ba	0.048495986
239	0x3d894fc3	0.067046665
240	0x3d2d6bc2	0.042339094
241	0x3d86d08d	0.06582747
242	0x3d818cfb	0.06325718
243	0x3d32463e	0.04352402
244	0x3d8e81fb	0.069583856
245	0xbdb423ef	-0.08795916
246	0xbc947ce8	-0.018125966
247	0xbd3b1bb9	-0.045680735
248	0x3d2a2cf6	0.041546784
249	0x3c9d9160	0.01923436
250	0x3d4a78a6	0.049431466
251	0xbdad2bdc	-0.08455631
252	0x3da66957	0.08125561
253	0x3bb82aa0	0.0056203157
254	0xbc4d5a08	-0.012533672
255	0x3d12bcc0	0.035824537

bias_ih_l0 f4 [512]
0	0x3e37a4ae	0.17933914
1	0x3e5c1c61	0.214952
2	0x3e91902f	0.28430316
3	0x3e5bf126	0.2147871
4	0x3e91ae87	0.28453466
5	0x3e2df3c9	0.16987528
6	0x3e9a20ea	0.30103236
7	0x3e1b9b56	0.15195975
8	0x3e7c7f60	0.24657965
9	0x3e86eff2	0.2635494
10	0x3e1c66ac	0.15273541
11	0x3e694df4	0.22783643
12	0x3e8560b9	0.26050356
13	0x3e3d4731	0.18484189
14	0x3e70184b	0.23446767
15	0x3e13d6e8	0.14437449
16	0x3e48074c	0.19534034
17	0x3e3427a0	0.1759324
18	0x3e6049d0	0.21903157
19	0x3e3157ce	0.17318651
20	0x3e9700ee	0.29492897
21	0x3e1feea4	0.15618378
22	0x3e918568	0.28422093
23	0x3e94c1fe	0.29054254
24	0x3e8fdacf	0.28096625
25	0x3e6d7ab2	0.23191336
26	0x3e543271	0.20722367
27	0x3e24efde	0.16107127
28	0x3e3eb28e	0.186228
29	0x3e6a553b	0.22884075
30	0x3e7e40f0	0.24829459
31	0x3e825e89	0.2546275
32	0x3e7360d1	0.23767401
33	0x3e9944bc	0.29935253
34	0x3e39e807	0.18154918
35	0x3e9cd402	0.306305
36	0x3e3bbd41	0.18333913
37	0x3e945507	0.2897112
38	0x3e2f9e4e	0.17150232
39	0x3e9e92e2	0.30971438
40	0x3e1237ea	0.14279142
41	0x3e98afb8	0.29821563
42	0x3e47a668	0.19497073
43	0x3e6de32e	0.23231193
44	0x3e236aff	0.15958785
45	0x3e7e346f	0.2482469
46	0x3e98b94e	0.29828876
47	0x3e215dab	0.15758388
48	0x3e836f25	0.25670734
49	0x3e8fd017	0.28088447
50	0x3e493570	0.19649291
51	0x3e9530a7	0.2913868
52	0x3e29035e	0.1650519
53	0x3e87964e	0.2648186
54	0x3e447ca4	0.19188172
55	0x3e1304f5	0.1435736
56	0x3e78114c	0.24225348
57	0x3e34357a	0.17598525
58	0x3e15da4c	0.14634055
59	0x3e24ca4b	0.16092794
60	0x3e36e278	0.17859828
61	0x3e8360b2	0.2565971
62	0x3e8cbbb0	0.27486944
63	0x3e7c3c5f	0.24632405
64	0x3e922eff	0.2855148
65	0x3e99ed52	0.30063874
66	0x3e88b238	0.2669847
67	0x3ea5b100	0.32361603
68	0x3e5679c7	0.20944892
69	0x3e1d4fa8	0.15362418
70	0x3e6de55e	0.23232028
71	0x3e9216b3	0.28532943
72	0x3e5640ec	0.20923203
73	0x3e417168	0.18890917
74	0x3ea2cd82	0.31797415
75	0x3e6ce546	0.23134336
76	0x3e4e6bcb	0.20158307
77	0x3e642681	0.22280313
78	0x3e9919d2	0.29902512
79	0x3e3cdb64	0.18443066
80	0x3e5eac0b	0.21745317
81	0x3e847407	0.25869772
82	0x3e42e82f	0.19033884
83	0x3e93b0f6	0.28845948
84	0x3e546394	0.20741111
85	0x3e97da51	0.2965875
86	0x3e2203af	0.15821718
87	0x3e83795f	0.25678536
88	0x3e3a19fd	0.18173976
89	0x3e82ab26	0.255212
90	0x3e1d318f	0.15350936
91	0x3e31e4d1	0.17372443
92	0x3e6be786	0.23037538
93	0x3e2e55c5	0.17024906
94	0x3e1d972c	0.15389699
95	0x3e4bcdde	0.19902751
96	0x3e88d677	0.26726124
97	0x3e8ea2a1	0.2785845
98	0x3e904f98	0.28185725
99	0x3e72264b	0.2364742
100	0x3e5430a2	0.20721677
101	0x3e95a036	0.29223794
102	0x3e1f9a37	0.15586172
103	0x3e3b32be	0.18281075
104	0x3e01f2a8	0.12690222
105	0x3e89480f	0.2681279
106	0x3e813b00	0.25240326
107	0x3e306dd6	0.17229399
108	0x3e5bef20	0.21477938
109	0x3e6d2154	0.23157245
110	0x3e76543d	0.24055572
111	0x3e9f1d25	0.31076923
112	0x3e3193ec	0.17341584
113	0x3e51afa6	0.20477161
114	0x3e262161	0.1622367
115	0x3e6079db	0.21921484
116	0x3e66fc13	0.22557096
117	0x3e921039	0.28528002
118	0x3ea032a8	0.31288648
119	0x3e7da111	0.24768473
120	0x3e40dc48	0.1883403
121	0x3e5a2bd2	0.21305779
122	0x3ea0d7a5	0.31414524
123	0x3e5e4c3d	0.2170877
124	0x3e0b395d	0.13596101
125	0x3e84e014	0.25952208
126	0x3e8d5be4	0.2760917
127	0x3e197d77	0.14989267
128	0xbd69090d	-0.056893397
129	0x3d68165e	0.056661956
130	0xbba5f200	-0.005064249
131	0x3d81b811	0.06333936
132	0x3d949719	0.07255382
133	0x3d2d457e	0.0423026
134	0x3da4461d	0.080211855
135	0xbcf42dea	-0.02980705
136	0x3d256cce	0.040386967
137	0x3c91cb8c	0.017797254
138	0xbd035805	-0.032066364
139	0x3baf40c0	0.005348295
140	0x3c97c5b0	0.018526882
141	0x3d8692df	0.06570982
142	0xbd5315a1	-0.0515343
143	0x3da2260b	0.07917412
144	0x3ca13178	0.019676909
145	0xbcb8ebc4	-0.02257336
146	0xbda72599	-0.08161468
147	0xbda79aea	-0.081838444
148	0xbda8c917	-0.0824148
149	0x3c2da448	0.01059825
150	0x3d8139d5	0.06309859
151	0xbcfb135e	-0.030648883
152	0xbb4bb4a0	-0.0031083003
153	0xbd99722b	-0.07492479
154	0x3d8c8921	0.06862093
155	0xbd806e0a	-0.06270988
156	0x3d664486	0.056217693
157	0x3c99ffe4	0.018798776
158	0x3cce1e58	0.025160953
159	0x3d7af4ee	0.06126874
160	0xbd4a55de	-0.049398296
161	0xbc951a6c	-0.018201075
162	0x3cf07c64	0.02935619
163	0xbd69e452	-0.05710251
164	0xbdb428b8	-0.08796829
165	0x3d90ccd5	0.070703186
166	0x3c83617c	0.016037695
167	0x3c7dd670	0.01549302
168	0x3cc3b9f0	0.023892373
169	0x3d28efce	0.04124432
170	0x3cd050f0	0.025429219
171	0xbd68fbed	-0.05688088
172	0xbd3586ef	-0.044318136
173	0xbb4da7a0	-0.003138043
174	0xbb78daa0	-0.0037972108
175	0x3d4edf4e	0.05050593
176	0xbd918232	-0.07104911
177	0xbd9c33ac	-0.07627043
178	0xbc978568	-0.01849623
179	0x3ce65d04	0.028120525
180	0x3c103b00	0.008803129
181	0xbd86339a	-0.06552811
182	0xbd6260d6	-0.05526813
183	0x3d9a3409	0.07529456
184	0x3d32078e	0.043464236
185	0x3b46db20	0.003034301
186	0x3d364e36	0.04450818
187	0xbd208cab	-0.03919665
188	0x3cc67e60	0.024230182
189	0x3da4fbdf	0.08055853
190	0x3d37119a	0.04469452
191	0x3c9ce218	0.019150779
192	0xbc81f8a0	-0.015865624
193	0xbc816da8	-0.015799358
194	0x3ccded48	0.025137559
195	0x3d98bad9	0.07457513
196	0xbc9f8a98	-0.019475266
197	0xbcfc534a	-0.030801434
198	0xbbf0ec10	-0.0073523596
199	0xbd8b553d	-0.06803367
200	0xbca28228	-0.019837454
201	0xbbbf71d0	-0.005842425
202	0xbc94cc30	-0.01816377
203	0xbd4f6774	-0.05063577
204	0x3cc80738	0.024417505
205	0xbdb0915d	-0.08621476
206	0xbc456ea8	-0.012050308
207	0x3d1c5412	0.038166113
208	0xbb1862e0	-0.0023252293
209	0xbd4aa38d	-0.04947238
210	0x3c5ffea8	0.013671555
211	0xbc9d5da0	-0.019209683
212	0x3cb87278	0.02251552
213	0xbda9511c	-0.082674235
214	0x3d997a9b	0.07494088
215	0xbdb07564	-0.086161405
216	0x3d594b4e	0.05305033
217	0xbb1f98a0	-0.0024352446
218	0xbc0b1928	-0.008489884
219	0xbda962c0	-0.08270788
220	0x3d0662a0	0.0328089
221	0x3daab111	0.08334554
222	0xbd073185	-0.03300621
223	0x3d8fbbcb	0.070182405
224	0x3d140c10	0.036144316
225	0x3d6899fa	0.05678747
226	0xbd1ffdd5	-0.039060432
227	0xbdb4d64d	-0.08829937
228	0xbcba8ef0	-0.022773236
229	0x3d115b70	0.035487592
230	0xbd70235e	-0.05862748
231	0xbd36ece8	-0.044659525
232	0x3d3d1c22	0.046169408
233	0x3db481e5	0.08813838
234	0x3d40beda	0.04705701
235	0xbd998cda	-0.074975684
236	0xbcb9cab4	-0.022679664
237	0xbd8679b6	-0.06566183
238	0x3c134128	0.008987702
239	0x3cd86e9c	0.02641993
240	0xbc438ea0	-0.01193586
241	0xbd7b707c	-0.06138657
242	0xbd076646	-0.03305652
243	0x3d928cf9	0.07155795
244	0x3d8fc48b	0.070199095
245	0x3db1d30f	0.08682834
246	0xbdaddda6	-0.08489542
247	0xbd18abb1	-0.037273113
248	0xbd0fe04c	-0.035126016
249	0x3cc457f0	0.023967713
250	0xbd92f917	-0.07176416
251	0x3c5326b8	0.012887649
252	0xbd1b1f1b	-0.03787146
253	0x3d2e62fa	0.04257486
254	0xbd93adb5	-0.07210866
255	0xbd614db7	-0.055005755

bias_hh_l0 f4 [512]
0	0x3e8d5cf1	0.2760997
1	0x3e8b318d	0.27186242
2	0x3e30316a	0.1720635
3	0x3e1d95f9	0.15389241
4	0x3e742371	0.23841645
5	0x3e5981e3	0.21240954
6	0x3e3c00db	0.18359701
7	0x3e989e16	0.2980811
8	0x3e9bad71	0.30405763
9	0x3e7b9d90	0.24571824
10	0x3ea25e43	0.3171254
11	0x3e70bec0	0.23510265
12	0x3e7c166b	0.24617927
13	0x3e4cffc3	0.2001944
14	0x3e50f7dc	0.20407051
15	0x3e79aae2	0.24381593
16	0x3e8ee809	0.27911404
17	0x3e1bbc16	0.15208468
18	0x3e6a3ef8	0.22875583
19	0x3e4a02b3	0.19727592
20	0x3e19c4f2	0.15016535
21	0x3e4c04d0	0.19923711
22	0x3e36e256	0.17859778
23	0x3e12bbeb	0.14329498
24	0x3e971f7f	0.29516217
25	0x3e6c9a64	0.2310577
26	0x3e913b02	0.28365332
27	0x3e7bfa14	0.24607116
28	0x3e6831f6	0.22675309
29	0x3e60ccbf	0.21953104
30	0x3e75db32	0.24009398
31	0x3e56a3f4	0.2096098
32	0x3ea771b7	0.32703945
33	0x3e839824	0.25702012
34	0x3e7a936d	0.24470301
35	0x3e6b6cf7	0.22990786
36	0x3e59a2e0	0.21253538
37	0x3e2f4dcb	0.1711952
38	0x3e9586ea	0.29204494
39	0x3e90f6bc	0.28313243
40	0x3e35c602	0.17751315
41	0x3e89e6e0	0.26933956
42	0x3e4bb95e	0.1989493
43	0x3e9ba4b5	0.303991
44	0x3e6a44a9	0.22877754
45	0x3e44925c	0.19196457
46	0x3e3ce358	0.184461
47	0x3e9549c3	0.29157838
48	0x3e865a64	0.26240838
49	0x3e34a7b3	0.17642097
50	0x3e876bc1	0.26449397
51	0x3e6a1678	0.22860134
52	0x3e917ba1	0.28414634
53	0x3e914b04	0.28377545
54	0x3e8ea3e5	0.27859417
55	0x3e885a67	0.26631472
56	0x3e1a2392	0.15052631
57	0x3e33e1f9	0.1756667
58	0x3e7e4b33	0.24833374
59	0x3e999a50	0.30000544
60	0x3e929b7f	0.2863426
61	0x3e27dc87	0.16392718
62	0x3e2b2f86	0.16717348
63	0x3e8c220e	0.27369732
64	0x3e715170	0.23566222
65	0x3e8c3c5b	0.27389798
66	0x3e57b145	0.21063717
67	0x3e8872e2	0.2665015
68	0x3e775ef5	0.24157317
69	0x3e342b31	0.17594601
70	0x3e66955a	0.2251791
71	0x3e87eec5	0.26549354
72	0x3e850a2a	0.25984317
73	0x3e927676	0.28606004
74	0x3e883294	0.26601088
75	0x3e646ae4	0.223064
76	0x3e8a70e8	0.27039266
77	0x3e73a45f	0.23793171
78	0x3e8d8f4b	0.27648386
79	0x3e668632	0.22512129
80	0x3e9fdb6d	0.31222096
81	0x3e9ef893	0.31049022
82	0x3e9db745	0.30803886
83	0x3e9717d8	0.2951038
84	0x3e8e20ca	0.2775939
85	0x3e8891c5	0.26673713
86	0x3e14d3df	0.14533947
87	0x3e1c43fc	0.15260309
88	0x3e9d4bfc	0.30722034
89	0x3e9669ec	0.29377687
90	0x3e8223d7	0.2541797
91	0x3e5a868f	0.21340393
92	0x3e86c93a	0.263254
93	0x3e66b0ac	0.22528332
94	0x3e6af6f9	0.22945775
95	0x3e31e0bc	0.17370886
96	0x3e1d3168	0.15350878
97	0x3e9a1e00	0.30101013
98	0x3e47d472	0.19514635
99	0x3e75c0b2	0.23999289
100	0x3e83d35f	0.257472
101	0x3e82c639	0.25541857
102	0x3e552a3a	0.2081689
103	0x3e6900fd	0.22754283
104	0x3e89a347	0.26882383
105	0x3e97a209	0.2961581
106	0x3e334183	0.1750546
107	0x3e51dd5e	0.20494601
108	0x3e8c4ccf	0.2740235
109	0x3e21777d	0.15768237
110	0x3e9afdb5	0.30271688
111	0x3e84f7b3	0.2597023
112	0x3e9b1b9f	0.3029451
113	0x3e4ebb02	0.20188525
114	0x3e8f38c9	0.2797301
115	0x3e96e72d	0.29473248
116	0x3e1f2485	0.15541275
117	0x3e9296a9	0.2863057
118	0x3e42ab76	0.1901072
119	0x3e93b64d	0.28850022
120	0x3e2439d8	0.1603769
121	0x3e656d3a	0.22404948
122	0x3e8d9e3d	0.2765979
123	0x3e595ca5	0.21226747
124	0x3e872538	0.26395583
125	0x3e46bbf1	0.19407631
126	0x3e8ef5a1	0.27921775
127	0x3e15072c	0.14553517
128	0xbda68f70	-0.08132827
129	0xbc398230	-0.011322543
130	0x3c0118d0	0.007879451
131	0xbd5f25d7	-0.054479446
132	0xbd954d4f	-0.07290136
133	0xbbe6cd60	-0.0070435256
134	0xbc041458	-0.008061491
135	0x3c233ef0	0.009963736
136	0xbd58178f	-0.052756842
137	0x3d5a4072	0.053284116
138	0xbd97ceb6	-0.07412474
139	0x3d8d5f2b	0.069029175
140	0x3d3335b2	0.04375238
141	0x3d6931b2	0.05693216
142	0x3dab7f21	0.08373857
143	0xbd9eb05a	-0.0774848
144	0xbc0196e0	-0.007909507
145	0x3cbd9eb8	0.023146972
146	0x3cd673d0	0.02617827
147	0xbb831200	-0.0039999485
148	0xbd67958e	-0.05653911
149	0xbdb40044	-0.08789113
150	0x3c8adcac	0.016950928
151	0x3d4b6656	0.049658142
152	0x3cf9b144	0.030480035
153	0x3d288eee	0.041151933
154	0x3d8306a5	0.06397752
155	0xbcb511fc	-0.022103302
156	0x3c3363d0	0.01094909
157	0x3d9a17df	0.07524084
158	0x3d78e366	0.06076374
159	0x3cf28310	0.029603511
160	0x3cabc1f8	0.020966515
161	0xbc83c48c	-0.016084932
162	0x3b22e080	0.002485305
163	0x3d8990ed	0.067170955
164	0x3d9180cf	0.071046464
165	0xbd6eeb0e	-0.058329634
166	0xbce9e064	-0.02854938
167	0x3cef96f8	0.029246792
168	0x3ce4f4ac	0.0279487
169	0xbd80346d	-0.062599994
170	0xbd772e4a	-0.06034688
171	0x3d3bd646	0.045858644
172	0xbd55b592	-0.052175112
173	0xbd0d58b3	-0.03450842
174	0xbd644214	-0.05572708
175	0x3d34192e	0.043969326
176	0xbd2f8e0a	-0.04286007
177	0x3bb320b0	0.005466543
178	0xbd9e0ce4	-0.077173024
179	0xbc815018	-0.015785262
180	0xbd4f0492	-0.050541468
181	0xbce69c8c	-0.02815082
182	0xbda7fd14	-0.08202568
183	0xbd0dfcbc	-0.034664854
184	0xbd40c37d	-0.047061432
185	0xbd122db7	-0.03568813
186	0xbd825545	-0.0636392
187	0xbda7a0d4	-0.081849724
188	0xbd352cb1	-0.044232074
189	0xbd804684	-0.0626345
190	0xbd5ad1d1	-0.053422753
191	0xbc114e98	-0.008868836
192	0xbda8413a	-0.08215566
193	0x3bac08f0	0.005250089
194	0xbd99dfd4	-0.07513395
195	0x3d577622	0.052602895
196	0xbd20a69c	-0.03922139
197	0xbda6c3c9	-0.08142812
198	0xbd52b02f	-0.051437553
199	0x3d1bb662	0.03801573
200	0x3daa3e27	0.08312636
201	0x3d04736a	0.03233663
202	0x3c67eb90	0.014155284
203	0xbd9d4d7e	-0.07680796
204	0x3d8a46c3	0.06751778
205	0x3da20b33	0.07912292
206	0xbc7ab418	-0.015301727
207	0xbd6cbff8	-0.057800263
208	0xbdafeb30	-0.0858978
209	0x3d2448a2	0.04010833
210	0xbcc5ee80	-0.024161577
211	0xbb8d2f50	-0.0043086186
212	0xbd226e14	-0.03965576
213	0xbc33f788	-0.010984309
214	0xbd8ea4f6	-0.069650576
215	0x3ca46188	0.020066038
216	0x3d4736ee	0.04863637
217	0x3d9b1075	0.07571498
218	0xbc7e7378	-0.01553046
219	0xbd9856d0	-0.07438433
220	0xbc894384	-0.016755827
221	0x3d1a2a82	0.037638195
222	0xbd2ef29b	-0.042711835
223	0xbd8dc6f6	-0.069227144
224	0xbd589d37	-0.052884307
225	0xbd113bda	-0.03545747
226	0x3c64bca8	0.013960995
227	0xbbd12c10	-0.0063834265
228	0x3d1cd04a	0.038284577
229	0xbbf4dfd0	-0.0074729696
230	0xbda88b82	-0.08229734
231	0xbd205cf9	-0.039151166
232	0xbda788d9	-0.081803985
233	0xbbf31ac0	-0.0074189603
234	0xbca7a074	-0.020462252
235	0xbd99537b	-0.07486626
236	0xbc059fc8	-0.008155771
237	0xbdb0f849	-0.08641107
238	0xbbe10f80	-0.006868303
239	0x3d86eab7	0.06587737
240	0x3d657c5a	0.056026794
241	0xbd2fed52	-0.042950936
242	0x3d6a6c76	0.057232343
243	0xbcf51b22	-0.029920164
244	0xbaedf2c0	-0.001815401
245	0x3c905360	0.017617881
246	0xbd3344fc	-0.04376696
247	0x3d2bc8a2	0.041939385
248	0x3d05f1e0	0.032701373
249	0xbdab2d6f	-0.08358275
250	0xbd63f054	-0.055649117
251	0x3d9864bd	0.07441089
252	0xbd6da900	-0.0580225
253	0x3c8ed258	0.017434284
254	0xbaaa0dc0	-0.0012974069
255	0x3d97a63b	0.07404753

weight f4 [1, 128]
0	0xbe9f4fb4	-0.31115496
1	0xbe99aa8c	-0.3001293
2	0x3e8ef012	0.27917534
3	0x3eacfcb6	0.33786553
4	0xbe8b7183	-0.2723504
5	0xbea718ca	-0.326361
6	0xbeacc7ee	-0.33746284
7	0x3ea66e34	0.32505953
8	0x3ea7405c	0.3266629
9	0xbea8b141	-0.32947734
10	0xbe88c453	-0.26712283
11	0x3eaca3cb	0.33718714
12	0x3ea06e79	0.31334284
13	0xbe866025	-0.26245227
14	0xbe930276	-0.28712815
15	0xbe97610d	-0.2956623
16	0xbe96b44d	-0.29434434
17	0x3eaf3724	0.34221756
18	0xbe89b8c1	-0.2689877
19	0xbeae980b	-0.34100375
20	0x3e89df8e	0.2692837
21	0x3e96d2a9	0.29457596
22	0x3e885df0	0.2663417
23	0x3e87a8aa	0.26495868
24	0xbe88a18f	-0.2668576
25	0x3e8cae49	0.2747672
26	0xbe8b4523	-0.27201185
27	0xbe9cd518	-0.30631328
28	0xbeac20c7	-0.33618757
29	0x3eb14994	0.34626448
30	0x3e95605a	0.29175073
31	0xbe9c6dcc	-0.30552518
32	0x3e85314d	0.26014176
33	0xbeab02bc	-0.33400524
34	0xbea07f30	-0.31347036
35	0x3ea2bba1	0.31783774
36	0xbe8f40b3	-0.2797905
37	0x3e912975	0.28351942
38	0x3eab3cba	0.33444768
39	0xbe9c6317	-0.3054435
40	0x3e965cc2	0.29367644
41	0x3e89da30	0.26924276
42	0x3e898ca0	0.268651
43	0xbe9f1b4b	-0.3107551
44	0x3e88798a	0.26655227
45	0xbead7e0c	-0.3388523
46	0xbe7f5e31	-0.24938275
47	0xbea5b0a1	-0.3236132
48	0xbea81b63	-0.32833394
49	0xbea4f9e1	-0.32221892
50	0xbe95bf1b	-0.29247364
51	0xbeaa8150	-0.33301783
52	0x3eaa0cf2	0.33213
53	0xbe8a5b62	-0.27022845
54	0xbe9029e7	-0.2815697
55	0xbe95fe92	-0.29295784
56	0x3ead029c	0.33791053
57	0xbe95fb3a	-0.29293233
58	0x3e999d92	0.3000303
59	0x3e87f16b	0.26551375
60	0xbe8f986c	-0.28045976
61	0x3e9e5e22	0.30931193
62	0x3eab086f	0.33404872
63	0xbe913831	-0.28363183
64	0xbeb0bf08	-0.34520745
65	0x3eb1e20a	0.34742767
66	0x3e906fcf	0.28210303
67	0x3e8f124a	0.2794364
68	0xbe8c7ae0	-0.27437496
69	0x3ea34f24	0.31896317
70	0x3e9c1b4f	0.30489585
71	0xbeaf386e	-0.3422274
72	0xbe8a73e7	-0.2704155
73	0xbea02f04	-0.3128587
74	0x3e9b15dc	0.30290115
75	0x3e9b13bf	0.30288503
76	0x3e8bbf96	0.27294606
77	0xbeb0b49a	-0.34512788
78	0x3ea816f4	0.32830012
79	0xbea54593	-0.32279643
80	0x3e8572a9	0.2606404
81	0xbe868b41	-0.26278117
82	0xbe9373ff	-0.28799435
83	0x3ea78178	0.32715964
84	0xbea07889	-0.3134196
85	0x3e917df6	0.28416413
86	0x3e915cab	0.28391013
87	0xbe8472d6	-0.25868863
88	0x3e86123e	0.26185793
89	0x3e9a0925	0.30085102
90	0x3e8bc7b3	0.27300796
91	0xbe9a9052	-0.30188233
92	0xbeaed428	-0.34146237
93	0x3ea94dff	0.3306732
94	0xbea4b8cd	-0.32172242
95	0x3ead8b42	0.33895308
96	0x3e89c4d5	0.26907983
97	0x3e855817	0.2604377
98	0x3eab475f	0.3345289
99	0xbe9a87f6	-0.30181855
100	0x3e8fce9c	0.28087318
101	0xbeaae397	-0.33376762
102	0xbe9cd103	-0.30628213
103	0x3ea76ba3	0.32699308
104	0x3e8cc22f	0.274919
105	0x3eb0eb40	0.34554482
106	0x3eabe51c	0.33573234
107	0xbea53449	-0.32266453
108	0x3e8bda0c	0.27314794
109	0x3ea269b2	0.31721264
110	0xbe94aac7	-0.29036543
111	0xbea9382b	-0.33050665
112	0x3ea409b8	0.32038665
113	0x3ea52cce	0.32260746
114	0xbe961c96	-0.29318684
115	0xbe9168c4	-0.28400242
116	0xbe921ea9	-0.28539017
117	0xbe992d7e	-0.2991752
118	0xbe89baf3	-0.26900443
119	0x3e8f08bb	0.27936348
120	0x3ea0860b	0.31352267
121	0xbe9fb271	-0.31190827
122	0xbe8c49b1	-0.27399972
123	0x3e8ad960	0.2711897
124	0x3ea9e339	0.3318117
125	0xbe9e45e6	-0.30912703
126	0xbe97c4ad	-0.2964224
127	0xbe97e802	-0.29669195
