best_models/publisher/simple_lstm_best.pth (torch, 466082 bytes, 5 tensors)

lstm.weight_ih_l0 f4 [512, 96]
0	0x3d15859f	0.036504384
1	0x3d3f267a	0.046667553
2	0xbd4bd779	-0.049766038
3	0x3d42edad	0.047589947
4	0xbd81e9fb	-0.06343456
5	0xbbd83d7f	-0.006599128
6	0x3d4e5d2c	0.050381824
7	0x3d07192e	0.032982998
8	0xbd21e89e	-0.03952848
9	0xbbd8ac3b	-0.0066123283
10	0xbcef7d6d	-0.029234612
11	0x3c51a33c	0.012795266
12	0x3e02dd7a	0.12779799
13	0xbdee517c	-0.11636636
14	0x3e0a7788	0.1352216
15	0xbd05976b	-0.032615107
16	0x3d377282	0.044786938
17	0x3d5fd20e	0.054643683
18	0xbd6030b0	-0.054733932
19	0xbd393259	-0.04521403
20	0x3da31452	0.0796286
21	0xbc807055	-0.015678564
22	0xbe7196ba	-0.23592654
23	0xbe01dfff	-0.12683104
24	0xbdff6dbd	-0.12472103
25	0x3db20bee	0.08693682
26	0x3e2db1b5	0.16962321
27	0xbe402f78	-0.18768108
28	0xbdbeaeae	-0.09310661
29	0xbde39256	-0.11111896
30	0x3d5218c0	0.051293135
31	0x3e220858	0.15823495
32	0xbe005a87	-0.12534533
33	0xbe278aa7	-0.16361485
34	0x3e2bf828	0.16793883
35	0xbe03ab93	-0.12858419
36	0x3dac3c11	0.08409894
37	0xbd6b41d5	-0.05743583
38	0x3ce1f1cc	0.027581118
39	0xbe03839d	-0.12843175
40	0x3e2d139f	0.16902016
41	0xbe366873	-0.17813282
42	0x3e2b215f	0.16711949
43	0x3e09596f	0.13413022
44	0xbd9110f5	-0.070833124
45	0xbd60b16b	-0.0548567
46	0xbe54701a	-0.20745888
47	0x3e285699	0.16439284
48	0xbdd63abf	-0.10460424
49	0x3cfc7e4f	0.030821947
50	0x3e5a54bc	0.21321386
51	0x3d01b84b	0.031669896
52	0x3da01b03	0.07817652
53	0x3dcca640	0.09992647
54	0x3db07827	0.08616667
55	0xbd5aea85	-0.05344631
56	0x3dbf8ef9	0.09353442
57	0xbd88b514	-0.06675163
58	0xbe3b262a	-0.18276277
59	0x3e428c93	0.18998937
60	0x3c0720cf	0.008247568
61	0x3d47aa57	0.048746433
62	0x3e136f3a	0.14397898
63	0x3d29de0f	0.041471537
64	0xbbcaa999	-0.0061847684
65	0xbd1812d8	-0.037127346
66	0xbddc5c7b	-0.10759827
67	0xba598a52	-0.00082985044
68	0x3e134249	0.14380755
69	0x3c8ea61a	0.017413188
70	0x3d501c57	0.050808277
71	0x3db5641f	0.08856987
72	0xbcedabda	-0.02901261
73	0xbdd12c49	-0.10213525
74	0x3d15b258	0.036547035
75	0x3c444eb4	0.011981655
76	0x3e284a2b	0.16434543
77	0xbc08684d	-0.0083256485
78	0xbd27342f	-0.04082125
79	0x3e04a918	0.12955129
80	0xbcefc6c5	-0.029269585
81	0xbd3feab9	-0.04685471
82	0x3da32bd3	0.07967343
83	0x3ca3f66f	0.02001497
84	0x3cea900b	0.028633138
85	0xbc3162f9	-0.01082682
86	0x3caf8b9c	0.021428876
87	0x3e1f30c8	0.15545952
88	0x3d1c864e	0.03821402
89	0x3cc89af0	0.024487942
90	0x3e466eb3	0.19378166
91	0x3e417c0b	0.18894975
92	0xbd102db9	-0.035199855
93	0x3c8aa414	0.016923942
94	0xbd1cc445	-0.038273115
95	0xbdb1cb2b	-0.08681329
96	0xbe400d8b	-0.18755166
97	0xbd7429ef	-0.059610303
98	0xbe61b85c	-0.22042984
99	0xbd4f2ed7	-0.05058178
100	0x3d95efbf	0.073211186
101	0xbdd2bcc0	-0.102899075
102	0xbd6d1f00	-0.057890892
103	0xbdd89fff	-0.10577392
104	0xbcfc50f1	-0.030800315
105	0xbdf55b3b	-0.119802915
106	0xbe1f11b3	-0.15534095
107	0x3e1942a1	0.14966823
108	0xbd9b0a1e	-0.07570289
109	0xbe238106	-0.15967187
110	0x3d964824	0.073379785
111	0xbe5bdfc1	-0.21472074
112	0xbdc40500	-0.09571266
113	0xbe61fc89	-0.22068991
114	0xbe579e4c	-0.21056479
115	0x3cd9268d	0.02650764
116	0x3e3a5d93	0.18199758
117	0xbe5d24a9	-0.21596016
118	0x3e208630	0.15676188
119	0x3dd541a2	0.10412909
120	0x3dab4b10	0.083639264
121	0x3cf7cb54	0.030248322
122	0x3e963ede	0.2934484
123	0xbdadef3a	-0.084928945
124	0x3d8613f7	0.06546777
125	0x3a3b46f2	0.00071440556
126	0x3d279f7f	0.04092359
127	0x3e95ba45	0.29243675
128	0xbe0c5c63	-0.13707118
129	0x3d899fe2	0.06719948
130	0x3c12e487	0.008965618
131	0x3de4d562	0.11173512
132	0x3c93c652	0.018038902
133	0xbbd29a35	-0.0064270743
134	0xbe245801	-0.16049196
135	0xbdad8065	-0.08471755
136	0x3e72f7fe	0.23727414
137	0xbdf290b9	-0.1184401
138	0xbd166299	-0.036715124
139	0x3d7efe52	0.062254258
140	0xbcb8a43f	-0.022539256
141	0x3c82b37a	0.015954722
142	0xbd0c6d24	-0.034283772
143	0xbe6a7b29	-0.22898544
144	0xbd9a7cdf	-0.075433485
145	0x3d9e84c3	0.07740166
146	0x3d2d72cc	0.042345807
147	0x3dd7a8ab	0.10530218
148	0x3e0f9450	0.1402142
149	0x3d6c04c3	0.05762173
150	0x3cdcd85b	0.026958635
151	0x3e1516a8	0.14559424
152	0x3e1053c5	0.14094456
153	0xbd902c51	-0.07039703
154	0xbda57a36	-0.080799505
155	0xbe899d03	-0.26877603
156	0xbc51d364	-0.012806747
157	0xbda77ba1	-0.08177877
158	0xbdcdc0aa	-0.100465134
159	0x3d21c876	0.039497815
160	0xbe84960a	-0.2589572
161	0x3e13b99d	0.14426275
162	0xbd2019f9	-0.03908727
163	0xbe35751b	-0.17720453
164	0x3dd7fa0c	0.105457395
165	0x3e099841	0.13436987
166	0x3e192f30	0.14959407
167	0x3cd133d5	0.02553741
168	0x3ca7645e	0.020433601
169	0x3de1006b	0.10986408
170	0x3e035033	0.12823562
171	0x3de98547	0.11402374
172	0x3d9e1e32	0.07720603
173	0xbcb7b502	-0.022425178
174	0xbd8d6f01	-0.06905938
175	0x3d6fd8a4	0.058556214
176	0x3e2278b7	0.15866362
177	0x3e3060ae	0.1722438
178	0xbdb34726	-0.08753805
179	0xbcd6d02e	-0.026222315
180	0xbda80a99	-0.08205146
181	0xbd01636b	-0.031588953
182	0xbd9b9519	-0.075967975
183	0x3dbd3cc7	0.09240108
184	0xbdb33faa	-0.08752377
185	0xbe200e4e	-0.15630457
186	0x3df7c6d3	0.120984696
187	0x3c7e7fad	0.01553337
188	0x3cd54a61	0.026036443
189	0xbe17729f	-0.14789818
190	0x3ddbc4ea	0.10730918
191	0xbb951e94	-0.0045507643
192	0xbd7df454	-0.062000588
193	0xbdc6ae95	-0.09701268
194	0x3c5ebfcd	0.013595534
195	0xbda8b081	-0.082367904
196	0x3e04a597	0.12953793
197	0xbd4146c6	-0.047186635
198	0x3dc265f0	0.09492099
199	0x3c92cf22	0.017921034
200	0x3cf787a7	0.030216051
201	0x3dd6cb94	0.10488048
202	0xbb0ca1e8	-0.0021458808
203	0xbcd053ff	-0.025430677
204	0xbde18a66	-0.110127255
205	0x3e18691d	0.14883848
206	0xbd8f2d68	-0.069910824
207	0xbdec61cf	-0.11542093
208	0xbe0faec8	-0.14031518
209	0xbd058636	-0.032598697
210	0xbe1f1f90	-0.15539384
211	0x3e0de6d8	0.13857591
212	0xbdd88565	-0.10572318
213	0xbda84397	-0.08216017
214	0x3e025281	0.12726785
215	0x3df00474	0.11719599
216	0x3dc0ebb4	0.09419957
217	0xbd5209da	-0.051278926
218	0xbec01500	-0.37516022
219	0x3de2b4d5	0.11069647
220	0x3d4a18cb	0.04934005
221	0xbbb85326	-0.0056251464
222	0xbd6f4e05	-0.058424015
223	0xbdbf8001	-0.09350587
224	0x3d0b9949	0.03408173
225	0x3e1c5c6f	0.15269636
226	0x3ce8d662	0.028422538
227	0x3cb4c2fb	0.02206563
228	0x3cee0ca1	0.029058756
229	0xbdcdff89	-0.10058505
230	0xbdd75e9d	-0.10516093
231	0xbd0cf56b	-0.034413736
232	0x3d7c41cc	0.061586186
233	0x3e1224a9	0.14271797
234	0xbdfe76bb	-0.1242499
235	0x3cca3b5d	0.02468651
236	0x3d17e8b5	0.03708716
237	0x3c87bab7	0.016568525
238	0x3e8b59bb	0.27216896
239	0xbe8c4f3c	-0.274042
240	0xbd466bf7	-0.048442807
241	0x3e3e55be	0.18587396
242	0xbd5de1a1	-0.054170255
243	0x3d9e386f	0.077256076
244	0xbe0c69d9	-0.13712253
245	0xbd5adb2f	-0.053431686
246	0xbd39889c	-0.045296296
247	0x3e7f5d01	0.24937822
248	0xbc716dd1	-0.014735655
249	0x3d898ab1	0.067159064
250	0x3d99d800	0.07511902
251	0x3d1404b3	0.036137294
252	0xbd95e3ac	-0.073188156
253	0xbd8c2667	-0.06843262
254	0xbe52ff99	-0.20605315
255	0x3c649164	0.013950679

lstm.weight_hh_l0 f4 [512, 128]
0	0xbd51da10	-0.05123335
1	0x3d004a1e	0.031320684
2	0xbd795728	-0.060874134
3	0xbd27e92a	-0.040993847
4	0x3cb28d74	0.021795966
5	0x3da246eb	0.07923683
6	0xbd1677c6	-0.03673532
7	0xbc7da5c0	-0.015481412
8	0x3d0aff9a	0.033935167
9	0x3da750e5	0.08169726
10	0xbd7d7aef	-0.061884817
11	0x3d3a87be	0.04553961
12	0x3d7e9382	0.062152393
13	0x3da327bf	0.07966565
14	0xbcb4382c	-0.021999441
15	0x3d49968a	0.04921583
16	0x3d5f2b06	0.05448439
17	0xbd2ddaa3	-0.042444836
18	0xbc7df3a0	-0.015499979
19	0xbd170830	-0.036873043
20	0xbcbda6e0	-0.023150861
21	0x3c2dc3b8	0.010605745
22	0x3ce4822c	0.027894102
23	0x3c8280d0	0.015930563
24	0xbd52b5b5	-0.05144282
25	0xbb2d34c0	-0.0026429147
26	0x3beff650	0.007323064
27	0xbd011201	-0.03151131
28	0x3cd66f00	0.026175976
29	0x3dafdf5f	0.085875265
30	0x3d0f84d4	0.035038784
31	0x3d95a5c9	0.07307012
32	0xbdae8952	-0.085222855
33	0xbd816fb7	-0.06320136
34	0xbd55a641	-0.052160505
35	0x3d3c6996	0.045999132
36	0x3c81fe3c	0.015868299
37	0xbcb51bac	-0.022107922
38	0xbcc771e0	-0.024346292
39	0xbd938e3b	-0.07204863
40	0xbb49b360	-0.0030777082
41	0xbd49596c	-0.049157545
42	0x3d9ad115	0.075594105
43	0x3d3c60e2	0.045990832
44	0x3d492d8a	0.049115695
45	0xbcbd8494	-0.023134507
46	0xbcedc5b8	-0.029024944
47	0xbb5a4360	-0.0033304319
48	0x3c71e6c8	0.014764495
49	0xbdaa8a48	-0.08327156
50	0xbd393fe5	-0.04522695
51	0x3d1a1f16	0.037627302
52	0x3d71e726	0.05905833
53	0x3d137978	0.036004514
54	0xbd3562a7	-0.044283535
55	0x3dadb403	0.084816
56	0xbdaed661	-0.08536983
57	0x3d2cce26	0.042188786
58	0x3cce0b34	0.025151826
59	0xbcf55cde	-0.02995151
60	0x3d8f259f	0.069895975
61	0x3d3acdba	0.045606352
62	0xbbd6e610	-0.0065581873
63	0x3cd3fe44	0.02587808
64	0x3caafc14	0.020872153
65	0xbce5910e	-0.028023269
66	0xbd51cd3c	-0.051221117
67	0xbd8246cc	-0.0636116
68	0x3d955667	0.072918706
69	0x3c017740	0.007901967
70	0xbd13042b	-0.035892647
71	0x3d4e7982	0.050408848
72	0x3bbc66e0	0.0057495683
73	0xbd095fd8	-0.03353867
74	0xbd3f674c	-0.04672937
75	0x3d915a85	0.07097343
76	0x3da37c81	0.079827316
77	0x3d18e1d2	0.037324734
78	0x3d1cb4fe	0.038258545
79	0x3d559112	0.052140303
80	0xbc978470	-0.018495768
81	0xbcf4de40	-0.029891133
82	0xbd5326bc	-0.05155061
83	0xbd49cacd	-0.04926567
84	0x3c744208	0.014908321
85	0xbd4b99a6	-0.049707077
86	0xbdb206ba	-0.08692689
87	0xbb401a00	-0.0029312372
88	0x3c368d38	0.011142068
89	0x3c077628	0.008267917
90	0xbd424aa1	-0.047434453
91	0xbd9f8d11	-0.07790578
92	0xbdadc6f7	-0.08485215
93	0xbd4bc3bb	-0.04974721
94	0xbda647a0	-0.0811913
95	0xbdb0e3cf	-0.08637201
96	0x3ca2c848	0.019870892
97	0xbc83a6d0	-0.016070753
98	0x3d07f2d0	0.03319055
99	0x3b3f7d40	0.0029218942
100	0xbd8cc56c	-0.06873593
101	0x3ca283e8	0.019838288
102	0x3cec5938	0.028851137
103	0x3d6e147a	0.058124997
104	0xbda9e63f	-0.08295869
105	0xbd1eac86	-0.03873875
106	0x3c1bb208	0.009502895
107	0xbd2253cb	-0.039630692
108	0xbd31e3e8	-0.04343024
109	0xbc727298	-0.014797829
110	0x3d78b3b6	0.06071826
111	0x3d5293a6	0.05141034
112	0x3d8d1bc7	0.06890064
113	0xbd49814c	-0.049195573
114	0x3cd47cd0	0.025938421
115	0x3c8d457c	0.017245047
116	0xbd0108e1	-0.03150261
117	0x3daafab5	0.083486
118	0xbd2766d9	-0.040869568
119	0xbd02aa4e	-0.031900696
120	0x3cc23964	0.023709007
121	0x3cf0302c	0.029319845
122	0x3d5c5b22	0.05379785
123	0xbdb29b5d	-0.087210394
124	0xbd321f32	-0.04348678
125	0x3d411996	0.04714354
126	0x3c9f443c	0.019441716
127	0x3d5a725a	0.05333171
128	0xbdb3a44f	-0.08771574
129	0x3d9d2e39	0.07674832
130	0xbda1c1a3	-0.078982614
131	0xbd8f5288	-0.069981635
132	0x3d8922d5	0.06696097
133	0xbda102c7	-0.07861858
134	0xbc136ab0	-0.008997604
135	0x3d5e34de	0.054249637
136	0x3d00e71e	0.03147041
137	0xbd45fd15	-0.04833706
138	0x3ca958e4	0.02067227
139	0x3b351980	0.0027633607
140	0x3d55ad36	0.05216714
141	0x3d805b5d	0.06267426
142	0x3d0800ec	0.033204004
143	0x3d989a75	0.07451335
144	0xbcfd5ff2	-0.03092954
145	0xbd8f9290	-0.070103765
146	0x3ce879f8	0.028378472
147	0x3d4fec82	0.05076266
148	0x3c132ca0	0.008982807
149	0x3d631736	0.055442058
150	0xbda12898	-0.07869071
151	0xbd91fe36	-0.07128565
152	0x3d392cee	0.045208864
153	0x3d78dfea	0.060760416
154	0xbd90f199	-0.07077331
155	0x3ca90904	0.020634182
156	0xbb9c00b0	-0.004760824
157	0x3d6663ba	0.05624745
158	0xbd217020	-0.03941357
159	0x3c58f0e0	0.013241023
160	0x3c103e40	0.008803904
161	0xbd96b1f6	-0.07358162
162	0xbd62f976	-0.055413686
163	0x3c18b480	0.009320378
164	0xbb93e4d0	-0.0045133606
165	0x3d20a232	0.03921718
166	0x3d72f2d2	0.059313603
167	0x3cff2f28	0.031150416
168	0x3ae638c0	0.001756452
169	0xbd9b8ddf	-0.07595419
170	0x3d0f0ac2	0.03492237
171	0xbd1695d1	-0.03676397
172	0x3d6fa06a	0.058502592
173	0x3c649490	0.013951436
174	0xbc2c9ed8	-0.010535918
175	0xbd34b1cf	-0.044114884
176	0x3d202e56	0.03910669
177	0xbd2d5372	-0.042315908
178	0x3d7a3c46	0.061092637
179	0xbc91676c	-0.01774951
180	0xbad6f480	-0.0016399771
181	0x3c483508	0.012219675
182	0x3d821a71	0.063526995
183	0xbc001fb0	-0.007820055
184	0xbc318c08	-0.010836609
185	0xba236d80	-0.00062342733
186	0xbd911426	-0.07083921
187	0xbd52aff9	-0.05143735
188	0xbb1096a0	-0.0022062436
189	0x3cfef374	0.031121947
190	0x3d51642a	0.051120915
191	0x3c871cc0	0.016493201
192	0x3cbe115c	0.023201637
193	0xbd232124	-0.039826527
194	0x3d3dcfe2	0.04634083
195	0xbda69b52	-0.08135094
196	0x3cb2e3e0	0.021837175
197	0x3c2a3c30	0.010390326
198	0xbd92e17f	-0.07171916
199	0x3d45238e	0.04812961
200	0x3da16c2f	0.078819625
201	0x3cb6c4ec	0.022310697
202	0x3db469e9	0.08809263
203	0xbd97c6f6	-0.07410996
204	0xbca8ac50	-0.020589978
205	0x3d99d1b5	0.075107016
206	0xbcdb4332	-0.02676544
207	0x3d9ef35f	0.07761263
208	0xbd74d11b	-0.05976973
209	0xbd9d7312	-0.076879635
210	0x3be649d0	0.007027842
211	0x3d84e913	0.06489768
212	0xbc85efe4	-0.01634974
213	0x3d1cce72	0.03828282
214	0xbd5e8add	-0.05433165
215	0x3d40e586	0.04709389
216	0xbd2de8a0	-0.042458177
217	0x3cd8d624	0.026469298
218	0xbd844b28	-0.064596474
219	0x3c2d6ca0	0.01058498
220	0x3d81c437	0.06336253
221	0xbd01ef19	-0.031722162
222	0xbd89da50	-0.06731093
223	0x3d9f5c05	0.07781223
224	0x3c9be9b8	0.019032344
225	0xbbbbc410	-0.0057301596
226	0x3c45cbf8	0.012072556
227	0x3d6bf722	0.05760873
228	0xbda773c9	-0.08176381
229	0x3c58c1d0	0.013229802
230	0x3d430cbe	0.047619574
231	0xbda3f3b1	-0.08005465
232	0xbd02dbfd	-0.03194808
233	0xbc73b2c0	-0.01487416
234	0xbbd131e0	-0.0063841194
235	0x3c6f3e50	0.014602259
236	0xbd3ffe2f	-0.046873268
237	0xbd606a67	-0.054788973
238	0x3ce04f60	0.027381599
239	0xbd05a239	-0.03262541
240	0x3cdd25a4	0.026995488
241	0x3d5a4822	0.053291447
242	0xbcbc8780	-0.02301383
243	0xbd10c221	-0.035341386
244	0xbd5a20ee	-0.05325406
245	0xbd0f0561	-0.03491724
246	0x3c4dd968	0.012564041
247	0xbc98e110	-0.018662006
248	0x3bf43f10	0.0074538067
249	0x3c895dd4	0.016768374
250	0xbda39265	-0.07986907
251	0x3d8aca7b	0.06776901
252	0x3d0f973c	0.035056338
253	0x3cc3c4dc	0.02389758
254	0xbd8acc3e	-0.06777237
255	0xbcb3e5f0	-0.021960229

lstm.bias_ih_l0 f4 [512]
0	0x3c1d75d1	0.009610609
1	0xbb890c36	-0.004182364
2	0x3d4ac53b	0.0495045
3	0xbb6dca51	-0.003628392
4	0xbd3ce356	-0.046115242
5	0x3c56ae2e	0.013103051
6	0x3c5d0a9c	0.013491299
7	0x3d67c9c8	0.056588918
8	0xbd7690c1	-0.06019664
9	0x3c8d13a2	0.017221276
10	0x3c1ccb25	0.009569918
11	0xb9a6ea3c	-0.00031836506
12	0x3d745dea	0.059659876
13	0xbd321962	-0.04348124
14	0xbb9d00c2	-0.00479135
15	0xbd73ee9d	-0.05955373
16	0x3d8950cd	0.06704865
17	0x3ddd4320	0.10803819
18	0xbc591abe	-0.013251005
19	0x3d879a41	0.066212185
20	0xbd3adc1a	-0.04562006
21	0x3d53441c	0.051578626
22	0x3d808e21	0.06277109
23	0x3d5b08a6	0.053475045
24	0xbd118dfc	-0.035535797
25	0x3de67ffe	0.11254881
26	0xbcbe6a75	-0.023244122
27	0x3d0ead2a	0.03483311
28	0xbda2a445	-0.07941488
29	0xbd691ded	-0.056913305
30	0xbc9d3439	-0.01918994
31	0x3dc93e96	0.098263904
32	0x3d22e7b6	0.039771758
33	0x3d80cfbd	0.06289623
34	0xbbb83e7b	-0.0056226826
35	0x3c634fec	0.013874035
36	0xbd9b3757	-0.075789146
37	0xbd43ad6e	-0.047772817
38	0xbc306674	-0.010766614
39	0xbca83d82	-0.020537142
40	0x3cc8c186	0.024506342
41	0xbd0d281e	-0.034462087
42	0x3de80320	0.11328721
43	0x3d9ca018	0.07647723
44	0xbcc7de95	-0.024398128
45	0x3d9d7a9f	0.07689404
46	0x3d8e8ed8	0.06960839
47	0xbd284622	-0.04108251
48	0x3dc6c751	0.09705985
49	0x3d2c0c6b	0.04200403
50	0xbce8457c	-0.028353445
51	0x3ca26c81	0.01982713
52	0xbd1df64b	-0.03856496
53	0xbda8c984	-0.08241561
54	0xbccb74e0	-0.024836004
55	0x3bffb462	0.0078034857
56	0x3daec4f7	0.08533662
57	0x3da1e33c	0.0790467
58	0xbc7cac89	-0.015421995
59	0xbc9002e8	-0.01757951
60	0xbdddc5a7	-0.10828715
61	0x3d922433	0.07135811
62	0xbca342d9	-0.019929336
63	0x3cc0ce40	0.023535848
64	0x3d7071c4	0.058702245
65	0xbd9f00bd	-0.07763813
66	0x3b2a36cd	0.0025972605
67	0xbd6f89ff	-0.058481213
68	0x3d7104c3	0.05884243
69	0x3ba1a9ca	0.0049335705
70	0x3cb10906	0.021610748
71	0x3d699cf7	0.05703446
72	0xbd9763f2	-0.0739211
73	0x3da93899	0.08262748
74	0xbd718847	-0.058967855
75	0x3c993b8f	0.018705158
76	0xbce753b3	-0.028238153
77	0xbd19ea11	-0.03757674
78	0xbcee0f96	-0.029060166
79	0xbc8eefd9	-0.017448353
80	0xbcac7771	-0.021053048
81	0xbd4c63b5	-0.049899776
82	0xbbd44b5a	-0.006478709
83	0xbd27c0b4	-0.04095526
84	0x3d74a13e	0.059724085
85	0x3dc505aa	0.09620221
86	0x3d9023bc	0.07038066
87	0xbd3ceebe	-0.04612612
88	0x3dae665a	0.08515616
89	0xbc90dd59	-0.017683672
90	0x3cf1b370	0.029504508
91	0xbd7e63ea	-0.062107004
92	0x3cfe5c4d	0.031049872
93	0x3c36a39b	0.011147405
94	0xbdb7a082	-0.08966161
95	0x3d97c8f8	0.074113786
96	0x3d97c0e8	0.07409841
97	0xbd4d4b3e	-0.050120585
98	0xbcf2f24e	-0.029656556
99	0xbd474cf6	-0.04865738
100	0x3dcbe113	0.09955039
101	0x3d965c0f	0.073417775
102	0x3d9bcc51	0.0760733
103	0x3d9c02b7	0.07617705
104	0xbcc7544a	-0.024332184
105	0x3d993a7c	0.07481858
106	0xbcd3893a	-0.02582227
107	0xbcfbc8fc	-0.030735485
108	0x3dcb52df	0.09927916
109	0x3d92f0e6	0.07174854
110	0xbd08a5b1	-0.03336114
111	0x3ce6b952	0.02816454
112	0xbd9bda3d	-0.07609985
113	0xbbc62160	-0.006046459
114	0x3d6651fc	0.05623053
115	0xbd71444b	-0.05890302
116	0x3d0ab061	0.033859614
117	0x3d16b5b3	0.036794376
118	0xbd31f9e8	-0.04345122
119	0xbd8e8528	-0.06958991
120	0x3d68849d	0.056767095
121	0xbd908dd3	-0.07058301
122	0x3e04ca18	0.12967718
123	0xbd4011b3	-0.04689188
124	0xbcc5da79	-0.024152027
125	0xbd88db5f	-0.06682467
126	0xbdae5451	-0.08512176
127	0x3d0caedb	0.034346443
128	0xbd1c0d91	-0.038098875
129	0x3d90a80d	0.07063303
130	0xbbb096c0	-0.0053890646
131	0x3d6aded2	0.057341404
132	0xbca418e8	-0.020031407
133	0x3b8ecf20	0.0043581873
134	0x3d7fbcfa	0.06243608
135	0x3dabd03f	0.08389329
136	0xbd53025c	-0.051515922
137	0xbd31ad9d	-0.04337846
138	0xbcd45292	-0.025918279
139	0xbcbbbadc	-0.02291625
140	0xbd8c5ce1	-0.06853653
141	0xbd02a522	-0.031895764
142	0x3dad175d	0.08451722
143	0xbd003796	-0.03130301
144	0xbc283800	-0.010267258
145	0x3d80642d	0.06269107
146	0xbcf01cba	-0.029310573
147	0xbd4f20fa	-0.05056856
148	0xbd427cb7	-0.04748222
149	0xbd928d04	-0.07155803
150	0x3d7eaff2	0.062179513
151	0x3b437360	0.0029823408
152	0x3d941781	0.072310455
153	0xbd8440c5	-0.06457666
154	0xb7bc7000	-2.24635e-05
155	0xbcd0a2a4	-0.025468178
156	0x3d877ec9	0.06615979
157	0x39beae00	0.00036369264
158	0xbd6c4c2a	-0.057689823
159	0xbb1a2be0	-0.0023524687
160	0x3d1a3a86	0.03765347
161	0x3d5d2432	0.053989597
162	0xbd81b8ca	-0.06334074
163	0xbcbd3124	-0.023094721
164	0x3d8abde3	0.06774499
165	0x3c3cef20	0.011531621
166	0x3cb0d41c	0.021585517
167	0x3d9a5a99	0.075368114
168	0x3c26f070	0.010189161
169	0xbd7f1b7c	-0.06228207
170	0x3cfbd8e4	0.03074307
171	0xbbf65050	-0.007516898
172	0xbda11fa9	-0.07867367
173	0x3db36f3d	0.087614514
174	0xbcf50184	-0.02990795
175	0xbd30ebc5	-0.043193597
176	0x395a4000	0.00020813942
177	0x3d1d5ba2	0.038417466
178	0x3d30de8a	0.04318098
179	0xbdac1feb	-0.08404525
180	0x3d3b0086	0.045654796
181	0x3d89315b	0.06698867
182	0x3d968825	0.07350186
183	0xbd8818b1	-0.066453345
184	0x3d7db566	0.061940573
185	0x3ccbdf80	0.024886847
186	0xbd0fb7d1	-0.03508741
187	0x3c526ed8	0.01284381
188	0xbd9d270e	-0.07673465
189	0x3d826529	0.06366951
190	0xbd81128f	-0.06302368
191	0x3d175cce	0.03695374
192	0x3c5201f0	0.012817845
193	0x3db4d43d	0.08829544
194	0xbd8d662e	-0.06904255
195	0x3c8f1294	0.017464913
196	0xbd009e48	-0.03140095
197	0x3dab928f	0.08377563
198	0xbd49b394	-0.049243525
199	0x3d8c0b85	0.06838135
200	0x3d936141	0.07196284
201	0xbd228d91	-0.03968579
202	0x3a7d9580	0.00096734613
203	0x3adf4680	0.001703456
204	0xbd3f4919	-0.04670057
205	0xbd9826bc	-0.07429263
206	0x3d7d147a	0.061787106
207	0x3d462c22	0.048381932
208	0x3d4f8d4a	0.050671853
209	0x3d0296de	0.03188216
210	0xbc1f8900	-0.009737253
211	0x3d952029	0.07281525
212	0x3dabbbcd	0.083854295
213	0x3d7f30de	0.062302463
214	0x3ce4a3d8	0.027910158
215	0xbd6919fd	-0.05690955
216	0xbd9ec16c	-0.07751736
217	0xbd434309	-0.04767135
218	0x3db0c893	0.086320065
219	0x3a18b700	0.0005825609
220	0x3d4f31c2	0.050584562
221	0xbbad9950	-0.0052978173
222	0xbd10a2cc	-0.035311505
223	0xbd59f314	-0.053210333
224	0x3c3fd708	0.011708982
225	0x3c906b74	0.017629363
226	0xbd041521	-0.032246713
227	0x3db15787	0.08659273
228	0xbd762f6c	-0.06010382
229	0x3d61a1ca	0.055085935
230	0x3d8b6d9f	0.06808018
231	0xbda76a22	-0.0817454
232	0xbc9426bc	-0.018084876
233	0xbd284d79	-0.04108951
234	0x3d8eed2d	0.069788314
235	0xba6c4d80	-0.0009014234
236	0x3d881db3	0.0664629
237	0xbc8f6588	-0.017504469
238	0xbd96789c	-0.07347223
239	0x3d42884a	0.047493257
240	0xbc6d71b8	-0.014492445
241	0xbd3a6f44	-0.045516267
242	0x3db120cf	0.08648836
243	0xbb9884e0	-0.004654512
244	0xbd3936d8	-0.04521832
245	0x3ca68b2c	0.020330034
246	0xbd3ede95	-0.04659899
247	0xbd91202e	-0.07086216
248	0x3d585dfe	0.052824013
249	0xbd73debe	-0.059538595
250	0x3d1f908a	0.038956203
251	0x3da5b7a7	0.080916695
252	0x3d92e09d	0.07171748
253	0xbcb1bc34	-0.021696188
254	0xbd21f12c	-0.03953664
255	0xbd221501	-0.039570812

lstm.bias_hh_l0 f4 [512]
0	0x3c9cdea8	0.01914914
1	0x3b25c992	0.0025297147
2	0xba008316	-0.0004902346
3	0xbce5b555	-0.028040567
4	0xbcc34b79	-0.0238397
5	0x3c8fa849	0.0175363
6	0x3cac1100	0.0210042
7	0x3dc345e3	0.09534814
8	0x3d719aa1	0.058985356
9	0xbd8e4a83	-0.06947806
10	0x3cc18bc8	0.023626223
11	0xbd28a7f8	-0.041175812
12	0xbcbd75be	-0.023127433
13	0x3cbd0ae7	0.023076488
14	0x3d0d902a	0.034561314
15	0xbd1cbca2	-0.03826583
16	0x3b93280c	0.004490858
17	0x3d3d618b	0.046235602
18	0xbdb62c51	-0.088951714
19	0xbdb69bab	-0.0891641
20	0xbd95ff8a	-0.07324131
21	0xbd6ae1e6	-0.05734434
22	0xbbe27d1e	-0.006911888
23	0xbc109495	-0.008824487
24	0xbd6de1e7	-0.058076765
25	0xbcdd7462	-0.027033035
26	0x3d841464	0.06449202
27	0xbcefc8f2	-0.029270623
28	0x3c5f91b0	0.013645574
29	0x3ca0e9db	0.019642761
30	0x3d4505d3	0.048101258
31	0xbc8ba218	-0.017045066
32	0xbd26f2c6	-0.04075887
33	0x3d3b84f6	0.0457811
34	0x3ccd291f	0.025044022
35	0x3d24ecde	0.040264957
36	0xbd35a135	-0.044343192
37	0xbca765ed	-0.020434344
38	0x3bff5748	0.007792387
39	0x3c723930	0.014784142
40	0x3cf66810	0.030078918
41	0xbbc846de	-0.0061119637
42	0x3e0652fb	0.13117592
43	0x3d04bd42	0.032407053
44	0x3c9d3845	0.01919187
45	0xbc403681	-0.011731745
46	0xbdc6819e	-0.09692691
47	0x3dc6a2f0	0.096990466
48	0x3cee540d	0.029092813
49	0x3ced1893	0.028942382
50	0x3b91d4d9	0.0044504222
51	0x3b4626a7	0.003023544
52	0xbd4b1d97	-0.049588766
53	0x3c6ffa28	0.014647044
54	0x3daf8c7d	0.08571718
55	0xbd4c6da8	-0.049909264
56	0x3cc7cb2f	0.024388878
57	0xbc8a2710	-0.01686433
58	0x3cd4d187	0.025978817
59	0xbd163651	-0.036672894
60	0xbd428bf8	-0.047496766
61	0x3c1a308c	0.009410989
62	0xbd5a083c	-0.05323051
63	0x3dfa01a4	0.12207344
64	0x3ce4c0dc	0.027923994
65	0x3dc68bc6	0.096946284
66	0x3da4a7d2	0.08039822
67	0xba9b2a6c	-0.0011838204
68	0xbd83c351	-0.06433738
69	0xbc684ade	-0.014178006
70	0xbd864dd6	-0.06557815
71	0xbd22cab5	-0.039744098
72	0x3cd9ab67	0.026570989
73	0x3bfc77dc	0.007704718
74	0x3d7be5a6	0.061498307
75	0x3cf6a5ca	0.030108351
76	0x3d82b37e	0.06381892
77	0xbcd1454e	-0.025545742
78	0xbcecfe66	-0.0289299
79	0xbcc77d28	-0.024351671
80	0x3af39214	0.0018582963
81	0x3ccff9d6	0.025387686
82	0xbd4d70dd	-0.050156463
83	0xbd3bcbde	-0.04584872
84	0x3d9a8264	0.07544401
85	0xbc7b314a	-0.015331576
86	0x3da03c80	0.078240395
87	0xbceba595	-0.02876548
88	0xbbbdb35b	-0.005789203
89	0xbb149979	-0.0022674485
90	0xbda44807	-0.080215506
91	0x3d06ccaf	0.032910045
92	0xbab616f3	-0.0013892337
93	0x3d802709	0.06257445
94	0x3da4279a	0.08015366
95	0xbbe18906	-0.0068827895
96	0x3dbf5955	0.093432106
97	0xbdd7d6bd	-0.10539005
98	0xbd2970e0	-0.04136741
99	0xbd0d2eb8	-0.034468383
100	0xbc701fda	-0.0146560315
101	0xbd00cf57	-0.031447735
102	0xbd0e3719	-0.034720514
103	0xbcf2dea4	-0.029647179
104	0xbc27f3bf	-0.010250985
105	0xbd75622c	-0.059908077
106	0x3adeeca5	0.0017007781
107	0xbce93a5b	-0.028470209
108	0xbad4eedf	-0.0016245506
109	0x3d1798bf	0.037010904
110	0xbdaf0a50	-0.08546889
111	0x3c1efb43	0.00970346
112	0xbdcc4771	-0.09974564
113	0x3ce0e410	0.027452499
114	0x3dbca1fb	0.09210583
115	0x3cde4af1	0.027135344
116	0x3d5bf80b	0.05370335
117	0x3ccb4107	0.02481128
118	0xbc61fcbd	-0.013793168
119	0xbd39bbeb	-0.04534523
120	0x3c96419a	0.018341828
121	0x3d88a0a3	0.06671264
122	0x3d681390	0.05665928
123	0xbd3e9509	-0.04652885
124	0x3d1c762f	0.038198646
125	0xbd7eb6f9	-0.062186215
126	0xbd84760d	-0.06467829
127	0x3d86a84d	0.065750696
128	0x3d8a51bd	0.067538716
129	0x3daf0a9d	0.08546946
130	0x3da2e409	0.079536505
131	0xbc5fd768	-0.013662197
132	0x3bd3c130	0.0064622387
133	0x3cba041c	0.022707038
134	0xbd26c8ad	-0.040718723
135	0x3d9f679d	0.077834345
136	0x3d8dcba7	0.06923609
137	0x3bf87400	0.0075821877
138	0xbd17c174	-0.037049726
139	0xbda4a0a1	-0.0803845
140	0xbda46b4b	-0.08028277
141	0x3d9f4929	0.07777626
142	0x3d58444e	0.052799515
143	0xbdaf4bf2	-0.08559407
144	0x3cb643fc	0.022249214
145	0x3c8cb028	0.017173842
146	0x3d50c3aa	0.05096785
147	0xbc538160	-0.012909263
148	0xbc0d44f8	-0.0086224
149	0x3d3eae0a	0.046552695
150	0x3d830243	0.06396916
151	0xbd77530c	-0.060381934
152	0x3c769340	0.015049756
153	0xbd879ebd	-0.06622074
154	0x3db4bc83	0.08825018
155	0xbc8cf9a4	-0.017208882
156	0xbbf55c30	-0.0074877962
157	0xbc1709f8	-0.009218685
158	0xbd19bd99	-0.03753433
159	0xbcf111c2	-0.029427413
160	0xbc4870f0	-0.012233958
161	0xbd80e5fd	-0.06293867
162	0xbd8f3085	-0.06991676
163	0xbccf1170	-0.02527687
164	0xbd852541	-0.06501246
165	0xbbd8d960	-0.00661771
166	0x3d766d4e	0.060162835
167	0x3a45cc00	0.0007545352
168	0x3cf193a4	0.029489346
169	0xbd94f721	-0.072736986
170	0xbd0a382d	-0.03374498
171	0x3d542dee	0.051801614
172	0xbc2d4f60	-0.0105780065
173	0xbcfa332a	-0.030541975
174	0xbd4384d1	-0.047734085
175	0xbbb1c670	-0.005425267
176	0x3d83d7d5	0.06437651
177	0xbbbcedd0	-0.005765654
178	0x3d1bdd8a	0.038053073
179	0x3d18629e	0.037203424
180	0xbda41ffa	-0.080139115
181	0xbd9e0708	-0.07716185
182	0x3d2e77f2	0.042594858
183	0xbd7db4f6	-0.061940156
184	0xbd7f5b20	-0.062342763
185	0x3d75acd2	0.059979267
186	0xbc75bac0	-0.014998138
187	0xbd046e14	-0.03233154
188	0x3d956ce7	0.07296162
189	0xbb9810f0	-0.004640691
190	0x3aa8d640	0.0012881234
191	0xbd97fd40	-0.074213505
192	0xbc79bb30	-0.015242383
193	0x3cdaa10c	0.026688121
194	0x3d6720a2	0.056427605
195	0x3d205c0a	0.039150275
196	0xbd3a2535	-0.04544564
197	0x3cc443b8	0.023958072
198	0xbc141eb0	-0.00904052
199	0x3d6b4e56	0.057447754
200	0x3ce2174c	0.027599
201	0x3d1a6352	0.037692375
202	0x3d742c56	0.059612595
203	0x3cb36804	0.021900184
204	0x3d7dfa8e	0.062006526
205	0xbc917ae4	-0.017758794
206	0xbd78a87b	-0.06070755
207	0x3d9ebef5	0.07751266
208	0x3db1e70f	0.08686649
209	0x3cf2c994	0.029637136
210	0x3dac3059	0.08407659
211	0xbcd911cc	-0.026497744
212	0xbb7ada00	-0.003827691
213	0x3cd8919c	0.02643662
214	0x3d0015ae	0.031270675
215	0xbd186fa5	-0.037215848
216	0x3c267330	0.010159299
217	0x3d652172	0.0559401
218	0xbd46629e	-0.048433892
219	0xbd4d75af	-0.05016106
220	0xbd5e0c2b	-0.054210823
221	0x3d50b01e	0.05094921
222	0x3cc1443c	0.023592107
223	0xbd91ec1c	-0.071251124
224	0xbd38f6cf	-0.04515725
225	0xbd8ad35c	-0.06778595
226	0x3d38e46e	0.045139723
227	0xbd67fda5	-0.05663838
228	0x3c6ed948	0.014578171
229	0xbdafe489	-0.085885115
230	0xbb826f40	-0.003980547
231	0x3bd1f3e0	0.006407246
232	0xbd97dde8	-0.07415372
233	0x3da20ad5	0.07912222
234	0x3d0c010c	0.034180686
235	0x3da23219	0.079197116
236	0xbc8c5598	-0.017130658
237	0xbd746318	-0.059664816
238	0x3d91c08f	0.07116806
239	0xbc9eed10	-0.01940015
240	0x3c8f9ad4	0.017529882
241	0x3c6518c0	0.013982952
242	0x3d8764b9	0.06611008
243	0x3d6c7896	0.057732187
244	0xbc529cd0	-0.01285477
245	0x3d8bf525	0.06833867
246	0xbd2079a5	-0.03917851
247	0xbd7d55b6	-0.06184932
248	0x3c77a670	0.015115365
249	0x3bf354c0	0.0074258745
250	0x3d78ed0a	0.060772933
251	0xbcb22398	-0.021745488
252	0xbd94516e	-0.07242094
253	0xbc97ba48	-0.018521443
254	0xbc95c64c	-0.018283032
255	0xbd8a7b76	-0.067618296

fc.weight f4 [1, 128]
0	0xbe181fab	-0.1485583
1	0xbe33b38b	-0.17548959
2	0xbe0c67c5	-0.1371146
3	0xbdee073a	-0.11622472
4	0x3de7b4e1	0.11313797
5	0x3e3fa8e4	0.1871677
6	0x3e17fd22	0.14842656
7	0x3dc2b4e6	0.0950716
8	0x3e201aca	0.15635219
9	0x3e189db3	0.14903907
10	0xbd9fe66f	-0.078076236
11	0x3de7b539	0.11313862
12	0xbe06ca82	-0.13163188
13	0x3e131f47	0.143674
14	0xbdb2734b	-0.08713397
15	0x3dccfd9a	0.10009308
16	0xbe3f093f	-0.18655871
17	0xbe4b65eb	-0.19863097
18	0xbe206666	-0.15664062
19	0xbe1f0e1d	-0.15532728
20	0x3e12ed84	0.14348418
21	0x3dce907e	0.100861534
22	0x3e154f27	0.14580975
23	0xbde5af95	-0.1121513
24	0xbe1172f9	-0.14204015
25	0x3dcc4589	0.099742
26	0x3e123acf	0.14280246
27	0x3e11cc58	0.14238107
28	0xbe12f9f2	-0.14353159
29	0xbe1786b7	-0.14797483
30	0xbe0f882c	-0.14016789
31	0xbe19177a	-0.14950362
32	0x3e227b1e	0.15867278
33	0xbe180d43	-0.14848809
34	0xbde140f0	-0.10998714
35	0xbe0b8bef	-0.13627599
36	0xbde68f2e	-0.11257778
37	0x3e1fb708	0.15597165
38	0x3e0432fa	0.12910071
39	0x3e10e70c	0.14150637
40	0xbdbd37da	-0.092391685
41	0x3dd02b50	0.10164511
42	0xbe2b0ebf	-0.16704844
43	0x3de76fa4	0.11300591
44	0x3da1109c	0.07864496
45	0xbe3a75be	-0.18208978
46	0x3e2fa8ca	0.17154232
47	0xbddd27aa	-0.10798581
48	0x3e1cd9f7	0.15317522
49	0xbe0604d2	-0.13087776
50	0xbde01785	-0.10941986
51	0x3c6fcd13	0.014636296
52	0x3dfe46ff	0.12415885
53	0xbe023b2c	-0.12717885
54	0xbdd81701	-0.10551263
55	0xbde91452	-0.11380829
56	0xbdcf284a	-0.101151064
57	0x3e22ab4d	0.15885659
58	0x3db5497f	0.08851909
59	0xbdc6598a	-0.09685047
60	0xbdad3a21	-0.08458353
61	0xbe7a9fc6	-0.24475011
62	0xbe2477be	-0.16061303
63	0xbe1690e6	-0.14703712
64	0x3d4df3dc	0.05028139
65	0x3e63b5a1	0.22237255
66	0xbdec9a46	-0.11552863
67	0x3dd12f99	0.10214157
68	0x3dc09e16	0.094051525
69	0xbe222a5a	-0.15836468
70	0xbe15e9f9	-0.14640035
71	0xbd9b25f7	-0.075756006
72	0x3d80118b	0.06253346
73	0x3e546305	0.20740898
74	0xbe0a7eea	-0.13524976
75	0xbe203207	-0.15644084
76	0xbe2757e0	-0.16342115
77	0x3e0ea1cd	0.1392891
78	0xbe39054f	-0.18068431
79	0x3d45c0ee	0.048279695
80	0xbca5a9c1	-0.020222547
81	0x3dff3383	0.12460997
82	0xbdf398e1	-0.11894394
83	0x3dc021a4	0.093814164
84	0x3dd6e3d6	0.10492675
85	0xbdc768cd	-0.09736786
86	0xbddfeb6c	-0.10933575
87	0x3e0133fe	0.1261749
88	0xbd964b41	-0.07338572
89	0x3ded5e07	0.115902
90	0xbe062bf1	-0.131027
91	0x3db3149f	0.087441675
92	0x3e4e38db	0.20138876
93	0xbe159a19	-0.14609565
94	0xbdbaf592	-0.0912887
95	0xbdb5d486	-0.08878426
96	0x3e05f953	0.13083391
97	0xbdb12862	-0.086502805
98	0xbde331f2	-0.11093511
99	0x3dc4e243	0.096134685
100	0x3e0bb767	0.13644181
101	0xbe502494	-0.20326453
102	0xbdfee439	-0.12445874
103	0x3e473347	0.19453155
104	0xbe227033	-0.15863113
105	0x3e1229c7	0.1427375
106	0x3e30f687	0.17281543
107	0xbe185e95	-0.1487983
108	0x3e2fc8ae	0.17166397
109	0xbe0e32b3	-0.13886528
110	0xbdf81eb7	-0.121152334
111	0x3e1f9725	0.15585001
112	0xbddc47ef	-0.10755908
113	0x3e1fcf35	0.15606387
114	0xbdee1c85	-0.116265334
115	0x3e03aaf0	0.12858176
116	0xbe42da8d	-0.19028683
117	0xbda9de1e	-0.082943186
118	0x3de17c2d	0.11010013
119	0xbd8a6667	-0.06757813
120	0x3dd41ccd	0.10357056
121	0xbda681b1	-0.081302054
122	0xbe48da60	-0.19614553
123	0xbe102ae7	-0.14078866
124	0x3e1fb8f0	0.15597892
125	0x3df61917	0.12016504
126	0xbe014444	-0.12623698
127	0x3e24d608	0.16097271
